src/main/ml/12.tflite (tflite, 28724 bytes, 12 tensors)

model_12/conv2d_25/BiasAdd;model_12/conv2d_25/Conv2D;model_12/conv2d_25/BiasAdd/ReadVariableOp/resource f4 [12]
00000000: c318 f2ba 2fdf 223b 9a17 1b3d ef97 2f3c
00000010: c47f c93b 72be 88bb e2c3 63bc a5f6 97ba
00000020: 339e c23c 709f a9bc 0ff2 69bc ce52 5abb
-0.0018470514 0.0024852266 0.037864305 0.010717376 0.006149264 -0.0041730935 -0.013901683 -0.0011593892
0.023757076 -0.020705909 -0.014278903 -0.0033313516

model_12/conv2d_24/BiasAdd;model_12/conv2d_24/Conv2D;model_12/conv2d_24/BiasAdd/ReadVariableOp/resource f4 [4]
00000000: fdb9 103c f866 983a cb39 b6bb 2c8f d13a
0.008833406 0.0011627367 -0.0055610887 0.0015988103

model_12/conv2d_25/Conv2D f4 [12, 1, 11, 4]
00000000: f6b4 d2bc 6556 00be f86a ddbd 486f 4ebd
00000010: ada1 093e 2540 cd3d 1d8f fdbc cadb 143e
00000020: 2d5b 093e e7b6 30be 265e aa3d 9a41 b3bd
00000030: 4d65 8f3d f9ff b1bd 9176 143e aab0 063e
00000040: d210 df3d 5763 19be 3cfb cf3d 2c9e 9b3d
00000050: 61a6 813d 8980 e53d 9fd5 863d ca6a d33d
00000060: ef55 393e ab76 33be 0f86 05be 7ea4 f1bc
00000070: d61c 303e 7813 1a3d 7ca2 dbbd 2674 31be
00000080: b3f1 2e3e 6152 22be d56a e9bd 238b b23d
00000090: dda7 9f3d fbb5 21be 64bc ccbd b498 193d
000000a0: 1975 243e 6de5 20be 9325 2abe 92ac b7bc
000000b0: 7eff 4dbc 9e7c 10be bba1 a1bd 3319 30be
000000c0: 05f7 2cbe e649 b23d 26cd cfbd aa2c ed3d
000000d0: 5939 893d 84e5 05be 6847 633d 0626 093e
000000e0: 1ffd 44bc 0fe1 ecbd 116b 233e 9027 113e
000000f0: 4b47 d0bd 3f3d 0c3d 8a0e 593d 2a7b 253e
00000100: 7e84 363e 25f7 bbbd 9f98 79bc 3e81 89bd
00000110: 29e7 ccbd bf8d 923d dde3 c4bd 4818 0ebe
00000120: fdb8 bb3c 163c a0bd 5f9d aa3d ecfb 003e
00000130: 9928 23be c911 0b3e c601 32be 14f2 063e
00000140: b2fa d93d 7db3 1e3e 3bb6 9fbd 4120 173e
00000150: 534d f23d 9479 69bd 4e2e aebd 5cc0 103e
00000160: 6a21 03be 7bac cebd a833 cb3d a739 f0bd
00000170: 85ac 873d cd74 de3d 4eb4 debd c385 7e3d
00000180: c595 183e bb9c fbbd 5cde 223d 8ecb c03c
00000190: f9f2 3e3e 258d 063e 8877 d3bd f854 5abe
000001a0: ae0e 383d ebc7 063e 397d 7fbd 8911 333d
000001b0: 1dee 0c3d 7794 d3bd 9677 5cbe 9b11 08be
000001c0: 3272 1c3e 0c30 02be 465c e53d 6bf0 633d
000001d0: 609c 03be e137 c33d e787 37be 8d54 14be
000001e0: 52b6 bbbc 0f96 df3d 0732 03be 7c08 983d
000001f0: f797 04bd 8ecd 17be ccf2 8c3d 7019 0dbe
00000200: 88a9 173e fef5 aa3d 5a34 623d aa1e 423d
00000210: e9f1 d7bd 1d45 bb3d e79b 033e f8d9 f4bd
00000220: 2d54 963d f285 a8bd 93f6 e83d 9317 debd
00000230: c9ba a9bd 0f50 49bd cfb5 f0bd 6e2a a7bd
00000240: 1728 403d df56 873d 1428 11be e824 05be
00000250: 52c9 fd3b 20c8 523d 5c47 0d3e c660 973d
00000260: 1e92 283e 8202 edbd d9fa 0abe 0505 17bd
00000270: 974e 513d 2ffb 9e3d 9df2 04be 0d25 ce3d
00000280: d939 91bd f918 fdbb f5ad 43be 6b64 e23c
00000290: d10a c2bc 5956 4c3d 5eee 3c3d 899d c5bd
000002a0: aabe f0bd a925 e9bc 24a7 f5bd 200c 103e
000002b0: ff9a 0fbe aa5c 213d 8e46 a63c 3868 0d3e
000002c0: f608 42bc 33e2 a53d ccab a73d f818 8e3d
000002d0: 3def 3a3e 4ba2 2b3e b385 00be 3b4c cdbd
000002e0: d35f 2f3e 7ee2 853c 8faa 563d 3af8 fabc
000002f0: 31b7 f13d 46f3 8bbc 2547 84bd eda3 323e
00000300: 54ec 063d 09fe d8bd eecd 31be e794 083e
00000310: 1226 7fbd 6902 a1bc a9f5 6ebd 01f4 103b
00000320: 237f fbbc 6993 c93d 9c21 073e 1de8 d73d
00000330: e4f9 ddbd 3f73 9c3d 297a 29bd bb79 cd3d
00000340: efd2 1e3e 6334 203d b754 1a3e 34ce 4a3d
00000350: 434c 093d 499d 61bc 3774 a8bc d493 e3bd
00000360: 549a 38bd a322 11be 5ded 1d3e 112f 753d
00000370: 8431 e5bd 6c3d a83d e22f a2ba feb1 8fbc
00000380: ed75 8dbd d06e 2ebe fcf9 9bbd e226 9f3c
00000390: 9600 57bd 1a2a 213d 47d3 203e c451 e23d
000003a0: 9f64 59bd d192 24be ee72 723d 58fe 2abe
000003b0: 906c 2ebe d7d4 f8bd 41c7 f9bc 46a0 a23d
000003c0: 5b9a 373e 1742 74bd f11d 003e f56b ce3c
000003d0: a482 a1bd d505 243e 36a2 953d 443b 0f3e
000003e0: cfed 36bb 42df 32be 1ab7 cf3c b6d8 e4bd
000003f0: 41bd abbd 8f66 163e 0342 2abd 0dc2 aa3a
-0.025721055 -0.12532957 -0.10811418 -0.050399095 0.1344058 0.10022 -0.03095203 0.14536968
0.13413687 -0.17257272 0.08318739 -0.08752747 0.070017435 -0.08691401 0.14498354 0.1315333
0.1089188 -0.14979301 0.10155341 0.07598528 0.063305624 0.11206157 0.06583714 0.10323103
0.18099187 -0.17525737 -0.1303942 -0.029497381 0.171985 0.037616223 -0.10724351 -0.17329463
0.17084388 -0.15851738 -0.1139733 0.087179445 0.07795689 -0.15792076 -0.0999687 0.037499145
0.16060294 -0.15712519 -0.16615896 -0.022421155 -0.012573121 -0.14110038 -0.07892176 -0.17197113
-0.16891105 0.08705501 -0.10146551 0.115807846 0.06700391 -0.13075835 0.05548802 0.13393411
-0.012023239 -0.11566364 0.15958811 0.14175248 -0.10169848 0.034238096 0.05299238 0.16160265
0.1782398 -0.091779985 -0.015234142 -0.06714104 -0.10005028 0.07155942 -0.09613774 -0.1387645
0.022915358 -0.078239605 0.083307974 0.125961 -0.15933456 0.13581003 -0.17383489 0.13178283
0.106435195 0.15498157 -0.077984296 0.14758398 0.11831155 -0.05700071 -0.08504926 0.1413588
-0.12805715 -0.10091492 0.09921962 -0.11729746 0.06624702 0.10862122 -0.10874234 0.062139284
0.14900883 -0.12285753 0.03976284 0.023534562 0.18647374 0.1313978 -0.10325533 -0.21321476
0.044935875 0.131622 -0.06237528 0.043717895 0.03440677 -0.10331052 -0.21529993 -0.13287966
0.15277937 -0.12713641 0.111992404 0.055649202 -0.12852621 0.095321424 -0.17922936 -0.14485379
-0.022914086 0.10917293 -0.12812053 0.07423493 -0.032371487 -0.14824507 0.06882247 -0.13779235
0.14810765 0.083477005 0.055225708 0.047392525 -0.105441876 0.09144042 0.12852441 -0.11955637
0.07340274 -0.08228673 0.11375155 -0.1084434 -0.082875796 -0.049148615 -0.11753427 -0.0816239
0.046913233 0.06608366 -0.14175445 -0.1300236 0.0077449465 0.051460385 0.13796753 0.07391505
0.1646199 -0.11572744 -0.13572253 -0.03687002 0.05110034 0.07762753 -0.12983175 0.100656606
-0.07091112 -0.0077239242 -0.19109328 0.027635774 -0.023686798 0.049887035 0.046125762 -0.09649188
-0.11755116 -0.02846034 -0.1199477 0.14067125 -0.1402397 0.039395012 0.020297315 0.13809288
-0.011842957 0.08099785 0.081870645 0.06938356 0.18255325 0.16761129 -0.12551002 -0.100243054
0.17126398 0.016343351 0.05240875 -0.030635942 0.11802519 -0.017083775 -0.06458882 0.17445345
0.032940224 -0.10595328 -0.17363712 0.13338052 -0.062292166 -0.01965447 -0.05833975 0.0022118094
-0.030700272 0.098425694 0.13196415 0.10542319 -0.108386785 0.07639169 -0.041376267 0.10032984
0.15510152 0.03911246 0.15071379 0.049513057 0.033519994 -0.01377041 -0.020563228 -0.1111218
-0.045069054 -0.14173369 0.15422578 0.05985934 -0.11191085 0.0821484 -0.0012373889 -0.017540928
-0.06907258 -0.17034459 -0.0761604 0.01942772 -0.052490793 0.03934679 0.15705596 0.11050752
-0.053074475 -0.16071631 0.059191637 -0.16698587 -0.17033601 -0.12149971 -0.03049052 0.07940726
0.17929976 -0.05963334 0.12511422 0.025197962 -0.07886246 0.1601785 0.0730633 0.13987452
-0.002791274 -0.17467979 0.025355864 -0.11174147 -0.08385707 0.1468756 -0.04156686 0.0013027802

model_12/conv2d_24/Conv2D f4 [4, 4, 38, 1]
00000000: 97fa a2bd 693f 233b 53bb 7bbd 8941 ba3c
00000010: 30c3 0dbd c9dd 82bd 0f2f 733d cd38 ae3d
00000020: 954c 93bc e726 a23d bfec ebbc d3b6 933d
00000030: 2d8b 8c3d c58e 683d 49dc 8c3d cca8 873d
00000040: b605 683c 5e3a 883d dd9b 333d 8029 9dbd
00000050: fd74 40bd 7d74 ce3c e475 2d3d a4d7 2bbd
00000060: 9a2a 713d 3a80 133d 2829 bebc cc75 9fbd
00000070: 1c9b 4d3d 99c5 7a3c f4dd bf3c 5d2a 783c
00000080: 9537 46bd 957b 42bc 636c 99bd 52a7 95bd
00000090: b42d be3b 95b1 313d bd06 733c 15fd 293d
000000a0: 93fc b53c f5e8 e9bc ea45 bb3d 58dc 01bd
000000b0: 4f29 923d d3bc a63d f7ca c13d aa94 ab3d
000000c0: c0f0 1bbd 6c10 433c d492 363d cc21 bb3c
000000d0: fe4f 683d 9bdc 4a3d 7da5 5fbd 6c71 b43d
000000e0: 36b7 ad3d d7be 903d 328b 683d 757c 2d3d
000000f0: 58c8 993b 1237 28bd f028 0ebd e386 4f39
00000100: 4d9b 5b3d 8174 0c3d c536 4abc eb0f 84bd
00000110: a7a4 be3d 1d69 243d a271 7dbd 97f8 aebc
00000120: 7d93 c03d e06b 883c 2a15 1abd 7919 e13b
00000130: 2207 863c 03f5 46bd 4d12 9d3d a052 dabc
00000140: 5023 21bd f9d3 65bd 4c21 6dbd d473 2b3c
00000150: 65f6 c33d 30fb 683d f338 c33d f16c a13c
00000160: ee7a 00bd 724a bbbc f022 f03b 18ba dcbc
00000170: 8ad8 833d ae03 9f3d a57a 34bb 5495 f83c
00000180: 8df6 af3d 4b9e c9bc 0ecc 2f3d 5e72 c73d
00000190: c880 6e3d f756 983d 8377 64bd 142c dd3c
000001a0: 7830 873c 309b b3bc 6622 5ebd 2623 b73d
000001b0: 7ec7 783c d532 723d 7c45 c53d ef34 53bd
000001c0: 03ac de3c e90b 733d 4abf 79bd 7770 57bd
000001d0: 7d7c 66bd 5159 67bc fd10 863d 6e16 a33d
000001e0: f1e6 803d d358 8dbc a07f a03d d47e c43d
000001f0: 9e56 9c3d 4411 a83d 4074 9cbd 60b7 623d
00000200: f14f b83b 8e74 91bd 066f 90bd 7748 4e3d
00000210: cd7f 8dba 8d6a 653c 7fb6 99bd 37e7 a13d
00000220: ffa3 47bd 672e b23d 26fc 003a 1cbc 64bd
00000230: fd4a 3c3c 1d04 ad3d 00fd 733d 95bb aa3d
00000240: a4a3 1d3d 4918 903d 26a0 93bc 679f 743b
00000250: ff2c 24bd c02b 5fbd 6b4d 4f3d 6779 79bd
00000260: d34b c23b 0568 163c 1739 cb3c b2d2 fdbb
00000270: 26a3 8bbd 4a93 f13c 510c 6a3d 7979 64bd
00000280: edaa 483d 69b5 bb3b c343 8e3b 1f6b d2bb
00000290: 70b2 853d df41 493d b07b 5d3d 4681 b03d
000002a0: 2385 9dbd 69d7 ee3c ef05 083d 59b4 83bd
000002b0: 7a3a 8b3c 47a2 0c3d b4dc 243d 213c 78bc
000002c0: c87a 15bd 0afa 133d 4c9a b63d 0e7b c53d
000002d0: a777 6bbd 2b7c 30bd ee7b ba3d dfaa 2fbd
000002e0: e55f 2bbd 3127 633d 55c3 8a3d 10ea f1bc
000002f0: 2b28 96bd 0c18 8c3d 9e39 a4bd 4ecd 73bd
00000300: 5ee6 993d 2fb5 0abc 97ad ac3d 4d6d d13c
00000310: 5a87 51bd 971d a6bd 0583 593d 5260 f53c
00000320: 77ec 8f3d c6ef bbbc e14d 323c e08f 60bd
00000330: 1523 4ebc b779 f43c f633 243d dd8b d0bc
00000340: 1c37 393b e840 5abd 4e85 873d ee11 403d
00000350: d236 39bb 8e32 1cbd 015a e13c b26b 873d
00000360: 9ec4 8e3c ebee 4abd ffae 8a3d af98 9fbd
00000370: d4c8 6cbd 6881 c83c 19fd 6f3c 7097 43bd
00000380: d3f4 89bd 77da abbd eaf2 88bd 63c4 8f3d
00000390: c331 773d 1052 0a3c fbd5 27bd c48c 233d
000003a0: a0d2 87bb 6602 96bd b346 9bbd 1e2c aa3d
000003b0: 3af3 373c 928c 92bd 5c33 adbd d1b4 0cbd
000003c0: 53cd 183d 162a cdbc 871e 98bc 6dd7 7d3c
000003d0: 1ddd ecbc 6fac 823c ed76 84bd b452 8ebd
000003e0: 30c0 b03c cae3 f1bc ffbd 7cbd 8ece a3bd
000003f0: 12dd 1c3d f6f9 1cbd f297 9abd 6a45 883d
-0.079579525 0.0024909622 -0.061457943 0.022736328 -0.034609973 -0.063899584 0.05937105 0.08506928
-0.017980853 0.07917576 -0.028799413 0.07212605 0.06862483 0.05677678 0.068779536 0.06623992
0.014161518 0.06651758 0.043849815 -0.07673931 -0.04698657 0.02520203 0.042348757 -0.041953698
0.05887852 0.03601096 -0.023212984 -0.0778614 0.050196752 0.0153059 0.023421265 0.015146819
-0.04839285 -0.011870285 -0.07491376 -0.073073044 0.005803788 0.043382246 0.0148331495 0.041501123
0.022215163 -0.028553465 0.091441944 -0.031704277 0.07136785 0.08141484 0.094625406 0.08377965
-0.038071394 0.011905771 0.04457362 0.022843264 0.05671691 0.049526792 -0.05460118 0.08810696
0.0848221 0.0706765 0.056773372 0.04235502 0.0046930723 -0.041068144 -0.03470701 0.00019791308
0.053614903 0.034290794 -0.01234216 -0.064483486 0.09308749 0.040139306 -0.061875947 -0.021358771
0.09403131 0.016653001 -0.03761784 0.0068694917 0.016360823 -0.048573505 0.07669506 -0.026650727
-0.039340317 -0.056110356 -0.057893082 0.010464627 0.095684804 0.056880176 0.095323466 0.019705268
-0.031367235 -0.022862647 0.0073283836 -0.026944205 0.06437786 0.07764374 -0.0027538922 0.030344643
0.08591948 -0.024611613 0.04291921 0.09738611 0.058228284 0.07438462 -0.055778038 0.026998557
0.016502604 -0.021924585 -0.054232024 0.08942251 0.015184281 0.05913051 0.09632394 -0.051564153
0.027181631 0.05933753 -0.060973443 -0.05259749 -0.056271065 -0.014120416 0.06546209 0.079632625
0.062940486 -0.017254269 0.078368425 0.09594503 0.076337084 0.08206418 -0.076393604 0.05535066
0.005624764 -0.07102309 -0.07052426 0.050362077 -0.0010795534 0.0140024545 -0.075055115 0.07905429
-0.048740383 0.08700257 0.00049203855 -0.055843458 0.011492488 0.0844805 0.05956745 0.0833656
0.038486138 0.07035882 -0.0180207 0.0037326457 -0.040081974 -0.054485083 0.05061094 -0.060906794
0.005929449 0.009180074 0.024807496 -0.007746064 -0.068182275 0.029489178 0.057140652 -0.055779908
0.048991133 0.005728413 0.004341574 -0.0064214612 0.06528175 0.049135085 0.054073036 0.08618407
-0.076914094 0.02915545 0.033208784 -0.06430883 0.016995657 0.034334447 0.04024954 -0.015151055
-0.036494046 0.036127128 0.089161485 0.096426114 -0.057487156 -0.043087166 0.09105669 -0.042887565
-0.0418395 0.055457298 0.06775538 -0.029530555 -0.0733188 0.06840524 -0.08018802 -0.059521966
0.07514642 -0.008466049 0.08431547 0.025564814 -0.051154472 -0.081111126 0.053103466 0.029953156
0.07027524 -0.022941481 0.010882826 -0.05482471 -0.012581606 0.029843194 0.040088616 -0.025457317
0.0028261608 -0.053284556 0.06617223 0.0468921 -0.0028261435 -0.03813415 0.027508738 0.06612338
0.017427739 -0.049544256 0.06771659 -0.07792794 -0.057808712 0.024475768 0.0146477455 -0.047751844
-0.0673615 -0.08391278 -0.06686957 0.0701988 0.06035019 0.008442417 -0.040975552 0.039929166
-0.0041449815 -0.07324676 -0.07581844 0.08309196 0.011227423 -0.07155718 -0.08457062 -0.034352127
0.037305187 -0.025044482 -0.018569244 0.015493256 -0.028914029 0.015951363 -0.06467996 -0.06949368
0.021576017 -0.029527564 -0.061704632 -0.079983816 0.038296767 -0.03832432 -0.075485125 0.06653865

model_12/dense_24/BiasAdd/ReadVariableOp/resource f4 [10]
00000000: 28ba 25bc 330c aa3c aa2f 0cbc 0f7e d33c
00000010: 5b53 bcbc 9d51 eebb 50a7 d6bb 5ce7 80bc
00000020: fc7e d9bb e605 183b
-0.010115184 0.02075777 -0.008556286 0.025816945 -0.022988966 -0.0072729127 -0.006550707 -0.01573532
-0.006637452 0.0023196875

model_12/layer_normalization_36/add/ReadVariableOp/resource f4 [4]
00000000: d233 253c b4cf 5e3c 2e11 c5ba dd52 753b
0.010083156 0.013599325 -0.0015035027 0.0037433424

model_12/layer_normalization_36/mul_4/ReadVariableOp/resource f4 [4]
00000000: c24c 813f 8088 7c3f e1fb 7f3f 5c76 7e3f
1.010155 0.9864578 0.9999371 0.9939935

model_12/layer_normalization_37/add/ReadVariableOp/resource f4 [12]
00000000: 60e2 81bb 8fe9 083a b9b0 8b3c b799 883c
00000010: 17f7 213b 6b74 6ebb ba13 9bbc b4f9 c3ba
00000020: ffe0 503c 38ae 07bc 30c9 65bc 9a6a 2e3b
-0.0039637536 0.0005222791 0.017052041 0.01667486 0.0024713927 -0.0036385308 -0.018930305 -0.0014951737
0.012748956 -0.008281283 -0.014025018 0.0026613832

model_12/layer_normalization_37/mul_4/ReadVariableOp/resource f4 [12]
00000000: 1534 7f3f a775 7f3f 1f26 7e3f f700 7c3f
00000010: c175 7e3f 4d61 803f 4ae9 823f 1685 7f3f
00000020: 6632 803f 6a78 813f 7624 7f3f 8031 7f3f
0.99688846 0.997889 0.9927692 0.9843897 0.9939843 1.0029694 1.0227444 0.9981245
1.001538 1.0114872 0.9966501 0.99684906

model_12/layer_normalization_38/mul_2/ReadVariableOp/resource f4 [10]
00000000: 726d 7c3f 8454 763f 705f 7a3f afe2 7e3f
00000010: 1eb4 803f 2038 7d3f d02e 733f f973 803f
00000020: a196 783f 9079 783f
0.986045 0.9622271 0.97801876 0.9956464 1.0054967 0.98913765 0.94993305 1.0035392
0.9710484 0.9706049

model_12/dense_24/MatMul f4 [10, 228]
00000000: aca1 acbd 5aaf 8bbd 4898 cbbd b659 b6bc
00000010: b00d f0bd 2e1d a5bd 2917 0c3e f24b 3fbb
00000020: fb00 20be 48e8 a93d 74a4 fdbd f58f 433d
00000030: 075d 00be 140e 61bd fa3c c1bd 97c9 da3d
00000040: 7356 8bbb 1438 76bd 0642 2a3e d841 0ebc
00000050: 596e c03d 1a2e 11be 6bc5 1b3d ff27 e1bd
00000060: 7621 b13d 26d2 f9bb b772 b7bd 7360 013d
00000070: ca2e 1a3e 2f26 0ebd b93b a0bd f6fa a3bd
00000080: 7ea0 18be 448c 9abd 7136 5f3d f2b7 f5bd
00000090: e1cc 713d 0bf4 023e 0dc2 3bbd 1876 1c3e
000000a0: 94a5 82bc b372 bdbc cdab 203e 274b cbbd
000000b0: 1cb6 7cbd 41db 3abc 3909 ebbd 01ae 8ebd
000000c0: 8f8b 54bd 33fb 2b3e d32f cc3d e1c9 fbbd
000000d0: 4dda 253e babe ee3d 675d b5bd 4b0a be3d
000000e0: ea51 513d 5284 3cbd cf33 e43d 0064 17be
000000f0: 2b2d e23a 2a61 f1bd 1fe4 9f3d 9b5e ffbb
00000100: be5d a93d eb9d 8dbd 1edc 79bd 48a9 1e3e
00000110: 0b90 6abb b4ae c23d 3d98 fabd 30a6 0bbd
00000120: e35b 643d 9bd2 86bb 83de cf3c da02 11be
00000130: deec 143e c543 0fbe 5493 1b3c 8433 77bd
00000140: f69d 153e 652f efbd fc72 6fbd 205d 1bbd
00000150: eecb 15be a97b 4e3d 4f7f ee3d 6dd1 e7bd
00000160: a137 0bbd 0fad 86bd dae5 38bc e8d9 11bd
00000170: 0847 383d 13e5 f63d 9be7 e4bd 8efa 233d
00000180: bd07 1a3d f427 503c 64cf d6bd 0531 ecbd
00000190: f574 de3d 7e04 e0bc 6ff5 b83c ee94 023e
000001a0: 4f3b c13d 479e bbbd 5091 36bd 347c 063e
000001b0: 9a2b 18be d5fd 11be 7316 973c 6216 03be
000001c0: 4af1 093d 5c04 903d 2dbb 013e 6d6b a43c
000001d0: 3591 d13c d7a3 043e dc5b 2bb8 669c 44bd
000001e0: 8d96 39bb 5c78 a3bc 8d96 16be 7e9f 6abc
000001f0: e2f0 afbd b401 1e3d 4eeb a43d a8d7 263d
00000200: bd85 c23d 3a92 b1bd 65f5 86bd e689 0cbe
00000210: f62b 20be 1087 ffbd c31b 10be 7fca 00be
00000220: 042c adbd fbab 9a3d db12 963d 91a2 1c3e
00000230: ac49 0e3e a38c d4bd f50c c2bd 50ad fe3d
00000240: 5b86 0ebe 8cd3 9fbd 40aa 3dba fec0 9d3d
00000250: 4409 15be 0683 8ebd 9750 c2bc 58bd 1cbd
00000260: 84bb 17bd 8b7f d33d 8556 8b3d 86a5 cf3d
00000270: db3e 16bd 00d1 dabd 3356 e3bd 13e5 7dbd
00000280: 5c8c 973c 8a97 37bd 2c92 513d f70a 683c
00000290: 5759 f1bd e3e0 7dbd d1e1 d03d f887 e2bb
000002a0: aaf3 c63c 26be be3c b767 04be c8c5 763c
000002b0: 8042 fabc 3a90 273c 6879 c0bd d553 05be
000002c0: c4a6 b1bd 0e8b 8abc 7214 0a3d 5bd4 1b3e
000002d0: ca6e 09be 2272 a6bd e3e3 163d 97e0 f1bd
000002e0: c21f a7bd 1ceb 0a3b 5ba6 ef3c 1ece 20ba
000002f0: 0a2b 05be 7d3f 173d 5031 3cbd 5f86 c93d
00000300: 9062 e13d d7df 0e3d c0af 4a3d 053b 06be
00000310: f5c1 4bbd 4426 29bd aec2 b4bd 4bdd 913d
00000320: 330c 4ebc 6034 b53d bf75 ea3d 373e 153e
00000330: 4d35 bfbd 68a9 6b3d e5cb a9bc cade e43d
00000340: 43ed d43d 0c8e 3a3d 9b9f 2d3d c0b3 683d
00000350: b0c1 b73d 62e2 513d 7438 90bd bad9 d53d
00000360: 0928 993d 0e28 36bd 77ef 443d 6bc7 93bd
00000370: ef93 0ebe c5f0 02be 1396 b4bd 5c0c ad3d
00000380: a814 d73b a3e4 713d 490e ecbc 72c7 d73d
00000390: 9fb6 b6bd 58ba 763c 5fee 173e 3f56 1abd
000003a0: 1bc9 c33d 7969 92bb 88a9 1ebe 8073 f53c
000003b0: 56eb a73d 2538 583d bf7e 243d e7fb 97bb
000003c0: ddef a93d eecf 97bd dc3e d43b 0380 82bc
000003d0: c928 11be a6f5 28be c5a4 a9bd 4f1f 893c
000003e0: cdeb 0a3d 9f02 e3bc 6363 1fbe 3419 933d
000003f0: e1a8 163e 5808 a03d 4469 babd 1c32 0a3e
-0.08429274 -0.06820555 -0.09941155 -0.022259574 -0.11721361 -0.08062206 0.1368071 -0.0029189554
-0.15625374 0.08296257 -0.123848826 0.04774471 -0.12535487 -0.054945067 -0.094354585 0.106829815
-0.004252249 -0.060112074 0.16626748 -0.008682691 0.09396047 -0.14177743 0.03803007 -0.10993957
0.0864896 -0.0076239286 -0.08957427 0.03158612 0.15056911 -0.034704383 -0.07823891 -0.080068514
-0.14904973 -0.07546285 0.05449528 -0.119979754 0.05903328 0.12788408 -0.045839358 0.15279424
-0.015948094 -0.023125982 0.15690537 -0.099264435 -0.06169711 -0.011404813 -0.114763685 -0.06966782
-0.051890906 0.16795044 0.09970059 -0.12294365 0.16196556 0.11657472 -0.08855706 0.09279307
0.05110351 -0.046024628 0.11142694 -0.1478424 0.0017255893 -0.11786111 0.078071825 -0.0077932603
0.08269833 -0.06914886 -0.061000936 0.15494263 -0.0035791423 0.09505978 -0.122360684 -0.034094036
0.055751693 -0.0041144616 0.025374657 -0.14161244 0.14543483 -0.13990696 0.009495575 -0.060351864
0.14611039 -0.11678962 -0.058459267 -0.037930608 -0.14628574 0.0504109 0.11645376 -0.11319242
-0.0339886 -0.06575977 -0.01128527 -0.035608202 0.044989616 0.12055411 -0.11176988 0.04003387
0.037605036 0.012704838 -0.10488775 -0.11532787 0.108621515 -0.027345892 0.02257797 0.12752125
0.0943514 -0.091610484 -0.044572175 0.13133317 -0.14860383 -0.14256985 0.018443322 -0.12801507
0.033677377 0.070320815 0.12669058 0.020070756 0.025581935 0.12953125 -4.0855128e-05 -0.048000716
-0.0028318495 -0.019954853 -0.14705868 -0.014320252 -0.085908666 0.038575843 0.08052693 0.04073301
0.09498165 -0.08670469 -0.06589774 -0.13724479 -0.1564177 -0.12476933 -0.1407309 -0.12577246
-0.08455661 0.07552334 0.07327815 0.15296389 0.13895291 -0.10378387 -0.094751276 0.124354005
-0.1391844 -0.07804021 -0.0007235147 0.07702826 -0.14554316 -0.069585845 -0.023720069 -0.03826651
-0.037044063 0.10327061 0.06803612 0.10138993 -0.036681037 -0.10684395 -0.111004256 -0.06198604
0.018499546 -0.044822253 0.05116479 0.0141627705 -0.11784618 -0.061982047 0.10199321 -0.0069131814
0.02428611 0.02328403 -0.12930189 0.015061803 -0.030549288 0.010227257 -0.093981564 -0.1302026
-0.08674386 -0.01691201 0.033710904 0.15217726 -0.13421169 -0.08127238 0.036838423 -0.11810415
-0.08160354 0.0021197265 0.02925413 -0.00061342295 -0.130047 0.03692578 -0.045945466 0.098400824
0.110051274 0.03488144 0.049484015 -0.13108452 -0.04974552 -0.04129626 -0.08826195 0.071222864
-0.012576151 0.0884788 0.114482395 0.14574514 -0.09336338 0.057534605 -0.020727107 0.11175306
0.103968166 0.045545623 0.04238854 0.056812048 0.0897249 0.051241286 -0.070420176 0.10441919
0.07478339 -0.044471793 0.048079934 -0.0721577 -0.1392362 -0.12787159 -0.08817687 0.08449623
0.0065637417 0.059055936 -0.028815405 0.10536088 -0.08921551 0.015059076 0.14837025 -0.037679907
0.09559842 -0.0044681397 -0.15494359 0.029962301 0.08199184 0.05278792 0.040159937 -0.0046381834
0.082977034 -0.07412706 0.00647722 -0.015930181 -0.14175715 -0.16499957 -0.082833804 0.016738562
0.033916283 -0.02771121 -0.15565257 0.071825415 0.1471286 0.078140914 -0.09102109 0.13495678

model_12/dense_25/MatMul f4 [1, 10]
00000000: 9721 843e 4324 893e b4fe 303f 11e8 3b3d
00000010: cdea 5b3e c768 f03e 0f43 02bf 3945 a83e
00000020: 6655 1bbf 8e41 2cbf
0.25806877 0.26785478 0.69138646 0.045875613 0.21476288 0.4695494 -0.50883573 0.32865313
-0.6067718 -0.6728753
