src/main/ml/15.tflite (tflite, 28724 bytes, 12 tensors)

model_15/conv2d_31/BiasAdd;model_15/conv2d_31/Conv2D;model_15/conv2d_31/BiasAdd/ReadVariableOp/resource f4 [12]
0.010011466 -0.022107877 0.005720551 0.010323805 0.0051926333 0.006924238 -0.007159833 -0.0077384543
0.009182438 -0.0023908115 0.0018307453 -0.0069416035
00000000: 2207 243c 941b b5bc 7673 bb3b 2d25 293c
00000010: f726 aa3b b8e4 e23b 089d eabb dc92 fdbb
00000020: f071 163c 29af 1cbb 9ef5 ef3a 6476 e3bb

model_15/conv2d_30/BiasAdd;model_15/conv2d_30/Conv2D;model_15/conv2d_30/BiasAdd/ReadVariableOp/resource f4 [4]
0.006067303 -0.010358847 -0.0064686732 -0.0048014703
00000000: 3ad0 c63b 27b8 29bc 2af7 d3bb a755 9dbb

model_15/conv2d_31/Conv2D f4 [12, 1, 11, 4]
-0.05281027 -0.057027854 0.07450492 0.110647686 0.074904926 0.096338354 -0.08995932 0.046100646
0.06498295 0.09853309 0.1429601 0.10819183 -0.09005339 -0.121263795 -0.10113433 -0.06953966
0.16025008 0.041913476 0.14255017 -0.10612929 0.15826082 0.09186266 0.13756445 -0.009044492
0.040374786 -0.19334005 -0.17163314 0.1659263 -0.09245199 0.1076408 0.026363704 -0.085036784
0.023797156 -0.103649125 -0.008697244 -0.1273539 0.08571379 0.0024398582 0.1112628 -0.09290745
-0.11146146 -0.09754478 0.093022846 -0.1741609 0.06885578 -0.13898315 -0.18208218 0.13809982
-0.16340354 -0.090753935 -0.16933708 0.16142763 -0.007376535 0.20053059 0.12130709 0.15290758
-0.18550615 0.21032885 -0.04835415 0.11610626 -0.16777414 -0.1059292 -0.07764565 0.16655153
0.14848194 -0.12322275 -0.01274421 -0.0037891068 0.079838745 -0.08688569 0.16013263 0.0009757769
-0.0048001437 0.19973283 -0.111601986 -0.050187744 0.16487278 0.18244627 -0.12423235 0.18501349
0.085335255 -0.12451173 0.09131365 -0.032770373 0.008779658 0.19658808 -0.050575208 -0.07767356
0.1207772 0.11132529 -0.16782732 -0.013636372 -0.08447118 0.006477133 0.040103238 0.036820967
-0.1104052 -0.15756008 -0.031795368 -0.14015895 -0.15274945 -0.14209801 0.06305557 -0.029842075
0.15069796 -0.17317595 0.100082 -0.17195626 -0.118960574 0.11106798 0.12017887 0.14982247
-0.011269434 -0.16827564 -0.07797746 0.046116408 0.045738008 -0.10708758 -0.029034996 -0.18061036
0.14821495 0.0020190075 0.13182198 -0.1528047 -0.076795295 0.0078266645 -0.13256475 0.13442154
-0.039892692 -0.004911526 -0.1673105 0.15692171 0.030837579 0.1012575 -0.14099145 -0.1470986
-0.11518618 -0.14522897 0.03425643 -0.1237435 -0.14137557 0.17015664 0.19000784 0.053957064
0.1094956 -0.1835067 0.0019635754 -0.009210907 0.16608664 -0.17182001 0.17663196 -0.13713306
-0.114770934 0.086921684 0.14599638 0.11218137 -0.12174466 -0.13464163 -0.091390625 0.060548328
0.054342467 0.11812564 -0.08337679 -0.066947535 -0.10020109 -0.07895757 -0.17096317 0.038941458
0.15001357 -0.064120226 -0.1516471 -0.08442127 0.11712447 -0.052026883 -0.1410413 -0.087588444
-0.16458714 0.07708354 -0.07185616 0.10319233 -0.13736568 0.06828031 -0.10138941 -0.125401
-0.12091403 -0.1179263 0.11658569 -0.12329215 0.14927882 -0.14458758 0.0074964683 -0.158564
0.11420026 -0.010593623 0.012040319 -0.09418006 0.14933789 -0.18172829 0.12659177 0.003576502
0.020521117 -0.060523707 -0.060730036 -0.14590853 0.008736245 0.023104982 -0.10946603 -0.09250539
-0.18147255 0.16241331 -0.11416763 0.04311145 0.11381437 0.058026873 0.14336742 -0.12884931
-0.07516857 -0.062196337 0.069540545 0.046482246 -0.10909378 -0.0018925254 0.070945054 0.12769155
0.06066558 -0.05825474 0.13709664 0.12195267 -0.17700174 0.025496455 -0.004987742 0.07422003
-0.019095795 0.054688007 -0.0009727475 -0.14945048 -0.12080265 0.06878965 0.050268494 0.16031078
-0.055309653 0.038086046 -0.17495064 0.09077583 0.17332023 0.10154989 0.14579459 -0.045131095
-0.19168444 -0.033719942 -0.1558926 0.08303487 -0.1688842 -0.12634942 0.16105826 0.12234043
00000000: 954f 58bd 0a96 69bd 0996 983d 419b e23d
00000010: c167 993d 0b4d c53d 983c b8bd 08d4 3c3d
00000020: c815 853d b7cb c93d 2264 123e ae93 dd3d
00000030: e96d b8bd 2759 f8bd 841f cfbd cf6a 8ebd
00000040: 9918 243e 77ad 2b3d acf8 113e 505a d9bd
00000050: 200f 223e 7e22 bc3d b2dd 0c3e 592f 14bc
00000060: 0860 253d effa 45be 99c0 2fbe 96e8 293e
00000070: 7857 bdbd c872 dc3d b2f8 d73c c427 aebd
00000080: 41f2 c23c fe45 d4bd e37e 0ebc 1069 02be
00000090: b68a af3d 07e6 1f3b c0dd e33d 4346 bebd
000000a0: e845 e4bd 8fc5 c7bd c382 be3d 3c57 32be
000000b0: 4204 8d3d 9951 0ebe c073 3abe 0a6a 0d3e
000000c0: 4253 27be 33dd b9bd b366 2dbe 494d 253e
000000d0: dcb6 f1bb e457 4d3e da6f f83d ce93 1c3e
000000e0: 53f5 3dbe 7260 573e 000f 46bd 1ec9 ed3d
000000f0: fccc 2bbe 69f1 d8bd af04 9fbd 7c8c 2a3e
00000100: a60b 183e 365c fcbd 17cd 50bc aa52 78bb
00000110: 7f82 a33d 20f1 b1bd cff9 233e 47cb 7f3a
00000120: 864a 9dbb c386 4c3e 958f e4bd aa91 4dbd
00000130: 69d4 283e 32d3 3a3e 886d febd 2d74 3d3e
00000140: 40c4 ae3d 0200 ffbd a702 bb3d 3a3a 06bd
00000150: 8ed8 0f3c 634e 493e f327 4fbd 5113 9fbd
00000160: 095a f73d 83fe e33d edda 2bbe 176b 5fbc
00000170: 3aff acbd 213e d43b 4b43 243d 95d1 163d
00000180: 1f1c e2bd 6e57 21be dc3b 02bd d485 0fbe
00000190: 5a6a 1cbe 2482 11be 4723 813d 5e77 f4bc
000001a0: 9150 1a3e 0955 31be cbf7 cc3d 4d15 30be
000001b0: 9aa1 f3bd 9c77 e33d 5720 f63d 106b 193e
000001c0: 6fa3 38bc 7350 2cbe a6b2 9fbd 8fe4 3c3d
000001d0: c757 3b3d bc50 dbbd cdda edbc ecf1 38be
000001e0: a9c5 173e 5351 043b 57fc 063e d678 1cbe
000001f0: da46 9dbd 693b 003c 0ebf 07be cda5 093e
00000200: 8566 23bd def0 a0bb 7253 2bbe 16b0 203e
00000210: 179f fc3c 1860 cf3d 1060 10be 04a1 16be
00000220: bbe6 ebbd e7b6 14be 7850 0c3d 3b6d fdbd
00000230: c2c4 10be 8b3d 2e3e 6a91 423e 1502 5d3d
00000240: 3b3f e03d 2ee9 3bbe 54af 003b 58e9 16bc
00000250: 9e12 2a3e 96f1 2fbe 02df 343e 9c6c 0cbe
00000260: 060d ebbd ff03 b23d 1380 153e 59bf e53d
00000270: 4455 f9bd 7fdf 09be 022b bbbd 8601 783d
00000280: 3596 5e3d dbeb f13d 73c1 aabd ca1b 89bd
00000290: 3b36 cdbd 82b4 a1bd f810 2fbe 1481 1f3d
000002a0: 289d 193e 7751 83bd 6149 1bbe 0fe5 acbd
000002b0: f4de ef3d 241a 55bd 216d 10be 9261 b3bd
000002c0: 8889 28be fadd 9d3d 5329 93bd 8056 d33d
000002d0: 97a9 0cbe 8cd6 8b3d 40a5 cfbd 1f69 00be
000002e0: c6a1 f7bd 5883 f1bd 7ac4 ee3d 9880 fcbd
000002f0: 8cdc 183e c40e 14be efa4 f53b 9a5e 22be
00000300: d3e1 e93d e090 2dbc c244 453c 7ae1 c0bd
00000310: 08ec 183e fb16 3abe 46a1 013e bf63 6a3b
00000320: e71b a83c b5e7 77bd 0fc0 78bd 0c69 15be
00000330: 7822 0f3c a946 bd3c ba2f e0bd 7773 bdbd
00000340: f1d3 39be ad4f 263e b8d0 e9bd a295 303d
00000350: 8217 e93d 96ad 6d3d e9ce 123e 13f1 03be
00000360: fbf1 99bd 96c1 7ebd 466b 8e3d 2b64 3e3d
00000370: 8f6c dfbd 9d0e f8ba a44b 913d 93c1 023e
00000380: 797c 783d 869c 6ebd 1063 0c3e 52c2 f93d
00000390: f23f 35be f1dd d03c 3670 a3bb ac00 983d
000003a0: c96e 9cbc 8800 603d fbff 7eba 8c09 19be
000003b0: 6167 f7bd 97e1 8c3d 56e6 4d3d 8228 243e
000003c0: 608c 62bd 1d00 1c3d 4326 33be aee8 b93d
000003d0: dc7a 313e 64f9 cf3d 2d4b 153e 62db 38bd
000003e0: ed48 44be ec1d 0abd 4fa2 1fbe 300e aa3d
000003f0: fbef 2cbe be61 01be 75ec 243e 9f8d fa3d

model_15/conv2d_30/Conv2D f4 [4, 4, 38, 1]
0.023634808 0.034969397 0.06502616 0.046749286 -0.077690065 -0.018302228 0.085413955 0.05809872
-0.01961104 -0.072921336 -0.042721648 0.09315635 0.0018106069 -0.023778107 0.049089607 0.010835387
0.04618266 -0.01115859 0.0027124484 0.0003262453 0.02414094 -0.0077502145 0.06699193 0.07358311
0.07328196 0.059347633 -0.01467841 -0.06595523 0.09253193 -0.024093749 -0.03379132 0.079185456
0.060485262 -0.02737703 -0.07236885 0.05958565 0.05146965 -0.052615393 -0.023604538 -0.029944835
0.09321954 0.06348698 0.09238657 0.09214124 -0.01287714 0.054251827 -0.072092034 -0.032863773
-0.066690415 0.027721403 -0.086114705 -0.0074373474 -0.04115572 -0.045117777 0.093197815 0.032173265
-0.03939611 -0.0283098 -0.025603944 -0.023013605 -0.073407404 -0.078093864 -0.058155224 -0.087158665
-0.029227434 -0.08140277 -0.07455765 -0.024289742 -0.043501236 0.008437096 0.05013024 -0.007249592
0.021099407 -0.062094893 0.08681757 -0.04428543 0.08440842 -0.04370246 -0.025576925 -0.025695046
-0.06384021 -0.021265674 0.027302312 0.018855156 0.06196218 -0.036506474 0.08622113 0.01758731
0.040663894 0.05188677 0.017297199 0.050466992 -0.0406194 -0.020137502 0.040291157 0.004879508
0.031424165 0.054373298 0.022406543 -0.0036796639 0.027581748 0.026731165 0.03550072 -0.021900015
0.014309165 -0.020038357 0.027911272 0.043473847 -0.0027803835 -0.047871962 -0.056982376 0.008681904
0.02518085 -0.025592607 -0.017423917 0.05408103 -0.023713099 0.04125007 -0.020070013 -0.012392844
0.06864376 0.09499332 0.051919263 -0.08953853 -0.06785549 0.012035288 0.006300306 -0.05694053
0.06645087 0.04217205 0.008750739 -0.03736577 -0.013270561 0.052048635 -0.010966809 -0.046741854
0.09368429 -0.010072268 -0.08205125 -0.011931891 -0.06517702 -0.00827118 -0.073081404 0.029969502
-0.036983576 0.02073112 -0.03503476 -0.04425818 -0.007835715 0.016628398 0.061562855 -0.07156897
0.064872414 0.025385 -0.07393819 -0.07052184 0.0073195663 -0.025190458 0.010281 -0.05231892
0.009871651 -0.007827967 0.07254538 -0.08398307 -0.031565707 0.04797904 0.008316341 0.052201007
-0.02829207 0.045256376 0.047313187 -0.0546302 -0.04386864 -0.0722126 0.030678162 -0.08490607
0.041035626 0.063400686 0.06985174 -0.033301342 -0.06344337 0.04813549 -0.056000028 -0.01634972
-0.0077439197 0.0080539035 -0.08003847 0.059565816 0.06572669 0.075876534 -0.0691786 -0.025571506
0.048038162 -0.06790123 -0.060886227 -0.083230905 -0.09176928 -0.06778628 -0.058342356 -0.06014374
0.023282614 -0.07022724 0.04426783 0.055792756 -0.06524537 -0.026562067 0.05564388 -0.075781815
-0.08077163 -0.08977646 -0.055797014 0.023156667 -0.09419714 0.07048209 -0.08152839 -0.015307376
-0.045824803 -0.092774816 -0.047545936 0.05372422 -0.0495109 -0.024005309 0.01472767 -0.093773164
-0.019490678 -0.060689706 -0.08053265 0.06725189 0.056906562 -0.033758603 -0.05820154 0.012417216
0.048010156 -0.03408805 -0.047203656 -0.0292496 -0.072018445 0.033700917 -0.07798992 0.05370776
0.074020304 0.027244769 -0.028151017 0.031917788 0.0141074825 -0.07775339 -0.043005854 0.015219691
0.022420641 0.038788736 0.051710058 -0.0656184 -0.08083927 -0.087933384 -0.09421479 0.06325304
00000000: c99d c13c 123c 0f3d 6f2c 853d 2e7c 3f3d
00000010: f81b 9fbd 8eee 95bc 83ed ae3d ecf8 6d3d
00000020: 55a7 a0bc c857 95bd e5fc 2ebd c2c8 be3d
00000030: e351 ed3a 4eca c2bc 2f12 493d e886 313c
00000040: 072a 3d3d 85d2 36bc 55c3 313b e70b ab39
00000050: 38c3 c53c 83f5 fdbb 1133 893d beb2 963d
00000060: da14 963d 8116 733d b77d 70bc 8913 87bd
00000070: 6181 bd3d 4160 c5bc c468 0abd fc2b a23d
00000080: 65bf 773d cb45 e0bc 1f36 94bd 1510 743d
00000090: d7d1 523d 3d83 57bd 4e5e c1bc df4e f5bc
000000a0: e3e9 be3d 7605 823d 2c35 bd3d 8cb4 bc3d
000000b0: a4fa 52bc 2a37 5e3d fda4 93bd 2a9c 06bd
000000c0: fc94 88bd ff17 e33c e85c b0bd feb4 f3bb
000000d0: e692 28bd 6bcd 38bd 7fde be3d 1dc8 033d
000000e0: d15d 21bd f4e9 e7bc 5dbf d1bc 0787 bcbc
000000f0: 9f56 96bd adef 9fbd 2c34 6ebd 3e80 b2bd
00000100: 5f6e efbc 7fb6 a6bd aeb1 98bd 48fb c6bc
00000110: 5a2e 32bd bf3b 0a3c 5e55 4d3d fc8d edbb
00000120: aad8 ac3c 3757 7ebd 69cd b13d a464 35bd
00000130: 52de ac3d 5a01 33bd b386 d1bc 6b7e d2bc
00000140: a8be 82bd 5a35 aebc 19a9 df3c 2176 9a3c
00000150: 0ecc 7d3d d087 15bd b494 b03d 4313 903c
00000160: 2f8f 263d 3987 543d dbb2 8d3c 7ab6 4e3d
00000170: 8760 26bd 67f7 a4bc 5708 253d 48e4 9f3b
00000180: a0b6 003d 89b6 5e3d ed8d b73c 8426 71bb
00000190: 1ef3 e13c 51fb da3c 3469 113d a967 b3bc
000001a0: fd70 6a3c 7b27 a4bc 2ea6 e43c a211 323d
000001b0: 1837 36bb 6415 44bd 5a66 69bd 8b3e 0e3c
000001c0: 1248 ce3c 96a7 d1bc 9abc 8ebc 1284 5d3d
000001d0: f941 c2bc d5f5 283d de69 a4bc 5b0b 4bbc
000001e0: 1a95 8c3d dc8b c23d 4ba9 543d fa5f b7bd
000001f0: d2f7 8abd a82f 453c cc72 ce3b 793a 69bd
00000200: 6517 883d 99bc 2c3d 425f 0f3c da0c 19bd
00000210: c46c 59bc f330 553d 21ae 33bc 6374 3fbd
00000220: 8ddd bf3d 2706 25bc 7c0a a8bd fa7d 43bc
00000230: 887b 85bd d883 07bc b4ab 95bd 9a82 f53c
00000240: 177c 17bd 4fd4 a93c 9c80 0fbd 1148 35bd
00000250: 5f61 00bc 4738 883c 5529 7c3d c192 92bd
00000260: d4db 843d 34f4 cf3c e86c 97bd c16d 90bd
00000270: f9d8 ef3b 385c cebc a471 283c 5d4c 56bd
00000280: b5bc 213c e040 00bc ac92 943d 51ff abbd
00000290: 0b4b 01bd ab85 443d 4341 083c b9d0 553d
000002a0: c5c4 e7bc c05e 393d 79cb 413d ebc3 5fbd
000002b0: 9aaf 33bd 33e4 93bd c550 fb3c 3ce3 adbd
000002c0: f914 283d 38d8 813d 6e0e 8f3d fd66 08bd
000002d0: 99ee 81bd b829 453d 4960 65bd d9ef 85bc
000002e0: b5c0 fdbb 85f4 033c 36eb a3bd 49fb 733d
000002f0: b79b 863d 2865 9b3d 83ad 8dbd 567b d1bc
00000300: aac3 443d cd0f 8bbd d663 79bd f774 aabd
00000310: 88f1 bbbd 88d3 8abd 65f8 6ebd 4859 76bd
00000320: 2ebb be3c 4dd3 8fbd 2f52 353d f286 643d
00000330: 5d9f 85bd b198 d9bc d6ea 633d 7f33 9bbd
00000340: 996b a5bd b8dc b7bd 698b 64bd 0db3 bd3c
00000350: 6eea c0bd ea58 903d 5bf8 a6bd cacb 7abc
00000360: cab2 3bbd b900 bebd 87bf 42bd ed0d 5c3d
00000370: f1cb 4abd c8a6 c4bc 534c 713c 250c c0bd
00000380: eaaa 9fbc c595 78bd 4dee a4bd 5cbb 893d
00000390: db16 693d 7646 0abd bd64 6ebd 9471 4b3c
000003a0: 4ca6 443d e99f 0bbd 9f58 41bd db9c efbc
000003b0: 687e 93bd f909 0a3d 2eb9 9fbd abfc 5b3d
000003c0: f597 973d 6c30 df3c f69c e6bc 3abc 023d
000003d0: 1223 673c 2b3d 9fbd e826 30bd 035c 793c
000003e0: 7eab b73c f0e0 1e3d edcd 533d f162 86bd
000003f0: 0f8f a5bd 6b16 b4bd aff3 c0bd cf8a 813d

model_15/dense_30/BiasAdd/ReadVariableOp/resource f4 [10]
-0.018868187 -0.0040370026 0.02184542 0.0054172496 -0.011597415 -0.0070927404 -0.011484332 -0.0054573957
-0.0049098884 0.0022315527
00000000: 7591 9abc d548 84bb 2bf5 b23c 2f83 b13b
00000010: 1603 3ebc 386a e8bb c828 3cbc f4d3 b2bb
00000020: 21e3 a0bb 3e3f 123b

model_15/layer_normalization_45/add/ReadVariableOp/resource f4 [4]
0.0022148008 -0.004720749 -0.010842026 -0.017493745
00000000: 3126 113b 83b0 9abb c1a2 31bc 0b4f 8fbc

model_15/layer_normalization_45/mul_4/ReadVariableOp/resource f4 [4]
1.0043746 1.0194076 0.9872519 0.9927716
00000000: 598f 803f f37b 823f 8abc 7c3f 4826 7e3f

model_15/layer_normalization_46/add/ReadVariableOp/resource f4 [12]
0.012346187 -0.0338681 0.0031639088 0.011429596 0.007703357 0.017271236 -0.0080608865 -0.007778017
0.006955366 -0.0014228742 -0.0038295905 -0.0049959407
00000000: a947 4a3c 47b9 0abd 9559 4f3b 3343 3b3c
00000010: 716c fc3b 687c 8d3c cf11 04bc bcde febb
00000020: d7e9 e33b bc7f baba def9 7abb fdb4 a3bb

model_15/layer_normalization_46/mul_4/ReadVariableOp/resource f4 [12]
1.0291142 1.0255792 1.0225903 0.9895642 1.0024381 0.9811441 1.0183103 0.99943006
0.9941179 1.008418 0.99537194 0.99919415
00000000: 04ba 833f 2e46 833f 3de4 823f 1454 7d3f
00000010: e44f 803f 422c 7b3f fe57 823f a6da 7f3f
00000020: 837e 7e3f d713 813f b2d0 7e3f 30cb 7f3f

model_15/layer_normalization_47/mul_2/ReadVariableOp/resource f4 [10]
0.99732494 0.9903059 0.9805873 0.9727147 1.0087501 1.0057899 1.0000213 0.97866756
0.9596046 0.92561305
00000000: b050 7f3f b084 7d3f c507 7b3f d503 793f
00000010: b91e 813f b9bd 803f b300 803f f589 7a3f
00000020: a6a8 753f faf4 6c3f

model_15/dense_30/MatMul f4 [10, 228]
-0.1625231 0.12262722 0.12904403 0.07175488 -0.04183331 0.14104575 0.11269289 -0.060203567
-0.060963918 -0.16824026 -0.12833609 0.13658763 0.08965617 0.097968146 0.11562846 0.00064842333
0.10268782 0.106743254 0.14588007 -0.11811265 0.0053943363 -0.09657419 0.11659419 0.1032941
0.024912942 -0.12234131 0.015606716 -0.08739861 -0.17267236 -0.026618235 0.13961783 -0.016121833
0.15748802 -0.12713307 -0.016860686 0.057774074 -0.12052388 0.15195906 -0.063409746 -0.10150586
-0.0051167123 -0.13764042 -0.029516699 -0.0058363937 0.11289973 0.003943186 -0.014480289 -0.05989001
0.05167274 0.14956377 -0.12819918 0.055120762 -0.020956386 0.04805932 0.07765319 0.060800254
0.047337726 -0.004685962 0.0768136 -0.12583417 -0.040609866 -0.035803806 0.13727967 -0.09797246
0.0053735212 -0.12153769 0.14517961 -0.020106493 0.046774387 -0.047569755 -0.12903026 0.04656967
-0.17821199 -0.03323024 0.06857206 0.14062063 -0.06238554 -0.119063176 0.19143446 0.09618402
0.10673014 -0.11275038 -0.17052403 0.024816332 -0.18550994 0.16577673 -0.0068654087 0.07828409
-0.014930389 0.142061 0.022909561 0.04898248 0.027207565 -0.032392476 0.10727029 0.10576435
0.037945066 -0.08794792 0.04760534 -0.047198568 -0.047733806 -0.12265747 -0.07294234 -0.1328239
-0.12229033 -0.15628815 0.011219733 0.073646836 -0.07418747 -0.13154224 -0.12518403 0.11344789
0.10046763 0.078523874 -0.013375549 -0.022462795 0.051758274 -0.14954288 0.048522078 0.0075325617
-0.082473695 0.0016064188 0.06911973 -0.117670774 0.06424451 0.10726223 0.13586201 0.14062363
0.0033580812 0.10996354 -0.11066985 -0.10273521 0.115586445 0.06330693 -0.0158453 -0.15166786
-0.16902003 0.06405344 0.11955906 -0.016870786 0.099545434 -0.015307537 -0.10094305 0.10716976
-0.007095416 0.17336315 -0.12208391 -0.061505437 0.08218778 0.1232242 0.1970424 -0.06686312
-0.11653351 -0.088403724 -0.17404379 0.17465816 0.12682872 -0.081468806 0.09766649 0.067741275
-0.03804368 -0.0411137 0.07669825 0.024604376 -0.024318177 0.10926949 0.0935388 0.116324
-0.1667145 0.13252862 0.11681607 -0.0037354832 0.023873074 0.13917585 -0.09632555 -0.041928515
0.08431615 0.019691858 -0.0026336473 0.081847176 -0.10239715 0.08854743 0.06459012 -0.123910636
-0.043477546 -0.04518466 0.041285276 0.0030736171 0.03871467 -0.01653664 -0.077469215 0.08992634
0.06911831 -0.04109508 0.13042217 -0.11394053 0.09540693 -0.12762743 -0.0958646 0.084283754
0.123019025 0.028779188 -0.01515029 0.016932689 0.034128744 0.077900015 0.07918385 0.09043418
-0.068855055 -0.12801573 0.037795734 -0.05575478 -0.09772712 -0.09704282 -0.15015772 -0.08703234
0.06697306 0.000119302334 -0.056075517 0.14166269 -0.15900111 -0.068121426 0.14632031 -0.039629433
0.043887578 0.022424862 -0.05436471 -0.051216148 -0.009645452 0.1472679 0.039276764 0.06464419
0.0022811363 0.021506159 -0.018587206 0.111116655 0.06663885 -0.064020425 -0.13309653 -0.10463485
-0.07540336 -0.11017556 0.07863962 -0.0907875 0.02972048 0.1390861 -0.0077442112 0.034688056
-0.0637931 -0.10534489 -0.07996624 -0.015587677 -0.02280669 -0.10567224 -0.16329439 -0.0438553
00000000: 756c 26be fb23 fb3d 1e24 043e 39f4 923d
00000010: 6859 2bbd 4c6e 103e 88cb e63d 0498 76bd
00000020: 4db5 79bd 2d47 2cbe 896a 03be a1dd 0b3e
00000030: a79d b73d 86a3 c83d 9dce ec3d f4fa 293a
00000040: fe4d d23d 359c da3d 9661 153e 0ce5 f1bd
00000050: f9c2 b03b b0c8 c5bd efc8 ee3d db8b d33d
00000060: 3a16 cc3c 158e fabd 50b3 7f3c 0bfe b2bd
00000070: 06d1 30be 7c0e dabc faf7 0e3e ef11 84bc
00000080: 8a44 213e 2c2f 02be 6c1f 8abc 82a4 6c3d
00000090: 39d5 f6bd 289b 1b3e f8dc 81bd 4ee2 cfbd
000000a0: 18aa a7bb 9cf1 0cbe 01cd f1bc 383f bfbb
000000b0: f937 e73d d735 813b bc3e 6dbc 3a4f 75bd
000000c0: cca6 533d 3f27 193e a546 03be 4fc6 613d
000000d0: baac abbc d9d9 443d a308 9f3d b009 793d
000000e0: 34e5 413d b38c 99bb 7350 9d3d acda 00be
000000f0: 8856 26bd 03a7 12bd 0b93 0c3e c9a5 c8bd
00000100: 5d14 b03b c1e8 f8bd f7a9 143e 5fb6 a4bc
00000110: 8096 3f3d 81d8 42bd 8220 04be d7bf 3e3d
00000120: 347d 36be 6f1c 08bd 826f 8c3d dbfe 0f3e
00000130: fb87 7fbd 65d7 f3bd 6507 443e 21fc c43d
00000140: 5595 da3d ace9 e6bd da9d 2ebe 9f4b cb3c
00000150: 51f6 3dbe 60c1 293e 39f7 e0bb 6953 a03d
00000160: 979e 74bc 7078 113e d5ac bb3c daa1 483d
00000170: 66e2 de3c f9ad 04bd 87b0 db3d fb9a d83d
00000180: 496c 1b3d 0a1e b4bd d1fd 423d 4953 41bd
00000190: 8684 43bd d733 fbbd cb62 95bd fd02 08be
000001a0: 5a73 fabd 000a 20be f9d2 373c 27d4 963d
000001b0: 9aef 97bd 02b3 06be 3e30 00be 5e57 e83d
000001c0: f9c1 cd3d 20d1 a03d 1e25 5bbc e503 b8bc
000001d0: 7c00 543d c521 19be 16bf 463d b5d3 f63b
000001e0: f8e7 a8bd 788e d23a a58e 8d3d 60fd f0bd
000001f0: a092 833d 4dac db3d 691f 0b3e a4ff 0f3e
00000200: 4113 5c3b 9134 e13d e0a6 e2bd d666 d2bd
00000210: 96b8 ec3d 10a7 813d 01ce 81bc d24e 1bbe
00000220: 9613 2dbe 732e 833d 61db f43d 9a34 8abc
00000230: 7ade cb3d 77cc 7abc 3bbb cebd d27b db3d
00000240: aa80 e8bb 1c86 313e 2107 fabd 20ed 7bbd
00000250: 1152 a83d f85c fc3d 7cc5 493e 88ef 88bd
00000260: 1fa9 eebd 030d b5bd 8938 32be 97d9 323e
00000270: 63df 013e 1ed9 a6bd 5e05 c83d f0bb 8a3d
00000280: b1d3 1bbd d766 28bd f913 9d3d 1e8f c93c
00000290: ea36 c7bc afc8 df3d 4591 bf3d 473b ee3d
000002a0: 35b7 2abe 95b5 073e 443d ef3d 02cf 74bb
000002b0: 7791 c33c 1d84 0e3e 5446 c5bd 3cbd 2bbd
000002c0: f2ad ac3d d250 a13c 4599 2cbb 7e9f a73d
000002d0: 99b5 d1bd 5b58 b53d d347 843d dcc4 fdbd
000002e0: 8315 32bd 8d13 39bd c01a 293d bd6e 493b
000002f0: 4693 1e3d d977 87bc 2ea8 9ebd 4d2b b83d
00000300: e78d 8d3d 5153 28bd 648d 053e a759 e9bd
00000310: b564 c33d c4b0 02be a954 c4bd f69c ac3d
00000320: 66f1 fb3d 55c2 eb3c ec38 78bc 6cb6 8a3c
00000330: 95ca 0b3d 0b8a 9f3d 242b a23d 8e35 b93d
00000340: e103 8dbd 8e16 03be b3cf 1a3d 205f 64bd
00000350: 2825 c8bd 63be c6bd f2c2 19be 033e b2bd
00000360: 2c29 893d f431 fa38 71af 65bd 0610 113e
00000370: 30d1 22be 3f83 8bbd fed4 153e 7952 22bd
00000380: 76c3 333d 58b4 b73c 88ad 5ebd 06c8 51bd
00000390: f507 1ebc 65cd 163e ace0 203d 2c64 843d
000003a0: 1e7f 153b af2d b03c 3244 98bc 2191 e33d
000003b0: f379 883d 241d 83bd 754a 08be cc4a d6bd
000003c0: 146d 9abd b9a3 e1bd cf0d a13d ccee b9bd
000003d0: 5d78 f33c 966c 0e3e 27c3 fdbb 1015 0e3d
000003e0: f5a5 82bd 10bf d7bd 57c5 a3bd 7563 7fbc
000003f0: 18d5 babc b06a d8bd a536 27be 9da1 33bd

model_15/dense_31/MatMul f4 [1, 10]
-0.08341219 -0.022331223 -0.042434417 -0.12278803 -0.10836172 -0.22778837 -0.18182613 0.14306408
0.62635934 0.24764033
00000000: 03d4 aabd f8ef b6bc b6cf 2dbd 4a78 fbbd
00000010: c0ec ddbd 5b41 69be a130 3abe 647f 123e
00000020: 1659 203f 6d95 7d3e
