src/main/ml/17.tflite (tflite, 28724 bytes, 12 tensors)

model_17/conv2d_35/BiasAdd;model_17/conv2d_35/Conv2D;model_17/conv2d_35/BiasAdd/ReadVariableOp/resource f4 [12]
0	0xbb9f1ba5	-0.0048555904
1	0xbc242580	-0.010018706
2	0x3b85b7b1	0.0040807356
3	0x3c0a3f40	0.008437932
4	0x3b730c94	0.0037086355
5	0xbc4a4623	-0.012345823
6	0x3b18e104	0.002332748
7	0x3bb7c18d	0.00560779
8	0xbb8057da	-0.0039167227
9	0xbc4871c8	-0.012234159
10	0x3c68132f	0.01416473
11	0x39efd487	0.00045743978

model_17/conv2d_34/BiasAdd;model_17/conv2d_34/Conv2D;model_17/conv2d_34/BiasAdd/ReadVariableOp/resource f4 [4]
0	0xbc1d5593	-0.009602922
1	0x3c61262d	0.013742012
2	0xbc3366dc	-0.010949817
3	0xbccfc1c1	-0.025360944

model_17/conv2d_35/Conv2D f4 [12, 1, 11, 4]
0	0xbdff4bb8	-0.12465614
1	0xbd8683c7	-0.06568103
2	0x3e09ef2c	0.13470143
3	0x3e1fbb3e	0.15598771
4	0xbda78984	-0.08180526
5	0x3d21da0f	0.039514598
6	0x3ded1ec0	0.11578131
7	0xbd1fc9bb	-0.039010745
8	0x3c3eabe3	0.011637661
9	0xbdcff911	-0.101549275
10	0xbc5fa38a	-0.013649831
11	0xbd8bd962	-0.06828572
12	0x3d583122	0.05278123
13	0xbe4351f0	-0.19074225
14	0x3d78c0b9	0.06073067
15	0x3d9140b3	0.070924185
16	0xbd63e7f6	-0.055641137
17	0x3d90322d	0.0704082
18	0xbd733eaf	-0.05938595
19	0xbd055645	-0.032552976
20	0xbe04737d	-0.1293468
21	0xbe372261	-0.17884208
22	0xbd4417e7	-0.047874358
23	0xbd521ebf	-0.051298853
24	0x3df68876	0.120377466
25	0xbdd7d010	-0.10537732
26	0xbcd209c3	-0.02563942
27	0x3e0d0106	0.13769922
28	0x3d181f20	0.037139058
29	0xbdd9bc6e	-0.10631643
30	0x3ba48707	0.0050209793
31	0xbdb23216	-0.087009594
32	0xbd92c9d5	-0.07167403
33	0xbe210f1b	-0.15728419
34	0x3d8be851	0.0683142
35	0x3e184d6d	0.14873286
36	0xbe060476	-0.13087639
37	0xbdf7fb88	-0.12108523
38	0x3e32698a	0.17423072
39	0x3dab58d6	0.083665535
40	0x3e027a09	0.12741865
41	0x3ca2024b	0.019776484
42	0x3e190ce5	0.14946325
43	0x3e2f3aa9	0.17112221
44	0xbe2dd1bc	-0.16974539
45	0xbccf9867	-0.025341226
46	0x3e463c8e	0.19359037
47	0xbd4283f1	-0.04748911
48	0xbda9c060	-0.08288646
49	0x3d819c8b	0.06328686
50	0x3e315e51	0.17321135
51	0x3de5fd62	0.112299696
52	0xbdce6801	-0.10078431
53	0x3c86652f	0.01640567
54	0xbdda7ad9	-0.106679626
55	0x3dad5296	0.08463018
56	0xbc66837c	-0.014069434
57	0x3db8099e	0.08986209
58	0x3e3e37aa	0.18575922
59	0xbcdb1bf2	-0.026746724
60	0xbdee6650	-0.11640608
61	0x3db06357	0.086126976
62	0xbd6fa76a	-0.058509268
63	0x3dc8f082	0.09811498
64	0xbd5ce503	-0.05392934
65	0x3dca4b95	0.098776974
66	0x3d942ac4	0.072347194
67	0x3b813e4f	0.0039441953
68	0xbde64dca	-0.11245306
69	0x3e2627e5	0.16226156
70	0xbc3da07c	-0.011573907
71	0x3e05fa9e	0.13083884
72	0xbe45edfc	-0.19329065
73	0xbe2c7fa3	-0.16845565
74	0xbdbf448c	-0.09339246
75	0xbdeced25	-0.11568669
76	0xbdcc8043	-0.099854015
77	0xbe1103d4	-0.14161617
78	0xbd99e1a7	-0.07513743
79	0xbe271df4	-0.1632002
80	0x3e04715d	0.1293387
81	0x3e14457c	0.14479631
82	0xbd769bfe	-0.06020736
83	0x3d1ce272	0.038301893
84	0x3c89c368	0.01681681
85	0xbdcb09d2	-0.099139825
86	0xbe10d041	-0.14141943
87	0xbe0566ec	-0.13027543
88	0x3d7d6bc4	0.06187035
89	0xbbb30add	-0.0054639415
90	0x3e25a98e	0.16177961
91	0xbcbae6a6	-0.02281506
92	0xbdeb7e3a	-0.11498685
93	0xbcb82b30	-0.02248153
94	0xbe1506ad	-0.14553328
95	0x3c342c37	0.01099687
96	0x3d837a45	0.064198054
97	0x3e0ad474	0.13557607
98	0x3dbf5dbf	0.093440525
99	0xbd9fe779	-0.07807822
100	0xbd14deb7	-0.03634521
101	0xbdc1d7f3	-0.09465017
102	0xbd95a3c5	-0.07306627
103	0x3e079d2e	0.13243553
104	0x3dac55fc	0.08414838
105	0xbd9950a4	-0.07486084
106	0xbdb0d31b	-0.08634015
107	0xbe3d72ad	-0.18500777
108	0xbdd68cd7	-0.10476082
109	0x3e075173	0.13214664
110	0x3d97c85c	0.074112624
111	0x3e1aeca4	0.15129334
112	0x3e0100f3	0.12598018
113	0x3e590209	0.21192183
114	0x3e16cea9	0.14727272
115	0xbc7bf37b	-0.0153778745
116	0x3d6e0f28	0.058119923
117	0x3df3d3c3	0.11905625
118	0x3db34753	0.087538384
119	0x3cacd8bb	0.021099439
120	0x3daf65b9	0.08564324
121	0x3cdf1d74	0.027235724
122	0x3d80c462	0.06287457
123	0x3ddc6dbd	0.107631184
124	0x3d9b9fb3	0.075988196
125	0x3e22223f	0.15833376
126	0x3dfe0393	0.124030255
127	0x3dab7ab8	0.08373016
128	0xbe082e44	-0.13298899
129	0x3e017f12	0.1264613
130	0x3dba0378	0.09082693
131	0x3d697623	0.05699743
132	0x3e2422e0	0.16028929
133	0xbccff88d	-0.025387073
134	0x3b626835	0.0034546976
135	0x3ab458c3	0.0013759363
136	0xbd931cdc	-0.07183239
137	0x3e1af34e	0.15131876
138	0xbe026eea	-0.12737623
139	0xbdbd0679	-0.0922975
140	0xbe2ce9a8	-0.16886008
141	0x3d6441cf	0.055726822
142	0xbdef7623	-0.11692455
143	0xbb8782fe	-0.0041354885
144	0xbe29d993	-0.16586904
145	0x3e10bd55	0.14134724
146	0xbe1df3e4	-0.15425068
147	0xbe018616	-0.12648806
148	0xbd00b43d	-0.03142189
149	0xbdfb30ec	-0.122651905
150	0xbd1568df	-0.036476966
151	0xbd1a4657	-0.037664738
152	0xbc43212c	-0.011909764
153	0x3d637ed4	0.055540875
154	0xbe254fbe	-0.161437
155	0xbc5292f3	-0.012852418
156	0xbe18c5be	-0.14919183
157	0x3dc15f61	0.0944202
158	0x3e1591e8	0.1460644
159	0xbdc19828	-0.094528496
160	0xbc0bd160	-0.008533806
161	0x3d87dc85	0.06633858
162	0x3df076aa	0.117413834
163	0xbe08c4ae	-0.13356277
164	0xbdad0282	-0.08447744
165	0x3ddd6921	0.108110674
166	0x3d7768b7	0.0604026
167	0xbe08ef7a	-0.13372603
168	0xbdc9f84f	-0.09861814
169	0xbdc419cd	-0.095752336
170	0xbe0a9f67	-0.1353737
171	0x3cb57819	0.022151994
172	0x3d89baea	0.06725104
173	0x3ced2f0c	0.028953098
174	0x3d8eb474	0.069680125
175	0xbd41e004	-0.04733278
176	0xbb8de009	-0.0043296856
177	0xbd93af3b	-0.07211157
178	0xbe17ea33	-0.14835434
179	0xbd5fb539	-0.054616187
180	0xbdcd7a69	-0.100331135
181	0x3dceb949	0.10093934
182	0x3e02af1a	0.12762108
183	0x3b89b9f6	0.0042030765
184	0xbd78ccfc	-0.060742363
185	0x3d690960	0.056893706
186	0x3e11d876	0.1424273
187	0x3e0d01f2	0.13770273
188	0xbcf39eec	-0.029738866
189	0xbd0c791d	-0.03429519
190	0x3db32936	0.08748095
191	0xbd2b5fba	-0.04183934
192	0x3d08e16f	0.033418115
193	0xbd10e345	-0.03537299
194	0xbd65f7c9	-0.05614451
195	0xbe2e3ae1	-0.17014648
196	0x3e36a432	0.17836073
197	0x3e1ab873	0.15109424
198	0x3e140e49	0.14458574
199	0xbcdeee69	-0.027213292
200	0xbe2c6cec	-0.16838425
201	0x3dc835a4	0.09775856
202	0xbd7d837c	-0.06189297
203	0x3d25e7b6	0.04050418
204	0x3dcd8a16	0.100361034
205	0xbdf8b422	-0.121437326
206	0x3e2ad9a6	0.16684589
207	0x3e1ca864	0.15298611
208	0xbde3be83	-0.111203216
209	0xbdb2a1c6	-0.08722262
210	0xbc16cc12	-0.009203928
211	0xbe29feeb	-0.1660115
212	0x3dbcaeaa	0.09213002
213	0xbdf10400	-0.11768341
214	0xbdffc6e3	-0.124891065
215	0x3d850dac	0.06496748
216	0xbc25bf2b	-0.010116379
217	0x3e32e6d2	0.17470863
218	0xbe1ee15e	-0.15515658
219	0xbe17c35d	-0.14820619
220	0x3e2bcf9e	0.16778418
221	0x3d89f703	0.06736567
222	0x3be72e72	0.0070550973
223	0xbdc29b46	-0.09502272
224	0xbdbe0310	-0.09277928
225	0x3d339d5b	0.043851238
226	0xbdecaaa8	-0.115559876
227	0x3e2a8d70	0.16655517
228	0xbe241229	-0.16022553
229	0x3d868155	0.06567637
230	0x3e0d29b3	0.13785438
231	0xbcb7ecb2	-0.022451732
232	0xbddcf62c	-0.10789141
233	0x3d45d04c	0.04829435
234	0xbd2f5f99	-0.04281578
235	0xbd9a1cc5	-0.075250186
236	0x3e1c937f	0.1529064
237	0x3e0b2a89	0.13590445
238	0xbb5593c0	-0.0032589287
239	0x3cbe7462	0.023248855
240	0x3b1e1a57	0.0024124586
241	0xbcca55d4	-0.02469913
242	0x3e173927	0.14767896
243	0xbe2c76b6	-0.1684216
244	0xbc01de35	-0.007926513
245	0xbd8806b9	-0.06641907
246	0x3e3d3ee9	0.1848103
247	0x3e18a6b7	0.14907347
248	0xbe20a593	-0.15688162
249	0xbd4ecee1	-0.050490264
250	0x3c426ead	0.0118672075
251	0x3cf2795b	0.029598882
252	0x3d8e018c	0.06933889
253	0x3e2400e4	0.16015965
254	0x3d8cee04	0.068813354
255	0x3d97ccfa	0.07412143

model_17/conv2d_34/Conv2D f4 [4, 4, 38, 1]
0	0x39e98993	0.00044543724
1	0xbd607038	-0.05479452
2	0x3ac1f41e	0.0014797484
3	0xbd996e12	-0.07491697
4	0x3c24bd58	0.010054909
5	0x3d2d6c4b	0.042339604
6	0xbd58b223	-0.05290426
7	0xbd9504e1	-0.07276321
8	0x3ba8b5d7	0.00514863
9	0x3d74ff54	0.059813812
10	0x3da6f1c3	0.08151581
11	0xbd9284a5	-0.07154206
12	0xbd8f5021	-0.06997705
13	0xbce77fc0	-0.028259158
14	0xbd42fae6	-0.047602557
15	0x3c115add	0.008871761
16	0x3db42d05	0.08797649
17	0x3db6ff37	0.08935397
18	0x3d85becd	0.06530533
19	0x3d6413ca	0.055682935
20	0x3d32e16e	0.043672018
21	0x3d99df83	0.075133346
22	0xbd6f1074	-0.0583653
23	0x3c85ea32	0.016347025
24	0xbd5263bc	-0.051364645
25	0xbd053419	-0.032520387
26	0x3cd68d9e	0.026190575
27	0xbd58b419	-0.05290613
28	0x3c30654d	0.0107663395
29	0x3d0b56e9	0.03401843
30	0x3d3e2503	0.046422016
31	0x3dc70ac2	0.09718849
32	0x3cd27df1	0.02569482
33	0x3cc19d18	0.023634478
34	0xbd2c8405	-0.04211809
35	0xbd96e82a	-0.073685005
36	0xbd35d1fd	-0.044389714
37	0xbd14c0d8	-0.036316723
38	0xbc6f21ba	-0.014595443
39	0xbb81462d	-0.003945133
40	0xbced99cb	-0.029003998
41	0xbcc88059	-0.024475263
42	0x3db3e5a3	0.08784034
43	0x3d350559	0.044194553
44	0x3d67ff16	0.056639753
45	0x3d4a8378	0.049441785
46	0xbbaf3942	-0.005347402
47	0x3dc0f390	0.09421456
48	0xbd8e6177	-0.06952184
49	0x3d7f2f92	0.062301226
50	0x3cac77df	0.021053253
51	0xbcf850aa	-0.030311901
52	0x3c167ca9	0.009184995
53	0x3c0a2121	0.00843075
54	0x3d85173d	0.06498573
55	0x3d2b48d4	0.0418175
56	0x3d8f0569	0.06983454
57	0x3d12cbbc	0.035838827
58	0xbc7acebb	-0.015308077
59	0x3db5b8b8	0.08873123
60	0x3dc8f853	0.09812989
61	0xbd8139f4	-0.06309882
62	0xbc81377f	-0.015773533
63	0x3d4329d4	0.047647312
64	0x3dc72273	0.097233675
65	0x3daeb80e	0.085311994
66	0xbd3b81dd	-0.045778144
67	0x3dbc85f6	0.092052385
68	0x3d4dbeb0	0.050230682
69	0x3d03f3ea	0.032215036
70	0x3bf26497	0.007397245
71	0x3d39d97a	0.045373417
72	0x3d3a162c	0.0454313
73	0x3ca48f06	0.02008773
74	0xbd37878d	-0.044807006
75	0x3cce5dc3	0.025191193
76	0x3d9e3c4b	0.07726344
77	0x3a492581	0.000767313
78	0x3d9aa002	0.0755005
79	0xbc9a533c	-0.018838517
80	0xbdabc82f	-0.08387791
81	0x3bcb3f01	0.006202579
82	0xbd192a2b	-0.03739373
83	0xbd9e313a	-0.07724233
84	0xbd952ed5	-0.07284323
85	0x3c38141c	0.011235263
86	0x3d984c40	0.074364185
87	0x3d2a5641	0.041586164
88	0x3dbcafc8	0.09213215
89	0x3da3e5a5	0.080027856
90	0x3d620523	0.05518068
91	0xbd9c4c3b	-0.07631727
92	0x3bc9499e	0.006142809
93	0x3d285e16	0.041105352
94	0x3d87d619	0.06632633
95	0xbd6088c9	-0.05481795
96	0xbcdf0fcd	-0.027229214
97	0xbc8c50a1	-0.01712829
98	0x3dae1dd3	0.08501782
99	0x3c313908	0.01081682
100	0x3c32eb35	0.010920336
101	0x3db70b83	0.089377426
102	0xbcd234d8	-0.025659963
103	0x3cc6da3e	0.024273988
104	0x3db6f9bd	0.089343525
105	0xbc8b8ad4	-0.017033972
106	0xbc739317	-0.014866612
107	0x3d47bab0	0.048762023
108	0x3d7d9b22	0.061915524
109	0xbcf34624	-0.029696532
110	0xbd881a0a	-0.066455916
111	0xbd951bda	-0.07280703
112	0x3d54a71f	0.05191719
113	0x3a44946c	0.0007498923
114	0xbcbed05d	-0.023292715
115	0x3d95235c	0.07282135
116	0x3d8e3faa	0.06945737
117	0x3d95b0e7	0.07309132
118	0x3cdbf40c	0.026849769
119	0x3d285c42	0.04110361
120	0x3c5787c8	0.013154931
121	0x3d1b50c6	0.03791883
122	0xbced3f81	-0.028960945
123	0xbd019558	-0.031636566
124	0xbc744c51	-0.014910773
125	0x3cefe0b9	0.02928196
126	0xbd8f2511	-0.06989492
127	0xbd92d9db	-0.07170459
128	0x3c1a7c3a	0.009429032
129	0xbd6fc825	-0.058540482
130	0xbcb36b66	-0.021901798
131	0x3c154dc1	0.009112776
132	0x3d96268e	0.073315725
133	0x3d4c88ce	0.049935155
134	0x3d8aa251	0.06769241
135	0xbc1ab2de	-0.009442059
136	0xbc71e77f	-0.014764666
137	0x3d9b4214	0.07580963
138	0xbcae16df	-0.02125114
139	0x3d194f8e	0.037429385
140	0x3dc42ece	0.0957924
141	0xbba57f2f	-0.005050562
142	0x3cdd005a	0.026977707
143	0x3c7079f2	0.0146775115
144	0x3db50243	0.08838322
145	0xbd5c1477	-0.053730454
146	0xbd8fa2b8	-0.07013458
147	0xbcc15489	-0.02359988
148	0x3c543741	0.012952627
149	0xbd868606	-0.06568532
150	0x3dbdf54e	0.09275304
151	0x3d97d3a1	0.07413412
152	0xbced937a	-0.029000986
153	0x3cf910a8	0.03040345
154	0x3c9cf45b	0.019159487
155	0x3d384da1	0.044995908
156	0x3d38b258	0.045091957
157	0x3d5f867b	0.05457161
158	0x3d43d2c1	0.047808412
159	0x3d5430b2	0.051804252
160	0xbcc76fa8	-0.024345234
161	0x3ca8a64f	0.020587115
162	0x3d387808	0.045036346
163	0x3d6855b7	0.05672237
164	0x3d3aa016	0.045562826
165	0xbd4d2a31	-0.050089065
166	0xbbec6409	-0.0072140736
167	0x3d8702c6	0.06592326
168	0xbd38394a	-0.04497651
169	0x3d6f4258	0.05841288
170	0xbd9c150f	-0.07621204
171	0xbd8de67b	-0.06928726
172	0xbd9ac070	-0.07556236
173	0xbd916d7a	-0.07100959
174	0x3d0c5aa3	0.034266125
175	0x3ca67f3a	0.020324338
176	0xbdcd549b	-0.10025903
177	0xbcc97491	-0.024591716
178	0x3d3fbe9c	0.04681264
179	0xbd6e2cde	-0.058148257
180	0x3d85641d	0.06513236
181	0xbdb514fb	-0.08841892
182	0x3d8f6af5	0.07002822
183	0xbcd954ac	-0.026529633
184	0xbd7d7ba5	-0.061885495
185	0x3cdf6666	0.027270507
186	0xbd930125	-0.07177953
187	0x3d86849e	0.065682635
188	0x3d827302	0.06369592
189	0xbd6c9cd9	-0.05776677
190	0x3d884db6	0.06655447
191	0x3db0853e	0.08619164
192	0x3da1bde0	0.07897544
193	0xbc0cf598	-0.008603476
194	0xb99607e0	-0.00028616097
195	0xbcc78a8c	-0.024358056
196	0xbdb7525c	-0.08951256
197	0x3d2c4f36	0.04206773
198	0xbc9974ca	-0.018732447
199	0xbdae96c5	-0.08524851
200	0x3d06e53f	0.03293347
201	0x3d0358d7	0.032067146
202	0xbcc96e54	-0.024588741
203	0x3d5cf0db	0.053940635
204	0xbdb3521f	-0.08755898
205	0xbdcbad50	-0.09945166
206	0x3c5baad8	0.013407432
207	0xbcdcc733	-0.026950454
208	0xbdb847a2	-0.08998038
209	0xbd9abed9	-0.075559326
210	0x3d7e17f8	0.062034577
211	0x3d009401	0.031391148
212	0xbc92a247	-0.017899645
213	0x3d7f35e2	0.062307246
214	0xbdcc945d	-0.099892356
215	0xbd7a9092	-0.06117303
216	0xbda7c0d2	-0.081910744
217	0xbc9c067b	-0.019046059
218	0xbbb69f0c	-0.005573159
219	0xbd66de13	-0.05636413
220	0x3908044b	0.0001297157
221	0x3d5f7535	0.054555137
222	0xbd9af5a3	-0.07566383
223	0xbd44b1c5	-0.048021097
224	0x3cf06534	0.029345132
225	0xbd88bbd8	-0.06676453
226	0x3d9c61e0	0.07635856
227	0x3d335c48	0.043789178
228	0x3c1fceff	0.009753942
229	0x399e58af	0.00030202183
230	0xb863ce09	-5.4312903e-05
231	0x3d5f6b73	0.05454583
232	0xbce19612	-0.02753738
233	0x3da2cf21	0.07949663
234	0x3c8a319a	0.016869355
235	0x3d30f5b5	0.043203074
236	0x3d0e7c73	0.034786653
237	0x3cd82f44	0.026389726
238	0xbd35f2b6	-0.04442092
239	0xbdb1b89f	-0.08677792
240	0x3ccf1a0e	0.025280979
241	0x3ce0ea41	0.027455451
242	0x3a92b8a4	0.0011193943
243	0xbd943ad1	-0.07237781
244	0xbcf0b2d9	-0.029382156
245	0x3cdb462a	0.026766855
246	0xbd9ca370	-0.07648361
247	0xbd561383	-0.0522647
248	0xbc8b978a	-0.017040033
249	0xbd542524	-0.051793233
250	0xbdcb1e08	-0.099178374
251	0xbdc04ff9	-0.093902536
252	0xbda24584	-0.07923415
253	0x3d981d63	0.0742748
254	0x3b17d147	0.002316551
255	0xbbb477df	-0.005507454

model_17/dense_34/BiasAdd/ReadVariableOp/resource f4 [10]
0	0xbc370ae0	-0.011172026
1	0x3ca69982	0.02033687
2	0xbad319a7	-0.0016105667
3	0x3c6bb7f2	0.014387118
4	0x3ccb5de6	0.024825048
5	0xbbb39523	-0.005480425
6	0xbb996a3a	-0.0046818526
7	0xbc9ae47f	-0.018907784
8	0xbc2c584c	-0.0105190985
9	0xbc8dddac	-0.017317615

model_17/layer_normalization_51/add/ReadVariableOp/resource f4 [4]
0	0x399c3093	0.0002979083
1	0xbb203ec6	-0.0024451478
2	0x3b68e970	0.003553953
3	0x3b28a8dc	0.0025735414

model_17/layer_normalization_51/mul_4/ReadVariableOp/resource f4 [4]
0	0x3f7ff0d5	0.99976856
1	0x3f826eca	1.019006
2	0x3f7dfb90	0.9921198
3	0x3f7f5a7a	0.9974743

model_17/layer_normalization_52/add/ReadVariableOp/resource f4 [12]
0	0xbbb6791f	-0.005568638
1	0xbc33b1a0	-0.010967642
2	0x3b2d15ec	0.0026410772
3	0x3c04a51d	0.008096007
4	0x3c420796	0.011842629
5	0xbc9f1f77	-0.019424183
6	0x3aa34dc8	0.0012459094
7	0xbc11b14c	-0.0088923685
8	0xbbf1e45b	-0.0073819584
9	0xbc592aff	-0.01325488
10	0x38b9bb4a	8.856373e-05
11	0xb992cf86	-0.00028001907

model_17/layer_normalization_52/mul_4/ReadVariableOp/resource f4 [12]
0	0x3f80ebbf	1.0071944
1	0x3f81529b	1.0103334
2	0x3f7fa1ee	0.9985646
3	0x3f7cc6af	0.9874067
4	0x3f7cc4b1	0.9873763
5	0x3f82e36c	1.0225654
6	0x3f804282	1.0020297
7	0x3f7d684a	0.9898726
8	0x3f80fc56	1.0077007
9	0x3f7cd63e	0.9876441
10	0x3f7fd4a9	0.9993387
11	0x3f7fe49e	0.9995822

model_17/layer_normalization_53/mul_2/ReadVariableOp/resource f4 [10]
0	0x3f7dc8ab	0.9913432
1	0x3f78b231	0.971469
2	0x3f771065	0.9650939
3	0x3f731f00	0.9496918
4	0x3f78cb82	0.9718553
5	0x3f7654e8	0.96223307
6	0x3f7a6b8d	0.9782036
7	0x3f818146	1.0117576
8	0x3f7f0704	0.9962008
9	0x3f7fcbd0	0.9992037

model_17/dense_34/MatMul f4 [10, 228]
0	0x3e10cddf	0.14141034
1	0x3c45446b	0.012040238
2	0x3a6d613a	0.00090553204
3	0xbdfdd734	-0.12394562
4	0xbd492ab7	-0.049113
5	0xbd9985b1	-0.07496203
6	0x3e1b2e5b	0.15154402
7	0xbd8463c0	-0.06464338
8	0xbbc024e8	-0.0058637746
9	0x3d15109c	0.036392793
10	0xbdd31fac	-0.10308775
11	0xbcbfa02a	-0.023391802
12	0x3de913d9	0.11380739
13	0xbdf67220	-0.12033486
14	0xbc9d37c6	-0.019191634
15	0xbe19953d	-0.14998336
16	0xbe01de4e	-0.12682459
17	0xbc0ab210	-0.008465305
18	0xbc726791	-0.0147952
19	0xbbcc0e90	-0.006227322
20	0x3db8102f	0.08987462
21	0x3d94188a	0.07231243
22	0x3cd018ca	0.025402445
23	0xbd91a544	-0.071116
24	0xbdc47ec5	-0.09594492
25	0x3e29e002	0.16589358
26	0x3e1f817d	0.1557674
27	0x3d7056b1	0.058676425
28	0xbc1be713	-0.009515542
29	0x3c8e9f3c	0.017409913
30	0x3dfd90b7	0.12381118
31	0x3dd63297	0.10458868
32	0x3c12049d	0.008912233
33	0xbde6cb2f	-0.11269223
34	0x3dfa1167	0.122103505
35	0x3e06d8db	0.13168661
36	0x3e22e8f2	0.15909174
37	0x3df33877	0.11876004
38	0x3e121cd9	0.14268817
39	0xbd3a34ac	-0.045460388
40	0xbd86e937	-0.06587451
41	0xbbe0d619	-0.00686146
42	0x3d7c7e4f	0.061643895
43	0x3df4a399	0.11945266
44	0x3dfb5bb3	0.122733496
45	0xbd98c441	-0.074593075
46	0xbdd5dcce	-0.10442506
47	0x3e00757e	0.1254482
48	0x3e26261c	0.16225475
49	0x3c5b07ac	0.013368528
50	0x3dd29df9	0.10284037
51	0xbe146cc6	-0.14494619
52	0xbd43d56a	-0.04781095
53	0xbddcb233	-0.10776176
54	0x3e30ecea	0.17277876
55	0x3ce32020	0.02772528
56	0xbba3a3d3	-0.0049938946
57	0x3dc931bd	0.0982394
58	0x3ca9a068	0.02070637
59	0x3d2b8cd3	0.041882347
60	0xbb674373	-0.0035288006
61	0xbe0f04f4	-0.13966733
62	0xbd23a618	-0.03995332
63	0xbe1a38aa	-0.15060678
64	0x3e0ac6b5	0.13552363
65	0x3d611e70	0.054960668
66	0x3d417b94	0.047236994
67	0x3dd3a503	0.10334208
68	0x3db2b814	0.08726516
69	0xbccb982a	-0.02485283
70	0xbdfae60d	-0.1225091
71	0x3c4e19f1	0.012579427
72	0x3cc074da	0.02349322
73	0x3b5df35f	0.0033866984
74	0xbde8d643	-0.11368992
75	0x3d44018f	0.04785305
76	0xbe0bda63	-0.13657527
77	0x3d9bf64d	0.076153375
78	0xbde90e05	-0.11379627
79	0x3e05ebcb	0.13078229
80	0x3e03e186	0.12878999
81	0xbc0ce32d	-0.008599085
82	0x3df552c0	0.11978674
83	0xbdeea12c	-0.11651835
84	0xbc7edf79	-0.01555621
85	0x3dfa3da2	0.12218787
86	0x3d7bf3f1	0.061511938
87	0xbd9b286e	-0.07576071
88	0xbe002702	-0.1251488
89	0x3e28006f	0.16406415
90	0xbde6ec88	-0.112755835
91	0xbdc833cf	-0.09775507
92	0x3df1ae2b	0.11800798
93	0xbc9526dd	-0.018207008
94	0xbe18f39d	-0.14936681
95	0xbb0cba42	-0.0021473323
96	0x3e0a1fbe	0.13488671
97	0x3d6a982f	0.05727404
98	0x3dcbf1e3	0.099582456
99	0xbda02f41	-0.07821513
100	0xbde0e090	-0.10980332
101	0x3d857317	0.06516092
102	0x3d1cb5c0	0.038259268
103	0xbd871c31	-0.06597174
104	0x3bcb0869	0.006196071
105	0xbe2b039b	-0.16700594
106	0x3dcc9c6a	0.09990771
107	0x3dd805c4	0.10547975
108	0xbda3c3fd	-0.07996366
109	0xbdc3f12b	-0.095674835
110	0x3b7fa153	0.003900607
111	0x3d850ef8	0.06496996
112	0x3e08a825	0.13345392
113	0xbddbc2d6	-0.107305214
114	0xbcd3c3cb	-0.025850197
115	0xbd044641	-0.03229356
116	0x3ce64fbf	0.028114198
117	0x3db8945c	0.09012672
118	0x3d950069	0.07275469
119	0x3d59edf2	0.053205438
120	0x3e291473	0.16511707
121	0xbd53e00f	-0.05172735
122	0xbdaf3847	-0.08555656
123	0xbcee0a7a	-0.02905773
124	0xbd2b864c	-0.041876122
125	0x3e13a60a	0.14418808
126	0xbd17a98d	-0.03702693
127	0xbd228d50	-0.039685547
128	0xbd944070	-0.07238853
129	0x3ba90e99	0.005159211
130	0x3dd60a84	0.104512244
131	0x3e068677	0.13137232
132	0xbc95ba40	-0.018277287
133	0x3d5f5905	0.054528255
134	0x3d93367d	0.07188127
135	0xbe10c184	-0.1413632
136	0xbde43dc4	-0.11144593
137	0x3e063e71	0.13109757
138	0xbdc65d0f	-0.09685718
139	0xbda14a22	-0.07875468
140	0x3cb8b4a6	0.022547077
141	0x3dce5c6a	0.1007622
142	0xbd35f98f	-0.04442745
143	0x3cd10f70	0.025520056
144	0x3e19d541	0.15022756
145	0x3d8c7479	0.06858153
146	0x3d549c68	0.051906973
147	0xbe1b885c	-0.15188736
148	0x3df935bd	0.12168453
149	0xbc925362	-0.017862026
150	0xbddf556e	-0.10904966
151	0x3d0a6c82	0.033794887
152	0x3d72faaa	0.059321083
153	0x3db7ffab	0.08984312
154	0x3d25c079	0.04046676
155	0x3df5f40c	0.12009439
156	0xbd3c5454	-0.04597886
157	0x3c854620	0.01626879
158	0x3e19baab	0.15012614
159	0x3e074d74	0.1321314
160	0x3dcf9758	0.101362884
161	0x3e213f33	0.15746765
162	0x3d877392	0.0661384
163	0x3d8201ef	0.06348025
164	0x3e1427c6	0.14468297
165	0xbdec2f21	-0.115324266
166	0x3df38c83	0.11892035
167	0xbe0332d0	-0.12812352
168	0xbca694fe	-0.020334717
169	0x3dc8c5a5	0.09803323
170	0x3dfcb746	0.12339644
171	0x3d953046	0.07284598
172	0xbd49a268	-0.04922715
173	0x3dc3dabe	0.09563206
174	0x3ddd4f7e	0.108061776
175	0xbd8359f2	-0.0641364
176	0xbddd2ef1	-0.10799969
177	0x3c89adc8	0.016806498
178	0xbdb70a9b	-0.0893757
179	0xbcac8fd6	-0.02106468
180	0x3e2118a4	0.15732056
181	0x3e28a6ac	0.1646983
182	0xbd8c24c5	-0.06842951
183	0xbc02787e	-0.007963298
184	0x3e1ba426	0.15199336
185	0x3d97b78f	0.07408058
186	0x3e0b3089	0.13592733
187	0xbde7142a	-0.11283143
188	0x3e17a125	0.14807566
189	0x3e05e798	0.13076627
190	0xbe00f882	-0.12594798
191	0x3d9326fd	0.07185171
192	0x3e276cb3	0.16350059
193	0xbddc0d3e	-0.10744713
194	0xbddc2354	-0.10748926
195	0xbcdf77af	-0.02727875
196	0xbdc977c6	-0.09837298
197	0xbde4b5f3	-0.111675166
198	0xbd96ef42	-0.073698536
199	0xbd40da69	-0.047083292
200	0x3db868a2	0.09004332
201	0x3d4d261d	0.050085176
202	0x3dcf92c7	0.101354174
203	0x3cb177ad	0.021663511
204	0xbce259fa	-0.027630795
205	0x3d9ba283	0.07599356
206	0x3d919ae8	0.07109624
207	0x3d0bbce8	0.034115702
208	0x3d2a1478	0.041523427
209	0x3d1247b9	0.03571293
210	0x3db4b846	0.0882421
211	0x3e0cee3a	0.13762751
212	0x3de0a3cb	0.10968741
213	0xbdc2564a	-0.094891146
214	0x3c8ca0a9	0.017166452
215	0xbd961586	-0.07328324
216	0xbdeeaeb5	-0.116544165
217	0xbdbf48f9	-0.0934009
218	0xbce8742e	-0.028375711
219	0x3d4ede5d	0.05050503
220	0xbde8b6b7	-0.11362975
221	0x3c30b5a7	0.010785497
222	0xbda77037	-0.081757
223	0xbc1ea87e	-0.009683726
224	0x3b911a55	0.004428188
225	0x3df89954	0.1213862
226	0xbd98244e	-0.074287996
227	0xbdfeee73	-0.12447824
228	0xbda5dabc	-0.08098361
229	0x3d3596c0	0.04433322
230	0x3dc39828	0.09550506
231	0x3d9c6aea	0.0763758
232	0xbd2ef8e8	-0.042717844
233	0xbe33fa4a	-0.17575946
234	0x3d5e6a4c	0.05430059
235	0xbdd7d962	-0.10539509
236	0x3dd83296	0.105565235
237	0x3e052308	0.13001645
238	0x3d964985	0.073382415
239	0x3e037556	0.12837729
240	0x3d76cbe8	0.060253054
241	0x3d92c247	0.07165962
242	0xbcbdd75d	-0.023173982
243	0xbe27e827	-0.16397153
244	0xbcf38bde	-0.02972978
245	0xbd2f6a39	-0.04282591
246	0x3e04c234	0.12964708
247	0xbdc9c1e5	-0.098514356
248	0x3d49c165	0.0492567
249	0x3d12958d	0.035787154
250	0xbd752464	-0.059849158
251	0xbe137a0d	-0.14402027
252	0xbd542ac5	-0.0517986
253	0x3bc5f651	0.006041326
254	0x3df6b51a	0.12046261
255	0xbe37ea29	-0.17960419

model_17/dense_35/MatMul f4 [1, 10]
0	0xbef97829	-0.48724487
1	0xbe6ddd62	-0.23228982
2	0x3f0f741d	0.5603655
3	0x3e804bb7	0.25057766
4	0xbe40e35b	-0.18836729
5	0x3e9df39d	0.30849925
6	0x3dc2a105	0.09503368
7	0xbe371739	-0.17879952
8	0xbf327be8	-0.69720316
9	0xbe804400	-0.2505188
