src/main/ml/3.tflite (tflite, 28556 bytes, 12 tensors)

model_3/conv2d_7/BiasAdd;model_3/conv2d_7/Conv2D;model_3/conv2d_7/BiasAdd/ReadVariableOp/resource f4 [12]
00000000: 7e95 65bb 44a8 24bc fc7e 143c c0ea 813b
00000010: 6034 8bbb 5772 b9bb d4d6 553c d9f4 c6bb
00000020: 4431 82bb 4869 11bc 9f0a 3e3c c464 44bc
-0.0035031731 -0.010049883 0.009063479 0.003964752 -0.004248187 -0.0056593823 0.013051707 -0.0060716686
-0.003973158 -0.008875199 0.011599212 -0.011986915

model_3/conv2d_6/BiasAdd;model_3/conv2d_6/Conv2D;model_3/conv2d_6/BiasAdd/ReadVariableOp/resource f4 [4]
00000000: 5fb6 18bc 3c85 db3a 1ae4 a03b 58a5 3abb
-0.009320824 0.0016748081 0.0049100043 -0.00284799

model_3/conv2d_7/Conv2D f4 [12, 1, 11, 4]
00000000: 510a 9dbd a587 2ebc 990d 28be b7e5 04be
00000010: f3f9 2dbe d0fd 23be 6bab 73bd fd64 3fbe
00000020: 1c95 d4bc f9ad 19bd 54af 183e b815 143e
00000030: 563c ad3d 0bce 1abc a5b0 8dbd 11f8 ae3d
00000040: fe2a 2e3e 0b44 90bc e22b edbd a9e2 0f3e
00000050: 98ab 123e 8676 65bd 4e7f 003e 29a6 463d
00000060: 78cd fabd 1016 d6bd 6be4 a5bd 5ec5 94bd
00000070: 73b1 31be a735 de3d 00cc 253e 8d20 bbbd
00000080: 6e45 2c3d 647d 23be cd63 b2bd 3b46 7cbd
00000090: 6243 09be 171c 27bd 558a a83d 0e4f 083e
000000a0: 5ec4 afbc d06c b7bd cca3 d8bd de3c 1ebe
000000b0: 55a1 203e c8f4 863b 31b2 fd3c 664c dcbd
000000c0: 8a41 b93d f74b 0abc 4782 04be 00a8 02be
000000d0: 591d 17be 6ed0 0d3d 7916 edbb 07fb b5bd
000000e0: 7d97 b73d 44dc 1abe aa57 593d 8266 a63d
000000f0: d0d5 82ba 6f3d 82bd 7d68 543d b0f2 c73d
00000100: fe4b 11be aa5d 023e f96e da3d e571 4f3d
00000110: d68f 073c 2e26 32be 8724 4d3d 0ed9 e6bd
00000120: c596 66bd cbcd 66bd 71c0 113e 4fd5 213e
00000130: c80d ef3d 1122 43be 66ed 0abe 96d9 74bd
00000140: bd80 cf3d 90e0 00be 73d5 da3d f8aa d9bd
00000150: 1538 0d3d 2b77 0d3e 8518 193d 1b27 7fbb
00000160: 07e4 04be 2ebe b6bd d568 423e 6da7 3dbe
00000170: 23fe c73d 7e68 babd 36c2 0c3c 9f96 09be
00000180: a679 8c3d f017 b23d 8727 ebbd 1f90 acbd
00000190: c603 60bd b6f9 66bb 389a 50bd 985c 2f3e
000001a0: c659 fc3d ffe3 89bd 470d 563c c147 843d
000001b0: c752 87bc d223 ae3d e4a4 303e 1566 fdbd
000001c0: 6724 9cbb 467e a53d de8f 953c 7655 f73d
000001d0: 622e d23d 6de7 cdbd a4f7 b1bd 979b 943d
000001e0: 3a1c 2c3e 84f2 bbbd 00a9 713d c9c8 66bd
000001f0: 9bcf 66bd b42c 71bc 524b 613d 755e b53d
00000200: 8dea 123e f2f8 0e3e c5ba 7cbd c227 de3d
00000210: 7abe ccbc b655 b6bd 321f 173c ff06 5ebd
00000220: a783 0cbe 9e53 163d 01f9 fd3d 4a9b 54bd
00000230: e23d f8bc d683 aebd f349 783c 0f4a 86bd
00000240: 22db 183d b1c5 1c3e 8197 29be 34dd 0a3e
00000250: 8309 bc3d fd71 e03d 9072 613d 566e 493c
00000260: 2aa0 22be cd5a ad3d 03c6 0ebe 9b61 2b3e
00000270: 395f 063e 6bdf abbc 14f2 a73d 3385 31be
00000280: 1404 40bd 1f1c fa3d df80 eb3d f566 dabd
00000290: 5acd 073e 2642 2dbe 680b 81ba d23c c93d
000002a0: 064d 813c ee41 bcbd 9b2c 3d3e ab0e ecbd
000002b0: 24a3 2ebe ba37 173e 9012 bf3d 82f8 2bbc
000002c0: 3508 dcbd cfc6 cfbd 2b57 a0bd 0d04 e7bd
000002d0: 2e76 06be 50ff a03d 4456 f43d 421e ecbd
000002e0: abcf 633d 2d96 09be fe58 8d3c 7115 98bd
000002f0: 90d2 333e 77b2 81bd 3e32 45bd a519 183d
00000300: cc1e bf3d 482e 0bbe ff0e b73b d7be 01bd
00000310: 0be2 28be 70cc 1b3e 9d98 fabd fd9f dd3d
00000320: 88b8 8dbd 0525 283e 0fc4 8a3d edfd 44bd
00000330: 0dd2 08be f69d f2bd 4ab3 a33d 8470 453b
00000340: e8f1 51bd 564a fe3d 71f3 623d 96b4 e63d
00000350: 267b 29be 5285 d8bd 8a5f 0abe fd40 0dbe
00000360: 7c3c 083e f3f8 f13d 6ba5 393d cf77 2abe
00000370: 09f1 0c3d 3327 603d b136 17be 2d1a f4bd
00000380: b0d7 ca3c 4af1 cf3d b925 433d 8f65 11be
00000390: 1424 8f3b 8a5a 003e a033 c33c f508 e4bd
000003a0: fb63 63bd 98aa 3f3d 2652 d9bd a219 003e
000003b0: ca71 3d3d 8a12 293c 1c87 16bd 6d26 35bd
000003c0: 542e 363e c7bc a83d 7db2 02be 762d 323e
000003d0: 6b9f a2bc ce8c 213d 9b25 68bd 8edb bb3d
000003e0: 5c9f 6bbd 3449 003e bea1 6e3d faf4 7abd
000003f0: a0e7 a0bd c2f5 a83c 53a1 91bd 7fb0 973d
-0.07667983 -0.010652457 -0.16411437 -0.12978254 -0.1698988 -0.1601479 -0.05948965 -0.18690868
-0.025950007 -0.03751943 0.14910632 0.1446141 0.08458774 -0.009448539 -0.06918458 0.08543409
0.17008588 -0.01761057 -0.115806356 0.14051308 0.1432327 -0.056021236 0.12548563 0.048498306
-0.12246221 -0.10453427 -0.08100208 -0.07264207 -0.17352848 0.10850077 0.16191101 -0.09137068
0.0420584 -0.15965801 -0.08710442 -0.061590414 -0.13404611 -0.040798273 0.0822951 0.13311407
-0.02145594 -0.08956301 -0.10578117 -0.15452906 0.15686543 0.0041185357 0.030968757 -0.10756759
0.09045704 -0.008440963 -0.12940322 -0.127594 -0.14757289 0.034622602 -0.007235345 -0.0888577
0.08964441 -0.15123087 0.05306212 0.081250206 -0.0009981934 -0.06359374 0.05185746 0.09763086
-0.14189145 0.12731043 0.106656976 0.050645728 0.008274039 -0.17397377 0.050083663 -0.11271869
-0.05629613 -0.056348603 0.14233567 0.15804027 0.116725504 -0.19055964 -0.13567123 -0.05977782
0.10131977 -0.12585664 0.106852435 -0.10628313 0.034477312 0.1381499 0.0373769 -0.003893322
-0.1297761 -0.08922993 0.18985303 -0.18520899 0.097652696 -0.091019616 0.008591225 -0.13436364
0.0685914 0.08695972 -0.114821486 -0.084259264 -0.0546911 -0.0035244054 -0.050928324 0.17125165
0.123218104 -0.0673294 0.013064689 0.064589985 -0.016518964 0.08502926 0.17250401 -0.12372986
-0.0047650817 0.08080725 0.018257078 0.12076847 0.10262753 -0.100539066 -0.08689812 0.07256239
0.16807643 -0.091771156 0.05899906 -0.056343827 -0.05635033 -0.014720131 0.05500347 0.08855907
0.14347287 0.13962153 -0.061701555 0.10847427 -0.02499317 -0.08903067 0.009223746 -0.05420589
-0.13722096 0.036700837 0.12401009 -0.051905908 -0.030302946 -0.085212395 0.01515435 -0.06557094
0.037318356 0.15309788 -0.165617 0.13560945 0.09181502 0.109592415 0.055040896 0.012294373
-0.1588141 0.084645845 -0.13942723 0.16736452 0.13122262 -0.020980557 0.082004696 -0.17335968
-0.04687889 0.12212395 0.114991896 -0.10664169 0.13261929 -0.16919765 -0.0009845318 0.09826054
0.015783798 -0.091922626 0.18474047 -0.11526235 -0.1705442 0.14767352 0.093297124 -0.010496261
-0.10743753 -0.101453416 -0.07829126 -0.112800695 -0.1313102 0.07861197 0.11930516 -0.11529209
0.05561797 -0.13436194 0.017254349 -0.074259646 0.17560792 -0.063328676 -0.048143618 0.03713383
0.09332046 -0.13591874 0.0055865045 -0.03167614 -0.16492479 0.15214705 -0.1223614 0.10821531
-0.06919962 0.16420372 0.067756765 -0.048093725 -0.13361378 -0.11846535 0.07993181 0.003012688
-0.05125609 0.12416522 0.055407945 0.11264913 -0.16550884 -0.10572304 -0.13513008 -0.13794322
0.13304323 0.118150614 0.04532377 -0.16647266 0.034409557 0.054724883 -0.14766957 -0.11919055
0.024761051 0.10153444 0.047643397 -0.14198898 0.0043683145 0.12534538 0.023828328 -0.11134521
-0.05551527 0.04679355 -0.10611372 0.12509778 0.046251096 0.010319361 -0.036749944 -0.0442261
0.1779111 0.082391314 -0.127634 0.17400154 -0.019851407 0.039440922 -0.05667649 0.09172736
-0.057525024 0.12527925 0.058259718 -0.061268784 -0.07856679 0.020624999 -0.07110848 0.07406711

model_3/conv2d_6/Conv2D f4 [4, 4, 38, 1]
00000000: e0c4 bbbb e332 043d 89b0 3cbc 3589 54bd
00000010: e4a8 79bd cc49 3fbd 945c 913d 3e39 3eb9
00000020: 5f55 733d 3c91 e73c 5361 2b3d f77d c7bb
00000030: d34f b5bc f1c7 c53c 04d8 babd cb0f 41bd
00000040: 1510 513d 0792 83bd 5664 913d 2fa6 163c
00000050: ca2d 37bc bab1 bbbd 944f aabd f932 82bd
00000060: 5e30 4f3d e66d b7bd df6f 993c e239 853d
00000070: 19d6 813d 04be 42bc 4d3c b1bd d969 2bbd
00000080: 5311 e63c 4e17 91bd 29c1 413d f5f0 f23b
00000090: 183a 8bbd 7e7a 54bd 141b 1abd 5b45 39bc
000000a0: 4920 4f3d fb4b 44bc fb01 d33c 6d55 65bd
000000b0: 721d 17bd 3a28 c0bd 92ea 36bd a4b6 45bd
000000c0: ed67 6b3d c6ee 93bb 01c5 783d da87 c7bd
000000d0: b386 9fbd 13b5 963c 0771 a23d 51fc aebd
000000e0: cca2 66bb e558 763d 1f60 82bd f1c1 433d
000000f0: 154b 61bc 04fe 93bd d093 993d 88f6 28bc
00000100: c256 29bd 1083 f0bb cf7f 613d e52b 253d
00000110: a95a 7c3d 9ab7 be3b 118f b5bd 6bde 7b3c
00000120: d8e8 c1bc e5ad 6f3d e5df 9cbd f6d1 9ebc
00000130: c398 b23c f0aa 9cbd 903b 3fbd c50d bcbd
00000140: 15df b1bd 4952 99bd 1e07 a8bc c4c3 a1bd
00000150: b896 95bd 8d5a 9bbd 9e49 663d ab68 e23c
00000160: e74c a03c e2b8 8c3b 21bf 3dbd ad12 ad3c
00000170: 30a5 433d 05aa e6bb 0ab4 7ebd d446 143d
00000180: 4003 833b f7bf f7bc 80c6 3f3d 0e2e 53bc
00000190: 56dc 56bc a631 283d d798 cdbb 0c37 10bc
000001a0: f1fc 41bd 2809 3a3d 0c4f c0bd c26e 3c3d
000001b0: abbd a5bd b16d abbd 45c1 5f3c fd68 3cbd
000001c0: 350a 683c a219 b0bd 0b35 94bc 464b 5fbd
000001d0: 940a 8abd 9359 3bbd 9c3f 063d 2916 183d
000001e0: 9bcb 753d 9839 81bb cd3b 5cbc d7d7 b73c
000001f0: 6583 bfbd 3b28 c2bd 34be 8cbd 45c0 e33c
00000200: e433 22bd d7d5 80bc 11de bfbc bb93 8a3d
00000210: 4856 98bd 8ad2 2dbd 035a bd3c 1652 323d
00000220: 9cb4 7b3d 83a0 55bd 0baf 16bd bd6f 4e3d
00000230: 62bf c4bd 9cf3 9c3d 0f9f d7bc aee0 81bd
00000240: 7bd3 c43c 2828 633d 9cc5 b7bb 7ee6 283c
00000250: 7be2 29bd c353 a6bb 8077 713c b69c 3bbd
00000260: f9d5 8c3d 695d b2bd 0cad 70bd 4b7b a63d
00000270: 8a83 8a3d deec 1c3d 8832 ad3c 3c91 c33b
00000280: ead3 603b fe67 a03d 66f3 fcba 0dee 5ebd
00000290: 1001 e73c d812 cfbc ed54 48bc c0f4 193d
000002a0: 1b6f 1abd b53a 91b8 e851 e63c 4982 b23d
000002b0: c7f9 85bd bd1c 8cbd 7292 4c3d 1f33 7a3c
000002c0: 0cc3 a4bd 9650 a2bc b20e f0bc d3f7 8a3d
000002d0: c722 25bd b172 7f3d 3057 07bc e027 583d
000002e0: 975f 9f3d d20d 513d 3f55 cb3b 0ef9 903d
000002f0: 9b6a f73b c8a7 403d ae57 913d 0bb3 42bd
00000300: d0d3 9f3d 2ff1 933d 24af 87bd 6002 32bd
00000310: 4140 953d d3f1 aebc 277c e63c cc13 773d
00000320: 5c1e 6dbd 1037 08bc 2882 2a3d 321d d3bb
00000330: 5a0d 4fbd 5cbe 723d c963 c03b 9d3a 183d
00000340: 0215 b43d 9fd2 9bba 70e0 7d3d 97e4 25bd
00000350: 3a98 163a 1ed9 4dbd cde3 16bc fb2c 9a3d
00000360: 58fc 8b3d 3c5f 803c e9ea 34bd 424d 903c
00000370: faa9 82bd 8478 463d eb00 85bd b8e1 60bc
00000380: 9c92 503c abc0 aa3d 9776 85bd bb1b ae3d
00000390: 657d 42bd eff8 573d 3086 e13c f674 7c3d
000003a0: 8c50 afbd 19e7 a6bb 7478 18bd f642 70bd
000003b0: adb4 93bd 1d24 9dbc 9886 79bd 2495 b3bc
000003c0: 5978 833d 7ccb b7bc 4c4a 053d 3e0e 683d
000003d0: 28d7 8ebd bc62 ab3d 971a 92bc 3b55 9c3b
000003e0: 2ed9 c73b 0960 96bd f6dc 4e3c 9824 aa3d
000003f0: 01c2 a8bd 866f 8fbd a135 723d dd7f 823d
-0.0057302564 0.03227509 -0.011516699 -0.051888663 -0.060952082 -0.046701238 0.07097736 -0.00018141136
0.059407588 0.028267495 0.041840862 -0.006088014 -0.02213279 0.024143191 -0.09123233 -0.047134202
0.051040728 -0.06424337 0.07099216 0.009194895 -0.011180351 -0.09164758 -0.083159596 -0.063573785
0.050583236 -0.08956508 0.018730102 0.06505181 0.06339664 -0.011886124 -0.086540796 -0.04184899
0.028084433 -0.07084523 0.047303353 0.007413978 -0.0679819 -0.05187463 -0.03762348 -0.01130804
0.0505679 -0.011981006 0.02575778 -0.05598967 -0.036893316 -0.093826726 -0.044657297 -0.048269883
0.05747216 -0.004514548 0.060734753 -0.097427085 -0.07789364 0.01839689 0.079317145 -0.08544219
-0.003519225 0.06014337 -0.0636599 0.04779238 -0.013750811 -0.07226184 0.07498896 -0.010312684
-0.041342504 -0.0073398426 0.05505353 0.040325064 0.061609898 0.005820227 -0.088651784 0.015372853
-0.023670599 0.058515448 -0.07659892 -0.019387227 0.021801358 -0.07649791 -0.046687663 -0.09182314
-0.08685128 -0.07486398 -0.020511206 -0.078986675 -0.07304138 -0.075856306 0.05622255 0.0276378
0.01956792 0.0042945007 -0.046324853 0.02112707 0.047764957 -0.007039311 -0.062183417 0.03620036
0.00399819 -0.030242903 0.046820164 -0.012889398 -0.013114056 0.041062973 -0.0062743234 -0.008802187
-0.047360364 0.04541889 -0.09390077 0.046004064 -0.08092817 -0.08370531 0.013656919 -0.045998562
0.01416259 -0.08598639 -0.0180917 -0.054515146 -0.06740299 -0.04573972 0.032775506 0.03713051
0.060008626 -0.0039436333 -0.013441992 0.022441788 -0.093512334 -0.094803296 -0.06872216 0.027801642
-0.039600268 -0.015726967 -0.02342132 0.067664586 -0.07438332 -0.042437114 0.02311421 0.043535315
0.06145154 -0.05215503 -0.036788028 0.05039953 -0.09606816 0.07663652 -0.026320962 -0.063416824
0.024026623 0.055458218 -0.0056082737 0.01030886 -0.041475754 -0.005075903 0.014737964 -0.045803748
0.068767495 -0.08709223 -0.05875878 0.08128985 0.0676337 0.03831183 0.02114226 0.005968241
0.0034305998 0.07832335 -0.0019298613 -0.05442624 0.028198749 -0.02527754 -0.012227279 0.037586927
-0.037703615 -6.925074e-05 0.028115228 0.08716256 -0.06541782 -0.06841419 0.04994435 0.015270977
-0.08045015 -0.019813817 -0.029303882 0.0678555 -0.04031637 0.062365238 -0.008260533 0.052772403
0.07781904 0.05103857 0.0062052305 0.070787534 0.00755055 0.04703501 0.07096802 -0.04753403
0.07804072 0.072237365 -0.06625202 -0.043459296 0.07287646 -0.021355545 0.028135372 0.060321614
-0.05789028 -0.008313909 0.041628033 -0.0064426893 -0.050549842 0.059263572 0.0058712703 0.037165273
0.087930694 -0.0011888332 0.06198162 -0.040501203 0.00057447294 -0.050255887 -0.009209585 0.075281106
0.0683524 0.015670411 -0.04416934 0.017614964 -0.06380077 0.048454776 -0.06494316 -0.013725691
0.012730267 0.0833753 -0.0651676 0.08501383 -0.047482867 0.052727636 0.027529806 0.06163498
-0.08560285 -0.005093467 -0.037224248 -0.05865761 -0.072121955 -0.01918226 -0.060919374 -0.021921702
0.06419439 -0.022435896 0.03254156 0.056654207 -0.069746315 0.083684415 -0.017834945 0.0047709025
0.006098888 -0.07342536 0.012625923 0.08307761 -0.08240128 -0.07003693 0.059133176 0.06372044

model_3/dense_6/BiasAdd/ReadVariableOp/resource f4 [10]
00000000: bc95 af3c f538 daba b342 89bb 07d8 54bc
00000010: c93c abbb c74a 92bb 9404 593c 98f5 07bb
00000020: d2da 2fbc 5d94 b4bb
0.021433704 -0.0016649055 -0.0041888594 -0.012990958 -0.005225752 -0.0044644806 0.01324572 -0.002074575
-0.010733323 -0.0055108503

model_3/layer_normalization_10/add/ReadVariableOp/resource f4 [12]
00000000: 6de6 a6b9 6a0b 5bbc ecba 743c 5a16 8a3b
00000010: db34 5cbb a268 4d3a e035 4d3c 74a0 5cbb
00000020: 4ae3 34ba 8199 20bc 5cdb 7f3c e30d 43bb
-0.00031833668 -0.013369421 0.014937144 0.0042140903 -0.003360084 0.0007835721 0.012525052 -0.0033664973
-0.0006900324 -0.009802223 0.015616264 -0.0029762916

model_3/layer_normalization_10/mul_4/ReadVariableOp/resource f4 [12]
00000000: 81bb 7c3f db83 823f 816b 7c3f 677e 803f
00000010: 7932 7f3f fcc8 7d3f 56e9 7b3f 9a57 803f
00000020: c42c 803f f818 813f da1a 823f 960f 803f
0.9872361 1.0196489 0.9860154 1.0038575 0.9968639 0.991348 0.9840292 1.0026734
1.0013661 1.0085745 1.0164444 1.0004756

model_3/layer_normalization_11/mul_2/ReadVariableOp/resource f4 [10]
00000000: 4b14 7e3f c955 7b3f 8546 793f 0f5a 803f
00000010: ec2d 7e3f 9659 7b3f a3cf 7f3f b2cb 7d3f
00000020: 82f6 803f bbd0 7d3f
0.99249715 0.9817777 0.9737323 1.0027484 0.9928882 0.9818357 0.99926203 0.9913894
1.0075228 0.9914662

model_3/layer_normalization_9/add/ReadVariableOp/resource f4 [4]
00000000: cfaf 943a 7bf5 0c3b d23e 1f3c 1dbc 323b
0.0011343899 0.0021508622 0.009719567 0.0027272769

model_3/layer_normalization_9/mul_4/ReadVariableOp/resource f4 [4]
00000000: 6fa1 7f3f 3e7a 7f3f 1b33 813f f28e 7d3f
0.99855703 0.997959 1.0093721 0.9904624

model_3/dense_6/MatMul f4 [10, 228]
00000000: c2ab cebc 385c b7bd 2947 cabd 8f14 e6bd
00000010: 7083 7dbd 210d f4bb ff96 38be 200e cfbd
00000020: 517f b1bc 8f11 b6bd 9e5c c73d 3166 00be
00000030: ccd1 d53d 242c 58bd 96e4 e63d f430 763b
00000040: f121 a4bd 79ac 66bc e322 39be c9e6 0a3e
00000050: 2c67 c73c c33f e73d 02e3 053e f52a ab3d
00000060: 891c b83d 1835 8b3c 15a7 49bd d9e2 8fbc
00000070: f13f c03d 343e 583d 32b5 3ebd 6544 0dbd
00000080: 21f5 773d ec75 853d 08af ee39 e5cf 51bb
00000090: 08f0 013e 7d11 c93c 6931 16be eebb c5bd
000000a0: af7e a5bc a24d 03be de4e a2bd 019e 3cbd
000000b0: 16ae 2ebd 9a17 d03d b93e 063d 7247 2cbc
000000c0: 3d4b 0dbe ed19 be3d 7c2b 253d 48e6 06bd
000000d0: 1828 05be 92f4 1abe b959 d2bd b739 313d
000000e0: dd5b 563b c343 25be 8e79 7cbd 9785 ba3b
000000f0: e2af cc3b 340b ba3d 1474 693d e5fa ab3d
00000100: c152 063e 7de2 cd3d 6dc9 d7bd c81b 61b9
00000110: 7749 ff3c 8634 15be feec 9e3d 32e1 103e
00000120: 8979 32be 4722 30be 3783 24be a282 babd
00000130: 4081 2c3e 117e 083d 44f7 d1bd 27f4 f43d
00000140: 5488 f2bd 9e73 0bbe afb5 2fbc 0791 833d
00000150: f59a 763c 8fbc 21be 94a6 01be 4072 813b
00000160: f00e 9a3a af62 7ebd 7145 383d d0f0 80bd
00000170: 7ed0 fd3c d637 3c3d f8f4 e33d 7a2f 023e
00000180: 0546 393c 7884 d23d c9a9 a5bd 4454 9abd
00000190: 9117 943d cd42 96bd bb31 ebbb 0f8a 7dbd
000001a0: eb6c 063b 0e91 4dbd cb45 e23d 828a 473d
000001b0: f0eb a5bd b145 2cbe 8482 1bbd 0c4a 8f3d
000001c0: 7bd5 05be d350 4e3d 0c58 f93d 47e5 76bc
000001d0: 8159 d5bc b1d3 afbc af6d 1e3d 14af 5c3d
000001e0: a284 3c3d dee9 e6bd 3d1a c43d ed12 2b3c
000001f0: e769 843d ff6c 74bd c287 663d b148 84bd
00000200: b130 08be 34b0 23be 628a 8ebc 5d45 c93d
00000210: b827 013c ecae 393d 9861 23be 7f08 d23c
00000220: ddba a03d c8b9 0e3d 5c70 b5bd 4d60 cfbc
00000230: ecb0 e0bd 4ca4 053e 0d87 333e d7bc 2d3e
00000240: e01c c73d 8584 9cbd 0cc7 813d e7e2 0f3e
00000250: f74e 333e 19b1 c93d d7a5 d23c 572d 97bd
00000260: 2c4e fabd 1935 56bc 0a64 2a3e a9ff e83d
00000270: 1ca5 6f3d 1fd0 883d eef8 e7bd 67f8 e73c
00000280: 876d 9c3d 8e51 2abd edc4 d33d eb14 fdbd
00000290: 3fb4 d53d 9f44 7abd 3482 3e3e ae02 bebd
000002a0: 29df a5bc 7162 073e 187d 2c3d 89ab fbbc
000002b0: 8579 cfbd 076b 99bd 1f81 08be 76ed 2bbe
000002c0: 7ed9 e7bd 496d 30bd 9fcd 39bd 640c 27bd
000002d0: 24b1 0dbe 3071 713d 79f8 30be ec40 393d
000002e0: 784d a53d 56f3 1e3e 1d19 1bbe 9885 e2bc
000002f0: 8289 6e3d ea6f 203d 42b2 8e3d 84f2 863b
00000300: 4780 d0bc 9cd3 003e 33d7 c83d f1f0 113e
00000310: 989e f63d 8438 9ebd 921a 093e d50f f0bd
00000320: 3589 52bd 4821 b2bd b869 023e 29d2 7fbd
00000330: 44e9 9b3d adfe 993c 05c8 1ebe f95b 243e
00000340: 0a18 2f3e c476 38bd a5f9 99bd 16db a8bc
00000350: 9dbc d43d ccba 913d a41e 163d 042d 46bd
00000360: 0e01 33bd 03b1 943d c144 053e 01d6 2a3b
00000370: 7b35 46bc 89cc 0f3e 9a4d e7bd 1d06 bdbd
00000380: 6d2b 1abe fe90 3ebd 1d93 c23d 71fb cdbd
00000390: e657 f5bd 2b39 f13d 3bc2 5dbd b71f d8bb
000003a0: 631f 23bd 8cd8 b13d d4cf 463d 5310 31bd
000003b0: fe44 dfbc 9b1f df3d 7c89 f4bd d343 1c3c
000003c0: 020c a43d b946 943b b243 1c3d 4ff0 9cbd
000003d0: c818 d4bd ff0c 5b3c 9aa1 13be 62f5 003e
000003e0: ebea 6f3c 677b 83bd c0f5 b13c cc0e 0bbc
000003f0: af71 fcbd edb8 cbbd 8f04 a43d 1082 983a
-0.025228385 -0.08953136 -0.09876854 -0.1123439 -0.061892927 -0.007447854 -0.1802635 -0.10110116
-0.021667155 -0.08890068 0.09734462 -0.12538983 0.10440406 -0.05277647 0.11274068 0.00375658
-0.08014286 -0.014079207 -0.18079714 0.135646 0.024341188 0.112914585 0.13074878 0.08357803
0.08989818 0.01699309 -0.049231607 -0.017564224 0.09387196 0.052793697 -0.04655952 -0.034489054
0.060536508 0.065166324 0.00045525306 -0.0032014784 0.12689221 0.024544472 -0.14667286 -0.09654985
-0.020202009 -0.12822583 -0.07925199 -0.04604912 -0.04264649 0.10160752 0.03277466 -0.010515081
-0.13798232 0.09282289 0.040324673 -0.032934457 -0.13003576 -0.15132359 -0.102710195 0.04326793
0.0032708563 -0.1613913 -0.06163936 0.0056921947 0.006246553 0.09084168 0.056995466 0.08397464
0.13117506 0.10052965 -0.10536466 -0.00021468021 0.03116296 -0.14570817 0.077600464 0.14148405
-0.17429174 -0.17200576 -0.1606568 -0.091069475 0.1684618 0.03332335 -0.1025224 0.11960631
-0.11842409 -0.13618323 -0.010724469 0.06424146 0.015051593 -0.15794586 -0.12661201 0.0039503872
0.0011753719 -0.06210583 0.0449881 -0.06295931 0.030983206 0.045951687 0.111307085 0.12713423
0.011308198 0.10279173 -0.080890246 -0.07535604 0.072310574 -0.0733696 -0.007177559 -0.06189924
0.0020511698 -0.050187163 0.11048468 0.048716076 -0.08101642 -0.1682346 -0.037966266 0.06996545
-0.13069718 0.05037005 0.12174997 -0.015069312 -0.026043655 -0.021463247 0.03867882 0.053877905
0.046024926 -0.112750754 0.09575317 0.010441524 0.06465512 -0.05967426 0.056281812 -0.06459177
-0.13299824 -0.15985185 -0.01739997 0.09827683 0.007883005 0.045332834 -0.15955198 0.025638817
0.07848141 0.034845144 -0.088593215 -0.025314474 -0.10971245 0.13050956 0.17531987 0.16966568
0.09722304 -0.076424636 0.06336793 0.140514 0.17510591 0.09848232 0.025713844 -0.07381695
-0.12221941 -0.013074183 0.16639724 0.11376888 0.05850707 0.06680321 -0.113267764 0.02831669
0.07638078 -0.041581683 0.10340295 -0.123575054 0.1043477 -0.0611006 0.18604356 -0.09277855
-0.020248013 0.13221146 0.042111486 -0.030721443 -0.101306 -0.07491117 -0.13330506 -0.16789803
-0.1132078 -0.043072972 -0.04536211 -0.0407833 -0.13837105 0.058945835 -0.17282285 0.04522793
0.080714166 0.15522513 -0.15146299 -0.027651593 0.058236606 0.03916923 0.06967594 0.0041182656
-0.025451792 0.12580723 0.09806671 0.14252068 0.12041968 -0.07725623 0.13389042 -0.1172177
-0.051400382 -0.08697754 0.12735641 -0.062456284 0.07612851 0.018798197 -0.15505989 0.1605071
0.17099014 -0.04503514 -0.07518319 -0.02061228 0.10387538 0.07115707 0.036650315 -0.048382774
-0.043702178 0.07260325 0.13014509 0.0026067498 -0.012097712 0.14042868 -0.11294098 -0.09229682
-0.15055628 -0.046524994 0.09500716 -0.10057724 -0.11979656 0.11778482 -0.05414031 -0.0065955776
-0.039824855 0.08683881 0.048538044 -0.04322846 -0.027254578 0.108947 -0.119402856 0.009537655
0.08010103 0.0045250324 0.038150497 -0.07663023 -0.10356289 0.013369798 -0.14417115 0.12593606
0.014643411 -0.064200215 0.021723628 -0.008487415 -0.12326371 -0.09947381 0.08008682 0.0011635441

model_3/dense_7/MatMul f4 [1, 10]
00000000: 4435 743e 6465 1bbf aa19 0c3f 2423 443e
00000010: 3b80 993e 94dc f53e bf18 d73d fab5 e2be
00000020: cfc8 213e 4d5e 293f
0.23848444 -0.60701585 0.5472666 0.1915403 0.29980645 0.4801985 0.10502767 -0.44279462
0.15799259 0.66159517
