src/main/ml/8.tflite (tflite, 28664 bytes, 12 tensors)

model_8/conv2d_17/BiasAdd;model_8/conv2d_17/Conv2D;model_8/conv2d_17/BiasAdd/ReadVariableOp/resource f4 [12]
00000000: c2af 873a 9d37 23bc 29e1 7b3a b208 9dbc
00000010: c57b 2d3c 2e1f e9bb d056 0d3c a36a aa3a
00000020: 4261 333c fc6d 2dbc f7d9 c9ba 2dc2 813b
0.0010352063 -0.00996199 0.00096084416 -0.019169185 0.010588591 -0.0071143126 0.008626655 0.0013001751
0.010948481 -0.010585304 -0.0015400042 0.003959915

model_8/conv2d_16/BiasAdd;model_8/conv2d_16/Conv2D;model_8/conv2d_16/BiasAdd/ReadVariableOp/resource f4 [4]
00000000: 8fde 1f3b 6228 72ba 8a17 153b 04db 12bc
0.002439413 -0.0009237585 0.0022749626 -0.00896335

model_8/conv2d_17/Conv2D f4 [12, 1, 11, 4]
00000000: 8ece 52bc 66b6 fe3c db25 23be c3e7 163e
00000010: ac72 04be cfa8 bbbd 3a4b e3bd 5592 dc3d
00000020: 17d3 f33d 02eb be3d 1efc 19be c94e 3a3e
00000030: aa1e 0bbe d5f2 b3bd ae18 dfbc 15a4 11be
00000040: 4f15 31bd 4019 3b3c 6a1e 11be 9769 c13d
00000050: 423d 1cbe fa18 7ebd e159 133d 1a8a c43d
00000060: 9207 133e 921b 1c3c 7d73 6a3d b8d4 f43d
00000070: 6a40 2b3e 613c 723d 127f 69bd 1c7c 25bc
00000080: a61e 143e febc 2a3d 2700 1abe cb56 3cbe
00000090: 995b 213d 315f bb3d da49 17be ba8f c63d
000000a0: 3608 05be a96f 03bd 9a9e 043e 4cbc 063c
000000b0: a146 e9bc d84e 20be 013e 3d39 d7ec dbbc
000000c0: 8fd1 963c 1f09 c43d 6d71 a9bc 7b01 16be
000000d0: 4df1 55bc ab67 34bc e209 28bd 62f2 abbd
000000e0: 7684 55bd 5c6a 053e fdb4 09be 2082 01bc
000000f0: 50e8 44bc ca69 513d 5dd2 0dbe ed3b b1bd
00000100: e6b1 f03d 0a81 053c 11d3 b6bd ecb6 b13d
00000110: 9b9c 8fbd 053b 08be 6f41 bbbc 2fd0 f63d
00000120: 8eef d93d ffe9 1abd 0506 f5bc f1e2 4bbd
00000130: 5e2a dbbd f683 d7bd 99a7 3cbe f7d6 3f3e
00000140: d1c5 2ebd 7e35 0c3e c528 44be 8b1e 823d
00000150: 9ac3 13bd 0f63 153e c18b 42bd b0f9 bcbc
00000160: f0e7 05be 5cda 983b 9dae 623d 4302 1c3e
00000170: d84b 273e 9e00 01be 8808 7e3d eac2 563d
00000180: 37ee 203e 6927 5abc 7231 a3bd 54ca 1e3d
00000190: eb6d da3c c2cb db3d 7f50 f83d 2aa4 3f3d
000001a0: 59ed b93d afde 963d 88aa 28be c055 243c
000001b0: 7f4e 1cbe 14c2 92bd 6694 1a3e 61a8 52bd
000001c0: 7c0b 54bd 6c59 b0bd 5a2a ec3d ae8c d4bd
000001d0: 89ab 0b3e 3d69 603c f2fe 233e 2326 7e3d
000001e0: 4af6 3d3e 162d bcbd fbf0 143e 9617 b83d
000001f0: 37b6 51bd e4b5 cdbb ea0d 1a3e a333 303e
00000200: 2463 efbd 0c4f d6bd deb5 0d3e f9ea 4bbd
00000210: 963c e9bd 1401 1cbe 80ec f53d ab20 6abd
00000220: c7c6 17be b04a 463d 58af 733d c110 7b3d
00000230: e340 84bd 137e 0b3e a9a1 9b3d 31a3 463e
00000240: 732e 163e 7af1 1e3e d11c 6dbd 12be 1c3e
00000250: 54de 5bbc d4de 05bd 4d98 0cbe 2096 a03d
00000260: 361b 963d 5751 4f3c 7bed 6dbc 483f 0cbc
00000270: 343e b23d b648 0dbe f163 d93c c7ba 6f3d
00000280: a952 17be d9ec 433e 3fa7 933d b512 c2bd
00000290: 2ec4 823d 811c 02be 89bd adbd 8093 31bc
000002a0: 0e1b b03d 2cd1 fb3d 3175 69bd bfa4 b43d
000002b0: 6119 ddbd 92c5 6abd 6494 38be 99e3 133e
000002c0: baf4 c13d b8da d4bd dd05 363e f091 383c
000002d0: 6c45 3ebd 1f21 2a3e 5c27 d7bc ec22 31be
000002e0: 1a9f 943d 48f1 3bbd 8b39 233d b0bf ce3d
000002f0: 6f7a c23d 000e 42be 95cc 0f3d ebdf 06be
00000300: c92e babd 7fef ff3b aeb7 9c3c 57b3 b03c
00000310: 8591 ce3d d9c3 c63d 6927 753d 5bce 81bd
00000320: 9602 e5bd 7c86 0bbe d88a b23d c9e1 bc3d
00000330: 9527 323e 66c2 213d a3ce 07bd b39e c5bd
00000340: de38 f9bd f8ec 073e 3b07 9fbc 1b5c b8bd
00000350: 55eb 9a3d 269f 2ebe 08ca 273d ae1c aa3d
00000360: 62dc 003e 8cee fbbc b746 c4bd 261f 9cbd
00000370: c455 193d 531f abbb f56d 57bd 6f53 b63d
00000380: 3330 82bd c99f 0dbd bd45 073e 5352 d3bd
00000390: bb38 0fbe bd6d 8abd 86fe 2f3e 974b e93c
000003a0: 75b8 033e c491 cabd c5d1 383d ac3e 083e
000003b0: f4c0 e13d 3da0 373d e50f 87bd 1c4f 143e
000003c0: 2b07 b9bd 2267 183e 9d05 273e 2b37 cc3d
000003d0: 60a1 4cbd 11c4 f9ba 882d 9ebd c21b e43c
000003e0: f90a 31be 6b57 ce3b a8c0 19be bec9 dc3d
000003f0: ac3a 063c fbd1 a4bd f35b 0abe d7ab 7d3d
-0.012866629 0.031092834 -0.1593241 0.14736848 -0.12934369 -0.09163057 -0.11098333 0.10770098
0.119054966 0.09322168 -0.15037581 0.18194117 -0.13585916 -0.08786551 -0.027233448 -0.14222749
-0.043233212 0.011419594 -0.14171758 0.09443968 -0.15257743 -0.06203554 0.035974387 0.09596653
0.14358357 0.009528058 0.057239044 0.119546354 0.16723791 0.059139613 -0.05700595 -0.010100391
0.14464816 0.041684143 -0.1503912 -0.18392484 0.039393995 0.09149016 -0.14774266 0.096953824
-0.12991413 -0.03208891 0.12951127 0.008223604 -0.028476061 -0.15655077 0.00018047543 -0.026846332
0.018410472 0.09572052 -0.020683968 -0.14649002 -0.013058019 -0.0110110445 -0.04102505 -0.0839584
-0.052128278 0.13028854 -0.13447948 -0.007904559 -0.012018278 0.05112628 -0.13849778 -0.08654008
0.117526814 0.008148441 -0.089269765 0.08677468 -0.07012292 -0.13303764 -0.02285835 0.120514266
0.106413946 -0.037820812 -0.029910097 -0.049776975 -0.1070144 -0.105232164 -0.18423308 0.18734346
-0.04266912 0.1369228 -0.19156177 0.06353482 -0.036075212 0.14588569 -0.04749656 -0.023068279
-0.13076758 0.0046647023 0.055342305 0.15235238 0.16337526 -0.12597892 0.062019855 0.05243198
0.15715872 -0.01331506 -0.07968415 0.038767174 0.026663741 0.10732223 0.121247284 0.04678742
0.090784736 0.07366692 -0.16471303 0.01003021 -0.15264319 -0.07165924 0.15095672 -0.05143011
-0.051768765 -0.08610806 0.115315154 -0.10378395 0.13639654 0.013696966 0.16015223 0.06204809
0.18550983 -0.09188287 0.14545052 0.08988874 -0.051199164 -0.0062777866 0.1504437 0.17207198
-0.116888314 -0.10464296 0.13838908 -0.049784634 -0.11388509 -0.15234786 0.120079994 -0.05716006
-0.14821921 0.04841107 0.059493393 0.061295275 -0.06457689 0.13622312 0.075991936 0.1939819
0.14666156 0.15521803 -0.05788881 0.15306881 -0.013419706 -0.03268321 -0.13729973 0.07841134
0.07329409 0.01265367 -0.014521952 -0.008560009 0.087032706 -0.13797268 0.026536914 0.058527734
-0.14777626 0.19133319 0.07209634 -0.09476224 0.063850746 -0.12706186 -0.084834166 -0.010838389
0.0859891 0.12295756 -0.056996528 0.08820485 -0.10795856 -0.057317324 -0.18025357 0.1444229
0.09470506 -0.1039328 0.17775674 0.011265263 -0.046452925 0.16614197 -0.026263885 -0.17298478
0.07256909 -0.0458844 0.0398498 0.10095155 0.094960086 -0.18950653 0.035107214 -0.13171355
-0.09090955 0.0078105326 0.019130554 0.02156989 0.100863494 0.09705324 0.059852038 -0.06338187
-0.11182134 -0.1362552 0.087178886 0.092227526 0.17397912 0.039492033 -0.03315605 -0.0964941
-0.1216905 0.1327399 -0.019412627 -0.09001943 0.07564417 -0.17052898 0.040964156 0.083062515
0.1258407 -0.030753396 -0.095838 -0.076231286 0.037435308 -0.00522224 -0.052595098 0.089026324
-0.063568495 -0.03457621 0.13210197 -0.103184365 -0.13986485 -0.06759212 0.17186937 0.028478427
0.12863334 -0.09891084 0.045121927 0.13305157 0.11023131 0.04483055 -0.065948285 0.14483303
-0.0903457 0.14883092 0.16310735 0.0997146 -0.049958587 -0.0019055625 -0.07723528 0.027845267
-0.17289342 0.006297042 -0.15014899 0.10780667 0.008192699 -0.08047863 -0.13511638 0.061931457

model_8/conv2d_16/Conv2D f4 [4, 4, 38, 1]
00000000: 9d33 71bd 91ec 25bd a453 8cbd 36c7 9cbd
00000010: d705 3ebd aa08 06bd 3d68 a73d 558a 01bd
00000020: 0030 eb3c e585 d63c 52d9 b23b 3c7d ac3d
00000030: 6c00 453c 7e4b 623d 6916 adbd c7ef 923c
00000040: 776c 5f3d d7b1 06bc f2f2 85bd 3b5d 09bc
00000050: 7590 b73c 4735 973d c7ff 29bd 8f68 99bd
00000060: f3a5 953d 3052 853d d1d2 b7bc adc9 dcba
00000070: d706 eabc 7adc cf3c 8879 96bd 6bbd f7bb
00000080: 8356 8e3d f19a 50bd 225c e73b ee5e 853c
00000090: 8c62 3e3b 6103 073d d1f5 a53d 06a1 a53d
000000a0: 525e 2b3d d195 923d 4bbd c83b 2777 f8bc
000000b0: 97ad 2f3c 7c39 183c 109a b7bb 04d4 6a3d
000000c0: be35 8fbd 7ca0 70bc c605 993d b466 e13c
000000d0: d09f 5dbd 0d71 2d3d e22b 543d d396 b53d
000000e0: f611 8bbd a9df 463b ed3a 8b3c 77d9 993c
000000f0: 2fcb 673c dfab 213d 04d7 8b3d 1283 45bd
00000100: 3877 b9bc 5ecb 513d 028b 21bb 64e6 653c
00000110: 2466 8e3d 4e14 e1bb 481f 753d 7e1c ae3d
00000120: 85f6 93bd 8c34 c4bc 99e3 c1bc c4c9 cd3c
00000130: dc04 9f3c a730 a53d e603 91bc 25c8 523d
00000140: 41ec 7b3d a323 82bd 89fd f23c 62cc a83d
00000150: e4ad ac3b d806 52bd 9b9d 623d c538 a73d
00000160: 846d 6b3d 3a5a 94bd 3f05 38bc 4447 95bd
00000170: 4bec 91bc 437c 173d 56a4 8a3d 8a9d 5dbd
00000180: 379c f3bc 6591 6c3d 4174 d0bc 2b3b 87bd
00000190: 2e82 3b3d 558f f63c 9f47 10bd dec9 05bd
000001a0: bec4 b23d 0119 493d 6f92 bc3c d6fe 1c3d
000001b0: eb52 1dbd 5fd3 563d fb9f a8bd 1a8e 3d3d
000001c0: 68c1 a13b 6bd2 d3bb ebee 55bd dafc aa3d
000001d0: 5928 a03c 136b 5d3d 4cf8 a13a 74ab 89bd
000001e0: 0965 03bd ebb9 8abd 9b52 2fbd 97c5 b13d
000001f0: f6ed 7bbd 5867 e23c 4ca3 e93c cd3f 1d3c
00000200: 5cdd a93d fa28 943d 0b1e 97bd 6284 843d
00000210: a64a 453d 9072 773d b4ff 50bc 7059 653c
00000220: a9f1 ab3d 4dae aebd ea91 42bd 4315 ea3c
00000230: 3cb7 993d a7f1 b5bc 345e b63d 7a06 cebc
00000240: 45d0 043c 36e9 833d 829d 423d 3840 923d
00000250: 2fc0 f6bb 7cdc 67bd 37de ce3c b933 253d
00000260: c577 fe3a 4b27 8dbc 2281 1c3d b084 c6bb
00000270: 075c 81bd 1968 a73d e42e 963b 6222 f03c
00000280: 0767 69bd 779a 0cbc ebb3 a2bd 4731 3cbd
00000290: a8ef 763b 6f21 363d 8b43 afbd 1f25 1a3d
000002a0: 7f88 8d3a 6119 77bd 1147 f239 7c91 8ebd
000002b0: ae89 3a3d fbc7 ebbc 2288 1fbd 87b7 ab3c
000002c0: aef9 893d 85db b23d 1263 483d 2cb9 ca3c
000002d0: 8cda 39bc d460 20bd a975 ad3d 225e b33c
000002e0: b5c0 59bd a0c0 ae3d 590b 71bd 5bef 1b3d
000002f0: 6758 17bd 8a66 b0bd 1754 81bc 768f f23b
00000300: 69b9 db3a fe0d 5f3d 82a5 753d 19fa 73bd
00000310: 57cb 7fbd 4aba 623d 8f5e 22bc 5d68 823d
00000320: 2621 a9bc 6547 a43d 2d84 053d b6b2 eb3c
00000330: 27fe aebc 45c9 82bd 2250 1b3d 0b59 0dbd
00000340: 6751 06bc d834 09ba b166 2c3d 7876 9fbd
00000350: 8ee0 83bd e23f a7bd 6a8c dbbc f58b 823d
00000360: a503 133d fe5f 1a3d 2da5 a2bc 3e09 81bd
00000370: 195b 41bc 5847 2ebd 510f dabc aa3e d9bc
00000380: 3ad8 5d3d 2869 b63d f087 1a3c 45ef 2f3d
00000390: 1733 07bd 7e91 af3d 38b3 60ba 0883 e6bc
000003a0: 849f 96bc 225e df3c 1d10 923d 1351 243d
000003b0: 9df9 883d 0e81 a8bd 7754 7bbc f19d 943b
000003c0: 7abc 853c 66d2 bcbd a635 87bc 5521 abbd
000003d0: 8827 87bd 6894 1bbd 6aa4 c1bc 28a7 11bc
000003e0: bc53 b13d baad 223d b2e7 8b3d 5318 aebd
000003f0: 1723 8d3d 179f 2cbd 778f 9ebd f2c4 94bd
-0.058887113 -0.04050881 -0.06851891 -0.07655184 -0.046392288 -0.032723106 0.08174179 -0.031626064
0.028709412 0.026186893 0.0054580355 0.08422324 0.012024026 0.055247776 -0.0845154 0.0179366
0.0545468 -0.008221111 -0.06540479 -0.008384044 0.02240775 0.07383209 -0.041503694 -0.07490646
0.07307043 0.06509817 -0.022439392 -0.0016844772 -0.028567715 0.025373686 -0.07347399 -0.007560422
0.069500946 -0.050929014 0.0070605436 0.016280618 0.0029050438 0.032962207 0.081035264 0.080873534
0.041837998 0.071574815 0.006126081 -0.030330254 0.010722539 0.009291049 -0.0056030825 0.0573311
-0.069926724 -0.0146867 0.07471804 0.027514793 -0.054107487 0.04234414 0.051799662 0.08866658
-0.06790535 0.0030345714 0.016995871 0.018780453 0.014147564 0.03947055 0.0682812 -0.0482207
-0.022639856 0.051219337 -0.0024649506 0.01403198 0.069530755 -0.0068688756 0.059844285 0.08501528
-0.07224754 -0.023950838 -0.023668097 0.025120623 0.019411497 0.0806592 -0.017702054 0.051460404
0.061504606 -0.063544534 0.02966191 0.08242108 0.005269753 -0.051276058 0.055326086 0.08165125
0.05747749 -0.07243772 -0.0112317195 -0.072889835 -0.017812869 0.03698374 0.06769626 -0.05410532
-0.029737575 0.057755847 -0.02544606 -0.06603082 0.045778446 0.030097643 -0.035224553 -0.03266322
0.08728932 0.04909611 0.023019044 0.038328968 -0.038409155 0.052447673 -0.08233639 0.046278097
0.004936386 -0.0064642928 -0.052229803 0.08349009 0.01955049 0.054057192 0.0012357323 -0.06722155
-0.032078777 -0.06773742 -0.042803388 0.086802654 -0.061506234 0.027637169 0.028520249 0.009597731
0.08294174 0.07234378 -0.07378777 0.064705625 0.048166893 0.06041199 -0.012756277 0.013998374
0.083957024 -0.08529339 -0.047502436 0.028574592 0.07505652 -0.022209955 0.089046866 -0.025149573
0.008106296 0.06440966 0.047513492 0.07141155 -0.0075302343 -0.056606755 0.025252445 0.04033253
0.0019414356 -0.01723065 0.03820909 -0.006058298 -0.06316381 0.08174152 0.0045832265 0.02931327
-0.05698302 -0.008581749 -0.07944473 -0.045945432 0.0037679467 0.04446548 -0.08557805 0.037633058
0.0010798125 -0.060326938 0.00046210786 -0.06961343 0.045541458 -0.028781882 -0.038948186 0.020961536
0.06737076 0.08733276 0.048922606 0.0247465 -0.01134361 -0.039154842 0.084697075 0.021895472
-0.053162295 0.08532834 -0.058848713 0.038070064 -0.03694954 -0.08613308 -0.015787167 0.007402356
0.001676363 0.054456703 0.059972294 -0.059564684 -0.06244978 0.05535344 -0.00991024 0.06367562
-0.02064569 0.0802143 0.032596756 0.02877174 -0.021361424 -0.06386045 0.037918217 -0.034508746
-0.008198119 -0.00052340096 0.04209012 -0.07786268 -0.06439315 -0.081664816 -0.026800353 0.06374351
0.035892148 0.0376892 -0.019854153 -0.06300591 -0.0118015045 -0.042548507 -0.026618632 -0.026519138
0.054161288 0.08906776 0.009431824 0.042952795 -0.033007707 0.08572672 -0.00085716275 -0.028138652
-0.01838661 0.027266566 0.071319796 0.04011638 0.06688235 -0.0822774 -0.015339962 0.0045354296
0.016325224 -0.09219818 -0.016505074 -0.08355967 -0.06599337 -0.037983328 -0.023637969 -0.008889951
0.08658549 0.03971646 0.06831302 -0.08500733 0.068914585 -0.042143907 -0.077422075 -0.07264127

model_8/dense_16/BiasAdd/ReadVariableOp/resource f4 [10]
00000000: b831 0abd c0fe 91bb 22e3 ab3b 8107 56bb
00000010: ec36 463c b351 cbbb 7eae 553b 063c ad3c
00000020: f9f5 1dbb 5f6b 34bc
-0.03373882 -0.0044554174 0.005245582 -0.0032658281 0.012098055 -0.0062048077 0.0032605226 0.021146785
-0.002410291 -0.011011927

model_8/layer_normalization_24/add/ReadVariableOp/resource f4 [4]
00000000: dab6 f23b 713d d8ba c09b f039 2a6e 1cbc
0.0074070515 -0.0016497803 0.0004589241 -0.0095477495

model_8/layer_normalization_24/mul_4/ReadVariableOp/resource f4 [4]
00000000: 3823 7f3f 0ddb 7f3f 805f 7f3f 6680 813f
0.99663115 0.9994362 0.99755096 1.0117309

model_8/layer_normalization_25/add/ReadVariableOp/resource f4 [12]
00000000: a6d4 c139 2a99 89bc 77b7 0539 71e8 08bd
00000010: 0a45 033c 665b 06bc 84b5 053c 19f5 1e3b
00000020: faad 1d3c 63af 5ebc 0f53 ed3b bdf7 0cbb
0.00036970264 -0.016796667 0.00012752214 -0.0334248 0.008012066 -0.008200502 0.0081609525 0.0024254976
0.009623999 -0.01359162 0.0072425674 -0.0021509968

model_8/layer_normalization_25/mul_4/ReadVariableOp/resource f4 [12]
00000000: 57ed 7f3f e751 823f 24ce 7f3f 273e 863f
00000010: 8cd2 803f 5843 813f d007 7e3f 6255 7f3f
00000020: c5be 7d3f 94cc 813f cd9c 7e3f 08e6 803f
0.99971527 1.0181245 0.9992392 1.0487717 1.0064254 1.0098677 0.9923067 0.9973966
0.99119216 1.0140557 0.9945801 1.00702

model_8/layer_normalization_26/mul_2/ReadVariableOp/resource f4 [10]
00000000: 4f05 7f3f 133b 7f3f e611 7c3f 9c9c 7e3f
00000010: 1d80 7e3f 4504 7b3f 913c 6c3f c30c 7f3f
00000020: a731 7e3f 9e9e 7e3f
0.99617475 0.99699515 0.9846481 0.99457717 0.99414235 0.9805339 0.92279917 0.9962885
0.99294513 0.9946078

model_8/dense_16/MatMul f4 [10, 228]
00000000: 001c eebd 1389 d93d b0d7 f23d 7fb9 3e3e
00000010: 1013 4abe 937d 2b3e f147 613d 4257 4cbd
00000020: f00f d0bd 445b 493d 7671 3c3e c3ec d1bd
00000030: 98b4 69bd 4fa4 e0bd 3701 2cbe aba5 913c
00000040: ca83 28be 1808 253e 64aa 1dbd c782 f3bd
00000050: 7094 c13d f89c 823d 580d 4ebd c524 0fbe
00000060: a93a be3d 43e3 aebd 15d6 15be 6e90 323c
00000070: bd73 4cbe 9e7a 153d c5a4 3a3e b641 32be
00000080: 9ead f63c 0a2b 4e3d b83b 33bd cd04 0a3e
00000090: 668f e03d 9a76 97bd ef14 e23d 28d6 0e3c
000000a0: 023b ee3d b5c8 c73c 53e8 323e 168a aebd
000000b0: 467c 1b3e ea9f b43d 7d4f a2bd 6d14 8d3c
000000c0: 7a71 2e3e 6e55 58bd a450 bb3a 74d4 0c3e
000000d0: a5de 1dbe 9fe1 303d fe99 ecbd aae6 acbc
000000e0: efe5 333c 2dc3 303e 94f1 fe3d 7819 963d
000000f0: d2ea 0abd 2a46 61bd b32c aebd f1b0 0e3d
00000100: 9a11 0b3d c621 283e 9828 293e 6013 17be
00000110: a63c 1c3d ae3b 403e a212 3e3e 2afd a53d
00000120: e941 28bd 464f 463d 1aab a3bd 9029 08bd
00000130: 01f6 023d 86e6 ab3d 72c0 a9bb 5b54 963d
00000140: d6dc 183e 0818 97bd 16e5 a13c 036a 3b3d
00000150: 22ea c2bd c82c 753d 3611 1cbe 13de 44bd
00000160: 1186 46be 6d8f 36bd 8c68 363d 1884 27be
00000170: 2c3d d7bd f1c3 243c 0ce0 98bd d2e2 b8bd
00000180: 70a3 973d 0b72 d23d c414 683d 471f bd3d
00000190: dc32 13be 162f dc3d 3e76 3a3e 49c6 94bd
000001a0: 3a65 8bbb 705e 263e 11ce 253e f716 ad3d
000001b0: ef49 543d 1019 d7bd 5465 05bd 80ad 0d3d
000001c0: 541b b93c 4b62 313e 0d46 b3bb 8b28 b23d
000001d0: db85 113d 690f 4d3e 69f1 dc3d 40b8 c4bd
000001e0: 4bc0 f4bd 137e 9b3c 67b1 873d 924d d5bc
000001f0: 648e 13bd fe7f 20bd 1e95 12bd 9826 04be
00000200: 2caf a0bd 0f42 efbd 8393 8c3d 5863 90bd
00000210: 0a90 2e3e 9f81 b53d 990f 38bd 0689 fc3c
00000220: a737 10be 4463 8fbd e149 bc3d e2d5 f9bd
00000230: 7bc8 f83d 546d e6bc cdf1 3b3e 527b 243c
00000240: e334 f33d a8f8 99bd 5575 8ebd 7c35 4c3e
00000250: e38e ae3c 212c 2c3e 42fd 3c3e f446 39bd
00000260: a2e4 bfbd a8e7 073d 93bf 5b3c 3544 873d
00000270: aeef 893b 0efc ee3b 5af8 10be 3504 de3d
00000280: 14e3 933d ef76 303d b8a7 0fbd eaac bcbd
00000290: a2cf d13b 2443 263e 48cd 213e 13b2 433d
000002a0: aeab 3f3e 526f 203e e808 c53d 6187 003e
000002b0: cc27 353c 18ce d83d 3593 1b3e bc03 b13c
000002c0: 8115 9f3d 1dd4 f5bb bb7d 61bd 31f5 1ebe
000002d0: 8085 c83d 7485 153e 4b91 d83d d8d7 d7bc
000002e0: 7020 aabd 016b 113e 485f 9ebc 43ef 94bd
000002f0: 2792 3e3d 31ee 243e 79ed 91bd 359a cabd
00000300: 8464 1bbc 2249 7c3b 33f0 a63d 3200 bbbd
00000310: bcba e93d 2978 663b 35a8 bf3b fae7 46bc
00000320: 1e56 05bd 85ca 493e f100 c2bd 49e5 0b3e
00000330: dad1 b63d ce0a df3d ad3f c33c a48c c1bd
00000340: b32b cfbc a2b1 2a3e 92c6 18bc 9d10 f6bd
00000350: 6955 a9bb 21f6 2e3e 041a 1f3e 5c50 c6bd
00000360: b3e9 773d 2f28 d13d f254 bd3d 494a 1c3d
00000370: 200c 0ebe 4196 8a3d a7f0 283e 8cb3 69bc
00000380: 2b94 0c3e 7b04 f13d 95bf 133e 90e0 ff3c
00000390: 4eda d83d b795 8e3d 59dd 8dbd 0010 123e
000003a0: 0f75 46bd 4557 debd 9532 103e ea57 153e
000003b0: 17c0 fe3c 76c9 47bd c0b0 083e 1b33 41bd
000003c0: bab3 d23d e737 c03c c312 aebb c85c eabd
000003d0: 768f 02be 18fa 0e3e 75e8 d0bc 38b5 b0bd
000003e0: 19e8 8abc 9220 a3bd 2608 2a3d 7b63 913c
000003f0: 803e febc 7125 a3bd f971 41bd 8b5b 9a3d
-0.11626434 0.10621848 0.118575454 0.18625449 -0.19733834 0.16747122 0.05500025 -0.049887903
-0.1015929 0.049159303 0.18402657 -0.10250237 -0.057056993 -0.109688394 -0.16797338 0.017779192
-0.16456524 0.16116369 -0.038492575 -0.11890178 0.0945214 0.06377596 -0.050305694 -0.1397887
0.09288532 -0.085394405 -0.14632447 0.0108986925 -0.19966026 0.03649389 0.18226917 -0.17407879
0.030112084 0.050334014 -0.043758124 0.13478394 0.10964851 -0.07395668 0.11039149 0.008718051
0.116323486 0.024387697 0.17471437 -0.085224316 0.15184125 0.08819564 -0.079253174 0.017221654
0.17035475 -0.052815847 0.0014291 0.1375292 -0.15416963 0.04318392 -0.11552809 -0.021106083
0.010980113 0.17261954 0.12448421 0.073290765 -0.03391535 -0.054998554 -0.085046194 0.034836713
0.033952333 0.16419134 0.16519392 -0.14753485 0.038143776 0.18772766 0.18561795 0.08104928
-0.04107848 0.048415445 -0.079916194 -0.033242762 0.03197289 0.08393578 -0.005180412 0.07340308
0.14927992 -0.073776305 0.019762557 0.045755398 -0.095173135 0.05985716 -0.1524094 -0.04806335
-0.1938708 -0.044570375 0.044533297 -0.16358984 -0.105097145 0.010056482 -0.074646086 -0.090276375
0.0740422 0.10275658 0.05666043 0.09234481 -0.1437487 0.107511684 0.18209168 -0.072643824
-0.0042540105 0.16246963 0.1619189 0.08451646 0.05182832 -0.10502827 -0.032567337 0.03458929
0.022596039 0.17322652 -0.005470997 0.08699139 0.035528045 0.2002541 0.10788233 -0.096054554
-0.119507395 0.018981015 0.06625634 -0.026037965 -0.036024466 -0.039184563 -0.03578674 -0.12905347
-0.078459114 -0.116825216 0.06864073 -0.07050198 0.17047134 0.08862614 -0.04493675 0.030827057
-0.1408373 -0.07001355 0.09193779 -0.12198998 0.121476136 -0.028128304 0.18353958 0.0100391675
0.11875322 -0.075181305 -0.06955973 0.19942278 0.021308368 0.16813709 0.18455985 -0.04523368
-0.0936978 0.03317991 0.013412374 0.06604806 0.0042094802 0.007293231 -0.14157239 0.10840646
0.07221046 0.043082174 -0.03507206 -0.09212668 0.0064029256 0.1623655 0.15800965 0.047777247
0.18717834 0.15667465 0.09620839 0.12551643 0.011056852 0.10586184 0.15192874 0.021608226
0.077677734 -0.0075020925 -0.055051547 -0.1552322 0.09791088 0.1460169 0.105745874 -0.02634804
-0.08306968 0.14200975 -0.019332543 -0.07272198 0.0465261 0.16106488 -0.071253724 -0.09892694
-0.009484414 0.003849574 0.08151283 -0.09130897 0.1141257 0.0035166836 0.0058489093 -0.012140268
-0.03255283 0.19706161 -0.09472836 0.13661684 0.08926745 0.10890733 0.023834074 -0.09450653
-0.025289392 0.16669324 -0.009324687 -0.120148875 -0.0051676524 0.17086078 0.15537268 -0.09683296
0.060525607 0.102127425 0.09244718 0.03815678 -0.13871813 0.0676694 0.16498052 -0.014263999
0.13728397 0.11768433 0.14428551 0.03123501 0.10588513 0.069621496 -0.06926984 0.14263916
-0.04845148 -0.10856489 0.14081796 0.14584318 0.031097455 -0.048776112 0.13348675 -0.04716788
0.10288186 0.023464156 -0.005312295 -0.11443478 -0.12750039 0.1396259 -0.02550147 -0.08628315
-0.016956376 -0.07965197 0.041511677 0.017747631 -0.031035662 -0.07966126 -0.047227833 0.07536992

model_8/dense_17/MatMul f4 [1, 10]
00000000: 50aa 0dbe 8dbe 263f 675d b83e 2845 10bf
00000010: c746 68be 5af0 2b3f 580d 88be 973b f1bd
00000020: 0b55 1bbf 11b8 3dbe
-0.138345 0.6513451 0.3600876 -0.56355524 -0.2268325 0.6716362 -0.2657268 -0.11778944
-0.6067664 -0.18527247
