src/main/assets/10.tflite (tflite, 28724 bytes, 12 tensors)

model_10/conv2d_21/BiasAdd;model_10/conv2d_21/Conv2D;model_10/conv2d_21/BiasAdd/ReadVariableOp/resource f4 [12]
0	0x3c803843	0.015651828
1	0xbc1f6f0e	-0.009731067
2	0xbba09d7e	-0.004901587
3	0xbc0bb8e3	-0.008527967
4	0x3c061327	0.008183277
5	0xbc279615	-0.010228653
6	0x3a7c4db3	0.0009624615
7	0xbbc933fb	-0.0061402298
8	0xbc159a86	-0.00913108
9	0x3a940a5a	0.0011294589
10	0x3bc1c874	0.0059137885
11	0x3c0b9c85	0.008521204

model_10/conv2d_20/BiasAdd;model_10/conv2d_20/Conv2D;model_10/conv2d_20/BiasAdd/ReadVariableOp/resource f4 [4]
0	0x3c44b78d	0.012006653
1	0xba64c249	-0.00087264605
2	0xbc33a20a	-0.010963926
3	0x3bfb8010	0.0076751783

model_10/conv2d_21/Conv2D f4 [12, 1, 11, 4]
0	0xbdfcaf1c	-0.12338087
1	0xbde01cbc	-0.10942981
2	0xba7a8e40	-0.000955794
3	0x3dee0952	0.116228715
4	0x3cb8b628	0.022547796
5	0x3de4b369	0.11167032
6	0x3c9a7435	0.01885424
7	0x3d3cca53	0.04609139
8	0x3e5273db	0.20552008
9	0x3e10dbf0	0.141464
10	0xbe21593f	-0.15756701
11	0xbd3fda75	-0.046839196
12	0xbdc49cb0	-0.09600198
13	0x3e0c202e	0.1368415
14	0xbda6664b	-0.081249796
15	0xbe2812d7	-0.16413437
16	0x3e2ce9ad	0.16886015
17	0x3cb6b9b0	0.02230534
18	0xbddf90fe	-0.10916327
19	0xbc049cb2	-0.008094
20	0x3e4543e9	0.19264187
21	0x3dd562cd	0.104192354
22	0xbd934aa2	-0.071919695
23	0xbdcd4690	-0.10023224
24	0x3d2cc526	0.042180203
25	0x3e108940	0.14114857
26	0xbdddfe40	-0.1083951
27	0x3dcd8428	0.100349724
28	0x3e49c521	0.19704105
29	0x3e25db9f	0.1619706
30	0xbe182aeb	-0.14860122
31	0xbe0c5530	-0.13704371
32	0xbddcf548	-0.10788971
33	0xbe05162f	-0.12996744
34	0xbd02d95d	-0.031945575
35	0xbdfe6ac2	-0.12422706
36	0xbe13367b	-0.14376251
37	0xbd06b91e	-0.032891385
38	0xbda44b14	-0.080221325
39	0xbe013e96	-0.12621531
40	0xbd28d575	-0.041219193
41	0xbe0372aa	-0.1283671
42	0xbe2b062e	-0.16701576
43	0xbdcb51d6	-0.09927718
44	0xbe02955b	-0.12752287
45	0xbd3125c8	-0.04324892
46	0x3cd2b3e4	0.025720544
47	0xbd97ea0c	-0.07417688
48	0x3c617fb3	0.013763356
49	0x3e1934b0	0.14961505
50	0xbd71ed67	-0.059064295
51	0x3ce0c71c	0.027438693
52	0x3cef657d	0.029223198
53	0x3c47d20d	0.012196076
54	0x3de02b45	0.10945753
55	0xbdf42c48	-0.119225085
56	0xbe139840	-0.14413548
57	0x3dc3eacb	0.095662676
58	0x3e462114	0.19348556
59	0x3e0880af	0.13330339
60	0xbd5bdf3e	-0.053679697
61	0xbe2849e2	-0.16434434
62	0x3cc2bd5d	0.023771936
63	0xbe1c460a	-0.15261093
64	0xbde37b69	-0.11107523
65	0x3bb12006	0.005405429
66	0xbd944201	-0.07239152
67	0xbd8d0766	-0.06886177
68	0xbe2ac6c3	-0.16677384
69	0xbdabec8c	-0.08394727
70	0x3cbdceb7	0.023169858
71	0xbdb9ac9b	-0.09066125
72	0x3ccaa910	0.024738818
73	0x3e22f736	0.15914616
74	0x3cabb444	0.02095998
75	0xbe0dd033	-0.13848953
76	0x3dcc3ad5	0.09972159
77	0xbcb77b7d	-0.022397751
78	0xbe00b12b	-0.12567584
79	0xbdc48d42	-0.09597255
80	0x3de50d35	0.1118416
81	0x3d257a64	0.040399924
82	0x3e2458e1	0.1604953
83	0x3dfd4f3f	0.123686306
84	0x3d928a8a	0.071553305
85	0xbe1e0b41	-0.1543398
86	0xbd6f75f0	-0.058462083
87	0x3dd58226	0.104252145
88	0xbe43f7a1	-0.19137432
89	0x3d75f03a	0.06004355
90	0x3e370dea	0.17876402
91	0xbda73077	-0.08163541
92	0x3d5faea0	0.054609895
93	0xbdcecc7a	-0.100975946
94	0x3e18bbe8	0.1491543
95	0xbdced945	-0.101000346
96	0x3cbc9f5e	0.023025211
97	0x3e135f15	0.1439174
98	0x39df1160	0.0004254682
99	0xbdf62a9a	-0.12019844
100	0x3c0620ed	0.008186561
101	0x3da7dd86	0.08196549
102	0xbc85f69d	-0.016352946
103	0x3d560d87	0.052258994
104	0xbd20b954	-0.039239243
105	0xbdd53e7f	-0.10412311
106	0xbe2159f9	-0.15756978
107	0xbe183bd3	-0.14866571
108	0x3e217ebc	0.15771002
109	0x3d04a1a8	0.03238073
110	0x3e03de09	0.12877668
111	0x3c263c3c	0.010146197
112	0xbe4a7d03	-0.1977425
113	0xbdc93912	-0.098253384
114	0xbd91b306	-0.07114224
115	0x3d54f116	0.05198773
116	0x3dbb2002	0.091369644
117	0xbd7af985	-0.061273117
118	0xbdc4d13f	-0.09610223
119	0x3d52190c	0.051293418
120	0x3e2e7b41	0.17039205
121	0xbe010611	-0.1259997
122	0xbd61d50f	-0.05513483
123	0x3e0d0cba	0.13774386
124	0x3d940c00	0.07228851
125	0x3d1e44eb	0.038639944
126	0xbcf001d5	-0.029297749
127	0xbe29aca2	-0.1656976
128	0x3d9b0595	0.07569424
129	0x3da369b8	0.079791486
130	0xbdd762d0	-0.10516894
131	0x3da89890	0.08232224
132	0x3e0c1651	0.13680388
133	0xbcfad7c7	-0.030620469
134	0x3dc7b98d	0.09752188
135	0xbcc56c79	-0.024099575
136	0xbd15278b	-0.036414664
137	0x3e335309	0.17512144
138	0x3dc4b05f	0.096039526
139	0xbdddf5b0	-0.10837877
140	0x3dd1ce94	0.1024448
141	0xbe0b71ff	-0.13617705
142	0x3e33e94c	0.17569464
143	0x3e123630	0.14278483
144	0xba858d6b	-0.001018924
145	0x3e1c8ee0	0.15288877
146	0xbdfb40e9	-0.1226824
147	0x3b947a89	0.004531209
148	0x3e015214	0.12628967
149	0x3e2f70f4	0.17132932
150	0xbc4a0d56	-0.012332281
151	0x3dd5bfba	0.104369596
152	0xbdef05d0	-0.116710305
153	0xbbdb159b	-0.006685925
154	0x3d43fed8	0.04785046
155	0x3e1aed74	0.15129644
156	0x3e0a5a6b	0.13511054
157	0x3e303f9c	0.17211765
158	0xbdc0d932	-0.09416427
159	0x3d21eb09	0.039530788
160	0xbdcec406	-0.10095982
161	0xbde07d40	-0.109613895
162	0xbe1680af	-0.14697526
163	0x3e0ee0c8	0.13952935
164	0xbd889c27	-0.06670409
165	0x3db1a00d	0.086731054
166	0x3d30da60	0.04317701
167	0x3d593ed2	0.053038426
168	0x3e1cdc46	0.15318403
169	0x3d17c80e	0.03705602
170	0x3e3ab43c	0.18232816
171	0x3e31c64d	0.17360802
172	0x3c0ef7ed	0.008726102
173	0xbe0757a1	-0.13217022
174	0x3c27ba8b	0.010237346
175	0x3e097493	0.13423376
176	0x3b88d092	0.004175254
177	0xbc3b748c	-0.011441361
178	0xbcedf197	-0.029045863
179	0x3dd12b4b	0.102133356
180	0x3d3de1d0	0.04635793
181	0xbe211b2a	-0.15733019
182	0xbd91c028	-0.07116729
183	0xbd85cc25	-0.06533078
184	0xbe0a630f	-0.1351435
185	0xbd9c5dc3	-0.07635071
186	0x3d9360a4	0.07196167
187	0x3de4365e	0.11143182
188	0xbe1b860a	-0.1518785
189	0x3d2f097d	0.042733658
190	0x3e2c32ec	0.168163
191	0x3d461a88	0.048365146
192	0xba6f6e64	-0.0009133576
193	0x3dd98e1c	0.10622808
194	0x3cf0ba55	0.029385725
195	0x3cb33839	0.021877395
196	0x3d251a3c	0.040308222
197	0xbd31f7ad	-0.043449093
198	0x3e21c3f4	0.15797406
199	0xbcd0cb01	-0.025487425
200	0xbdbfc8d1	-0.093644746
201	0x3a96f606	0.0011517412
202	0x3d12ebdd	0.035869468
203	0x3e1f49f1	0.1555555
204	0xbe2b844e	-0.16749689
205	0xbaf32e46	-0.0018553219
206	0xbe088b9c	-0.13334507
207	0x3d2e06de	0.042487018
208	0x3e2eeca0	0.17082453
209	0x3decfec1	0.11572028
210	0x3d373c2d	0.044735122
211	0xbda0057e	-0.078135476
212	0x3e3b97df	0.18319653
213	0xbe1edb14	-0.15513259
214	0xbd6d6e9e	-0.05796682
215	0xbcde6504	-0.027147777
216	0xbda1da8a	-0.07903011
217	0x3cd4cd16	0.025976699
218	0x3cd2f103	0.025749689
219	0xbc51e7b8	-0.012811594
220	0xbd81f00d	-0.06344614
221	0x3e1a43cc	0.15064925
222	0xbbaa2f94	-0.00519366
223	0x3b7e92ac	0.0038844747
224	0x3dd29093	0.102814816
225	0xbd463118	-0.048386663
226	0x3d63cbec	0.055614397
227	0xbd3997ca	-0.045310773
228	0x3d69441a	0.056949712
229	0xbe3b82f8	-0.1831168
230	0xbdae2187	-0.085024886
231	0xbdd9f9b9	-0.10643334
232	0x3e13f61c	0.14449352
233	0x3dbb2926	0.09138708
234	0xbdeca52d	-0.11554942
235	0xbd75d103	-0.060013782
236	0xbdd4b18f	-0.10385429
237	0x3dcc771d	0.099836566
238	0xbd4ed888	-0.05049947
239	0x3d33c962	0.043893225
240	0x3e094f66	0.13409194
241	0x3b018fd8	0.0019769575
242	0x3dfaff4a	0.12255724
243	0xbd88156e	-0.066447124
244	0x3c5bebb2	0.013422893
245	0x3da5a90b	0.08088883
246	0xbc8190da	-0.01581614
247	0xbe227dd9	-0.1586832
248	0xbe2d21af	-0.1690738
249	0xbd92f6bd	-0.07175968
250	0x3e35a6cb	0.17739408
251	0xbe2d18d2	-0.16904
252	0xbdb27edd	-0.087156035
253	0x3d07a1e6	0.033113383
254	0xbdb9a2b8	-0.09064239
255	0x3cdc9d25	0.026930401

model_10/conv2d_20/Conv2D f4 [4, 4, 38, 1]
0	0x3db7c884	0.08973792
1	0xbd270150	-0.040772736
2	0x3c471069	0.012149909
3	0xbb5a5ca2	-0.0033319374
4	0xbb9cced3	-0.0047853976
5	0x3d9b9719	0.07597179
6	0x3d8f888c	0.07008466
7	0xbcbed78f	-0.023296146
8	0xbcbf992f	-0.023388473
9	0xbd9a0572	-0.0752057
10	0x3c9b5544	0.018961556
11	0x3d76d02e	0.06025713
12	0x3da4cea5	0.08047227
13	0xbc89d6ef	-0.016826121
14	0xbc447812	-0.011991518
15	0x3d8a2664	0.06745604
16	0x3d14bb46	0.03631141
17	0x3cf8e33d	0.030381793
18	0xbd8344cf	-0.064096086
19	0x3c8ef02f	0.017448513
20	0xbd73fbef	-0.059566434
21	0xbd661f0a	-0.056181945
22	0x3daeaf51	0.08529533
23	0x3ba5b756	0.0050572557
24	0xbc4659e0	-0.012106389
25	0xbb7c4792	-0.0038494808
26	0xbd937c34	-0.07201424
27	0x3dae6030	0.0851444
28	0x3d32d7d0	0.043662846
29	0x3d968e47	0.07351356
30	0x3d2640f7	0.0405893
31	0x3a0fbbc3	0.0005482996
32	0x3d7690d1	0.0601967
33	0x3cd779e9	0.026303248
34	0x3d872e99	0.06600685
35	0x3db07023	0.086151384
36	0xbcc95861	-0.024578275
37	0xbd80257b	-0.06257149
38	0xbcc929cc	-0.024556063
39	0x3be2835b	0.0069126314
40	0x3d497687	0.049185302
41	0x3d9eb613	0.07749572
42	0x3d9c70ec	0.07638726
43	0x3d92ad73	0.07161989
44	0x3cb25e9c	0.021773629
45	0x3db2e6a7	0.087354
46	0x3d6ebbe3	0.05828465
47	0x3d6a543d	0.057209242
48	0xbd8badb1	-0.068202384
49	0xbd5469e5	-0.0518588
50	0xbd54fcee	-0.051999025
51	0xbd10243b	-0.035190802
52	0xbd5933b1	-0.053027812
53	0xbd46c33d	-0.048526037
54	0xbc5486e3	-0.012971613
55	0xbd71f449	-0.05907086
56	0xbc8ecec7	-0.017432583
57	0x3b3c2b1a	0.0028712214
58	0x3dc58e56	0.09646289
59	0xbd063562	-0.032765754
60	0xbcbbeeac	-0.022940956
61	0x3d19f207	0.03758433
62	0xbc416405	-0.011803632
63	0x3dba509a	0.09097405
64	0x3dbb480a	0.091446
65	0x3d4bfbfd	0.04980086
66	0xbc041d86	-0.00806368
67	0x3d882560	0.06647754
68	0x3c108d6b	0.008822779
69	0x3cffd54c	0.031229638
70	0xbac3ba82	-0.0014932903
71	0x3c52c3ad	0.012864036
72	0xbc99d910	-0.018780261
73	0xbb4748e9	-0.0030408448
74	0x3c3f9431	0.011693046
75	0x3d7f1cdc	0.06228338
76	0xbd459f44	-0.04824759
77	0x3cfccf3e	0.03086054
78	0x3d60edb6	0.0549142
79	0xbd0db012	-0.03459174
80	0x3d1cf784	0.038321987
81	0x3afa29c2	0.0019085931
82	0xbd04336d	-0.032275606
83	0x3d87f28d	0.0663806
84	0xbd5e7d49	-0.0543187
85	0xbd88347e	-0.06650637
86	0x3d23eb0a	0.040019073
87	0xbd078304	-0.03308393
88	0x3d80f6d0	0.06297076
89	0xbd4920d0	-0.049103558
90	0x3d5f4031	0.054504577
91	0x3d86060d	0.06544123
92	0x3dccb0f0	0.09994686
93	0x3d6a7063	0.057236087
94	0x3da840f3	0.08215513
95	0x3d922c1d	0.0713732
96	0xbd84d90c	-0.06486711
97	0x3bea9cae	0.007159791
98	0xbd33e312	-0.043917723
99	0x3d959514	0.07303825
100	0x3cccf5c7	0.02501954
101	0x3ce84145	0.028351435
102	0xbd9196c6	-0.07108836
103	0xbc783c12	-0.015151041
104	0x3dc98332	0.09839477
105	0xbb19e76d	-0.0023483888
106	0xbc393eca	-0.011306474
107	0x3d8e83fe	0.06958769
108	0x3dc10877	0.09425443
109	0x3d83a580	0.06428051
110	0xbca6d70e	-0.020366218
111	0x3dc53f3c	0.096312016
112	0xbc8e12b8	-0.01734291
113	0xbd0539d0	-0.032525837
114	0x3cf2b543	0.029627448
115	0xbd64a3e1	-0.05582035
116	0xbd67b3e6	-0.05656805
117	0x3b4c4374	0.0031168135
118	0x3d3f94c5	0.046772737
119	0x3cd67f42	0.026183728
120	0x3d9220c3	0.07135155
121	0xbd34a318	-0.04410085
122	0xbc420e1f	-0.011844187
123	0x3d0aaefe	0.03385829
124	0x3d1762fc	0.036959633
125	0x3d8edd3e	0.06975792
126	0xbd0e88c3	-0.034798395
127	0xbcdc5c48	-0.026899472
128	0xbaa898c2	-0.0012862908
129	0x3d54c468	0.05194512
130	0x3d823855	0.06358401
131	0xbd35b27c	-0.04435967
132	0xbca5578b	-0.020183345
133	0x3d182a1f	0.037149545
134	0x3dac92b0	0.08426416
135	0x3c0d4449	0.0086222375
136	0x3dae399b	0.08507081
137	0x3d96a671	0.07355965
138	0xba614906	-0.000859395
139	0x3d3f993f	0.046777006
140	0xbd8534a1	-0.06504179
141	0x3d863350	0.06552756
142	0xbbb29e7d	-0.005451022
143	0x3d02864c	0.031866357
144	0x3d0c025b	0.034181934
145	0x39dab76e	0.00041716866
146	0x3bb495c5	0.005511018
147	0xbc9194fb	-0.017771235
148	0x3dc63357	0.09677761
149	0xbc5b2e70	-0.013377771
150	0x3d49fd42	0.04931379
151	0xbd8d3810	-0.06895459
152	0xbd1becb8	-0.03806755
153	0x3ab9ad50	0.0014166031
154	0xbcfe9d53	-0.031080877
155	0xbc53a6c5	-0.012918179
156	0x3c41c5df	0.011826961
157	0xbd62439e	-0.055240266
158	0x3d44e672	0.048071332
159	0x3d70a8dd	0.05875479
160	0x3c99f63b	0.01879417
161	0x3d92e7ce	0.071731195
162	0xbca63ac6	-0.020291697
163	0xbc1d7611	-0.009610669
164	0xbd7f4456	-0.06232103
165	0xbcaa5882	-0.020794157
166	0x3d0c4cee	0.034253053
167	0xbd545729	-0.051840935
168	0x3d7fa6a3	0.062414777
169	0xbd284574	-0.04108186
170	0x3d96cd9e	0.07363437
171	0xbd5d0aa1	-0.053965215
172	0x3c96747a	0.018366087
173	0xbd041b1f	-0.032252427
174	0xbcea31e8	-0.02858825
175	0x3d90535b	0.07047149
176	0x3d9ec576	0.077525064
177	0xbd4a997f	-0.04946279
178	0xbd283644	-0.041067377
179	0x3d8b2245	0.06793646
180	0xbd078672	-0.0330872
181	0x3d11a3bc	0.03555654
182	0x3d194401	0.03741837
183	0x3d5f947e	0.054584973
184	0xbced1af9	-0.028943526
185	0xbb9c05d2	-0.004761436
186	0x3d8e4bbc	0.06948039
187	0xbbe562ac	-0.007000288
188	0xbae78ad5	-0.0017665277
189	0x3d0116cf	0.031515893
190	0xbd43f507	-0.0478411
191	0x3c99d7f9	0.018779742
192	0x3da9d219	0.08292026
193	0x3da447d1	0.080215104
194	0x3d891ed3	0.066953324
195	0xbd243bd3	-0.040096115
196	0x3d987b63	0.07445409
197	0xbd32519a	-0.043534853
198	0x3d9eb24a	0.0774885
199	0xbc9003ea	-0.017579991
200	0x3cc9e689	0.02464606
201	0xbdbabc2e	-0.09117924
202	0xbda9913f	-0.082796566
203	0xbd459ab7	-0.04824325
204	0xbd9e506d	-0.07730184
205	0x3ca6e6bb	0.020373693
206	0xbd72ed6b	-0.05930845
207	0xbd685b33	-0.0567276
208	0x3d9a710f	0.075410955
209	0x3d2f2965	0.042764086
210	0x3cc8ca08	0.024510399
211	0x3d5d80d1	0.054077927
212	0x3d69e267	0.05710068
213	0xbca75f5a	-0.02043121
214	0x3d2d7275	0.042345483
215	0x3ceb7107	0.02874042
216	0xbdae1920	-0.08500886
217	0x3d3eeb67	0.046611216
218	0xbbb24d81	-0.005441368
219	0xbb539089	-0.0032282195
220	0x3d09c8a1	0.0336386
221	0x3c732a76	0.014841666
222	0xbcd76b1f	-0.026296197
223	0x3c40fc48	0.011778899
224	0xbd098d2a	-0.03358189
225	0x3da6400f	0.08117687
226	0xbdb56cbb	-0.08858629
227	0x3d989bbf	0.07451581
228	0xbc441cff	-0.011969804
229	0xbd9ebcb3	-0.07750835
230	0x3c9cbf99	0.01913433
231	0xbd3b8c04	-0.045787826
232	0xbbdbe980	-0.006711185
233	0xbd68aa00	-0.05680275
234	0xbd56e7d3	-0.05246718
235	0xbc09dabb	-0.008413966
236	0x3caa0400	0.02075386
237	0xbc3a9064	-0.0113869645
238	0xbd930124	-0.07177952
239	0x3d798b53	0.060923886
240	0xbdb230f9	-0.08700747
241	0xbd16a14c	-0.03677492
242	0x3c36a200	0.011147022
243	0x3c884a76	0.016637068
244	0xbd4e1fc9	-0.05032328
245	0x3c45c75e	0.012071459
246	0x3ce842f8	0.028352246
247	0x3d776a76	0.060404263
248	0x3d9c6dbf	0.0763812
249	0x3daba3c8	0.08380848
250	0x3d66b57a	0.056325413
251	0xbd84857c	-0.064707726
252	0x3da8b673	0.082379244
253	0xbc17bd36	-0.00926142
254	0x3c7b2133	0.0153277395
255	0x3ccbae42	0.024863366

model_10/dense_20/BiasAdd/ReadVariableOp/resource f4 [10]
0	0x3c693323	0.014233383
1	0xbc3998aa	-0.011327902
2	0xbc983166	-0.018578243
3	0xbc374f8e	-0.011188401
4	0x3a36720e	0.00069597445
5	0x3c1c21a3	0.009529504
6	0x3c35707b	0.011074181
7	0xbb916964	-0.0044376124
8	0xbc7ac128	-0.015304841
9	0x3c729f17	0.014808438

model_10/layer_normalization_30/add/ReadVariableOp/resource f4 [4]
0	0xbaa006fa	-0.001220911
1	0x3a79ef58	0.0009534261
2	0xbc3df797	-0.011594675
3	0x3bdb713b	0.0066968477

model_10/layer_normalization_30/mul_4/ReadVariableOp/resource f4 [4]
0	0x3f806e61	1.0033685
1	0x3f7c415a	0.9853722
2	0x3f8181bb	1.0117716
3	0x3f7d12fe	0.98857105

model_10/layer_normalization_31/add/ReadVariableOp/resource f4 [12]
0	0x3c68973f	0.014196216
1	0xbc2c9c47	-0.010535306
2	0xbb8beec1	-0.004270405
3	0xbc323d86	-0.010878926
4	0x3c00006a	0.007812599
5	0xbc38ebb8	-0.0112866685
6	0xbabfd368	-0.0014635148
7	0xbbe74091	-0.0070572575
8	0xbc21c427	-0.0098734265
9	0xbbc0851c	-0.005875243
10	0x3af43291	0.0018630793
11	0x3bf18e78	0.00737172

model_10/layer_normalization_31/mul_4/ReadVariableOp/resource f4 [12]
0	0x3f8193a5	1.0123183
1	0x3f7ffd3d	0.99995786
2	0x3f770137	0.9648623
3	0x3f809366	1.0044982
4	0x3f7dafe4	0.9909651
5	0x3f7dc7dc	0.99133086
6	0x3f7e8cb1	0.9943343
7	0x3f80d770	1.0065746
8	0x3f7e4138	0.99318266
9	0x3f80e509	1.0069896
10	0x3f7f8894	0.99817777
11	0x3f7bbdca	0.9833647

model_10/layer_normalization_32/mul_2/ReadVariableOp/resource f4 [10]
0	0x3f7eaa1c	0.99478316
1	0x3f80e04b	1.0068449
2	0x3f7de49b	0.9917695
3	0x3f7d7e57	0.99020904
4	0x3f7df168	0.9919648
5	0x3f7790df	0.9670543
6	0x3f74fe89	0.9570089
7	0x3f7be3f9	0.98394734
8	0x3f7db7a0	0.99108315
9	0x3f7d0da6	0.9884895

model_10/dense_20/MatMul f4 [10, 228]
0	0x3e0b8769	0.13625874
1	0xbe22d658	-0.15902078
2	0xbde037eb	-0.109481655
3	0x3cf30002	0.02966309
4	0xbdb6cd05	-0.08925823
5	0x3dea9c95	0.11455647
6	0x3cff33b0	0.031152576
7	0xbe0949c1	-0.13407041
8	0xbd79e0d2	-0.06100542
9	0xbe04827d	-0.12940402
10	0x3cf854c4	0.030313857
11	0xbddd29ec	-0.107990116
12	0x3d83ea90	0.064412236
13	0x3d14f58e	0.03636699
14	0xbd86b50f	-0.06577503
15	0xbe251cd7	-0.16124283
16	0xbc93c596	-0.018038552
17	0xbcae6cac	-0.021292053
18	0x3e1967df	0.1498103
19	0xbe185d56	-0.14879355
20	0x3dbff455	0.093727745
21	0xbd2c7cae	-0.04211109
22	0x3d923438	0.07138866
23	0x3dafb55b	0.08579513
24	0x3e2e0d1d	0.1699719
25	0xbe2d1265	-0.16901548
26	0x3dfe6ea8	0.1242345
27	0x3d248714	0.040167883
28	0x3e0d1e3f	0.13781069
29	0xbd81d124	-0.063387185
30	0x3cd4b050	0.025962979
31	0x3c38d38e	0.011280907
32	0x3db2cd5c	0.087305754
33	0xbc108c28	-0.008822478
34	0xbd412ae9	-0.047160063
35	0x3cc732c6	0.024316203
36	0xbd17438c	-0.036929652
37	0xbc1c2a85	-0.009531622
38	0x3d9df5ab	0.07712873
39	0x3d979546	0.074015185
40	0x3e032d48	0.12810242
41	0xbd90e3a8	-0.07074672
42	0x3e29053e	0.16505906
43	0xbddb02c9	-0.106938906
44	0x3dcc00b7	0.09961074
45	0xbe1b3aeb	-0.15159194
46	0xbd306b85	-0.04307129
47	0x3dc52d49	0.09627778
48	0x3e23092a	0.15921465
49	0x3c9fd369	0.019509988
50	0x3e01bdc0	0.1267004
51	0xbdba775e	-0.09104799
52	0x3dd795f5	0.10526649
53	0xbc20424c	-0.009781431
54	0x3db8d360	0.090246916
55	0xbe231ed0	-0.15929723
56	0x3d8da68f	0.06916534
57	0xbdb148f0	-0.0865649
58	0xbcd705ae	-0.026247825
59	0x3d6c9378	0.057757825
60	0x3dc7a7ac	0.09748778
61	0xbe120d95	-0.14262994
62	0x3d7d2a39	0.061807845
63	0x3d8aee00	0.06783676
64	0xbe15b591	-0.14620043
65	0xbda15056	-0.07876651
66	0xbde5e3c2	-0.11225082
67	0xbd80ef4b	-0.062956415
68	0xbb87380c	-0.0041265544
69	0xbc9cfc3c	-0.019163243
70	0xbe105a89	-0.14097036
71	0x3c51e24c	0.012810301
72	0x3d7a4f0e	0.06111055
73	0xbe20e996	-0.15714106
74	0x3e02fe7a	0.12792388
75	0x3e137006	0.14398202
76	0xbdbd4682	-0.09241964
77	0x3daba5b9	0.083812185
78	0xbd169edd	-0.036772598
79	0x3d40d5bf	0.047078844
80	0xbe172e6e	-0.14763805
81	0xbd9f2c47	-0.07772117
82	0xbe1212ff	-0.14265059
83	0x3e0d905e	0.13824603
84	0xbc359c4a	-0.0110846255
85	0x3de7a8c0	0.113114834
86	0x3dfdf6ec	0.12400612
87	0xbe170dbe	-0.14751336
88	0xbc5a7b77	-0.0133351
89	0xbe161966	-0.14658126
90	0x3dc4aea0	0.096036196
91	0xbdb96df9	-0.09054179
92	0x3df16b53	0.117880486
93	0x3d3a898d	0.045541335
94	0xbb9f2cad	-0.0048576207
95	0x3dc18c4e	0.09450589
96	0x3a534352	0.0008059043
97	0xbdf32ce3	-0.11873796
98	0x3cceecd8	0.02525942
99	0x3ba56199	0.005047035
100	0xbb81ac83	-0.0039573326
101	0xbe01e8e5	-0.12686498
102	0x3e13f3b1	0.1444843
103	0xbe013931	-0.12619473
104	0x3dca7ae9	0.098867245
105	0xbc7f4545	-0.01558048
106	0xbe121da5	-0.14269121
107	0xbc90c6ed	-0.01767298
108	0x3db5ca15	0.08876435
109	0x3d4f48bc	0.050606474
110	0xbd9095b7	-0.07059806
111	0xbdc2f894	-0.09520069
112	0xbe267154	-0.16254169
113	0x3de38102	0.11108591
114	0x3e060491	0.1308768
115	0x3d877e51	0.0661589
116	0xbe10d17f	-0.14142416
117	0xbcd5b684	-0.026088007
118	0xbe0a843a	-0.13527003
119	0x3dd93240	0.106052876
120	0xbc2c18e6	-0.010503983
121	0x3cd8505c	0.026405506
122	0xbd1246b0	-0.035711944
123	0x3c660439	0.014039093
124	0x3d83f515	0.0644323
125	0xbda081d2	-0.07837261
126	0x3dd15300	0.10220909
127	0x3e0e7737	0.13912664
128	0xbdc9cace	-0.09853135
129	0x3e08c33e	0.13355729
130	0x3cf66118	0.030075595
131	0x3c19f89e	0.009397654
132	0xbcd375fd	-0.025813097
133	0x3d1e6289	0.03866819
134	0x3df4681f	0.11933922
135	0xbd0c5ea4	-0.034269944
136	0x3de52827	0.11189299
137	0xbd9fb9dc	-0.07799122
138	0x3d793ec2	0.060850866
139	0x3d686c76	0.05674406
140	0x3ddfc4fa	0.10926242
141	0x3d762ba2	0.060100205
142	0x3d24988e	0.04018455
143	0xbbe0514e	-0.00684563
144	0xbc88bec5	-0.016692529
145	0xbdfdacc4	-0.12386468
146	0x3d291ca7	0.04128709
147	0x3de287cb	0.11061057
148	0x3e1247dc	0.14285225
149	0x3c60bb17	0.013716481
150	0x3da102c5	0.07861856
151	0x3de09267	0.10965424
152	0x3c2fa9f5	0.010721673
153	0xbe22c832	-0.15896681
154	0x3d97cdbc	0.074122876
155	0xbe0849e9	-0.13309444
156	0xbcea5851	-0.028606566
157	0xbd749c9b	-0.059719663
158	0x3a359d57	0.00069280475
159	0xbdf6ab94	-0.12044445
160	0xbd830c29	-0.06398804
161	0xbdc7edff	-0.09762191
162	0xbdfc0306	-0.12305264
163	0xbd5de38f	-0.054172095
164	0xbd215002	-0.039382942
165	0xbd6224e6	-0.05521097
166	0xbde9dfe0	-0.11419654
167	0x3d95dae4	0.07317141
168	0x3e28c7d3	0.16482477
169	0xbe2abee2	-0.16674379
170	0xbd86d9d0	-0.06584513
171	0xbe238a08	-0.15970623
172	0xbe1748a2	-0.14773801
173	0xbe12615f	-0.14294957
174	0x3dc34e03	0.09536364
175	0x3cefb856	0.029262703
176	0xbe195f40	-0.14977741
177	0xbcb99dd1	-0.02265826
178	0x3d7ef19d	0.06224214
179	0xbd32241b	-0.043491464
180	0xbcf4e687	-0.02989508
181	0x3d56a8ef	0.0524072
182	0xbc563600	-0.013074398
183	0xbe1274c9	-0.14302363
184	0x3d60dbd5	0.05489715
185	0xbdadacd6	-0.084802315
186	0xbd388182	-0.045045383
187	0xbd618516	-0.05505856
188	0xbe1ad5c2	-0.15120605
189	0x3ddca6ec	0.10774025
190	0xbc52c1a3	-0.012863549
191	0x3d3c9f83	0.04605056
192	0xbd10d7a5	-0.035361905
193	0x3cf53beb	0.029935798
194	0xbdb7a4a7	-0.08966952
195	0x3e027dd0	0.12743306
196	0x3c187f79	0.009307736
197	0x3d76a02e	0.060211353
198	0x3e021254	0.12702304
199	0xbda2645b	-0.079292975
200	0xbc28bda5	-0.010299121
201	0xbcb725b5	-0.022356847
202	0x3da8f036	0.082489416
203	0x3dbca6c5	0.09211496
204	0xbd2bf71b	-0.041983705
205	0xbddba503	-0.10724833
206	0xbdaa036a	-0.083014324
207	0x3de41c8f	0.111382596
208	0x3dd9cf0a	0.10635193
209	0x3e012e62	0.1261535
210	0xbde4c3fc	-0.111701936
211	0xbddd6d44	-0.108118564
212	0xbda7489b	-0.08168145
213	0x3e08d429	0.13362183
214	0x3d96a598	0.07355803
215	0xbd44796b	-0.047967356
216	0x3e28a5f6	0.16469559
217	0xbdf4acde	-0.11947034
218	0xbd274579	-0.04083774
219	0xbdf829ae	-0.12117325
220	0xbd36a4ba	-0.04459069
221	0xbd8c55df	-0.06852316
222	0xbd80198d	-0.062548734
223	0xbd1c17ff	-0.038108822
224	0xbcca12f2	-0.024667237
225	0xbcc4ad28	-0.024008349
226	0xbd2f4730	-0.0427925
227	0xbd8157c5	-0.06315569
228	0xbd36440e	-0.044498496
229	0x3e056ee9	0.1303059
230	0x3cdda4e5	0.027056167
231	0x3cc68ff8	0.024238572
232	0xbd72e71d	-0.059302438
233	0xbe20742d	-0.15669318
234	0xbe05c991	-0.13065173
235	0xbd185291	-0.037188116
236	0xbdb550bd	-0.0885329
237	0xbd6743e1	-0.05646122
238	0xbdcb152f	-0.0991615
239	0xbddd8f30	-0.108183265
240	0x3bc667e0	0.0060548633
241	0x3d91552c	0.07096323
242	0x3db1eb16	0.08687417
243	0x3da7fe40	0.08202791
244	0x3dad97a4	0.08476189
245	0x3dab6966	0.083697125
246	0xbd812c5e	-0.063072905
247	0xbd2d1552	-0.04225666
248	0x3dd415c0	0.10355711
249	0x3c851eb6	0.016249996
250	0x3cac28ab	0.021015486
251	0xbb0b9f02	-0.0021304493
252	0x3d6299ac	0.055322334
253	0xbd87d494	-0.06632343
254	0x3d9a74e2	0.07541825
255	0xbe0bf648	-0.13668168

model_10/dense_21/MatMul f4 [1, 10]
0	0xbec7f6b3	-0.39055404
1	0x3eba7db3	0.36424026
2	0xbdfbb568	-0.1229046
3	0x3e6580e9	0.22412457
4	0xbed0485c	-0.40680206
5	0xbf2b294e	-0.668599
6	0xbea371e5	-0.31922832
7	0x3eea3afd	0.4574813
8	0xbcd6f65f	-0.026240526
9	0x3e8726c9	0.26396778
