src/main/assets/11.tflite (tflite, 28724 bytes, 12 tensors)

model_11/conv2d_23/BiasAdd;model_11/conv2d_23/Conv2D;model_11/conv2d_23/BiasAdd/ReadVariableOp/resource f4 [12]
00000000: 0ee8 11bc b943 c23b e3b8 a73b 5112 8cbb
00000010: 6887 afbb 1668 ee3b 2b60 c73b fb8b 91bb
00000020: 1800 12bc 8a7d 29bc 3338 dfb9 4f90 d8ba
-0.008905424 0.0059284833 0.0051184758 -0.0042746444 -0.005356718 0.0072755916 0.006084462 -0.004441736
-0.008911155 -0.010344872 -0.00042575746 -0.00165225

model_11/conv2d_22/BiasAdd;model_11/conv2d_22/Conv2D;model_11/conv2d_22/BiasAdd/ReadVariableOp/resource f4 [4]
00000000: c01f 263c cf06 9fbb 5e9b ba3b aaa9 fa39
0.010139406 -0.0048531066 0.0056947907 0.00047810125

model_11/conv2d_23/Conv2D f4 [12, 1, 11, 4]
00000000: 6fdb 65bd 11ad 60bd 1532 1bbe 9614 5a3d
00000010: f041 f8bd 2cd2 973d 94bd ce3d 5784 273e
00000020: 7eaf a7bd 8960 a3bd 9d94 a9bd 3250 13be
00000030: dd6b 243e 3776 873d 0472 efbd 4049 303d
00000040: 1852 cc3d 75a5 2cbe bf83 2dbd a42a 0b3d
00000050: ab08 91bd c50b ae3d 6ad8 f93d b9ed 15be
00000060: 7fc7 0dbd b2be 10be 2d39 8dbd c1e9 cabd
00000070: 3aa1 973d f9fa e53d 7c86 c1bc 22fe 2c3e
00000080: 2fa3 81bc 2280 a63d fa28 31be 6814 403e
00000090: 0cba 35bd 3b9e 203e f5cf a03c 1319 173e
000000a0: ccdd 1a3e dbc3 77bd dab5 1ebd 5597 0e3e
000000b0: be52 1b3e 68bc 1ebd a613 033e 15ca 71bd
000000c0: df9a 03be 5350 cebc 0174 19bd e525 aebd
000000d0: 654e 2c3e 8cb5 2f3e e240 fcbc d397 8d3d
000000e0: 143c 88bd 10ad a3bd 7aad ddbd 0de4 1ebd
000000f0: 9130 79bd fd3b ac3c bb1a 7e3c 23e9 5ebd
00000100: 2fb7 c03d 474b 67bd 23d6 e43d 5564 243e
00000110: 8cf4 e7bd c255 0bbd ec9e 8fbc b045 57bd
00000120: 3ad3 f0bd e425 babc 4caf 01bd f52c 34be
00000130: 5c27 11be 5860 94bd a9e4 3bbe 85f5 edbd
00000140: 87dd cbbc e10c ee3d 56db 9abd 9c18 15be
00000150: a1e0 f63d f581 28bc 5cb3 c93d 018a 813d
00000160: 79b7 58bd 4c5b 193c a30a e8bd 2024 32bd
00000170: 1f63 6e3d eefc 1f3e 1e06 8a3d 5a71 a5bd
00000180: 60db 1bbe 999f d6bd f315 163e 333d 12be
00000190: b1a4 f53b ec97 413d 198f 9e3c bd1a 5ebd
000001a0: a107 adbd 1086 c63d 919e 93bd b819 f43d
000001b0: 2de1 4ebd 5068 2e3e 22dd 953c f9b8 c03d
000001c0: 7065 ecbd 6660 02be dd09 20bc 2d1d 37bc
000001d0: badc 0f3e b2a7 6ebc 0dcd 22be 48d1 30be
000001e0: 7a74 c6bd c953 b03d 5979 b0bb 99f3 a53d
000001f0: ff5b 34be 5596 ae3d 79fd cd3c 282e 183e
00000200: e818 3f3e 1503 103e 9331 813d 53c2 e63c
00000210: 9d1e 1d3e a402 2a3c f8bf ff3c cdbc 8d3d
00000220: ef6d 413b 0344 4f3d c6c3 033d 5ba0 25be
00000230: dbdc 773d b602 343e c069 863c fbb4 8abc
00000240: b040 383d 8984 8abd 2f7a a33d aa90 bc3d
00000250: f06b 31be 08eb 1bbe 3b0e 10be 9f7d ddbc
00000260: 2d17 b03d 3ec4 0e3e 7f53 30be c132 1bbe
00000270: 72aa 1abe dc0b 9a3d 133e 14be 250b 9aba
00000280: 6004 e6bd 9662 f23d 32b5 f83d 48d7 a73c
00000290: cb94 0dbe 7f56 11ba 64e6 283d ef5d 2cbd
000002a0: 3935 b4bd 96e0 d33d 70e0 e53d bd9b d33a
000002b0: 2971 1ebe 878b 073e 4e89 f33d 353b e9bd
000002c0: bf21 02be f6fc 023e 4b3d bf3d 9b8c c83d
000002d0: 655b c9bb 9c35 393e 01fc 5d3d 4a00 1cbe
000002e0: d849 aa3c 2b9d 223e 02c2 28be e649 733b
000002f0: 37e9 25be 567d 35bd 7f96 b43d 7b2f 79bd
00000300: c2b0 ea3d bbff 99bd 9be5 f7bc f09e 2cbe
00000310: e8ec 223e 6cad 403e 7504 a73d 621a aa3d
00000320: 1e90 723d 7e19 c03c a8d9 0fbe 3795 f43d
00000330: 1bdf 7a3c c8c4 bc3d 7b86 07be 2391 34be
00000340: 5edf d43c 477a 403e 1cf0 993d e09e bcbc
00000350: 9cca 2f3e 469e 3b3d daeb a83d f500 663d
00000360: 6b64 533d 0bc8 fa3c 70a4 ab3d 5014 c7bd
00000370: 300c 133e 83cf 00be cafc a33d 38c2 113d
00000380: dd22 f4bc a544 f93c 029b d9bd a40a c2bd
00000390: e7af 873c b2bd 143e 0d6c 55bb 7f90 c03d
000003a0: e43a 72bb 0343 af3d c893 70bd 34d2 05bd
000003b0: 2313 f6bd 68a4 bc3d 8ce0 343e cd41 f1bd
000003c0: dbd0 98bd f4f4 edbd 8337 50bd 7178 143d
000003d0: a7ed 313d 7c5c 1dbd 8655 00be cbb3 3fbe
000003e0: cbe1 fe3d 6272 12be ff42 d8bd b21c 9c3c
000003f0: 1934 ae3d df2a 203d f5ef d1bd 4032 0dbe
-0.05611747 -0.05485255 -0.15155824 0.05324229 -0.121219516 0.07413134 0.10094753 0.16359077
-0.08187769 -0.07977397 -0.08280299 -0.14386061 0.16056772 0.066143446 -0.11691669 0.043038607
0.09976596 -0.16859992 -0.04236197 0.033976212 -0.070817314 0.084983386 0.12199481 -0.14641465
-0.034614082 -0.14135244 -0.06895671 -0.09907866 0.074037984 0.1122951 -0.023623697 0.16893819
-0.015824882 0.08129908 -0.17300788 0.18757784 -0.04436688 0.1568536 0.019630412 0.14755659
0.15123671 -0.060489517 -0.038747646 0.13924916 0.15168282 -0.038753897 0.12800464 -0.05903061
-0.12852047 -0.025184786 -0.037464146 -0.085033216 0.1682678 0.17159098 -0.030792657 0.06913724
-0.06652084 -0.079919934 -0.10824104 -0.038791705 -0.060837332 0.021024698 0.015509303 -0.054421555
0.094099395 -0.056468274 0.11173656 0.16053899 -0.113259405 -0.034017332 -0.017531835 -0.052556694
-0.11759038 -0.022723146 -0.031661317 -0.17595275 -0.1417517 -0.072449386 -0.18348946 -0.11619095
-0.024885906 0.1162355 -0.07561366 -0.14560169 0.12054563 -0.01028489 0.09848663 0.0632515
-0.05290935 0.009360146 -0.11330154 -0.043491483 0.058199998 0.15623829 0.06739448 -0.08078261
-0.15220404 -0.104796596 0.1465681 -0.14281158 0.0074964394 0.047264025 0.019355344 -0.05422472
-0.08448721 0.09693539 -0.072079785 0.11918968 -0.050507713 0.1703198 0.01829392 0.09410281
-0.11542785 -0.12732086 -0.009767977 -0.01117639 0.14049044 -0.014566349 -0.15898533 -0.17267334
-0.09690185 0.08609731 -0.0053855595 0.08103103 -0.17613219 0.08524767 0.02514528 0.14861357
0.18661845 0.14063676 0.06308284 0.028168833 0.1534371 0.010376606 0.031219468 0.069207765
0.0029514988 0.05060197 0.032169126 -0.16174452 0.06051336 0.17579159 0.016407847 -0.016932001
0.044983566 -0.0676356 0.07982289 0.0920728 -0.17326331 -0.15226376 -0.14067928 -0.02703744
0.085981704 0.13942048 -0.17219351 -0.1515608 -0.15104082 0.07521793 -0.14476804 -0.0011752589
-0.11231303 0.1183521 0.12143935 0.020488396 -0.13826291 -0.00055442 0.041235343 -0.04208177
-0.08799214 0.10345571 0.11224449 0.0016144436 -0.15472855 0.13236819 0.11891423 -0.11388246
-0.12708186 0.1279181 0.093378626 0.09792443 -0.0061449283 0.18086857 0.054195408 -0.15234485
0.020787165 0.15880267 -0.16480258 0.0037122904 -0.16202246 -0.044308983 0.08817767 -0.060836297
0.11459495 -0.0751948 -0.030260852 -0.16857505 0.15910685 0.18816155 0.08155147 0.08305813
0.059219472 0.023449656 -0.14047873 0.11942523 0.015311982 0.092172205 -0.13234894 -0.1763349
0.025985416 0.18796645 0.075165 -0.023024976 0.17167133 0.04580524 0.0824811 0.056153256
0.051609438 0.030612966 0.08380973 -0.09720671 0.14360118 -0.1257916 0.080072 0.035585612
-0.02980178 0.03042824 -0.106252685 -0.09474686 0.016563369 0.14525488 -0.0032565624 0.094025604
-0.003696137 0.08557703 -0.058734685 -0.03267117 -0.12015369 0.092110455 0.17663783 -0.11780129
-0.07461711 -0.11618987 -0.05083419 0.036247674 0.043439534 -0.038418278 -0.12532625 -0.1872093
0.1244541 -0.14301446 -0.105596535 0.019056652 0.085060306 0.039103385 -0.10250846 -0.137887

model_11/conv2d_22/Conv2D f4 [4, 4, 38, 1]
00000000: 8c64 b53d a60b 6b3d cbc2 07bd 758c 4bbd
00000010: b8f6 863d a3c8 983d 0985 763d bcdf 993d
00000020: a28a 393d cf0e 8dbd 0c02 f23c 5022 a0bd
00000030: e6db 9ebb b30f adbd 089c 113d 870a 623d
00000040: ac7c bcbd 32d3 e5bc dc66 adbd 0c80 4dbc
00000050: 3d5a 62bb 04c2 16bd 1146 cc3d c5bd ec3c
00000060: 5d5c 97bb c103 4abd 98fa f33c 1ad6 7b3d
00000070: 042f dabb ac74 3bbd b5a9 c6bd 1bb2 87bd
00000080: 79c2 263b 80e7 4c3b 5cf7 6d3d d359 28bc
00000090: e4e7 8a3d d677 5f3d 579b 5bbd ea06 23bd
000000a0: 3584 46bd c6b0 8e3d e8c7 dfbc 5014 d73d
000000b0: 1476 653d 98a8 463d 7a85 b2bd 893c 6b3d
000000c0: 7cda 9a3d 6817 b93d 41e3 9cbc a9bd 9b3c
000000d0: dc06 0d3d 1906 023d f45b babd 4436 213d
000000e0: 64d7 a83d a45a 3cbd e6e8 31bd 3316 db3d
000000f0: 17da da3d 4f34 963d d5ab 8cbc b7e3 a8bd
00000100: 95f7 69bd bd01 90bd 8851 f8bc 1a0e a7bd
00000110: 3a72 293c 2dd1 3d3c 0fe6 3f3d 7c09 9c3d
00000120: 7938 953d 7b9d 8b3b b8a0 863a 2e1c ea3c
00000130: 6948 15bd 8cce b93d 15d9 85bd dda4 a3bd
00000140: 5da0 d93d e9ff 02bc 48d5 1a3d 9bff 6bbc
00000150: 53c2 89bd 199f 9fbd d4c7 1cbd 589d 05bd
00000160: 5e83 903c 5051 4f3d 295a 58bd 2133 bebd
00000170: c953 d5bc 6b9c 93bd 3d7a 9a3c c2a4 a93d
00000180: ce4b b43c 6e3a dd3d 1eff 193d 8b6e c4bc
00000190: 9ce4 593d dc4d c43c 6de3 4a3d 506c b7bc
000001a0: a51f acbd 68e1 833d 9cb9 d7bd e231 c2bd
000001b0: 49d5 58bc 156b 37bd 1080 51bd bf81 c83c
000001c0: c3a2 943c 88aa 24ba 33b4 13bd 14f9 69bb
000001d0: 29b9 1b3c da15 86bd 37cf 733d d23c 633c
000001e0: 6577 80bd 8a9c 7e3d 8a36 ae3b 2802 123b
000001f0: 3f29 3abd 1347 4c3d b362 07bd 88f5 4e3b
00000200: 78a7 dcbd 5b39 efbb 1b54 603d af09 70bd
00000210: da66 eb3c aa40 9bbc 6052 403d d334 9f3d
00000220: 6555 ba3d 1b80 a8bb ecda 4bbd ec1d 7f3d
00000230: 26cb 82bd c70c c9bd 0d7d fa3b 6d37 543c
00000240: 32ef d2bd 41e6 72bd cbb7 943d 83b5 dcbc
00000250: 6e05 863d 8dbe 9a3d 3e3a 943d cf43 303d
00000260: 3027 513d 335a 903d e45f 8abb a8d3 5bbc
00000270: 63c3 a83d 4d45 89bd b4fe a53b 02e2 013d
00000280: 742b 98bd b4d6 30bd ede9 52bd 67f2 a0bd
00000290: 3cc4 8dbb 6458 b73c 76bc fc3c 451c 8cbd
000002a0: 4b6e a93d e6b2 6ebd d2fa 923c 15a7 733d
000002b0: cf1a 45bb 2b40 b53c f012 b4bd c73d b2bd
000002c0: d5ab 20ba d600 19bd d3b7 053d 66a3 85bd
000002d0: 579a 45bd e2b7 e337 74bd 8abd cdd3 70bd
000002e0: b416 0339 17d4 b7bb 9278 aa3d 81ca 7abd
000002f0: 53af 7cbd e46e a13c 212b a0bd 1064 7c3d
00000300: 7207 b53c 2e5c 083c 02a4 67bd cd7a 943d
00000310: 99dd acbd 3791 babc 4410 dd3c eba5 93bd
00000320: 35c8 d23c daa8 aebd 0bf4 3d3d 3b7d b0bc
00000330: f46d aebd e8c4 a33d f313 39bd 756a a53d
00000340: 9ffd b2bd d0af 9a3d 7f4c bfbd c809 afbd
00000350: c63b 18bd b4f0 36bc dd1a 91bd 2949 903d
00000360: 33f4 8c3d ad7d 78bd 5266 9cbc aa2f af39
00000370: d140 babd 92aa 31bd a705 8abd 9058 353d
00000380: bbb0 03bd fdb7 48bd ab18 3bbc bb45 5bbd
00000390: 9475 a63a 8d36 f4bc 6208 863d d06b 4b3d
000003a0: 7458 4abd 1dff 8abd f53e acbd 04e3 c6bc
000003b0: 2ed5 d3bc 29b2 a8bd b7af 20bd 2026 acbd
000003c0: aff5 563d fa5f 8fbd 11f7 7a3d 65b9 34bb
000003d0: 04b5 91bd 99e5 483d b4fd c83c c38c f73c
000003e0: 7f52 59bd 5425 38bc b2e0 66bd 71bd 4c3d
000003f0: e38c 063c 0a31 823d 8d30 c5bb 4342 d33c
0.088570684 0.057384156 -0.033144753 -0.049694497 0.065900266 0.074601434 0.060185466 0.07513377
0.045298226 -0.0688759 0.029541992 -0.078190446 -0.0048479913 -0.0845026 0.035549194 0.05518582
-0.09203467 -0.028054807 -0.084668845 -0.012542736 -0.003453865 -0.03680612 0.099743016 0.028899083
-0.004619165 -0.049319986 0.029782578 0.06148348 -0.0066584367 -0.045765564 -0.09700338 -0.06625768
0.0025445505 0.0031265914 0.05809723 -0.010275322 0.06782511 0.054557644 -0.05361494 -0.039801516
-0.048465926 0.069673106 -0.027317002 0.10501921 0.05602081 0.048500627 -0.08716865 0.057430778
0.07561204 0.090376675 -0.019151332 0.019011335 0.03443037 0.031744096 -0.0909957 0.039358392
0.082442075 -0.04598488 -0.043435 0.106975935 0.106861286 0.07334196 -0.01717178 -0.08246558
-0.05712088 -0.070315816 -0.030312315 -0.081569865 0.010342175 0.011585516 0.04685026 0.076189965
0.07286162 0.0042607165 0.0010271287 0.02857789 -0.03644601 0.09072599 -0.06535546 -0.079904296
0.1062629 -0.007995584 0.037801057 -0.014404203 -0.067265175 -0.07794017 -0.03827651 -0.032620758
0.017640766 0.050614655 -0.05282036 -0.09287096 -0.026040928 -0.07207569 0.018857116 0.08283378
0.022008803 0.1080216 0.037596814 -0.023978492 0.053196535 0.023962907 0.049533296 -0.022390515
-0.08404473 0.06439477 -0.10533449 -0.09482171 -0.013234445 -0.044779856 -0.05114752 0.02447593
0.018144017 -0.00062815147 -0.036060523 -0.003570144 0.009504595 -0.065471366 0.059523787 0.013869481
-0.06272773 0.062161006 0.00531656 0.0022279117 -0.04544949 0.04987247 -0.03305311 0.0031579453
-0.1077413 -0.0073005385 0.05476771 -0.058602985 0.028735567 -0.018951733 0.04695356 0.07773747
0.09098319 -0.0051422245 -0.049769327 0.062284395 -0.06386404 -0.0981689 0.0076443017 0.012952668
-0.10299529 -0.05930162 0.07261618 -0.02694202 0.065440044 0.07555876 0.07237671 0.043033417
0.051062763 0.07048454 -0.004222857 -0.013417162 0.08240392 -0.06702671 0.0050657634 0.03170968
-0.07430163 -0.043173507 -0.05149262 -0.078587346 -0.0043263715 0.022381015 0.030851584 -0.068413295
0.0827299 -0.05827608 0.017941866 0.059485514 -0.0030075794 0.022125324 -0.087926745 -0.08703189
-0.00061291206 -0.037354313 0.03264601 -0.065253064 -0.048242893 2.7146136e-05 -0.067744166 -0.05879574
0.00012501591 -0.00561 0.08323778 -0.06122828 -0.06169064 0.019706197 -0.07820726 0.061618865
0.022098277 0.008322759 -0.056552894 0.07249985 -0.08440704 -0.022774322 0.026985295 -0.07209381
0.025730232 -0.085283 0.046375316 -0.02154409 -0.08517066 0.07996541 -0.04518504 0.08076946
-0.08739781 0.07553065 -0.09340762 -0.085467875 -0.03716638 -0.011165787 -0.07085202 0.07045204
0.06882515 -0.06066673 -0.019091759 0.00033414114 -0.09094394 -0.04337556 -0.06739359 0.044273913
-0.032150965 -0.04900359 -0.0114194555 -0.053533297 0.0012699836 -0.029811168 0.06544568 0.049663365
-0.04940076 -0.0678694 -0.084104456 -0.024278171 -0.025858488 -0.08237106 -0.039230075 -0.08405709
0.052480396 -0.07000728 0.061270777 -0.0027576324 -0.07114604 0.049047086 0.024535038 0.030218488
-0.05305719 -0.0112393685 -0.05636663 0.049985353 0.008212301 0.0635701 -0.0060177506 0.025788432

model_11/dense_22/BiasAdd/ReadVariableOp/resource f4 [10]
00000000: d5fe 2ebc ba08 00bc 90e8 2cbc 564e c63c
00000010: bf3a 3b3c 0808 9d3b 3930 9dba 80b1 48bc
00000020: 9f7e 03ba 79ac 103b
-0.010680874 -0.007814581 -0.010553494 0.024207275 0.01142758 0.004792217 -0.0011992521 -0.012249351
-0.00050161214 0.0022075458

model_11/layer_normalization_33/add/ReadVariableOp/resource f4 [4]
00000000: 9cc6 3bbb 5f86 65bb f125 4ebc 0905 06bb
-0.0028652316 -0.0035022718 -0.012582288 -0.0020449779

model_11/layer_normalization_33/mul_4/ReadVariableOp/resource f4 [4]
00000000: f348 803f 487f 803f 4940 7b3f 5c7b 793f
1.0022262 1.0038843 0.98144966 0.97453856

model_11/layer_normalization_34/add/ReadVariableOp/resource f4 [12]
00000000: 34b8 38bc 609f a53c 25a9 ef3a d72a 94bb
00000010: 7233 8ab8 1497 173c bbb5 093c a189 52bb
00000020: ab95 5cbc 352a edbb 9690 18bc 0282 eaba
-0.011274386 0.020217597 0.0018284662 -0.0045217085 -6.589935e-05 0.009252328 0.008405144 -0.003212549
-0.013463418 -0.0072376975 -0.009311816 -0.0017891529

model_11/layer_normalization_34/mul_4/ReadVariableOp/resource f4 [12]
00000000: 5870 823f d812 7c3f c7d8 7e3f 2a35 803f
00000010: a107 7e3f 2ce0 803f c993 7f3f 34d6 803f
00000020: 2b1b 833f 6794 803f ef03 823f 1a63 7b3f
1.0190535 0.98466253 0.99549526 1.0016224 0.9923039 1.0068412 0.9983488 1.006537
1.0242666 1.0045289 1.015745 0.9819809

model_11/layer_normalization_35/mul_2/ReadVariableOp/resource f4 [10]
00000000: d8f4 7f3f e541 7f3f ca0d 7e3f d1ac 7f3f
00000010: 934b 7a3f adf6 7f3f 60e9 803f fefd 7e3f
00000020: 8166 783f 97e8 7c3f
0.99982977 0.9970992 0.9923979 0.9987307 0.9777157 0.9998577 1.007122 0.9960631
0.9703141 0.98792404

model_11/dense_22/MatMul f4 [10, 228]
00000000: 1fd1 e73d f6d8 f2bd c284 0c3d 6e82 443d
00000010: 1adf 873d 26dd 893d 6d4d f7bd 2592 1a3e
00000020: 10d6 edbd 27bb 113d e767 2a3e 8d45 babd
00000030: 301d 4d3d 0071 09ba b98e cfbd cff0 5c3d
00000040: 4d3a 103e 167a a6bb 5310 173e 4b7c fbbd
00000050: 7cac be3d 7463 9ebc 5f63 f8bc 75c7 013e
00000060: cf0f 943c 653f 37bd f88a a13d 6bca 403d
00000070: 4e8a f03c 5b28 a0bd f858 18bd 5e1d 0bbe
00000080: 0963 0b3e 624a 993d c24b 153e 3368 c83d
00000090: 7710 513d 8472 2b3d a814 9b3d 29c4 c3bc
000000a0: 7333 9eb8 4c2a 1b3e b37a bd3d ecf5 053c
000000b0: cbd6 8cbd d2c4 babd 7bb0 d3bc 25f2 693d
000000c0: d4b9 1abc 4575 b7bd 33fd a3bd a632 ba3d
000000d0: 54e4 7ebc c21b 9c3d d2b2 88bd 5b48 8bbd
000000e0: 4ec4 1bbd 5124 a2bd 1ea0 ce3d 0cfb db3d
000000f0: 2f12 09be 077e aa3d 4aa9 a1bb ca69 c8bd
00000100: 4283 3a3d f62d b23d 38d9 0d3e f71a 2ebb
00000110: 0c93 093b 8a26 acbd 0d1f a03d c44a 19bd
00000120: 94cb e43d 7482 e8bd a2f9 183d 2749 fe3d
00000130: 94e0 0bbd 8dcc 37bc fb45 f73d 7779 ae3d
00000140: b1bb fbbd 8954 c3bd a690 adbd 1d9a 0ebd
00000150: 3438 f43d 85be 943d 3852 123e fa16 233e
00000160: bff7 20be 42ca d03d 07a9 e0bd db21 c53d
00000170: 1a46 4cbd 1e17 df3c a5af cabd 65cb bdbc
00000180: 414d 1b3e f15a 05be 32b8 bf3c 1ca5 d13d
00000190: 1556 bfbd dba1 de3d 83c4 043e b11c c6bd
000001a0: e15e 6cbd 2a10 08be c112 bb3d 1163 2ebe
000001b0: 5c23 25bd f652 a83d 899e 013e 1fd9 1a3e
000001c0: 5963 c43d 6472 02bd eaee 263e 7105 10be
000001d0: 098f b5bc f221 77bd bd63 92bb 663d 983d
000001e0: 90cf fabd 7622 0fbe 0a73 423d 6b8f 8dbd
000001f0: 5715 e4bc f99f a0bd e443 2fbc 3a76 2c3d
00000200: a823 c0bd 6491 83bd 810c 6a3d ae54 bd3d
00000210: e5bb 09be c84f 1b3e 65fe a4bd 7697 f23b
00000220: aed7 cc3d 3ce1 323d c753 ba3c 0b2a febd
00000230: e184 043e e1b2 713a 76bd 04be 7dd1 6f3d
00000240: 9c8e 91bd 7e58 8cbc 2a0e 163e c17a 07bd
00000250: facf b43d 422b 08be 2363 1a3e 2cec f5bd
00000260: 98a5 3bbd d6ce 713d 86d6 923c acd7 86bc
00000270: bdbe ff3d 1204 9abd 8fcd b23d 81c1 4d3d
00000280: 45c4 f73d 5696 c8bd 7035 80bd bb74 813d
00000290: 5e03 32bd ce15 d2bc a21c a13d 2e71 cc3d
000002a0: 14f7 1a3e d281 10be db6f 07be 6df8 4ebc
000002b0: 9dce 66bc 05dd cf3c 54d1 473c 1cc6 12be
000002c0: 0843 a93d be2f 25bd e7d7 993d bcb8 aabd
000002d0: 13ba f73d a8ce 25be 93b7 933c 9450 f6bc
000002e0: 7c11 143e 8abf acbd c84c abbd 1f90 1dbe
000002f0: 457c 283e 68ee e23d e19f a23d 7f7f c73c
00000300: dea2 233e 3950 ecbc 8efa cf3d 3efe 05bd
00000310: 81ec 6b3c 749b 2ebd 6915 b2bd e4e9 a4bd
00000320: 4b13 713c 6616 bb3b 0cac e1bd ef6b 03be
00000330: ad46 c8bc c0e8 6cbc b2e7 26bd 0e4d 18be
00000340: 3757 c33d c057 4f3d c96d d83d 5790 2d3d
00000350: 7f91 e03d 5797 1a3e 8db5 063e a09e b4bd
00000360: c622 91bd 73b4 86bd 12a7 003c d309 03be
00000370: 95a3 e4bd ebc5 f33d 539a bebc d021 3d3d
00000380: 62d7 153e 120b cf3d 6f84 87bd 5746 803d
00000390: b8bf 1f3e 3750 0cbd 6f0b 743d d463 083e
000003a0: 2b70 09be b105 1cbe 7a8c 09bc 93d3 023e
000003b0: 385c 24bd 898d 2dbd 53d6 213e a061 acbd
000003c0: 216b aa3d 5e2f 51bc ac80 13be 489e cfb9
000003d0: 3a55 0fbe 9d12 8bbd 342d c5bd f601 d73d
000003e0: 35dd 0a3d f8a4 fe3d 6f37 c03c c6d3 f23d
000003f0: e6b2 c7bc 61ac 9ebd 5e37 5ebd 68a7 16bc
0.113191836 -0.11857788 0.034306295 0.04797595 0.0663435 0.06731634 -0.12075315 0.15094812
-0.11613095 0.035578873 0.16641198 -0.09095297 0.050076663 -0.00052429736 -0.10134644 0.05394059
0.1408474 -0.0050804717 0.14752321 -0.122795664 0.093102425 -0.019334532 -0.030320821 0.12673743
0.018073944 -0.044738192 0.07887834 0.04706804 0.029362824 -0.07820197 -0.037194222 -0.13585421
0.13611998 0.074848905 0.1457968 0.097854994 0.051041093 0.041857257 0.07572299 -0.023897247
-7.54361e-05 0.15152854 0.09251919 0.008176308 -0.06876906 -0.09119572 -0.025840988 0.057115693
-0.009443719 -0.08957914 -0.08007278 0.09091692 -0.015557367 0.07622482 -0.06674732 -0.0680091
-0.038029008 -0.07917083 0.10089134 0.10741243 -0.13385843 0.08324819 -0.004933511 -0.09785803
0.045535333 0.087001726 0.13852394 -0.0026566365 0.0020992188 -0.08405788 0.078184225 -0.037424818
0.11171642 -0.11353007 0.037347443 0.124162965 -0.03414972 -0.011218202 0.120738946 0.08519261
-0.12291659 -0.09537608 -0.08474855 -0.034814943 0.119247824 0.07262901 0.14289176 0.15926734
-0.15719508 0.101948276 -0.109697394 0.09625598 -0.04987154 0.027232703 -0.09896783 -0.023168275
0.15166189 -0.13022973 0.02340326 0.1023657 -0.09342591 0.10870715 0.12965588 -0.09673441
-0.05770767 -0.13287416 0.091344364 -0.17029978 -0.040316924 0.082189485 0.12658133 0.15121888
0.095892616 -0.031847373 0.16302076 -0.14064576 -0.022162931 -0.060335107 -0.004467456 0.07433586
-0.12246621 -0.1397799 0.04747299 -0.069121204 -0.027842207 -0.07843012 -0.010697339 0.042104937
-0.09381801 -0.064242154 0.05714083 0.09244667 -0.13450582 0.15167153 -0.080563344 0.0074033095
0.10002075 0.04367183 0.022745026 -0.12410363 0.12941314 0.00092200754 -0.12962899 0.058549393
-0.07107279 -0.01713204 0.1465384 -0.03307605 0.08828731 -0.13297752 0.1507688 -0.12007937
-0.04581222 0.059035145 0.017924558 -0.016460262 0.12487552 -0.075203076 0.087306134 0.050233368
0.12097982 -0.09794299 -0.062601924 0.06321093 -0.043460242 -0.025645163 0.078667894 0.09982525
0.15133315 -0.14112023 -0.13226263 -0.0126324715 -0.014087346 0.025373945 0.012195904 -0.14333385
0.08264738 -0.040328734 0.07511883 -0.083360165 0.12096038 -0.16192114 0.018031871 -0.03006772
0.14459795 -0.08434971 -0.08364254 -0.15387009 0.16453655 0.11080629 0.07940651 0.024352787
0.15980098 -0.028846847 0.101552114 -0.032713167 0.014399649 -0.04262872 -0.0869549 -0.080524236
0.014714072 0.005709457 -0.110191435 -0.12834142 -0.024447763 -0.014459789 -0.040748306 -0.14873144
0.09538119 0.050620794 0.10567815 0.04237398 0.10965251 0.15096794 0.13155194 -0.08819318
-0.07086711 -0.06577387 0.007852333 -0.12796716 -0.11164013 0.11902984 -0.023266947 0.046174824
0.14632943 0.10109533 -0.066170566 0.06263416 0.15600479 -0.034256186 0.059581216 0.13319331
-0.13421695 -0.15236546 -0.008395309 0.12776022 -0.04012701 -0.042371307 0.15804414 -0.08417058
0.083212145 -0.012767641 -0.14404553 -0.00039600045 -0.13997355 -0.067906596 -0.096277624 0.10498421
0.033902366 0.12433809 0.023463933 0.11856799 -0.024377298 -0.077477224 -0.05425202 -0.009195186

model_11/dense_23/MatMul f4 [1, 10]
00000000: 5a31 953e 6396 343f 615d 023f b4d5 2d3d
00000010: 7cdf f43e 4aab 21bd dda6 2e3d e32d 3b3f
00000020: e31f c7be f64e 57be
0.29139215 0.7054197 0.50923735 0.04244013 0.47826755 -0.039469995 0.042639602 0.7311689
-0.38891515 -0.21026215
