src/main/assets/13.tflite (tflite, 28724 bytes, 12 tensors)

model_13/conv2d_27/BiasAdd;model_13/conv2d_27/Conv2D;model_13/conv2d_27/BiasAdd/ReadVariableOp/resource f4 [12]
000000 a3 76 b9 3b 79 4c cb bb 6a 4b 27 bc 6e e9 06 bc
       0.0056598946 -0.0062041846 -0.010210851 -0.008234365
000010 01 06 b3 3b f1 df 03 3c 27 16 dc bb f1 66 e8 3b
       0.005463362 0.008048997 -0.006716508 0.0070923497
000020 1b 37 47 3c 69 84 e2 bb 59 1b 20 3c 3d f1 1b bb
       0.012159134 -0.006912757 0.009772145 -0.0023794912

model_13/conv2d_26/BiasAdd;model_13/conv2d_26/Conv2D;model_13/conv2d_26/BiasAdd/ReadVariableOp/resource f4 [4]
000000 d5 54 0f bc 00 0a 0c bc 10 8c 0a 3c 87 83 b9 bb
       -0.008748253 -0.008547306 0.008456245 -0.0056614312

model_13/conv2d_27/Conv2D f4 [12, 1, 11, 4]
000000 a7 f3 15 3e 46 9b b1 bc 3c 1f 4e bd e5 6d b2 bd
       0.14643727 -0.021680485 -0.050322756 -0.08712367
000010 95 32 db 3d 16 3b 00 bc 93 e0 42 3d 62 82 36 3e
       0.10703007 -0.007826587 0.047577452 0.17823175
000020 38 d9 34 3e e9 a3 eb 3c da ce c9 bd 3b 1e ab 3d
       0.17660987 0.028764682 -0.09853907 0.083553754
000030 65 44 0d 3e f5 e8 34 be 59 49 26 be 72 f9 86 bd
       0.13795622 -0.17666991 -0.16238917 -0.06590547
000040 61 d5 df bd 3c d4 22 3e cc 4f 28 be 42 2d 81 bd
       -0.10929371 0.15901273 -0.1643669 -0.0630746
000050 ec bd e8 bc 8d 48 c6 bd b8 b6 27 3e b1 4e 1f 3d
       -0.028410874 -0.09681807 0.16378295 0.038893405
000060 18 5d 5e 3d 34 6d f8 bd 46 4b c3 3d 1b da 9d bd
       0.054288 -0.12130204 0.09535842 -0.07707616
000070 90 56 d7 bd 01 9c 37 be 79 dc 7c 3d fb 59 83 3c
       -0.10514557 -0.17930605 0.061733697 0.016034117
000080 39 17 1e 3e e7 07 35 3e 72 45 06 3e f8 fa 57 3d
       0.15438546 0.17678796 0.13112429 0.052729577
000090 53 6f 6d 3d c0 32 da 3d 67 9e 2b be e2 a1 08 be
       0.057967495 0.10654211 -0.16759644 -0.13343003
0000a0 8c d5 0a be 64 67 09 be 77 2c e9 3d 16 f5 3b 3e
       -0.13558024 -0.13418347 0.11385434 0.18355212
0000b0 21 05 2c 3e 2f 13 f2 bc 80 00 94 3c f5 76 0c bd
       0.16798832 -0.029550163 0.018066645 -0.034293134
0000c0 b5 86 0c be e5 2a 84 3d cc 38 a5 bd b9 19 3d bd
       -0.13723262 0.06453494 -0.08067474 -0.04616711
0000d0 78 10 e0 3d 97 1c e4 bd df c7 28 3e 49 9d c1 bd
       0.10940641 -0.111382656 0.16482495 -0.09453828
0000e0 8a 88 26 3c 8a 0e 78 bd 42 0d 97 bd 91 f4 02 3e
       0.010164389 -0.06056074 -0.073755756 0.12788607
0000f0 3d 03 89 bd 15 b1 39 bb 01 d8 30 3d ef 97 42 3d
       -0.06690071 -0.002833431 0.043174747 0.047508176
000100 23 48 ee 3c d6 e7 83 3c 1b 28 c7 3d a7 ce 6c bd
       0.029087132 0.016101759 0.097244464 -0.057814267
000110 88 c1 e7 bd 63 d2 96 bd 62 88 c4 3d ac 2b a2 bb
       -0.1131621 -0.07364347 0.095963255 -0.0049490537
000120 c1 60 32 3e e0 05 83 bc e8 1a 10 3e c2 2a c8 3d
       0.17419721 -0.015994012 0.14072764 0.097737804
000130 df 70 c4 bd f8 90 2c be 4c ad 5f 3d 7b 4a 72 bd
       -0.09591841 -0.16852176 0.05460863 -0.05915306
000140 73 8d 2d 3e 2e 36 44 bc da 12 a1 bd 7a 2d 51 3d
       0.1694849 -0.011975808 -0.07864924 0.05106876
000150 5b 65 29 bd 74 43 91 bd 2a 56 3d 3e 57 b5 f0 3d
       -0.041356426 -0.07092944 0.184899 0.11753338
000160 75 18 6f bb 60 6e 22 3e 73 18 58 bd 4a 62 d8 3d
       -0.0036483083 0.15862417 -0.05275769 0.10565622
000170 49 10 22 3e c7 cc ff bb 67 dc a3 3c ee 4a 1d 3e
       0.15826525 -0.007806394 0.020002557 0.15360615
000180 ad a2 22 3e 15 84 ba bd 88 9e f4 3d 48 2b 21 3e
       0.15882368 -0.09107224 0.119443 0.15739167
000190 b7 a3 32 be 3a 5b a3 bd 6d df 0a 3e d1 8d 0a 3e
       -0.17445265 -0.079763845 0.13561793 0.13530661
0001a0 c2 16 86 bd 2c e5 c2 3c f0 f8 ef 3d b4 8b 9b 3b
       -0.065473095 0.023790918 0.11717403 0.0047468785
0001b0 02 da 14 3d 1b 40 39 3e 2c ac 91 3c 52 9f 28 be
       0.03634072 0.1809086 0.017782293 -0.16467026
0001c0 c8 6c d2 bd 3c a1 c7 3d 10 eb 63 3d a7 03 f5 bd
       -0.102746546 0.0974755 0.055644095 -0.11963587
0001d0 23 d3 ba bd 61 01 0d 3e 77 d5 e7 3d 04 4d 34 be
       -0.091223024 0.13770057 0.11320012 -0.17607504
0001e0 24 72 9d bd 49 0d 23 be eb 25 07 3e 82 d7 3c be
       -0.07687786 -0.15923037 0.13198058 -0.18441585
0001f0 21 4c 6d 3d 43 13 2f 3e d1 15 19 3e c8 78 41 3d
       0.05793393 0.17097192 0.14949729 0.047234327
000200 a9 6f b0 3d fa 73 70 3d 66 52 66 3d 10 4d 87 3c
       0.086150475 0.058704354 0.056230925 0.016516238
000210 b8 b0 19 3c 88 d4 b8 bd a4 4c 25 3e 5d 3c 01 3e
       0.009380512 -0.09024912 0.16142517 0.12620683
000220 0e d9 ea 3d 09 8c c6 bd 3b 28 44 3d 72 05 b6 3d
       0.11467181 -0.09694678 0.04788993 0.08887757
000230 7a de 26 bd 88 28 d4 bd 6c 38 19 be cd 91 38 be
       -0.040739514 -0.10359293 -0.1496293 -0.18024369
000240 46 a3 dd bd fc db 3b 3e 1d 0e 56 bd 50 e2 20 3d
       -0.108221576 0.18345636 -0.052259553 0.03927833
000250 b8 79 58 bd 4f 85 24 be e3 21 0a bd c8 64 17 be
       -0.052850455 -0.16066478 -0.033723723 -0.14784539
000260 4c e8 3a be 71 ff 03 bd 1d 20 36 be 8c f7 30 be
       -0.18252677 -0.03222603 -0.17785688 -0.17281932
000270 01 19 eb 3d 99 a2 a8 bc 4e bc 3c be 69 3d 27 3e
       0.114793785 -0.020585345 -0.18431208 0.1633202
000280 c5 49 45 3d 3c 8e f4 3d ac 83 86 bc c7 f7 25 be
       0.048166055 0.119411916 -0.016420208 -0.16207801
000290 67 51 1b 3d b5 77 39 3d f5 b5 03 be c0 7e fc 3d
       0.03791943 0.045280177 -0.1286238 0.12328863
0002a0 2c b6 ff 3d 90 ed 31 bd 57 b5 a4 3d 18 6d 1b bd
       0.124859184 -0.043439448 0.080424 -0.037945837
0002b0 fb 61 a2 3d 49 40 8a 3d c9 df e1 3d 72 e3 1b 3e
       0.079288445 0.06750543 0.11029012 0.15223482
0002c0 8f 51 2d 3e 00 e1 bb bd 03 3c d0 3d 32 0e 36 3e
       0.16925643 -0.09173775 0.10167696 0.17778853
0002d0 de 71 36 3e 81 b5 ac bd 8a d1 00 be e4 8e f6 bd
       0.17816874 -0.084330566 -0.12579933 -0.12038973
0002e0 94 6a bb 3b b0 d7 df bd 26 00 eb 3d 47 05 42 3e
       0.005719492 -0.10929811 0.11474638 0.18947326
0002f0 83 6d 21 be dd 7b 12 3e 92 4d 06 be 9e 10 d8 3d
       -0.15764432 0.14305063 -0.13115528 0.105500445
000300 fd ba bc bd ad 5b 75 3c 59 14 07 be e0 97 ab 3d
       -0.09215353 0.0149754705 -0.13191356 0.08378577
000310 3e 1b 1f be e9 f1 b6 bc b2 aa 97 3c 5a 39 30 3e
       -0.15537736 -0.022332149 0.018514011 0.17209378
000320 d8 e9 ec bd 40 6b 34 be b1 27 f9 3c 08 78 81 3d
       -0.1156804 -0.17619038 0.030414434 0.06321722
000330 51 50 0e 3e 18 c1 98 bd 87 b2 04 be 5d df 0d 3d
       0.13897826 -0.07458705 -0.12958728 0.034636844
000340 64 a3 dd 3d af ce aa bd cc 1c ea 3c 9b cd 97 bc
       0.1082218 -0.08340203 0.028578185 -0.018530658
000350 f8 24 3c 3e d8 8f df 3c 3e c9 08 3d 8a 7b 28 be
       0.18373477 0.02729027 0.033395045 -0.16453376
000360 3c cd f1 3c 67 80 85 bd 99 5c ee 3d c3 db 3b 3e
       0.029516809 -0.065186314 0.11638755 0.18345551
000370 7e 98 4f 3d a1 18 c4 bd e8 ed 9e bd 29 aa 2e be
       0.050682537 -0.0957501 -0.07760221 -0.17057098
000380 bb 8d 3d 3e 30 a1 22 3d 46 1b 4c 3d d8 67 1d 3e
       0.18511097 0.0397045 0.049830697 0.15371644
000390 46 83 8b 3c d9 d4 fc bc 78 90 29 3e 81 fa 05 be
       0.01703037 -0.030863212 0.16559017 -0.13083841
0003a0 b9 74 12 be f3 62 76 3d 7d 9e b0 bd f8 ee fd bc
       -0.14302339 0.06015296 -0.08623979 -0.030997738
0003b0 8a 93 ae bb f2 ba 7c bc 67 f2 30 be ae 90 13 3e
       -0.0053276466 -0.015425431 -0.17279969 0.1441066
0003c0 0f 2d 24 3e f4 eb 81 3d 1b 83 95 3d 06 6a 06 be
       0.16032813 0.063438326 0.07300397 -0.13126382
0003d0 72 cd 2b 3e b1 2f c9 bd 2e ff b1 3d 95 87 5e bd
       0.1677759 -0.098235495 0.0869125 -0.05432852
0003e0 f9 fc 43 3e 39 33 06 3e 3a e3 08 3d 34 64 c9 3d
       0.1913947 0.13105477 0.033419825 0.09833565
0003f0 13 eb 9d bd 37 0b 3a be 7e 6b 15 be 59 e2 0f be
       -0.077108525 -0.1816834 -0.14591786 -0.14051189

model_13/conv2d_26/Conv2D f4 [4, 4, 38, 1]
000000 78 32 59 3b 07 9d 31 3d 7e a9 85 3d 94 3c 64 bd
       0.0033141654 0.043362644 0.06526469 -0.055721834
000010 32 aa 17 bd 4e 6b e7 3c 94 3d ac bd c0 54 b9 3c
       -0.037027545 0.028249409 -0.084101826 0.02262342
000020 8f a9 4f 3d 91 8b 37 3d ce 65 b3 bd 0a fd f2 bc
       0.050698813 0.044810835 -0.08759652 -0.029661674
000030 05 8c c6 bd 21 4d e6 bc ec 88 5d 3d f0 1e 44 3c
       -0.09694675 -0.02811295 0.054085657 0.011970267
000040 9b 5c 02 bd 49 9c ad bd 2b 0e 15 3d fa 4d 8e bb
       -0.031826597 -0.08477075 0.036390465 -0.0043427916
000050 11 3a 6a bd a1 28 9b 3d 15 d7 a2 3c b3 d6 85 bd
       -0.057184283 0.07576109 0.01987795 -0.06535091
000060 96 d5 e3 39 17 4d 3c 3b 43 dc 9d 3d 51 b0 22 3d
       0.00043455948 0.0028732473 0.07708027 0.03971893
000070 59 f5 ff bc ca ce 9c 3d 31 2b e8 3c bb d9 60 3d
       -0.03124492 0.076566294 0.028340908 0.054895144
000080 b6 77 ad bd 5a 35 78 bd 39 65 7a 3d 38 69 ba bb
       -0.08470099 -0.060597755 0.06113169 -0.0056888126
000090 d8 e5 b1 3c a7 6b 35 bb c6 f8 86 3d 92 03 ca bc
       0.021716043 -0.0027682574 0.065904185 -0.024659906
0000a0 c8 77 87 bd 9a 5e 71 bc a1 72 84 3c 06 15 65 bd
       -0.06614643 -0.014732027 0.01616794 -0.055928253
0000b0 9e ac 40 bd aa e0 a1 bd 8a d2 17 3d e0 cc 19 3d
       -0.04703962 -0.079041794 0.03706602 0.0375489
0000c0 ae 46 71 3d d4 91 83 3d e2 53 69 3d fb 0e 19 3b
       0.058905296 0.06424299 0.056964763 0.0023354876
0000d0 2b 62 84 3d d5 34 1e bd d1 36 6b 3d d0 f9 70 3d
       0.064640366 -0.038624603 0.057425324 0.05883199
0000e0 8d 20 c1 bd 1c 02 84 ba 11 48 94 3b b8 07 cc bc
       -0.09430037 -0.001007143 0.0045251925 -0.024906024
0000f0 b6 db 88 3d 3f 60 23 bd 96 87 b4 bd c5 35 6a bb
       0.066825315 -0.03988671 -0.088149235 -0.0035737616
000100 de e6 7e 3d fb 3a 21 3b f5 99 a9 bd cf 8b cf ba
       0.06223189 0.0024601805 -0.08281318 -0.0015834513
000110 59 61 5a 3d b8 72 aa bc 36 b5 9c bd d2 8a 6d 3c
       0.053315494 -0.020806655 -0.07651751 0.014498429
000120 3a c6 93 bc c7 d1 54 bd dd 5d 24 bd 44 07 c3 bd
       -0.018038858 -0.05195787 -0.040128578 -0.0952287
000130 c3 15 31 3c 85 cb 8a bd 88 d8 c3 3c 07 c4 6b bd
       0.010808411 -0.067770995 0.023906961 -0.057559993
000140 42 e4 31 3d 48 d3 80 3d 31 90 c9 bc 6d 24 6d bb
       0.043430574 0.06290299 -0.024604889 -0.0036185042
000150 1b e1 ac bd 19 51 84 bd f6 4f 4e bd 15 b2 4d bd
       -0.08441373 -0.06460781 -0.050369225 -0.05021866
000160 81 a3 a5 bc e0 a9 98 3d dc a8 a1 3d 43 bf ad bc
       -0.020219566 0.07454276 0.078935355 -0.021209365
000170 03 7d 8c 3d a9 e0 81 bd 0f 71 33 bc a3 bb a5 3c
       0.068597816 -0.06341679 -0.010952248 0.020231074
000180 31 ce 2d bd ae 70 e8 3c c0 5a 43 bd 68 91 4b bd
       -0.042432968 0.028374042 -0.047693968 -0.049699217
000190 1a 44 34 3d 08 95 b5 bc ca ac 08 bd 84 bf 80 3d
       0.04401026 -0.02216579 -0.03336791 0.06286529
0001a0 d6 28 76 bb 9f 38 04 bb b3 44 0b bd 98 83 93 3d
       -0.0037560961 -0.002017535 -0.034001064 0.07202834
0001b0 b3 85 06 3c 68 11 c5 bd 89 43 9d ba 8a ea 1c 3d
       0.008210587 -0.096224606 -0.0011998276 0.03830961
0001c0 63 9f 0e 3d f1 a3 0f bd 43 9b c7 bd 68 9d ae bd
       0.03481997 -0.035068456 -0.09746411 -0.085261166
0001d0 c7 95 74 bd 04 d8 44 3d d8 d0 1c 3d a7 d7 35 bc
       -0.05971315 0.04805757 0.038285106 -0.011098779
0001e0 f9 f3 c4 bc 1a 1f b4 bd 57 5b 79 3d fd e9 20 bc
       -0.024042116 -0.08794995 0.060878124 -0.009821412
0001f0 21 6f 5c bd 5c da c2 bd 24 4b a0 bc 64 af 17 bd
       -0.05381692 -0.09514305 -0.01956708 -0.0370325
000200 36 e5 17 3d 76 aa 27 3d 2a d2 9f 3c 39 89 8d 3d
       0.037083827 0.04093405 0.019509394 0.06910939
000210 42 74 1c bd fd 02 68 3b 3a f9 8f bd d2 82 9a 3d
       -0.03819681 0.0035402172 -0.07029958 0.07544483
000220 6b a3 a0 3d 4d 1d 8d 3d ac 29 2b bd e3 70 4a 3d
       0.078436695 0.06890354 -0.04178779 0.049424063
000230 0b 9f 56 3d f2 07 bb 3c 8f bc 93 3d 06 2f 50 3d
       0.05239777 0.022830937 0.07213699 0.050826095
000240 e7 87 92 bc 07 19 22 3d 44 90 bb bd d7 03 8a 3b
       -0.017887069 0.03957465 -0.09158376 0.0042118835
000250 46 78 16 bd 83 7d 2e 3d 4c 48 4e bd 83 a1 c2 bd
       -0.036735795 0.042600166 -0.050361916 -0.09503462
000260 40 f1 62 3d b0 f4 6f bb 62 64 79 3d 16 8c ea 3c
       0.055405855 -0.003661435 0.060886748 0.028631251
000270 22 b3 48 3d 01 48 ab bd dc e9 6a 3d 4e 36 a3 bb
       0.04899896 -0.08363343 0.057351932 -0.004980839
000280 e4 31 84 3d df 5c 2d bc 23 9c 94 3c 72 f6 86 bd
       0.064548284 -0.010581224 0.018140858 -0.065899745
000290 a8 cc a0 bd 5e 3e 72 bd 5b c6 35 bd 62 4d 77 bc
       -0.07851535 -0.05914151 -0.04437862 -0.015094133
0002a0 8f c2 04 bc 14 e7 1c bd a9 c6 9c 3d a2 68 4b bd
       -0.008103027 -0.03830631 0.07655079 -0.049660333
0002b0 7c e3 50 bc a1 e1 c3 bd b9 b2 e2 bc 58 18 8f bd
       -0.012749549 -0.0956452 -0.027673112 -0.06987065
0002c0 fd e0 9a bd 08 19 e4 bc eb d7 97 bd 55 68 ba 3b
       -0.07562444 -0.027843967 -0.0741423 0.005688707
0002d0 14 8b 95 bd d6 49 6d bd 98 82 84 bc 53 62 b8 bd
       -0.07301918 -0.057931744 -0.016175553 -0.09003129
0002e0 19 6f f2 3c 33 13 7f 3c 19 14 60 bd da b8 67 bc
       0.029593991 0.015568542 -0.054706667 -0.014143193
0002f0 37 52 16 bd 1c 53 ad bd 9d de 26 3d 2f 8a e7 3c
       -0.0366995 -0.084631175 0.040739644 0.028264133
000300 25 e6 4e bc 1a d9 88 bd 69 db 95 bc a4 e4 48 bc
       -0.012628113 -0.06682034 -0.0182931 -0.012261543
000310 c7 8a be bd 3c 44 07 3c 57 21 9b 3d d6 45 f8 bc
       -0.093038134 0.008256014 0.075747184 -0.030306738
000320 d8 11 64 3c 86 40 23 bd 87 78 13 3c 77 fd ae bd
       0.01392027 -0.039856456 0.009000904 -0.08544438
000330 5b c1 8b bd 26 84 c0 bd f3 a8 1c 3d 93 aa 4b bd
       -0.06823989 -0.09400205 0.03824706 -0.04972322
000340 85 d6 78 bd 81 f8 7f bd 50 88 91 3c 5a 40 80 bd
       -0.060751457 -0.06249285 0.017765194 -0.06262274
000350 72 ae 12 bc 66 54 23 bd 1a 1a e9 bc 03 43 4a 3d
       -0.008952724 -0.03987541 -0.028454829 0.049380314
000360 8b 0f 6d bd 01 8e d0 3c c3 28 98 bc bd 30 0c 3d
       -0.05787615 0.025458338 -0.018574124 0.034226168
000370 d9 8e cd 3c 28 2e b0 bd 44 08 4d bc 86 8d 4a bd
       0.02509253 -0.086025536 -0.012514178 -0.049451374
000380 61 cf 08 3c 7c d5 5e bd 2e fc 09 bc 6e 91 2c bd
       0.008350224 -0.054402813 -0.008421941 -0.04213088
000390 25 2a 26 3d 1a 5d 34 3d f4 96 7d 3c 06 4b 9b bd
       0.040567536 0.0440341 0.015477885 -0.07582669
0003a0 2c 01 e8 bc be 62 a7 bd d2 05 6a bd 8e 3d a5 bd
       -0.028320871 -0.081731305 -0.057134457 -0.08068381
0003b0 56 0c 1c bc c5 0a b1 bc 4f 91 47 bd 7a 9c d6 3c
       -0.0095244255 -0.02161158 -0.04872256 0.02619766
0003c0 d5 5e a0 3d d9 d5 1b 3c 8f 57 c8 3c f5 fe 50 3c
       0.07830588 0.0095114345 0.024455814 0.012756099
0003d0 6c 48 39 bc 86 1f ae bc 0d 7a 73 3d 0c bb 8a bd
       -0.011308771 -0.021255266 0.05944257 -0.067739576
0003e0 c9 16 d6 bc cd 7e 46 3d 65 ae 7a 3c bd f6 88 bd
       -0.026133912 0.04846077 0.015300368 -0.066876866
0003f0 0b ac ac bd aa 53 88 bc e3 e5 5c 3c 4a 5f 3d 3b
       -0.08431252 -0.016641457 0.013482544 0.0028895908

model_13/dense_26/BiasAdd/ReadVariableOp/resource f4 [10]
000000 c6 e6 ec 39 2e e9 19 bb cd bb e6 bb c9 13 f1 3b
       0.00045185367 -0.0023484933 -0.0070414306 0.007357095
000010 86 cd ce bb bb c6 02 bb d5 57 a0 bb b8 d0 29 bc
       -0.0063111214 -0.0019954878 -0.004893283 -0.010364704
000020 0b ac ca 3c 82 84 c1 3b
       0.02474024 0.0059056887

model_13/layer_normalization_39/add/ReadVariableOp/resource f4 [4]
000000 b4 47 3e bc b1 d0 87 ba 50 e5 02 3c a4 b8 9f bb
       -0.011613775 -0.0010361878 0.007989243 -0.004874306

model_13/layer_normalization_39/mul_4/ReadVariableOp/resource f4 [4]
000000 76 61 7e 3f e4 94 7e 3f dd bd 80 3f af a9 7f 3f
       0.99367464 0.9944594 1.0057942 0.9986829

model_13/layer_normalization_40/add/ReadVariableOp/resource f4 [12]
000000 5e 0e cc 3b 3c 0a 8d bb 8d e2 b3 bb ca 6c b4 bb
       0.0062272986 -0.0043041985 -0.0054896534 -0.0055061327
000010 4b c4 e0 3b 0b 4e 13 3c cb 13 52 39 c0 12 cf 3b
       0.0068593374 0.008990775 0.00020034534 0.006319374
000020 6e 8a 80 3c 6b 3b ef bb 20 ea 2b 3c 91 e9 a5 3b
       0.015691008 -0.0073007843 0.0104928315 0.0050632437

model_13/layer_normalization_40/mul_4/ReadVariableOp/resource f4 [12]
000000 3e 07 81 3f 15 af 7e 3f 67 2a 80 3f 13 e9 7c 3f
       1.0080335 0.99485904 1.001294 0.98793143
000010 3f e9 80 3f 2d b0 80 3f e7 29 7e 3f b3 1d 7e 3f
       1.0071181 1.0053765 0.9928269 0.9926407
000020 a7 25 7d 3f 8b 14 81 3f 26 5d 7f 3f 4e 3b 7e 3f
       0.9888558 1.0084394 0.9975151 0.9930924

model_13/layer_normalization_41/mul_2/ReadVariableOp/resource f4 [10]
000000 57 c8 7c 3f 2b 92 7f 3f 34 ea 7c 3f 54 94 80 3f
       0.98743194 0.9983241 0.98794866 1.0045266
000010 53 23 7f 3f 5a 09 80 3f 34 82 7d 3f a2 07 7e 3f
       0.99663275 1.0002854 0.990268 0.99230397
000020 17 6b 75 3f 5e 06 81 3f
       0.9586653 1.0080068

model_13/dense_26/MatMul f4 [10, 228]
000000 44 08 80 3d 01 49 04 3e 9a 3f 49 bd 02 0c d1 bd
       0.062515765 0.12918474 -0.04913292 -0.102073684
000010 e2 d1 d1 3d cc 0b 21 3e 97 e9 10 3e d7 29 c2 bc
       0.1024511 0.15727156 0.14151607 -0.023701591
000020 e2 95 2b 3d d5 d1 7d 3d eb 62 26 be b1 23 a1 bd
       0.041890986 0.06196769 -0.16248672 -0.07868136
000030 c9 fa d7 3d ab b0 a4 bd 70 ab 01 3e 0c e3 cd bd
       0.1054588 -0.08041509 0.12663054 -0.100530714
000040 4b e9 14 3e d5 c7 21 3e 34 9e 4a 3d d4 d1 18 3e
       0.14542119 0.15798886 0.04946728 0.14923793
000050 a4 2a f2 3c 18 28 1a 3d be 89 f3 ba 55 f1 e1 3d
       0.029561348 0.037635893 -0.0018580479 0.110323586
000060 f6 a5 07 be 85 25 82 bc f6 81 c2 bd 3a 12 29 3e
       -0.13246903 -0.015887031 -0.09497444 0.16510859
000070 f3 67 1c 3d 49 de 8e bd 36 8a c1 bc d6 ad 1d 3e
       0.03818507 -0.06975991 -0.023625474 0.15398344
000080 3e 51 7a bd 88 89 12 3e 09 b1 42 bb 5e cf ff bd
       -0.061112635 0.14310277 -0.0029707572 -0.12490724
000090 d1 13 be 3c aa 67 c1 bd 48 ac 59 3d 9d 32 b9 bb
       0.023202809 -0.094436005 0.053142816 -0.0056517855
0000a0 e3 d6 ba bd 08 dc 91 bd 1d b6 90 3d 1d 67 fc 3d
       -0.09123018 -0.07122046 0.07065985 0.12324355
0000b0 3c 6e 69 3d 27 16 44 bd 38 e0 af 3d 46 a8 a8 bd
       0.056989893 -0.04787269 0.08587688 -0.082352206
0000c0 8b 0b db bc 0d 21 d5 3d eb d4 ae 3d 5b 01 ba 3d
       -0.026738903 0.104066946 0.08536705 0.0908229
0000d0 2a e3 7d 3d 01 5a 65 bc b7 02 bc bd 46 0f 1c 3e
       0.06198422 -0.013998509 -0.09180205 0.15240201
0000e0 14 49 62 bc ae 8f f2 3b 62 b7 13 be 86 a1 81 bb
       -0.0138113685 0.007402382 -0.14425424 -0.0039560227
0000f0 ee 2d e6 bd d5 67 95 bd d2 d0 33 3d 0c d6 82 bd
       -0.11239229 -0.07295195 0.04390032 -0.063884825
000100 41 0c 8a bd d6 18 cc 3d 0b fc 07 bd 8d 60 3b 3d
       -0.067406185 0.099656746 -0.03319935 0.045746375
000110 0e c9 25 bd 80 cd 6e 3d 0c c6 c4 bd 1b 51 94 bd
       -0.040474944 0.05830145 -0.09608087 -0.07242032
000120 0a cd 8f bc 15 c5 1a 3e 6d b2 9d bd 65 81 c6 bd
       -0.017553825 0.15114243 -0.07700048 -0.09692649
000130 71 d7 e8 3d 67 b9 86 3d c6 80 83 bd b7 8a 8b 3c
       0.11369217 0.065783314 -0.06421046 0.017033918
000140 00 e5 87 bd 9f 8b 23 3e 3b b6 e0 3d e1 7a 5a 3d
       -0.06635475 0.1597123 0.10972258 0.053339843
000150 43 ef 97 3c 5c 50 f4 3d 85 b8 56 3c 7d 59 05 3c
       0.018546706 0.1192939 0.013105516 0.008139011
000160 1a 68 23 3e 9a dd 5f bd 4a 58 e9 3d 52 12 83 3d
       0.1595768 -0.054654695 0.11393793 0.06399979
000170 03 cb 0b be 54 90 0d 3e b0 ab 50 bd 8c ca 14 be
       -0.13651662 0.13824588 -0.050944984 -0.1453039
000180 a5 3c be 3d ae eb 0a 3d 18 76 b0 bc e3 48 9a bd
       0.09288911 0.033916168 -0.021540686 -0.07533433
000190 02 b2 dd bd 18 e6 68 3d bf 9a cd bd da 73 cc 3c
       -0.10824968 0.05686006 -0.10039281 0.024957586
0001a0 93 33 89 3d 22 d9 de bd 72 49 f6 3d fc a0 57 bd
       0.0669929 -0.108812585 0.12025727 -0.05264376
0001b0 60 22 ed bd 2d 5c d0 bd b2 39 06 be 7c cd d0 bd
       -0.11578822 -0.10173831 -0.13107947 -0.10195443
0001c0 96 58 1c 3e c2 bc 3d 3d 22 c0 53 3d 1f 6a 0c 3d
       0.15268168 0.04632259 0.051696904 0.034280892
0001d0 3a f9 c8 bd eb 6a 29 3d cc 58 8f 3c c0 a5 7b bb
       -0.09813161 0.04136173 0.017498396 -0.0038398355
0001e0 fa b0 32 bd 9d 1e 05 be 7a 30 ff 3d 25 0b ea bd
       -0.04362581 -0.1299996 0.12460418 -0.11427907
0001f0 96 45 e2 bd 67 70 53 3d e7 4c 7b 3c 37 fa 22 be
       -0.11048429 0.051620867 0.015338159 -0.15915762
000200 ce ed 8d bd 35 d2 b0 bc 3b 41 e3 bd 91 33 07 be
       -0.06930123 -0.02158461 -0.11096426 -0.13203265
000210 e5 99 de bb a6 fe dd 3d 55 e7 26 bd d5 e3 ce 3d
       -0.006793248 0.10839586 -0.04074796 0.10102049
000220 16 70 26 3e ab ff 14 3e 39 df 01 be a4 56 16 3e
       0.16253695 0.14550655 -0.12682809 0.14681488
000230 d9 83 ea bc 0d 99 9d 3d a0 fa ac 3d ff aa 64 bd
       -0.028627323 0.07695208 0.084462404 -0.055827137
000240 78 ad e9 ba de 28 5e bd 28 40 af 3d d9 e3 b8 3d
       -0.0017828187 -0.054238193 0.08557159 0.090278335
000250 41 81 27 3e 63 61 0e be 27 ee 04 3e 31 d2 1b 3e
       0.163579 -0.13904338 0.12981473 0.152169
000260 00 3e b8 ba 63 9a 86 3d 1d 4c 3c 3c 96 73 57 3d
       -0.0014056563 0.06572416 0.011492756 0.052600466
000270 84 ef 1d 3e 40 a7 3f 3d 56 9d b4 3c c8 64 0f 3e
       0.15423399 0.04679036 0.02204768 0.14003289
000280 47 62 85 3d 0a f6 82 3d d0 fd 18 be 9b 91 ad bc
       0.065128855 0.063945845 -0.14940572 -0.021187594
000290 cb 5c 1d 3e 8d fc 2b bd d3 de 20 be a5 96 db bd
       0.15367429 -0.041988898 -0.1571 -0.107220925
0002a0 8f 1d f6 bb 26 cb 19 be 20 fb 4c bd b3 d1 a7 bd
       -0.007510848 -0.15018901 -0.05004418 -0.08194294
0002b0 d7 c8 0c bb 91 f5 1c be 06 18 39 bd c1 75 dd 3b
       -0.0021482015 -0.15328051 -0.045188926 0.006758422
0002c0 82 d0 e4 3c ae 85 f0 bd e1 d0 a5 3d 21 1a 3f 3c
       0.027931456 -0.117442474 0.08096481 0.011663944
0002d0 7e 5c 93 bc 45 86 74 3d 97 f3 89 bd c1 24 63 bd
       -0.01798844 0.059698362 -0.06735914 -0.055454973
0002e0 1e 30 0f bd 0e 81 8a bd 3e cc a9 bc 72 72 7b 3c
       -0.034957998 -0.067628965 -0.020727273 0.01534711
0002f0 60 dc a7 3d 1b 96 1c be 6d 07 d2 3d d4 62 30 3d
       0.0819633 -0.15291636 0.102553226 0.043063
000300 e8 a2 db 3d 72 8c 20 3e 9d 50 5e 3d b5 39 90 bd
       0.10724431 0.15678576 0.054276098 -0.07042257
000310 e1 2e ed 3d 72 94 eb bd 07 c3 18 3c d8 fa 00 be
       0.11581207 -0.11502923 0.009323842 -0.1259569
000320 9f 4f bd bd 87 bb e2 bd 6b a2 bd bc f9 df 17 3d
       -0.09243702 -0.11070924 -0.023148736 0.03707883
000330 b0 a3 15 be 47 7c f7 bc f2 7c 87 3d 39 17 dd bd
       -0.14613223 -0.030210627 0.06615628 -0.10795445
000340 e2 1d cf bd 8a 3e 77 bd c4 f6 b4 bd ec 5b e8 3d
       -0.101131216 -0.060362376 -0.08836129 0.11345658
000350 f7 40 ba 3c bc f6 15 3e b4 92 af bd 6d e8 e1 3d
       0.022736056 0.14644903 -0.08572903 0.1103066
000360 a0 a8 db bc 08 ff cc bd b7 b6 22 be 42 3c da bd
       -0.026813805 -0.10009581 -0.15890013 -0.106560245
000370 ab 2a 61 bd c6 71 18 3d cb 54 c1 3d 83 c0 ee bd
       -0.054972332 0.037217878 0.09440001 -0.116578124
000380 16 ba ed 3d c3 5a 1f 3e 69 32 c7 3c 39 48 1d 3d
       0.11607759 0.15561967 0.02431603 0.038398955
000390 b0 67 16 bc da 1f ec bd 6d 72 d1 bc ad cd bd bd
       -0.009179994 -0.11529513 -0.025567258 -0.09267745
0003a0 77 59 45 3c a5 ac 0b 3d 09 7e b3 3d 27 80 3c bd
       0.012045256 0.034100194 0.08764274 -0.046020653
0003b0 d0 bc 3b bd a3 9e a2 3d 3e b5 3b 3c e7 ce a5 bc
       -0.045834363 0.07940414 0.011456786 -0.02024026
0003c0 62 88 3a 3c 9e e8 61 3d fa 5a 2c be c5 bc 37 bd
       0.011385055 0.05515348 -0.1683158 -0.04485776
0003d0 b3 89 92 3d 55 20 b9 bd b8 b5 98 bd 2d fe 2c 3d
       0.0715517 -0.0903937 -0.07456535 0.04223459
0003e0 cf 04 a4 bd d5 bc 8b bd dc f1 01 3e 69 9f f1 bd
       -0.0800873 -0.06823126 0.12689918 -0.11797983
0003f0 da 6c cb 3d 56 8f 54 bc 41 4d c5 3d bc 55 28 3e
       0.09932871 -0.012973627 0.09633876 0.16438955

model_13/dense_27/MatMul f4 [1, 10]
000000 ad b9 5f be 2a bf c3 be f6 45 fe 3e e2 d2 be bd
       -0.21848173 -0.38231784 0.4966275 -0.093175665
000010 8f d5 99 be 7e 07 ee bd 5c 17 00 3f 37 11 22 3f
       -0.30045745 -0.11622523 0.50035644 0.6330752
000020 41 22 08 be 05 b2 e7 be
       -0.13294317 -0.45253006
