src/main/assets/16.tflite (tflite, 28724 bytes, 12 tensors)

model_16/conv2d_33/BiasAdd;model_16/conv2d_33/Conv2D;model_16/conv2d_33/BiasAdd/ReadVariableOp/resource f4 [12]
-0.0028789775 -0.016839195 0.003687905 -6.256419e-05 0.0042804307 0.0031553337 0.008454385 -0.0023380923
0.00047519448 -0.007582818 0.0016314532 -0.002334388
00000000: 3aad 3cbb 5af2 89bc c7b0 713b e534 83b8
00000010: db42 8c3b b7c9 4e3b 4384 0a3c ae3a 19bb
00000020: 8623 f939 4a79 f8bb 7cd6 d53a 88fc 18bb

model_16/conv2d_32/BiasAdd;model_16/conv2d_32/Conv2D;model_16/conv2d_32/BiasAdd/ReadVariableOp/resource f4 [4]
0.0034504707 -0.0033987563 0.0026627595 -0.006451857
00000000: 4b21 623b abbd 5ebb b181 2e3b 196a d3bb

model_16/conv2d_33/Conv2D f4 [12, 1, 11, 4]
-0.018438714 0.105291516 -0.07853026 0.119735494 -0.03532642 -0.17844488 0.13926418 -0.0020056698
-0.006415038 -0.014212037 -0.019840928 -0.15022826 0.102272995 -0.04039527 -0.05440941 0.16283067
-0.05165637 0.0541267 0.12226584 0.011171162 -0.043445 -0.17064248 -0.1594591 -0.018096916
-0.16484448 0.15499341 -0.17009838 -0.03527331 -0.102121994 -0.0071293586 0.02480904 -0.011875106
-0.077939734 0.10350577 0.08171125 -0.17387842 0.08849996 0.117934376 -0.1305816 -0.12728833
-0.17440544 0.06890265 0.026051132 0.024758834 0.10896712 0.13821366 -0.1551048 -0.015037696
0.0030691766 -0.10803162 -0.1795584 -0.06573271 0.08663612 0.08411516 0.042044494 0.0011261222
0.060435526 -0.16055888 0.08104405 0.012354222 -0.11609282 0.18051964 0.017972378 0.1902212
0.062435757 0.10747748 -0.06669618 0.028317539 0.13166344 -0.052544408 0.030257177 0.17189632
0.06498351 0.13130045 0.027149532 -0.1456738 -0.006907687 -0.14800395 0.043287635 0.07806157
0.07233478 -0.02656938 0.03670022 -0.15005009 -0.0060860403 0.14394613 0.09599813 0.1356117
0.17782708 0.045614477 -0.035508145 -0.05636265 -0.07713426 0.0071842875 0.029187178 -0.063433245
0.068231724 -0.033663552 -0.048508983 0.14845741 0.07184099 -0.08533141 0.14019488 -0.15637024
-0.03848181 0.05934495 0.18789612 -0.1155433 -0.07662416 -0.08940888 -0.1438343 -0.053266734
0.01045738 -0.02723807 -0.13758749 -0.0726336 0.111583024 0.14490968 -0.12133755 0.118972234
0.18667331 0.1515635 0.06853935 0.069546394 -0.17460701 -0.18067464 0.09193332 0.15696795
-0.1754993 0.15275575 0.017169258 -0.077364564 0.030097825 -0.12536596 0.099203005 0.15961726
-0.08362058 0.068333834 0.0062321844 0.08529141 0.106632106 -0.18185008 -0.15071124 0.06851527
-0.18271776 0.06963479 0.11400014 -0.078601606 0.08905361 0.0040199934 -0.15610102 0.14975493
0.110454194 -0.03808262 -0.14721379 -0.0032408608 -0.12365124 0.12672655 0.16516067 -0.021833856
0.12384142 -0.16375014 0.13432305 -0.056699652 0.09055687 -0.13603002 0.16686861 -0.09647755
0.041117188 -0.0076297126 -0.017195344 0.06707766 -0.15988365 -0.140984 -0.058443546 -0.1789416
-0.1475019 -0.11402409 0.07696916 -0.13069242 0.031556346 0.044704087 -0.0035633454 -0.014527747
-0.025271665 0.023262559 -0.10536021 -0.05294882 0.14169833 0.0035738084 0.036059234 -0.066081546
-0.1089941 -0.024104742 -0.06808525 -0.02039347 -0.013235835 0.10941187 0.17311707 -0.07259971
-0.070411 0.11044721 -0.06580744 0.0352734 0.17936279 0.06603587 -0.047801323 0.013263252
-0.12768324 0.08223446 -0.13275635 -0.012086278 -0.016575133 0.11932419 -0.07862679 0.026665865
-0.017867062 0.09201543 -0.104290806 -0.02433197 -0.08908484 0.08769976 -0.08598258 -0.07888681
0.049501017 -0.13817163 0.110382766 -0.086479105 -0.076437786 -0.16744699 -0.15348208 -0.016336933
-0.079219766 0.15294157 0.11523342 -0.16560334 0.09370907 0.17751282 -0.0016229817 -0.1000324
0.08310491 0.08085353 0.10300104 0.13423856 0.09767345 0.09452758 0.08579941 -0.1347904
-0.15066221 -0.10620671 0.114957474 0.055588193 0.17622268 -0.17246985 0.084432594 -0.13707596
00000000: c90c 97bc 14a3 d73d 79d4 a0bd e237 f53d
00000010: 70b2 10bd 41ba 36be 459b 0e3e 8e71 03bb
00000020: 3d35 d2bb 9bd9 68bc 7189 a2bc 70d5 19be
00000030: 8174 d13d 8375 25bd 67dc 5ebd 15bd 263e
00000040: a195 53bd f5b3 5d3d 8366 fa3d 4007 373c
00000050: 62f3 31bd e7bc 2ebe 3f49 23be fc3f 94bc
00000060: fecc 28be 98b6 1e3e 452e 2ebe bf7a 10bd
00000070: 5625 d1bd 659d e9bb 543c cb3c ce8f 42bc
00000080: de9e 9fbd d5fa d33d 3a58 a73d 2f0d 32be
00000090: 783f b53d 9487 f13d 2fb7 05be df57 02be
000000a0: 5797 32be d51c 8d3d 2f69 d53c 0ad3 ca3c
000000b0: 272a df3d e287 0d3e cbd3 1ebe ab60 76bc
000000c0: 3d24 493b af3f ddbd 28de 37be df9e 86bd
000000d0: 476e b13d 9244 ac3d d936 2c3d 649a 933a
000000e0: 3e8b 773d 8c69 24be 6cfa a53d 5d69 4a3c
000000f0: 13c2 edbd 24da 383e cf3a 933c 59c9 423e
00000100: a3bc 7f3d 271d dc3d 0298 88bd 2ffa e73c
00000110: c8d2 063e ce38 57bd e6dd f73c 9705 303e
00000120: 1316 853d a073 063e b268 de3c 832b 15be
00000130: e159 e2bb 598e 17be 604e 313d bfde 9f3d
00000140: 4224 943d 07a8 d9bc f852 163d bba6 19be
00000150: 686d c7bb 9d66 133e ab9a c43d cbdd 0a3e
00000160: 4d18 363e 3fd6 3a3d fd70 11bd 86dc 66bd
00000170: 91f8 9dbd 2c6a eb3b f319 ef3c 4ae9 81bd
00000180: 13bd 8b3d cbe2 09bd 5bb1 46bd 3805 183e
00000190: 5e21 933d 3cc2 aebd 3f8f 0f3e 851f 20be
000001a0: 1a9f 1dbd b113 733d d767 403e f7a1 ecbd
000001b0: 21ed 9cbd 011c b7bd 4c49 13be 382e 5abd
000001c0: 6e55 2b3c 5f22 dfbc bce3 0cbe edc0 94bd
000001d0: a485 e43d 3463 143e d27f f8bd b7a7 f33d
000001e0: 4a27 3f3e 7633 1b3e 5c5e 8c3d 576e 8e3d
000001f0: 2ecc 32be c602 39be 8947 bc3d 35bc 203e
00000200: 17b6 33be 016c 1c3e 8ba6 8c3c 5071 9ebd
00000210: b78f f63c ef5f 00be f22a cb3d b572 233e
00000220: 4441 abbd 9cf2 8b3d 5a37 cc3b 43ad ae3d
00000230: ef61 da3d e836 3abe 0c54 1abe bc51 8c3d
00000240: 5d1a 3bbe af9c 8e3d e878 e93d e1f9 a0bd
00000250: bd61 b63d 26ba 833b f2d8 1fbe 5b59 193e
00000260: cf35 e23d 85fc 1bbd 36bf 16be 9f64 54bb
00000270: dc3c fdbd 9bc4 013e e11f 293e eadc b2bc
00000280: 92a0 fd3d 1eae 27be fb8b 093e e53d 68bd
00000290: e175 b93d 744b 0bbe 9bdf 2a3e 0696 c5bd
000002a0: 7f6a 283d ab02 fabb 40dd 8cbc 0360 893d
000002b0: 8ab8 23be 1c5e 10be 8062 6fbd 773c 37be
000002c0: bd0a 17be 7685 e9bd 02a2 9d3d 3cd4 05be
000002d0: 3a41 013d a21b 373d 0487 69bb ca05 6ebc
000002e0: 8606 cfbc 1f91 be3c 18c7 d7bd dde0 58bd
000002f0: 5e19 113e 8e36 6a3b d9b2 133d c355 87bd
00000300: 4c38 dfbd 4f77 c5bc 4870 8bbd 3510 a7bc
00000310: 1edb 58bc 5513 e03d 9a45 313e 28af 94bd
00000320: a433 90bd 2632 e23d 0dc6 86bd d77a 103d
00000330: e1aa 373e d03d 873d 52cb 43bd 1c4e 593c
00000340: 65bf 02be 8a6a a83d 48f1 07be 8605 46bc
00000350: 93c8 87bc 3e60 f43d 1507 a1bd 5f72 da3c
00000360: f25d 92bc 9672 bc3d 6b96 d5bd d753 c7bc
00000370: 1d72 b6bd ef9b b33d a317 b0bd 688f a1bd
00000380: 94c1 4a3d dd7c 0dbe 5c10 e23d f51b b1bd
00000390: 6a8b 9cbd 3977 2bbe 682a 1dbe 08d5 85bc
000003a0: f93d a2bd b79c 1c3e 80ff eb3d ec93 29be
000003b0: 8aea bf3d ecc5 353e 3bba d4ba c9dd ccbd
000003c0: e832 aa3d 8996 a53d 36f2 d23d d575 093e
000003d0: 0509 c83d ad97 c13d 9ab7 af3d 7f06 0abe
000003e0: 3247 1abe e782 d9bd d36e eb3d 72b0 633d
000003f0: b873 343e f09b 30be ffea ac3d a45d 0cbe

model_16/conv2d_32/Conv2D f4 [4, 4, 38, 1]
-0.01946461 0.04478134 0.091303624 0.06476364 0.06420512 0.0016595771 -0.013310423 0.023368785
-0.008556279 0.029822525 -0.020004207 -0.07641392 -0.029957611 -0.057478834 0.06084221 0.033255965
0.009828174 0.06971359 0.06737476 0.09007124 0.014920376 0.04240955 0.061894126 0.034840506
-0.0060603023 -0.006549167 0.02795472 -0.044068456 0.062089533 -0.02687802 0.04450656 0.00091891526
0.050531067 -0.014134553 -0.038232163 0.018759696 0.037705697 0.015123796 0.08827967 0.055661395
-0.0055499976 -0.056511797 -0.08322572 -0.0646879 -0.05170655 -0.084016405 0.011488405 0.018812124
-0.044409614 0.060241826 -0.07260396 -0.014927164 0.0027861716 -0.02493803 0.07451839 0.03464739
-0.022301685 0.08067083 0.02264186 0.08379105 0.04959363 -0.044155374 0.044503253 -0.029660853
0.08595702 0.005777335 -0.008378169 0.056873962 -0.075213395 -0.07101763 0.007775757 0.00851289
-0.041951288 -0.033326704 -0.022412531 -0.023507422 -0.0063855746 0.017159512 0.09215293 0.083090164
-0.0830567 0.076606005 0.066443816 0.014359372 -0.033814102 0.02995459 0.08873876 -0.01166576
0.002997161 0.061218232 -0.012029887 -0.013065139 -0.003811379 0.05223107 -0.01640991 -0.04470545
-0.032937348 0.014921228 -0.041791923 0.07358855 -0.07034002 -0.0733626 0.006404648 -0.009343683
0.053978335 0.043758538 0.019786248 0.036791224 -0.07814636 0.07490113 -0.04685698 -0.050520644
0.021736557 0.035367608 -0.07744955 0.094245285 0.011097112 -0.014666798 -0.022785516 0.061777893
-0.016474772 -0.038359087 -0.026742866 -0.016249927 -0.005805393 -0.032466877 0.055180814 0.0961689
0.0235825 -0.0075343456 0.06607217 0.009874091 -0.06251495 -0.01890979 -0.008619753 0.01066283
-0.046557628 0.004276826 -0.015316354 0.06671084 0.011465806 -0.018026074 0.019873526 -0.053041577
0.06814425 0.08304106 0.08746839 -0.0072658765 -0.0082529485 -0.045573074 -0.043579992 -0.07158692
0.065073416 -0.07142934 0.026441827 -0.084644385 -0.079164796 0.023627019 0.08309555 0.036460713
-0.0040509114 0.003144313 -0.045986846 -0.013612674 -0.07416298 0.04876858 -0.027644405 -0.033754498
0.03544876 0.0627845 -0.051842723 -0.029296879 0.028341737 -0.0044734324 0.06406809 0.026718332
-0.0040012496 0.028118376 0.04356961 0.06339469 -0.083034836 -0.035918307 0.07773248 -0.0047143726
0.07096021 -0.023834104 0.044265356 0.052984778 -0.08571308 -0.08757327 0.078995556 0.08026124
-0.017096663 0.044473268 -0.031386934 -0.086329065 0.07443333 -0.037317105 0.06799896 0.04840857
0.06615579 -0.09044553 -0.00743943 0.06999596 -0.07724531 -0.056065563 0.05242408 0.048647158
0.076643005 0.054737024 0.004781473 0.024425931 -0.0871008 0.035024412 0.042009138 -0.016033549
0.06817929 -0.09244515 -0.018984737 -0.07529298 -0.07576207 0.07325023 0.029436193 0.067397065
0.047054462 0.03038432 -0.07639578 -0.035639413 -0.024001101 -0.05986523 -0.0471254 0.024904186
0.060564592 0.02640889 0.07113591 -0.003672485 -0.06707813 -0.022638839 -0.0833993 -0.07209232
-0.030409692 0.05963345 0.052962217 0.035074677 -0.0471906 0.06910496 -0.011641877 0.053993993
-0.0044292863 -0.023759486 0.010565487 0.05083782 -0.034757026 -0.0068763406 -0.08294138 0.008689705
00000000: 3f74 9fbc a36c 373d 65fd ba3d cda2 843d
00000010: f97d 833d 2b86 d93a f613 5abc e56f bf3c
00000020: a32f 0cbc 5e4e f43c dddf a3bc e77e 9cbd
00000030: aa69 f5bc ed6e 6bbd ae35 793d 6837 083d
00000040: 5906 213c 00c6 8e3d c7fb 893d 4577 b83d
00000050: 9874 743c a3b5 2d3d b284 7d3d ebb4 0e3d
00000060: 8095 c6bb 659a d6bb 4c01 e53c 2081 34bd
00000070: 9851 7e3d 4b2f dcbc 834c 363d 5ce3 703a
00000080: aaf9 4e3d 9d94 67bc 5499 1cbd efad 993c
00000090: 4a71 1a3d ccc9 773c f9cb b43d 34fd 633d
000000a0: c1dc b5bb ea78 67bd 3f72 aabd 177b 84bd
000000b0: 3fca 53bd cb10 acbd dd39 3c3c e21b 9a3c
000000c0: dbe6 35bd 22c0 763d 63b1 94bd 1091 74bc
000000d0: 3498 363b d74a ccbc 199d 983d 6cea 0d3d
000000e0: 06b2 b6bc c036 a53d 6c7b b93c a49a ab3d
000000f0: b122 4b3d 44dc 34bd 0b49 363d 51fb f2bc
00000100: 3c0a b03d cc4f bd3b 9644 09bc acf4 683d
00000110: 7b09 9abd b171 91bd c7cb fe3b a679 0b3c
00000120: 1dd5 2bbd 9581 08bd 7c9a b7bc a392 c0bc
00000130: 153e d1bb 1b92 8c3c adba bc3d 2d2b aa3d
00000140: a219 aabd 9ce3 9c3d b213 883d 9243 6b3c
00000150: a880 0abd 5463 f53c abbc b53d be21 3fbc
00000160: 046c 443b f8bf 7a3d 0119 45bc 2a0f 56bc
00000170: 54c8 79bb 3ff0 553d 136e 86bc 101d 37bd
00000180: 50e9 06bd 2b78 743c 022e 2bbd 98b5 963d
00000190: 6e0e 90bd 213f 96bd 15de d13b 3f16 19bc
000001a0: 6318 5d3d 273c 333d c516 a23c 65b2 163d
000001b0: 330b a0bd c365 993d 1bed 3fbd bcee 4ebd
000001c0: dd10 b23c a0dd 103d df9d 9ebd ac03 c13d
000001d0: a9d0 353c 024d 70bc b1a8 babc d10a 7d3d
000001e0: 1af6 86bc 6b1e 1dbd db13 dbbc 911e 85bc
000001f0: 2b3b bebb fdfb 04bd 4705 623d 33f4 c43d
00000200: 1630 c13c ace2 f6bb d950 873d f0c6 213c
00000210: d707 80bd b4e8 9abc dd39 0dbc 27b3 2e3c
00000220: 36b3 3ebd 9e24 8c3b 72f1 7abc b19f 883d
00000230: 13db 3b3c 6bab 93bc cecd a23c 2042 59bd
00000240: 368f 8b3d 6e11 aa3d a122 b33d 9716 eebb
00000250: 6037 07bc d5aa 3abd ef80 32bd 2a9c 92bd
00000260: 3645 853d 8c49 92bd 889c d83c 095a adbd
00000270: 2721 a2bd 738d c13c 002e aa3d d457 153d
00000280: 82bd 84bb d210 4e3b b45c 3cbd b107 5fbc
00000290: c3e2 97bd 90c1 473d 8576 e2bc 2842 0abd
000002a0: b832 113d 2995 803d 0959 54bd 0200 f0bc
000002b0: ee2c e83c df95 92bb 2136 833d 67e0 da3c
000002c0: ea1c 83bb 8258 e63c 0c76 323d 13d5 813d
000002d0: 2b0e aabd 131f 13bd 3532 9f3d 067b 9abb
000002e0: 9653 913d bd3f c3bc 974f 353d 9106 593d
000002f0: 578a afbd 9d59 b3bd 6cc8 a13d 0160 a43d
00000300: 4d0e 8cbc 9a29 363d 968f 00bd 4bcd b0bd
00000310: 8070 983d d2d9 18bd 0a43 8b3d 1148 463d
00000320: b07c 873d 823b b9bd 76c6 f3bb 0b5a 8f3d
00000330: ca32 9ebd 01a5 65bd a2ba 563d 3e42 473d
00000340: 02f7 9c3d ee33 603d e7ad 9c3b e418 c83c
00000350: e761 b2bd c275 0f3d c611 2c3d ca58 83bc
00000360: 95a1 8b3d e253 bdbd e185 9bbc 3533 9abd
00000370: 2529 9bbd 3704 963d 2c24 f13c 7907 8a3d
00000380: 2ebc 403d 8ae8 f83c 6475 9cbd a2fa 11bd
00000390: f59d c4bc 3e35 75bd 9006 41bd dd03 cc3c
000003a0: 9412 783d 7557 d83c b4af 913d 13ae 70bb
000003b0: 4260 89bd 1675 b9bc 41cd aabd 23a5 93bd
000003c0: bf1d f9bc 3442 743d e9ee 583d 77aa 0f3d
000003d0: ee4a 41bd e786 8d3d 92bd 3ebc ce28 5d3d
000003e0: 8c23 91bb 41a3 c2bc dd1a 2d3c 513b 503d
000003f0: 625d 0ebd ed52 e1bb 2cdd a9bd 445f 0e3c

model_16/dense_32/BiasAdd/ReadVariableOp/resource f4 [10]
0.020124841 -0.0028262136 -0.011742923 -0.0041997605 0.00067480106 0.0005127982 -0.0010183093 0.0068832906
-0.008838087 0.0037125712
00000000: dadc a43c ff37 39bb 6465 40bc 259e 89bb
00000010: 22e5 303a 4e6d 063a ca78 85ba 3a8d e13b
00000020: a0cd 10bc 9c4e 733b

model_16/layer_normalization_48/add/ReadVariableOp/resource f4 [4]
0.003517247 -0.0026357658 0.0023845113 -0.0022634647
00000000: 9d81 663b d0bc 2cbb 7645 1c3b a356 14bb

model_16/layer_normalization_48/mul_4/ReadVariableOp/resource f4 [4]
0.9975117 0.98957914 1.0030581 1.0023609
00000000: ed5c 7f3f 0f55 7d3f 3564 803f 5d4d 803f

model_16/layer_normalization_49/add/ReadVariableOp/resource f4 [12]
-0.0025233258 -0.035969857 0.0018038492 -0.0035005254 0.004272009 0.0027938117 0.01561652 -0.0010244559
0.0005710762 -0.010420194 0.0045704665 0.0013706889
00000000: 625e 25bb 2155 13bd 236f ec3a 1269 65bb
00000010: 35fc 8b3b 6218 373b 6fdc 7f3c 0947 86ba
00000020: 46b4 153a 76b9 2abc dac3 953b b0a8 b33a

model_16/layer_normalization_49/mul_4/ReadVariableOp/resource f4 [12]
0.99123514 1.0348997 1.0114238 0.99093264 0.9954677 1.0028276 1.0204228 1.0049977
0.9979326 0.98758787 1.0043387 0.99315375
00000000: 96c1 7d3f 9877 843f 5676 813f c3ad 7d3f
00000010: f9d6 7e3f a85c 803f 379d 823f c4a3 803f
00000020: 8378 7f3f 8fd2 7c3f 2c8e 803f 533f 7e3f

model_16/layer_normalization_50/mul_2/ReadVariableOp/resource f4 [10]
0.99051845 0.99525166 0.9982972 0.9788472 0.95107555 0.95068246 0.9925277 0.9723335
1.0026709 0.9083368
00000000: 9e92 7d3f d0c8 7e3f 6890 7f3f bb95 7a3f
00000010: b079 733f ed5f 733f 4c16 7e3f d9ea 783f
00000020: 8557 803f c388 683f

model_16/dense_32/MatMul f4 [10, 228]
-0.17107534 -0.035385963 0.07296533 0.16060293 -0.13220552 0.11688116 0.032250393 0.021794872
-0.15630229 -0.04161448 0.11491278 -0.014724116 -0.16313596 -0.09754519 -0.058695387 0.16093813
-0.12561862 0.0029531608 0.15606593 0.027175104 -0.12624663 0.10675777 0.109336145 -0.009739673
0.0045214533 -0.06786751 -0.073900685 -0.0577586 -0.16739509 -0.0018628082 0.100337096 0.048318177
0.016538804 -0.14367794 0.0027091913 -0.00027976255 -0.016647896 -0.15648532 -0.13036384 -0.10202146
-0.08209323 -0.12156622 0.11943594 0.066658 0.09780384 0.040753394 -0.11821682 -0.05348127
-0.02905744 0.039706416 -0.011926013 0.08512989 0.011555777 0.09170737 0.11213404 0.13172396
0.00010641468 -0.017387284 -0.10476734 0.017758425 -0.010124279 -0.09647773 0.047701493 -0.09053786
0.112739705 0.13395144 -0.05193533 -0.04072774 0.037519358 0.06604105 0.0823868 -0.099159524
-0.14687534 0.09767772 0.0881372 -0.0568456 0.0052585457 0.13436909 0.09023422 0.024536746
-0.02754685 -0.08955368 0.06831527 0.014925749 -0.0648673 0.06796706 -0.09597007 -0.09772662
-0.110439025 0.114170544 0.13615586 -0.10349296 -0.1673316 0.039595168 -0.07832967 -0.053628128
0.07457229 -0.09974826 -0.0107396655 0.07788396 0.0788531 0.038224056 0.10812949 -0.11027327
-0.06910163 -0.020001473 0.13862735 -0.007915346 -0.002649706 -0.08125685 -0.040345572 0.037042014
-0.086983904 0.06845834 0.058414605 -0.12670703 0.09977911 0.04038078 -0.12647644 0.10847166
-0.17311706 -0.1740701 0.12707452 -0.12212663 -0.005152581 -0.11770935 -0.04099669 0.0840775
-0.110602885 0.13756473 0.08731727 -0.012157269 0.025557384 -0.022082228 0.009953245 0.08086165
0.10742939 0.16051576 0.091640085 -0.10684636 -0.09479904 0.10596854 0.003979982 0.042209387
-0.04962306 0.0985254 0.065426916 0.07869946 0.036220595 0.14108153 0.14138372 0.045036428
-0.11701663 -0.1509967 0.09629957 0.049676258 -0.15129992 0.12413109 -0.124908715 0.11687226
0.11958618 -0.095968425 0.0694975 -0.06802242 0.031213 -0.12125962 0.105084226 -0.0013549828
0.08193797 0.13173173 -0.18795538 0.015575663 -0.05766717 0.018552905 0.1729461 -0.1362852
-0.16364731 -0.06434536 0.12562685 0.062054206 -0.05034584 -0.14450979 -0.06845723 0.15427095
0.009851566 -0.008090694 -0.09946762 -0.05748117 0.07166088 0.007672081 -0.07788325 -0.101295
-0.024904588 -0.12660336 -0.05331075 -0.08531472 -0.05323957 0.15242319 0.05688 -0.057046197
-0.027279496 -0.13701646 0.031077662 0.13796009 0.04245664 -0.010351887 0.08986383 0.14077762
-0.15596819 0.031985797 0.07822371 -0.08194237 -0.10143325 -0.0676961 -0.11035468 0.049725585
0.01790357 -0.04892297 -0.14162864 -0.1212886 0.11031822 0.17283772 -0.10314069 -0.11661403
-0.13163008 -0.022391168 0.1700744 0.02174663 0.124669984 0.044368863 0.18117839 0.11082625
0.04560733 0.12430304 0.13074689 0.05845942 -0.0967467 0.051544596 -0.035871223 0.08098108
0.1296716 -0.03291487 -0.0043901843 0.13826554 0.14262983 -0.10553781 0.048964225 -0.11504583
0.1146042 0.12679705 -0.09080718 0.062085547 0.034008462 0.015782086 0.10819874 0.058168042
00000000: 602e 2fbe dff0 10bd d96e 953d 1875 243e
00000010: e260 07be 645f ef3d fd18 043d 298b b23c
00000020: b50d 20be f273 2abd 6457 eb3d 6b3d 71bc
00000030: 1d0d 27be c6c5 c7bd 936a 70bd f7cc 243e
00000040: 2ba2 00be d189 413b bfcf 1f3e 539e de3c
00000050: cc46 01be d1a3 da3d a1eb df3d 2693 1fbc
00000060: b328 943b 1ffe 8abd 3e59 97bd 4894 6cbd
00000070: 9e69 2bbe 7929 f4ba 897d cd3d 48e9 453d
00000080: 637c 873c 4f20 13be b08c 313b 18ad 92b9
00000090: 2b61 88bc b03d 20be 197e 05be a1f0 d0bd
000000a0: 7f20 a8bd b6f7 f8bd d59a f43d fd83 883d
000000b0: 614d c83d 08ed 263d a91b f2bd 2d0f 5bbd
000000c0: de09 eebc 32a3 223d 5365 43bc 9458 ae3d
000000d0: 7154 3d3c 13d1 bb3d 88a6 e53d a5e2 063e
000000e0: f22a df38 c76f 8ebc 4290 d6bd 1e7a 913c
000000f0: 4ee0 25bc 1e96 c5bd a462 433d ea6b b9bd
00000100: 13e4 e63d 912a 093e 24ba 54bd 21d2 26bd
00000110: e6ad 193d 8840 873d 69ba a83d 2614 cbbd
00000120: 7d66 16be 420b c83d 4781 b43d efd6 68bd
00000130: e14f ac3b 0d98 093e b8cc b83d 4901 c93c
00000140: eea9 e1bc eb67 b7bd e0e8 8b3d 218b 743c
00000150: 26d9 84bd 5032 8b3d f58b c4bd e524 c8bd
00000160: db2d e2bd 3fd2 e93d 716c 0b3e 1ef4 d3bd
00000170: fa58 2bbe 8b2e 223d 4e6b a0bd 2ba9 5bbd
00000180: 5bb9 983d d148 ccbd 6cf5 2fbc a081 9f3d
00000190: bc7d a13d d490 1c3d fe72 dd3d f4d6 e1bd
000001a0: 2885 8dbd 21da a3bc 54f4 0d3e 5eaf 01bc
000001b0: b1a6 2dbb fe69 a6bd 6641 25bd 5eb9 173d
000001c0: 9e24 b2bd e333 8c3d 2744 6f3d 7dbf 01be
000001d0: fd58 cc3d 5166 253d 0a83 01be 6426 de3d
000001e0: 9945 31be 6f3f 32be d31f 023e 871d fabd
000001f0: fbd6 a8bb 9a11 f1bd 25ec 27bd d330 ac3d
00000200: c483 e2bd c5dd 0c3e 66d3 b23d 482f 47bc
00000210: b85d d13c cae5 b4bc ef12 233c cb9a a53d
00000220: f103 dc3d 3e5e 243e ccad bb3d 44d2 dabd
00000230: 0026 c2bd 0906 d93d 826a 823b c0e3 2c3d
00000240: 8d41 4bbd afc7 c93d 8cfe 853d 2f2d a13d
00000250: 0c5c 143d ad77 103e e5c6 103e 1e78 383d
00000260: 6aa6 efbd e19e 1abe b538 c53d 5579 4b3d
00000270: 5eee 1abe 7138 fe3d 24d0 ffbd b95a ef3d
00000280: 99e9 f43d 188b c4bd b554 8e3d 574f 8bbd
00000290: 68b2 ff3c f756 f8bd 6636 d73d ae99 b1ba
000002a0: 18cf a73d afe4 063e 6077 40be 1131 7f3c
000002b0: 6934 6cbd 43fc 973c c818 313e 598e 0bbe
000002c0: 2993 27be 80c7 83bd 53a4 003e 8d2c 7e3d
000002d0: 7137 4ebd 60fa 13be 4e33 8cbd 34f9 1d3e
000002e0: 7668 213c d58e 04bc aeb5 cbbd 6071 6bbd
000002f0: f1c2 923d 1466 fb3b 4181 9fbd c173 cfbd
00000300: b504 ccbc 50a4 01be 5f5c 5abd 7cb9 aebd
00000310: bc11 5abd d314 1c3e 01fb 683d 46a9 69bd
00000320: 4079 dfbc 0b4e 0cbe 9596 fe3c 6945 0d3e
00000330: 04e7 2d3d f69a 29bc 870a b83d 0228 103e
00000340: 20b6 1fbe 8a03 033d c133 a03d 67d1 a7bd
00000350: 3cbc cfbd 41a4 8abd a201 e2bd 0ead 4b3d
00000360: 82aa 923c 7463 48bd 1907 11be 2866 f8bd
00000370: 85ee e13d 5ffc 303e 6d3b d3bd 56d3 eebd
00000380: 09ca 06be af6d b7bc fc27 2e3e fd25 b23c
00000390: fa52 ff3d 20bc 353d d486 393e dff8 e23d
000003a0: c0ce 3a3d 9892 fe3d 83e2 053e 2573 6f3d
000003b0: 2223 c6bd 6d20 533d b4ed 12bd 69d9 a53d
000003c0: a2c8 043e bed1 06bd 89db 8fbb 7b95 0d3e
000003d0: 8e0d 123e 3524 d8bd b68e 483d 269d ebbd
000003e0: 9bb5 ea3d 16d7 013e 1df9 b9bd 6a4d 7e3d
000003f0: 754c 0b3d 6f49 813c 4d97 dd3d 9d41 6e3d

model_16/dense_33/MatMul f4 [1, 10]
-0.3110955 -0.60559976 -0.42925265 0.649187 0.16871163 -0.45184502 -0.3192764 0.23821342
0.23537554 -0.4189782
00000000: e947 9fbe 9608 1bbf 01c7 dbbe 1f31 263f
00000010: bec2 2c3e 3b58 e7be 3278 a3be 38ee 733e
00000020: 4906 713e 5084 d6be
