src/main/assets/20.tflite (tflite, 28724 bytes, 12 tensors)

model_20/conv2d_41/BiasAdd;model_20/conv2d_41/Conv2D;model_20/conv2d_41/BiasAdd/ReadVariableOp/resource f4 [12]
000000 8f ef 95 3b 17 7e b4 bb 7e b0 c0 3b 0d 16 6b bb
       0.0045756768 -0.005508195 0.0058804145 -0.0035871298
000010 65 95 0c 3c 9b 9f 9d bb ee 9f fe bb d1 f1 10 3c
       0.00858054 -0.004810286 -0.00777053 0.008846716
000020 7e 42 b2 bb b6 88 1f bc 97 c4 54 3c 00 b8 0e bc
       -0.0054400554 -0.009737184 0.012986324 -0.008710861

model_20/conv2d_40/BiasAdd;model_20/conv2d_40/Conv2D;model_20/conv2d_40/BiasAdd/ReadVariableOp/resource f4 [4]
000000 f2 16 58 bc eb 2c e0 bb e7 94 f4 3b 93 44 95 3b
       -0.013189064 -0.006841292 0.0074640396 0.004555294

model_20/conv2d_41/Conv2D f4 [12, 1, 11, 4]
000000 59 29 ca 3c 3c 5b 85 bd 48 eb 92 bd eb d6 ec 3d
       0.02467792 -0.06511542 -0.071737826 0.1156443
000010 b2 1d 67 bd 16 52 dc 3d e8 e2 06 be b5 d1 fb 3d
       -0.056424804 0.10757844 -0.13172495 0.12295858
000020 b9 a4 e2 3d 12 8c 8c bd 25 52 19 bc 14 6b b3 bd
       0.110665746 -0.06862654 -0.009357964 -0.08760658
000030 e2 f7 0e be b0 66 d5 bd 53 3f b9 bd c7 27 21 bd
       -0.13961747 -0.10419977 -0.09045281 -0.039344575
000040 97 b3 2d 3e 96 70 27 3c b2 6f 0f be 08 29 12 ba
       0.1696304 0.010219714 -0.14007452 -0.0005575572
000050 e0 c4 30 3e 8b 3b 10 be 64 bf 99 3b 6b 90 e3 bc
       0.17262602 -0.14085214 0.004692005 -0.027778825
000060 d0 57 1e be 05 27 d4 3d 0f 7a a8 3c 68 74 26 3c
       -0.15463185 0.10359005 0.020566015 0.010159589
000070 d7 ef 19 3d 20 c6 16 3e c5 e2 32 be 46 84 20 3e
       0.037582245 0.14724016 -0.17469318 0.15675458
000080 3c c9 f6 bd 62 65 09 3b f4 fa f6 3c af d8 c1 bd
       -0.12050101 0.002096497 0.03014896 -0.09465157
000090 d0 0d 4a bc f8 8c 38 be ac 19 df bd 2d 15 c5 ba
       -0.012332395 -0.18022525 -0.108935684 -0.0015036218
0000a0 79 a4 1e 3e 03 df 09 ba 59 3f bc bd aa 96 9c bd
       0.15492429 -0.00052593666 -0.0919177 -0.076459244
0000b0 a6 2a 02 3e 30 c6 2b bd ea 93 bf 3b 2d 34 2e 3e
       0.12711582 -0.041937053 0.00584649 0.17012091
0000c0 d0 40 91 3d 6b a7 10 be c0 ae 1e 3e d8 21 e9 bc
       0.0709244 -0.14126365 0.1549635 -0.02845852
0000d0 29 9b 5d 3d 2b 8b 40 3e 28 c6 d8 ba 26 44 98 3d
       0.05410305 0.18803088 -0.0016538547 0.07434873
0000e0 ab ae 6f 3d 2a 49 16 3d f8 06 21 3e 26 d8 e1 3d
       0.058516186 0.03669087 0.15725315 0.11027555
0000f0 fa 23 2f be 0b 1e 41 bd da e9 88 bd 7e 9b a1 bd
       -0.17103568 -0.04714779 -0.06685229 -0.07890986
000100 e1 74 0a 3e 98 60 2f be 4d 5c 6e 3d d8 27 f4 bd
       0.13521148 -0.17126691 0.058193494 -0.11921662
000110 8a f9 2f bd 01 44 cb 3d f6 c1 02 bd f7 3c 0f 3d
       -0.04296259 0.0992508 -0.031923257 0.03497025
000120 09 98 29 be 45 e5 57 3d 4d 19 8a 3d 7f 99 b1 3d
       -0.16561903 0.052708883 0.06743107 0.08671855
000130 dd f1 62 3c df 62 1a be 65 f2 5f 3d 0d 10 34 be
       0.01385161 -0.15076779 0.054674525 -0.17584248
000140 07 58 c9 3d 06 4e ce bd f9 05 e4 3d 0e 56 d8 bc
       0.09831243 -0.100734755 0.11133952 -0.026408222
000150 0b 8b 29 3e 0c ff cb 3c f0 74 02 3e 42 39 26 bc
       0.16556947 0.02490189 0.1273992 -0.010145487
000160 67 b8 43 3d f1 f7 eb bc db 49 00 be 73 06 09 3e
       0.04778328 -0.028804751 -0.12528174 0.13381366
000170 02 02 e2 bd ba 5c 0b be b6 59 a9 3d 51 78 78 3d
       -0.11035539 -0.13609591 0.08269064 0.060661618
000180 e8 e9 94 bd ed 98 03 3e f3 96 99 bd bd 49 10 be
       -0.072711766 0.12851305 -0.074994944 -0.14090629
000190 3e 1f 0b be 9b ad f1 3d 28 5a db 3d c4 3e ff 3d
       -0.13586137 0.11800691 0.10710555 0.124631435
0001a0 97 4c e3 3d 96 0e b7 bd 47 4d 96 3b 62 85 0e 3d
       0.11098593 -0.08938329 0.004586849 0.034795173
0001b0 22 2c 21 be ec b6 1a bd 5b 4e c5 bc 50 dd 36 3e
       -0.15739492 -0.037772104 -0.024085214 0.17857862
0001c0 9c e1 77 3d cb d5 c6 bd c8 27 40 bd b1 0a 35 be
       0.060517892 -0.097087465 -0.04691294 -0.1767986
0001d0 60 66 b8 bd 2d c9 25 be ff 9e 08 3e f6 bb d0 3d
       -0.090039015 -0.16190024 0.13341902 0.10192101
0001e0 d5 f2 1f 3e dd 87 f2 bd 4f 86 ae 3c 32 fe 30 3e
       0.15619977 -0.1184232 0.021304278 0.17284468
0001f0 f5 ff a9 bd d6 4a 8c bd ab 83 9f 3c b8 ec f5 3d
       -0.08300773 -0.06850211 0.019471964 0.12008041
000200 e0 74 44 3d 5f 13 36 be 6d f0 e4 3d b8 1f 17 be
       0.047963023 -0.17780827 0.1117867 -0.14758193
000210 52 91 14 be 71 18 2d be 94 91 15 3d 3e e6 e7 3d
       -0.1450856 -0.16903855 0.036515787 0.11323212
000220 89 b8 20 be 5a ac 53 3d 31 0a 04 be 80 9c 5b 3a
       -0.15695395 0.05167804 -0.12894513 0.00083775073
000230 71 80 16 3e 12 23 d8 bb 8c 31 25 be b4 61 a5 3d
       0.14697434 -0.0065959776 -0.16132182 0.08075276
000240 15 51 2a be 22 29 16 3e 5a dd 03 3a 2e cb ba 3d
       -0.16632493 0.14664128 0.00050302374 0.09120785
000250 9c a3 33 be d7 12 fd bd 75 8f 92 bd a0 36 d1 bd
       -0.17542881 -0.12357109 -0.071562685 -0.10215497
000260 68 9b 0f 3e ad 8e 34 be 1a 8d 21 3e 94 a9 1b 3e
       0.14024127 -0.17632551 0.15776482 0.15201408
000270 e0 8a 0f be af 36 0d be ef aa 7e 3d 1f 5b 17 3d
       -0.1401782 -0.13790391 0.062174734 0.036952134
000280 93 96 bc bd 3e 30 2b 3d 78 6c 37 3e 31 bf 1b 3e
       -0.09208407 0.041794054 0.17912471 0.15209652
000290 a7 0f 7e 3d 76 0e f8 bd f7 67 0f be 5d 17 a7 3d
       0.062026646 -0.12112133 -0.14004503 0.08158753
0002a0 b6 c1 01 3e 95 31 b7 3d 25 2b 2c 3e 5a 52 34 3e
       0.12671551 0.08945004 0.16813333 0.1760954
0002b0 2a 6a 7b 3d 4e ed 17 be b9 09 38 3e 52 98 a5 3d
       0.061380543 -0.14836618 0.17972459 0.080856934
0002c0 77 44 4b bd 90 20 42 be 00 c6 d2 bc cb 5f 60 3d
       -0.04962584 -0.18957734 -0.02572918 0.054778855
0002d0 7a 8f 1f 3e 3f 43 1b 3e f7 05 5b 3d 9d fc d9 bd
       0.15582076 0.15162371 0.053472485 -0.10643885
0002e0 6c 4c 06 be 07 ab 22 be b4 a4 4e 3d 6d c1 cd bb
       -0.1311509 -0.15885554 0.050450042 -0.0062791617
0002f0 d4 4d 6f 3c 88 ce 24 be 2b 55 4e 3d 57 bd 97 bd
       0.014605958 -0.1609441 0.05037419 -0.074091606
000300 e7 9b 07 be ab 83 2e be 98 ae 54 bd cd b9 de bc
       -0.13243066 -0.17042415 -0.051924318 -0.027188206
000310 da 17 76 bd 0d 3b 06 3d 6e e4 9f 3c 42 48 bb 3d
       -0.06008134 0.03277116 0.019518103 0.091446415
000320 9e 95 96 bd 6a d9 c6 bd d2 65 2f bd 5f cb 80 3d
       -0.07352756 -0.09709437 -0.042821713 0.0628879
000330 10 9d a2 bd 06 d4 f4 bc 8d f1 9d bd 47 ae d2 bd
       -0.079401135 -0.029886257 -0.07712088 -0.10287147
000340 83 07 31 be 29 c8 2b 3e 4f c5 53 bd a7 26 bc 3d
       -0.17288022 0.16775574 -0.05170184 0.0918706
000350 57 9a b7 bc a3 28 6d bc 2b 1a f0 3c f0 ae 35 3e
       -0.022412462 -0.014475021 0.029309353 0.17742515
000360 ad a6 35 3d cc f4 22 3e a5 9c 20 be 21 f3 dd 3d
       0.044348408 0.15913695 -0.15684755 0.10837389
000370 52 a2 c7 3d 2a ee a0 3d dd a0 3e 3c 53 9a 35 3e
       0.09747757 0.07857926 0.0116350325 0.17734651
000380 41 d7 1c 3e 28 c5 09 3e df 93 80 bc 27 ba a7 3d
       0.15316488 0.13454115 -0.01569551 0.081898026
000390 d5 91 32 be 8e a9 d4 3d 38 c7 d6 3c 35 d3 8b bd
       -0.17438443 0.103839025 0.026218042 -0.06827394
0003a0 7d ee d1 3d 99 a1 62 bd c1 4a fa bc 5d 5f c0 3d
       0.10250566 -0.055329893 -0.030553224 0.09393189
0003b0 87 ad f9 3d 9a 8a 56 3d d0 a1 4f 3e 28 1a 61 3d
       0.12191301 0.052378275 0.2027657 0.054956585
0003c0 1c 39 2c 3e 2d 89 28 3e 38 63 20 3e 3e bc 17 3d
       0.1681866 0.16458578 0.15662849 0.037044756
0003d0 a8 b3 5b 3c 56 6b 02 bd ad 09 13 3e a6 c3 c6 3d
       0.013409533 -0.031840645 0.1435916 0.09705286
0003e0 74 fd 6a bd 1a d9 a6 3d d1 67 e2 3d 63 a6 62 bd
       -0.057370618 0.081468776 0.11054958 -0.05533446
0003f0 cc 8a 05 3e 1e 18 93 3d bb 3d ca bd 2d 97 6a bd
       0.13041228 0.07182334 -0.098750554 -0.05727308

model_20/conv2d_40/Conv2D f4 [4, 4, 38, 1]
000000 bc ad 4a bd 23 9f 18 3d 20 67 90 bc 8c ec 70 3d
       -0.049482092 0.03726114 -0.017627299 0.05881934
000010 5f c0 9a bd d9 f9 2d bd 6d e1 c9 bd 25 5f 8b 3d
       -0.07556223 -0.0424746 -0.0985745 0.06805257
000020 57 9b 5d 3d f3 ef 8d bd 98 73 80 3d 95 11 05 3c
       0.05410322 -0.06930532 0.06272048 0.008121868
000030 d1 38 78 bd ac f7 72 bd 86 30 87 bd ab e3 41 bd
       -0.06060106 -0.05931823 -0.06601052 -0.04733626
000040 fb 55 83 3d 3c 26 c0 bd 86 dc b8 bd d7 f7 3d bd
       0.06412884 -0.09382293 -0.090264365 -0.046378937
000050 1c b8 27 3a cc 40 a5 bd 6c 32 7c 3c db 4a b5 3c
       0.0006397979 -0.08069 0.015392881 0.02213042
000060 93 a1 91 3d 0f ab 78 3c 20 76 57 bd 52 86 bb bd
       0.07110896 0.015177502 -0.052602887 -0.09156479
000070 e6 14 31 bd 6e 4e e6 3c 16 75 89 3d 91 66 46 3d
       -0.04323282 0.02811357 0.067117855 0.04843766
000080 31 88 61 3d f5 7a 6c 3d 49 b8 64 3d 21 ad cd bc
       0.055061523 0.05773445 0.05583981 -0.025106968
000090 ea 53 92 bd 1c 7d 25 bd e1 99 13 3b ac 5d 40 bd
       -0.071449116 -0.040402517 0.002252214 -0.046964332
0000a0 37 14 b4 3a 6a 85 60 3d fa ec a9 bd a1 f2 97 bd
       0.0013738935 0.054814734 -0.08297153 -0.07419325
0000b0 99 7c c1 bd f5 85 9a 3c b1 b1 9e bd 7b 10 b3 bd
       -0.09447593 0.018862704 -0.07748736 -0.08743378
0000c0 bd 24 66 3c 3e 27 54 bc 41 3e 25 bc b7 19 96 3d
       0.014046845 -0.012948809 -0.010085643 0.073291235
0000d0 40 1b 94 bd e5 ad 4b bd 94 87 15 3d d2 56 8c bd
       -0.0723176 -0.049726386 0.03650625 -0.06852497
0000e0 9a 17 2f bd 33 4d 6f 3d 45 0c 99 bd df 71 70 bc
       -0.042747118 0.058423232 -0.07473043 -0.0146755865
0000f0 d5 0b 85 3d d6 f1 81 bd 86 2e 19 bd 3b 1c 89 3c
       0.064963974 -0.06344955 -0.037397884 0.016737094
000100 5c de 95 bc fb 60 45 bb b1 e3 63 bd ed a2 bb bc
       -0.018294506 -0.003011762 -0.055637065 -0.022904838
000110 87 aa c9 bc e8 09 97 bd 96 02 76 3d 8b 44 03 3d
       -0.024617447 -0.07374936 0.06006106 0.03204779
000120 4a 8e 01 bd 05 c4 b4 bd 55 2a 61 38 5f f3 0d bd
       -0.031629838 -0.0882645 5.3683605e-05 -0.034655925
000130 83 3b 01 3d b2 00 7a 3d 6e 3e b2 bd 02 0c 7e 3a
       0.031550895 0.06103582 -0.08703314 0.00096911204
000140 c2 f1 70 3d 95 5a 8b 3c e4 82 88 bd db 95 3c 3d
       0.05882431 0.017010966 -0.066655904 0.04604135
000150 74 7c 1c bd 48 47 a5 bd e3 66 92 bd a5 b1 ad 3c
       -0.038204625 -0.080702364 -0.0714853 0.021202872
000160 68 90 c9 bd 1b b1 18 bd 3c 32 3a bd 3a 59 b9 3b
       -0.098419964 -0.037278276 -0.045458063 0.0056563886
000170 b5 ae 08 bd b5 32 25 bc fb 87 81 bd 90 4b 42 bd
       -0.03336974 -0.01008289 -0.06324764 -0.047435343
000180 b7 be 81 bc 11 25 cc bd c2 09 2a bd 84 b0 cd bc
       -0.01583801 -0.09968007 -0.041513212 -0.025108583
000190 84 c6 43 3d 91 6b 50 bb 65 7d 3f 3b e0 c6 99 3d
       0.04779674 -0.0031802396 0.0029219028 0.075086355
0001a0 55 d0 ca bd 2b 0a 06 bd f2 00 8b bd 29 b5 25 bd
       -0.099030174 -0.03272454 -0.0678729 -0.04045597
0001b0 5f 82 bc 3c 2e 7b bf 3b 97 d1 3b 3d a9 44 55 3d
       0.023011385 0.0058435416 0.045854177 0.052067433
0001c0 9f 7d 87 bd 0a 70 46 bd 07 76 c7 bd 06 80 88 bd
       -0.06615757 -0.048446693 -0.09739309 -0.066650435
0001d0 28 04 98 3d 11 b3 ea 3b 31 c8 e8 3c 85 8f 92 bd
       0.07422668 0.0071624597 0.028415771 -0.071562804
0001e0 2f 4d d9 bb ff c8 14 3c c9 07 d1 bd d3 63 cd bb
       -0.0066315155 0.009081124 -0.10206563 -0.0062680035
0001f0 c2 05 13 3d e7 b9 b3 3a ae c8 3b 3d eb d9 ef 3a
       0.035894163 0.001371202 0.04584568 0.0018299198
000200 10 f5 0c 3c 74 67 fd bc c7 d0 87 bd b9 b1 70 bb
       0.008603349 -0.03093312 -0.06631618 -0.0036727025
000210 0a 1b 91 3d cf 45 9f bd 27 58 93 bd 33 3c 96 bd
       0.070852354 -0.07776987 -0.07194548 -0.07335701
000220 6c 4c 14 bc fa 97 02 bd b1 90 3d 3c be 1b 63 3d
       -0.0090514235 -0.031883217 0.011570142 0.05544638
000230 6c cc cc bd 21 aa cb bc 77 fc 8a bd f4 c8 82 3d
       -0.09999928 -0.024861397 -0.06786435 0.06385985
000240 98 7e 51 3b 01 1e 87 3d 06 c0 ba bc ef b8 29 bd
       0.0031966325 0.0659752 -0.022796642 -0.041436132
000250 67 e7 8d bd 40 68 8c 3d 33 39 87 3a c9 97 d9 bc
       -0.06928902 0.068558216 0.0010316729 -0.026561635
000260 10 65 af bb 19 74 75 bd 02 13 95 bd dd ae 16 bd
       -0.0053526238 -0.059925172 -0.07279016 -0.036787856
000270 04 b0 de bc 4b 05 4f bd 79 ed 8c bd 14 09 8a bd
       -0.02718354 -0.050542157 -0.06881232 -0.06740013
000280 79 62 3c ba d4 08 8d 3d ef 2d 90 3d c1 83 1e bc
       -0.00071863044 0.068864495 0.07040011 -0.009674967
000290 73 44 8d 3d 14 15 00 bd 72 d3 3e bd 50 0b c7 3c
       0.06897821 -0.0312701 -0.04658837 0.024297386
0002a0 8d 6e b7 bd 4c 05 a7 3d a1 20 96 bd f6 fb 65 3d
       -0.08956633 0.08155307 -0.07330442 0.05614849
0002b0 07 e1 17 3c 54 ed d8 bb 5a 3f 88 bd 1a 21 b1 bc
       0.009269959 -0.0066200886 -0.06652708 -0.02162223
0002c0 8c 9a 06 bc 19 c4 8c bb 40 64 80 3b d3 59 17 3d
       -0.008215558 -0.0042958376 0.0039182007 0.036950897
0002d0 a7 85 48 3b c8 16 a8 bd a2 02 b1 bd 19 20 82 3d
       0.003059724 -0.0820747 -0.0864308 0.063537784
0002e0 e6 92 72 3d 54 0f 11 bd a8 c2 52 bc 5f af d7 ba
       0.059222125 -0.03541501 -0.0128637925 -0.0016455463
0002f0 91 e4 8e bb b4 76 8e bd a7 97 4a 3b 0e 81 8a 3d
       -0.0043607433 -0.069562346 0.0030913146 0.067628965
000300 90 f9 2e bd 49 76 fa 3c 7a 87 33 3b ee a0 30 bd
       -0.04271847 0.03057398 0.0027393983 -0.043122225
000310 24 b8 a7 bd 8a c8 8d bd 5c 28 79 bd 19 5e 84 3d
       -0.08189419 -0.069230154 -0.060829505 0.0646326
000320 90 f9 72 3d 7f 64 c3 bc 26 1e bc bd f9 62 bc 3c
       0.059320033 -0.023851631 -0.09185438 0.022996413
000330 90 7b d1 bc 11 89 88 3d 10 0e 8c bd 35 a2 c0 bd
       -0.025571615 0.06666768 -0.0683862 -0.094059385
000340 86 41 68 bd d1 e9 7b 3d 0a 06 ee 3c 19 54 18 bd
       -0.056703113 0.06150228 0.029055614 -0.037189577
000350 98 45 b7 3c 43 68 7e bd 85 ac 9c bb 2d bf 5a 3d
       0.022372052 -0.06211115 -0.004781308 0.053404976
000360 51 fb a5 3d e2 8f a4 3d 82 eb 8c 3d 9f 62 3c bd
       0.081045754 0.08035256 0.06880857 -0.04599249
000370 3e 06 ba bd d7 56 80 bc 33 30 8c bd 7d 39 8f bd
       -0.09083222 -0.015666408 -0.06845131 -0.06993387
000380 5f 5f 3e bd 27 48 a6 3d b7 a0 bd bd b9 6a 80 bd
       -0.04647767 0.08119231 -0.092591695 -0.06270356
000390 97 4e 51 3c 3f e5 d2 3c 26 6b a8 bd 67 b3 3d 3a
       0.012775085 0.025744079 -0.08223562 0.0007236511
0003a0 6a 40 6d bd b9 9a f8 3c 0f 62 99 3d 63 a4 21 bc
       -0.05792276 0.030347215 0.07489406 -0.009865853
0003b0 6a 6f 13 3d 70 11 59 3c 5d 2a b6 bd 97 6a 85 bd
       0.035994925 0.013248786 -0.08894799 -0.06514471
0003c0 52 67 99 3d d2 4f 80 3d 41 1c 9f bd 95 d9 86 3d
       0.0749041 0.062652245 -0.07769061 0.06584469
0003d0 88 a6 11 bc ea 6d 8b bd 3d 62 94 bd 3f f6 b8 bd
       -0.008889802 -0.06808074 -0.072453 -0.09031343
0003e0 c0 88 33 bd b2 5c 88 3d 06 a6 03 3c 35 ea 83 bb
       -0.043831587 0.06658305 0.008035189 -0.0040257224
0003f0 c7 c6 58 bb 98 15 4c 3d eb ef 8b bd 28 52 8e 3d
       -0.0033077465 0.04982528 -0.0683287 0.06949264

model_20/dense_40/BiasAdd/ReadVariableOp/resource f4 [10]
000000 dd 1b e6 bc 37 1d 46 3b 8a 8d e0 bb 5f a7 1a bc
       -0.028089458 0.0030229816 -0.0068528103 -0.009439318
000010 5f c5 49 3c d4 e4 1b bd 1a f6 e4 3a 10 4a 86 3b
       0.012315123 -0.038060024 0.0017468364 0.0040981844
000020 b3 a2 25 bd b1 4e d8 bb
       -0.040438365 -0.0066011776

model_20/layer_normalization_60/add/ReadVariableOp/resource f4 [4]
000000 c5 b8 07 bc 6c de d1 bb 5b cf de 3b 4e 53 f9 b9
       -0.008283799 -0.0064046886 0.006799621 -0.00047555048

model_20/layer_normalization_60/mul_4/ReadVariableOp/resource f4 [4]
000000 db 0c 81 3f 64 83 80 3f 17 69 80 3f 02 5f 7e 3f
       1.0082048 1.0040097 1.0032071 0.9936372

model_20/layer_normalization_61/add/ReadVariableOp/resource f4 [12]
000000 6d 79 c9 ba 44 12 2e bc c3 b4 8f 3b 37 4b 03 bc
       -0.0015371271 -0.010624472 0.004385562 -0.008013538
000010 0b c0 cf 3b 8b 4c f4 bb e1 2c 52 bc e6 5a ad 3b
       0.006340032 -0.0074554137 -0.012828083 0.005290377
000020 66 0d a0 bc 2d 43 60 bc da 7e 06 3c 5f 2d 3b bc
       -0.019537639 -0.013687891 0.008208955 -0.0114243915

model_20/layer_normalization_61/mul_4/ReadVariableOp/resource f4 [12]
000000 8a 22 81 3f 68 57 7e 3f ec 3b 80 3f 00 72 7d 3f
       1.0088665 0.9935212 1.0018287 0.99002075
000010 c0 0a 81 3f d7 c5 80 3f 23 8b 7c 3f 7b 55 7d 3f
       1.0081406 1.0060376 0.98649806 0.9895856
000020 b7 a7 83 3f ab cd 81 3f d5 b6 7d 3f c6 90 81 3f
       1.0285558 1.014089 0.99107105 1.0122306

model_20/layer_normalization_62/mul_2/ReadVariableOp/resource f4 [10]
000000 37 72 7d 3f ee 49 7c 3f 07 2e 80 3f ee c4 80 3f
       0.99002403 0.9855031 1.0014046 1.0060098
000010 93 3b 7e 3f 08 c3 80 3f 5c 3d 7d 3f 4b 18 7e 3f
       0.99309653 1.0059519 0.9892175 0.9925582
000020 d3 b6 80 3f 8e 15 80 3f
       1.0055794 1.0006578

model_20/dense_40/MatMul f4 [10, 228]
000000 31 1b d0 bd 31 58 04 3d ce 32 21 be 28 6a 6a 3b
       -0.10161436 0.03231067 -0.15742037 0.003576884
000010 ae f9 97 3c fb 5c a0 bd 6d c2 c0 3d 3c 7d 1c be
       0.018551674 -0.078302346 0.09412084 -0.15282148
000020 8a 3b 33 3b da 7c 0e bd d4 f2 17 bc 8b de 38 3e
       0.002734872 -0.034787036 -0.009274203 0.18053643
000030 53 56 2a 3e ea f8 96 bd 81 36 c6 3b fa 3e ab 3d
       0.16634493 -0.07371695 0.006048978 0.08361621
000040 44 31 12 3d 02 80 e9 3d 61 ae e6 3d 35 42 03 bd
       0.035691515 0.11401369 0.11263729 -0.03204556
000050 9b 13 23 3e 4d 7a af 3d 79 9c d0 bd 16 6d a3 3b
       0.15925448 0.08568249 -0.10186095 0.0049873693
000060 fb c2 a0 3d 02 9e d4 bd cf b2 2a be 93 c7 5f bd
       0.078496896 -0.103817 -0.16669773 -0.05463369
000070 85 97 1c be 9f cb f6 bb 2e 79 76 bc ad 2b cf bd
       -0.15292175 -0.0075315977 -0.01504354 -0.10115752
000080 fc 20 90 3d 57 06 e5 3d f1 dc d1 3b 6a 65 79 3d
       0.07037541 0.1118285 0.006404512 0.06088773
000090 f2 81 65 bd a2 6a ea 3d d2 57 a0 bc 0f ec ee bd
       -0.05603213 0.1144612 -0.019573126 -0.11666118
0000a0 0a a3 94 3d 64 d2 cf 3d 6c 79 a7 bc 52 d7 16 3d
       0.0725766 0.10147551 -0.02044364 0.03682644
0000b0 57 4f 14 3e b6 4c 9a bd 3c 58 fb 3d f8 a3 04 be
       0.14483391 -0.07534163 0.12272689 -0.12953174
0000c0 c9 e5 ef bd 60 1d d1 3d a3 97 4d 3d f2 8e 55 3d
       -0.1171375 0.10210681 0.05019344 0.052138276
0000d0 b9 f3 73 bd 02 52 04 3c da 8d 48 bd 2e e7 67 bd
       -0.059558604 0.008076193 -0.048963405 -0.056616955
0000e0 cf 7a 13 3c c0 cc 0c 3e 6b 57 d5 3d 50 df 74 bd
       0.009001448 0.13749981 0.10417064 -0.05978328
0000f0 bc 95 03 bd f4 43 48 3d 3e 9a 2e 3d b8 bf b8 bd
       -0.03212522 0.04889293 0.042627566 -0.090209424
000100 bc 43 63 3b 2a 5f e7 bc 4e b5 19 bc af 17 3b be
       0.0034677824 -0.02824362 -0.009381605 -0.18270753
000110 8e f1 19 3d 00 6c 4c 3d 3a 57 ec 3d c6 03 dc 3b
       0.03758388 0.049907684 0.11540075 0.006714317
000120 5b 27 8e 3d fb fd 43 3c 95 be a5 bd 96 68 ac 3d
       0.069411 0.011962409 -0.08092991 0.08418386
000130 91 57 fb 3c e8 50 1a 3d b2 cf 00 be b9 66 90 3d
       0.030681403 0.037674814 -0.1257923 0.07050843
000140 fd 3b d3 3d de e9 16 3e 4e 09 bf bd bb 5d f5 bd
       0.10314176 0.14737651 -0.093279466 -0.11980768
000150 d7 c3 eb 3d d2 5b 33 bd 19 71 87 bc 42 a1 13 be
       0.11511963 -0.04378874 -0.016533421 -0.14416984
000160 50 11 2a be 23 65 29 3e f3 f4 a5 3d 38 02 c5 bd
       -0.16608167 0.16542487 0.08103361 -0.09619564
000170 eb 24 74 3d b4 f5 44 bd df 8c 15 3c fe 50 e8 bd
       0.05960552 -0.048085883 0.009127825 -0.11343573
000180 49 0d d8 bc e2 6b 3b 3d 68 66 e0 3c 95 9c d9 3d
       -0.026373522 0.045757182 0.027392581 0.10625569
000190 84 75 d3 3b 87 f1 63 bd ae c8 a7 3d 1b af e8 bd
       0.006453218 -0.05565026 0.081925735 -0.11361524
0001a0 ff e7 87 3d 63 b3 14 3e ce 64 bc 3d 4d 97 50 3d
       0.066360466 0.14521556 0.091989145 0.05092554
0001b0 3e e1 04 3d 88 6e 0f 3e 1e 34 19 be 61 a2 08 be
       0.03244137 0.14007008 -0.14961287 -0.13343193
0001c0 e9 c5 db 3d a5 cf 94 3d d6 54 1d bd b9 ae 0b bd
       0.10731108 0.072661676 -0.038410984 -0.034102175
0001d0 49 e6 3f 3e 38 14 1e 3e 57 a1 c8 3d c9 7f f8 3d
       0.1874019 0.154374 0.09796398 0.12133748
0001e0 5c 5b 38 3e a4 5e 25 3e b3 94 85 bd 9a 64 2b be
       0.18003601 0.16149384 -0.06522503 -0.16737595
0001f0 02 cd 8e 3d 19 bd ea bd 5e e7 06 3e 1e 87 d6 bd
       0.06972696 -0.11461849 0.13174197 -0.1047499
000200 2d c9 c5 3d 1a 87 68 bb 68 4f e3 bd fd 6c 35 bc
       0.09657512 -0.0035480917 -0.1109913 -0.011073348
000210 06 ae 13 3e 43 12 f8 bd 3f d9 ce bd 02 bf 95 bd
       0.14421853 -0.12112858 -0.1010003 -0.073118225
000220 8d b6 03 3e c4 bc 2d 3e 8b 1a 1e be 95 3f 62 3c
       0.12862606 0.1696654 -0.15439813 0.013809104
000230 78 8d 30 3e 6f a5 7a bc 2b 5d ad bd 44 c5 47 3d
       0.17241466 -0.0152982315 -0.08465036 0.04877211
000240 65 4c 87 bd ab a0 da bd 80 b3 e5 3d e5 8a 65 3d
       -0.06606368 -0.10675176 0.112158775 0.056040663
000250 1b 76 97 3d 56 df 69 3d b4 ce 22 3d de 6e 4b 3d
       0.07395574 0.057097755 0.03974791 0.049666278
000260 4d c9 07 3e c9 97 b8 bd 36 8d 18 be d6 06 ef bd
       0.13260384 -0.09013326 -0.14897618 -0.11671226
000270 44 31 19 3d 5a 1a a1 3d 05 96 64 bc ef 3e 9f bd
       0.0374005 0.07866354 -0.013951783 -0.077756755
000280 0d 17 1e be 71 dd f9 3d 25 2f fd 3d 91 6c 6c 3d
       -0.1543848 0.1220044 0.12362508 0.057720724
000290 8f 00 05 3e 42 28 ab bd 71 71 60 3d 85 86 ae bd
       0.12988494 -0.08357288 0.054795686 -0.08521751
0002a0 1d 8c be bd 97 a6 e9 bd 85 00 2f be 87 ff 02 bb
       -0.09304068 -0.114087276 -0.17090042 -0.0019988732
0002b0 82 1a 04 3e 76 ca 6c bd d0 d2 cc bd a5 ac b1 bd
       0.12900737 -0.05781027 -0.10001147 -0.086755075
0002c0 56 80 68 bb 90 c5 5f bc 30 34 2a bd c3 5d 8a 3d
       -0.0035476885 -0.013657942 -0.041553676 0.06756165
0002d0 51 f8 65 3d e2 1c f6 bd 31 16 8b 3d f9 b2 d7 3c
       0.056145016 -0.12017228 0.06791342 0.026330458
0002e0 ba d4 3e 3d 26 83 2b bd e9 26 31 3d 0c 97 3e be
       0.04658959 -0.04187312 0.04325 -0.18612307
0002f0 41 2e b1 bd f3 ad 3f 3e 97 1a 06 be d8 ee 72 3d
       -0.086514 0.187187 -0.1309608 0.05930981
000300 22 be f7 3a 45 2b 07 be 7e a9 ce bd 19 7f 29 be
       0.0018901268 -0.132001 -0.10090922 -0.1655239
000310 b7 57 88 3d d5 78 91 bc 2e 03 77 3d a9 a4 2c 3d
       0.06657355 -0.017757813 0.060305767 0.04214922
000320 78 d8 22 3e bd 0c 52 3d 32 3a f4 3d 6d 61 13 bc
       0.15902889 0.05128168 0.119251624 -0.008995396
000330 09 75 3c 3c 05 3f f4 3c 59 af a3 bd cc b3 57 3d
       0.011502513 0.029815206 -0.07992429 0.052661702
000340 a5 f0 50 3d 06 3e 88 3d 94 68 e6 3c c1 0f a1 3d
       0.051010747 0.06652455 0.028126039 0.07864333
000350 5b d3 81 3d a9 59 be bd 2f 23 9b 3c 3e 6f 2d 3e
       0.06339141 -0.09294445 0.018937675 0.16936967
000360 34 dc be 3d 3c 34 1b 3d b5 64 02 3d d5 db cd 3d
       0.09319344 0.03789161 0.031834323 0.10051695
000370 ee 90 1a be ba 44 19 3e 68 c3 33 be db 6e 44 be
       -0.15094349 0.14967623 -0.1755501 -0.19182913
000380 6f c2 4b 3d f6 c0 f4 3d 10 31 fc 3d 1f 53 91 bd
       0.049745973 0.11950867 0.123140454 -0.07095932
000390 73 d6 e4 bc aa 73 23 3d 65 45 7b 3b 41 62 19 be
       -0.027934289 0.039905228 0.0038340923 -0.14978887
0003a0 07 12 1f 3d 7d e6 a5 3d d7 ba 0d 3e 34 53 fd 3b
       0.03883555 0.08100603 0.13840805 0.007730866
0003b0 fe 83 54 3c 01 e0 87 bd 36 e7 aa bd c3 51 d2 3c
       0.0129709225 -0.06634522 -0.08344881 0.025673753
0003c0 bc 0f 89 bc 94 71 bf 3d 39 9e 62 3c 04 27 8b 3d
       -0.016731136 0.09347835 0.0138316685 0.06794551
0003d0 33 d9 ca bd 61 13 58 3d 5d 5f f5 bd 04 e4 2d 3c
       -0.09904709 0.052752856 -0.1198108 0.010613445
0003e0 56 61 24 be ed 4c 1b 3e 4b 30 7a 3d 87 3c ba bd
       -0.16052756 0.15166064 0.061081212 -0.09093576
0003f0 e9 26 a1 bd 3f 0b 6f bd 0a d7 76 3d f3 09 18 3e
       -0.0786875 -0.058360334 0.06026367 0.14847545

model_20/dense_41/MatMul f4 [1, 10]
000000 42 57 43 3e b8 27 23 3f d9 e3 2c 3f dc 95 a9 3e
       0.19076255 0.6373248 0.6753517 0.33122146
000010 46 69 0c be 0b 40 08 3e 1e 3a 1e bf f5 23 1f be
       -0.13712034 0.1330568 -0.6180743 -0.1554106
000020 8f 0a 1b 3e 5f 17 18 3f
       0.15140747 0.5941066
