src/main/assets/6.tflite (tflite, 28664 bytes, 12 tensors)

model_6/conv2d_13/BiasAdd;model_6/conv2d_13/Conv2D;model_6/conv2d_13/BiasAdd/ReadVariableOp/resource f4 [12]
0.010700899 -0.033561435 0.005838854 -0.00060180965 -0.014088081 0.0062534898 -0.0029150206 0.012040869
-0.005074577 -0.0012022305 -0.004698159 -0.009760623
00000000: d352 2f3c b777 09bd db53 bf3b c3c2 1dba
00000010: b2d1 66bc 13ea cc3b ee09 3fbb 1147 453c
00000020: a348 a6bb 2994 9dba 04f3 99bb 05eb 1fbc

model_6/conv2d_12/BiasAdd;model_6/conv2d_12/Conv2D;model_6/conv2d_12/BiasAdd/ReadVariableOp/resource f4 [4]
0.0014332068 -0.0019450501 -0.015478565 0.016889602
00000000: 71da bb3a 0df1 feba cf99 7dbc 105c 8a3c

model_6/conv2d_13/Conv2D f4 [12, 1, 11, 4]
-0.09679634 -0.15037143 -0.15351555 0.14764135 0.032668587 0.0068683913 -0.16033421 0.10741108
-0.032419905 -0.061607372 0.06007225 -0.0031655827 0.01712058 0.101603895 -0.16126937 -0.12865
-0.07547009 0.05866564 -0.15219726 -0.14624104 -0.01246005 0.05268667 -0.054308552 0.023944577
0.14223486 -0.12269692 -0.026881646 0.12739813 0.17232226 0.121398434 -0.0682234 0.09323087
-0.16785473 -0.022736145 0.16050415 -0.10182413 0.06403894 0.1441137 -0.06149241 -0.017507687
0.054433063 -0.11853466 0.044089258 -0.055638917 0.06093949 -0.0063963067 -0.08676703 -0.04038088
0.045190897 0.1741056 0.043377686 -0.105108246 -0.14034456 0.19139645 0.029198246 0.05131972
-0.09980333 -0.13260955 0.089412324 -0.103648305 0.16894443 -0.22970223 0.17817473 -0.05721465
-0.10630518 0.061549746 0.20451185 0.11743154 0.2101837 -0.17746152 -0.016300268 0.008838996
-0.027242405 -0.08645762 -0.01178439 -0.08069478 0.13315235 -0.027946701 -0.0834504 0.020245014
0.10385587 -0.07311246 0.07839608 -0.22703537 -0.09756553 -0.020162176 0.08488707 -0.033121523
-0.07130249 0.06514743 -0.19016355 0.055745002 -0.15044975 -0.17836007 0.18150207 0.13031347
0.026083209 -0.045224465 -0.13313095 0.15135749 -0.05387919 -0.050917562 0.022429537 0.123047225
-0.14844768 0.11827248 0.064834595 0.13913482 0.17258164 0.1146117 -0.16384362 -0.013351925
-0.034115195 0.06759661 -0.0807058 0.016024003 -0.16716976 0.13531403 -0.15586916 -0.1660943
0.17421839 0.160041 -0.122861765 0.10446604 0.025612213 -0.16009974 -0.12777592 0.1611772
0.05858524 -0.07690954 -0.1653078 0.11024689 -0.07495138 -0.012466575 0.12802826 -0.036148526
-0.10693168 -0.020487214 -0.18949161 0.16877905 -0.089134045 0.03151843 -0.112422034 0.08510645
0.08327256 -0.08489055 0.087518334 -0.05517169 0.15980022 0.024384074 -0.115175925 0.026045408
0.0914747 -0.14409289 0.17316423 -0.16474466 0.09761625 -0.1306987 -0.005103343 -0.029484965
0.18655196 -0.040943693 0.12084052 0.040637832 -0.06562585 -0.04247969 -0.018784046 0.019855443
0.057148553 0.109552495 0.15189098 0.14354086 0.010940207 -0.011326457 0.043299332 0.08024098
-0.08075842 -0.1932264 0.17968808 -0.011052743 0.029173456 -0.037867073 0.021007001 0.13681278
-0.007126336 0.028602751 -0.03796878 -0.009759082 0.1343577 -0.16705285 -0.15005474 0.04697536
-0.10872522 0.0061471807 0.00034384662 -0.028570704 -0.16767104 -0.16164166 0.11962162 0.05395194
-0.038609244 -0.07456126 0.08813294 0.017696986 0.04687777 -0.114081375 0.057095174 0.1278326
-0.16164958 0.21412948 0.0823599 -0.029086886 0.06939368 0.06217054 -0.103520036 -0.16979134
-0.05694648 -0.122029185 0.043531492 0.067046136 -0.10081631 -0.12938878 0.14109986 0.01371681
-0.0104930205 -0.043588463 0.18706061 0.16178203 0.1325788 0.19944194 0.13945898 0.045630347
-0.057783224 0.14404993 -0.1201151 -0.09704292 0.16188025 -0.17086005 -0.06083765 -0.10417581
-0.0018260069 0.07226419 -0.022157978 0.043355525 0.013226493 0.14926395 0.044459317 -0.02471127
0.09200607 -0.13825874 -0.1641752 -0.13955194 -0.09912346 -0.11330585 -0.061731923 0.107148044
00000000: 293d c6bd f8fa 19be 2e33 1dbe 4b2f 173e
00000010: 7fcf 053d 3e10 e13b a72e 24be 57fa db3d
00000020: bcca 04bd 0358 7cbd 520e 763d aa75 4fbb
00000030: 7540 8c3c b415 d03d cc23 25be d3bc 03be
00000040: 1090 9abd 624b 703d 99d9 1bbe 36c0 15be
00000050: 3d25 4cbc facd 573d a572 5ebd 6b27 c43c
00000060: 04a6 113e 8648 fbbd e636 dcbc a874 023e
00000070: 3f75 303e be9f f83d b6b8 8bbd d4ef be3d
00000080: 1ce2 2bbe 2741 babc 335b 243e 2b89 d0bd
00000090: d926 833d 8b92 133e 77df 7bbd 486c 8fbc
000000a0: 34f5 5e3d 4dc2 f2bd f096 343d a2e5 63bd
000000b0: b09b 793d 1c98 d1bb eab2 b1bd 6c66 25bd
000000c0: 171a 393d bd48 323e cdac 313d fe42 d7bd
000000d0: 7cb6 0fbe 6efd 433e 2931 ef3c a034 523d
000000e0: b065 ccbd ccca 07be cf1d b73d 9045 d4bd
000000f0: c5ff 2c3e 1037 6bbe 7073 363e e959 6abd
00000100: 88b6 d9bd 961b 7c3d 8e6b 513e f27f f03d
00000110: 653a 573e 79b8 35be 2488 85bc 70d1 103c
00000120: 772b dfbc b110 b1bd 5013 41bc 4e43 a5bd
00000130: 1759 083e 7bf0 e4bc 0be8 aabd dfd8 a53c
00000140: 63b2 d43d fcbb 95bd 208e a03d f67b 68be
00000150: 70d0 c7bd 262b a5bc 46d9 ad3d 6faa 07bd
00000160: 0a07 92bd 046c 853d 3cba 42be df54 643d
00000170: 800f 1abe 06a4 36be aedb 393e e570 053e
00000180: 74ac d53c 4a3d 39bd 7b53 08be 75fd 1a3e
00000190: 6db0 5cbd ef8e 50bd 26be b73c 2f00 fc3d
000001a0: ab02 18be d838 f23d 00c8 843d 5c79 0e3e
000001b0: 3eb9 303e 8ab9 ea3d 9fc6 27be 08c2 5abc
000001c0: 60bc 0bbd 1770 8a3d 1549 a5bd c544 833c
000001d0: 8d2e 2bbe c38f 0a3e 2a9c 1fbe a014 2abe
000001e0: 4e66 323e cae1 233e f39e fbbd 4bf2 d53d
000001f0: b4d0 d13c 30f1 23be b1d7 02be a30b 253e
00000200: 14f7 6f3d c082 9dbd 7346 29be 1fc9 e13d
00000210: 1c80 99bd 9b40 4cbc d719 033e 7a10 14bd
00000220: fffe dabd cdd4 a7bc 170a 42be 6ad4 2c3e
00000230: e98b b6bd 7819 013d 863d e6bd 4a4c ae3d
00000240: ce8a aa3d 19db adbd d03c b33d b6fb 61bd
00000250: aba2 233e 1cc1 c73c 5be1 ebbd 2e5d d53c
00000260: 1657 bb3d 168d 13be f751 313e d3b2 28be
00000270: 07eb c73d e1d5 05be f239 a7bb 748a f1bc
00000280: 7a07 3f3e 93b4 27bd 3c7b f73d db73 263d
00000290: d866 86bd 2fff 2dbd 00e1 99bc e2a7 a23c
000002a0: 9a14 6a3d 0f5d e03d 4f89 1b3e 60fc 123e
000002b0: 8e3e 333c 9b92 39bc a45a 313d 6255 a43d
000002c0: ac64 a5bd 24dd 45be 2700 383e 9016 35bc
000002d0: 2cfd ee3c 811a 1bbd e016 ac3c a618 0c3e
000002e0: 0a84 e9bb 5150 ea3c 2785 1bbd 8fe4 1fbc
000002f0: 1195 093e e70f 2bbe f3a7 19be 3c69 403d
00000300: 54ab debd 4a6e c93b 5046 b439 1c0d eabc
00000310: f5b1 2bbe 6485 25be 2efc f43d b6fc 5c3d
00000320: ba24 1ebd 93b3 98bd 0b7f b43d 45f9 903c
00000330: e802 403d 7fa3 e9bd a1dc 693d 8de6 023e
00000340: 7887 25be c244 5b3e 4fac a83d 9f47 eebc
00000350: 461e 8e3d 89a6 7e3d 5002 d4bd c8dd 2dbe
00000360: b640 69bd 70ea f9bd 144e 323d 7c4f 893d
00000370: c878 cebd 7e7e 04be 7b7c 103e 79bc 603c
00000380: ebea 2bbc d189 32bd d18c 3f3e 30aa 253e
00000390: bdc2 073e 823a 4c3e 56ce 0e3e e3e6 3a3d
000003a0: 1aae 6cbd d381 133e e8fe f5bd 70be c6bd
000003b0: f0c3 253e f0f5 2ebe e630 79bd 215a d5bd
000003c0: a056 efba 3fff 933d a684 b5bc 9095 313d
000003d0: efb3 583c a6d8 183e f91a 363d 4a6f cabc
000003e0: ae6d bc3d b393 0dbe 8b1d 28be b4e6 0ebe
000003f0: 3e01 cbbd e60c e8bd 9dda 7cbd 6f70 db3d

model_6/conv2d_12/Conv2D f4 [4, 4, 38, 1]
0.062019493 -0.07238908 -0.043108113 0.004039375 0.09045772 -0.07436148 0.0363664 -0.08943411
0.036917854 0.0106356945 -0.07794335 0.026333453 -0.038580187 0.06236058 -0.046429005 -0.07003346
0.025767352 -0.06650606 -0.015293117 -0.01094104 -0.07216925 0.008345074 -0.0025042288 -0.015458079
-0.031325903 -0.006550258 0.032778442 -0.08573869 0.07136313 0.0835535 0.06597977 0.017303158
-0.05628792 -0.03398945 -0.07731472 0.06201776 -0.0034263982 0.032955468 0.020097014 -0.057182286
0.004588606 -0.016049363 -0.044744227 0.030259902 0.08696717 0.0668056 -0.0076133884 0.07211261
0.024735969 -0.025106588 0.06148039 0.039616074 0.02931816 0.030597972 0.013017058 -0.04535923
-0.08070707 -0.05156819 0.008912569 0.08573919 -0.05307583 -0.04829142 -0.050124623 0.061003637
0.00045972838 -0.038791273 -0.016317548 -4.5759705e-05 0.02883319 0.067489065 0.009532384 0.046174794
0.030538574 -0.071400955 -0.0799836 0.0015800582 0.05588228 0.0539224 0.061626103 -0.01660356
0.05452718 0.013102918 0.0023000673 -0.05765793 0.04689063 0.070568725 -0.06909204 -0.06748029
-0.005695893 -0.06457625 -0.00036700192 -0.002285973 0.06343894 0.0039261137 -0.053463064 0.026901921
0.08614552 0.027322307 0.06628416 -0.0383335 0.06801059 -0.03118654 -0.021116393 -0.003986929
-0.066676505 -0.046371218 -0.038045574 -0.008376439 0.039358877 -0.059714947 0.033400737 -0.02412496
0.026712172 -0.06605644 0.061202183 -0.09041569 -0.06505251 -0.04073563 -0.0772281 0.037990157
0.06296224 -0.03589694 0.018105984 0.02241806 -0.039623003 0.05185999 -0.06567385 0.0045494987
-0.01885288 -0.09438178 -0.029453158 0.051547352 0.08112484 -0.05961586 0.037969086 -0.008155734
0.063348785 -0.006648642 0.014288498 0.013881686 -0.025668306 0.059411254 0.087343134 0.103448145
-0.045269 0.0289853 0.070040606 -0.08420215 -0.05243853 -0.07053656 -0.06750886 -0.090843156
0.03951714 -0.05138668 0.026737452 0.0051335758 0.029308917 -0.04615868 0.013341557 0.10137083
0.13923077 0.046151254 -0.06664982 -0.056239877 -0.024435684 -0.1449572 -0.07268217 -0.006679737
-0.007440635 0.092287116 0.02177732 -0.033813026 0.007407118 -0.05427809 -0.08627938 0.03696875
-0.09099646 -0.06903473 0.020217478 0.022460751 0.0056428444 -0.037868842 0.01750108 0.084590875
0.08247987 0.014425767 0.06633937 -0.004578246 -0.043591894 0.036884844 0.04997246 -0.0022630808
-0.011571693 -0.07753625 -0.071077876 0.054999314 -0.03067775 0.07066729 0.1281228 0.025897082
-0.012466693 -0.09167343 -0.10440788 -0.12054019 -0.053907964 -0.121641345 0.049679376 0.081339285
0.004592034 0.10763406 -0.03416734 -0.035183374 -0.0062869075 -0.054581378 0.03629865 -0.05836401
-0.06238768 -0.104909874 0.04311511 0.040156513 -0.06642446 -0.016617024 0.09630398 0.10439793
0.060280018 -0.060118172 -0.04996388 -0.012273321 -0.088895805 0.0010282059 -0.08474175 -0.02677238
-0.067505054 -0.055201016 0.034373686 0.124864645 0.08344218 0.07643111 0.03150545 -0.020633435
-0.065246284 -0.030321067 -0.08414632 -0.0339535 0.010803521 -0.010844196 0.04185605 0.057953235
-0.04096285 0.065173805 0.06455705 -0.05404109 0.05606694 0.022905735 0.037375312 0.063277274
00000000: 2708 7e3d ba40 94bd 2292 30bd bc5c 843b
00000010: e641 b93d d54a 98bd eff4 143d 3b29 b7bd
00000020: 2d37 173d 5641 2e3c c3a0 9fbd 41b9 d73c
00000030: 4206 1ebd cf6d 7f3d 572c 3ebd b46d 8fbd
00000040: 0e16 d33c 5434 88bd fb8f 7abc 0c42 33bc
00000050: 79cd 93bd c7b9 083c fd1d 24bb e243 7dbc
00000060: 974f 00bd 8ca3 d6bb b042 063d c497 afbd
00000070: d526 923d 191e ab3d 6720 873d 5abf 8d3c
00000080: 298e 66bd 8638 0bbd 2e57 9ebd 5606 7e3d
00000090: 6c8d 60bb 50fc 063d 7ea2 a43c f937 6abd
000000a0: 045c 963b f479 83bc b945 37bd 9de3 f73c
000000b0: d81b b23d 60d1 883d bb79 f9bb c7af 933d
000000c0: 16a3 ca3c 55ac cdbc ddd2 7b3d 7744 223d
000000d0: a32c f03c 99a8 fa3c 8045 553c 9aca 39bd
000000e0: c049 a5bd 2b39 53bd 0606 123c 0798 af3d
000000f0: 0b66 59bd 39cd 45bd 7a4f 4dbd f3de 793d
00000100: b307 f139 99e3 1ebd 61ac 85bc 1cee 3fb8
00000110: 9533 ec3c b537 8a3d b72d 1c3c c821 3d3d
00000120: 082c fa3c aa3a 92bd 71ce a3bd f519 cf3a
00000130: d1e4 643d bcdd 5c3d a76b 7c3d 3004 88bc
00000140: e457 5f3d 9fad 563c babc 163b b92a 6cbd
00000150: 6410 403d 5686 903d 2180 8dbd 1b33 8abd
00000160: 9da4 babb 8e40 84bd 2a6a c0b9 43d0 15bb
00000170: 46ec 813d a1a6 803b 16fc 5abd 6b61 dc3c
00000180: 106d b03d 08d3 df3c fdbf 873d 9703 1dbd
00000190: 2349 8b3d ea7a ffbc 49fc acbc c9a4 82bb
000001a0: b18d 88bd bfef 3dbd add5 1bbd 553d 09bc
000001b0: c636 213d a997 74bd 36cf 083d b5a1 c5bc
000001c0: 7cd3 da3c 9948 87bd 24af 7a3d dc2b b9bd
000001d0: 403a 85bd 67da 26bd c429 9ebd 919b 1b3d
000001e0: 59f2 803d ab08 13bd 0053 943c 14a6 b73c
000001f0: bb4b 22bd 246b 543d 0380 86bd f613 953b
00000200: 5b71 9abc 3c4b c1bd c047 f1bc 5123 533d
00000210: c824 a63d c32f 74bd 7985 1b3d a19f 05bc
00000220: 02bd 813d dadc d9bb 4e1a 6a3c 0370 633c
00000230: 5746 d2bc 3759 733d f5e0 b23d 9fdc d33d
00000240: fd6b 39bd 9472 ed3c 7371 8f3d 2d72 acbd
00000250: c9c9 56bd 7975 90bd 1642 8abd fa0b babd
00000260: b9dc 213d d77a 52bd 8008 db3c 8e37 a83b
00000270: 4119 f03c e210 3dbd 8c96 5a3c 829b cf3d
00000280: 8392 0e3e 1909 3d3d b37f 88bd c95b 66bd
00000290: 582d c8bc a96f 14be 64da 94bd b2e1 dabb
000002a0: 92d0 f3bb 0701 bd3d 5a66 b23c 877f 0abd
000002b0: 69b7 f23b b452 5ebd 3eb3 b0bd 8b6c 173d
000002c0: 5a5c babd 1562 8dbd 209f a53c 9cff b73c
000002d0: 9ce7 b83b 5c1c 1bbd 6d5e 8f3c fb3d ad3d
000002e0: 35eb a83d 0d5a 6c3c f0dc 873d 1c05 96bb
000002f0: 6a8d 32bd 9014 173d ecaf 4c3d 3250 14bb
00000300: 3397 3dbc 53cb 9ebd 4791 91bd f646 613d
00000310: e84f fbbc 03ba 903d a032 033e 1e26 d43c
00000320: 1a41 4cbc 47bf bbbd ccd3 d5bd c6dd f6bd
00000330: 99ce 5cbd 191f f9bd 9a7c 4b3d 3695 a63d
00000340: c678 963b 3f6f dc3d 0df3 0bbd 711c 10bd
00000350: 6702 cebb b990 5fbd e5ad 143d 1a0f 6fbd
00000360: 398a 7fbd fdda d6bd 7899 303d 287b 243d
00000370: 8c09 88bd 6d20 88bc 053b c53d 95ce d53d
00000380: 2ee8 763d 793e 76bd eda6 4cbd 0a16 49bc
00000390: 010f b6bd ddc4 863a 158d adbd c051 dbbc
000003a0: 1740 8abd 761a 62bd 6ccb 0c3d 09b9 ff3d
000003b0: bce3 aa3d ea87 9c3d dc0b 013d 7307 a9bc
000003c0: d89f 85bd e363 f8bc e854 acbd d312 0bbd
000003d0: 4001 313c dbab 31bc 4071 2b3d 5f60 6d3d
000003e0: a9c8 27bd d879 853d 7d36 843d 315a 5dbd
000003f0: 73a6 653d cfa4 bb3c db16 193d 8497 813d

model_6/dense_12/BiasAdd/ReadVariableOp/resource f4 [10]
0.00015740053 -0.00498441 -0.025856573 -0.009629685 0.0020691084 0.0017766902 0.015181382 -0.010120747
0.0027079808 0.015526441
00000000: e20b 2539 4354 a3bb 2ad1 d3bc d4c5 1dbc
00000010: e199 073b d5df e83a 55bb 783c 7dd1 25bc
00000020: 6178 313b 9d62 7e3c

model_6/layer_normalization_18/add/ReadVariableOp/resource f4 [4]
0.010943779 -0.0075780237 0.00072347163 -0.010189149
00000000: 894d 333c 1251 f8bb 5ca7 3d3a 63f0 26bc

model_6/layer_normalization_18/mul_4/ReadVariableOp/resource f4 [4]
0.9848579 1.0241307 0.9953089 0.99331665
00000000: a61f 7c3f b716 833f 90cc 7e3f 004a 7e3f

model_6/layer_normalization_19/add/ReadVariableOp/resource f4 [12]
0.008978736 -0.049937032 0.0025839324 0.014346825 -0.0126943495 0.008266975 0.00095243606 0.0078392755
-0.006539029 0.0041930135 0.021649146 -0.0086008655
00000000: 8c1b 133c c68a 4cbd 3157 293b f20e 6b3c
00000010: f6fb 4fbc 3572 073c e7ac 793a 4e70 003c
00000020: 5a45 d6bb 8c65 893b 8d59 b13c a5ea 0cbc

model_6/layer_normalization_19/mul_4/ReadVariableOp/resource f4 [12]
1.0034081 1.0247204 1.0045829 0.9684511 1.035785 1.0054088 0.9975038 0.99535674
0.9924442 0.99796396 0.9728733 0.9801723
00000000: ad6f 803f 0a2a 833f 2c96 803f 69ec 773f
00000010: 9a94 843f 3cb1 803f 695c 7f3f b3cf 7e3f
00000020: d310 7e3f 917a 7f3f 390e 793f 92ec 7a3f

model_6/layer_normalization_20/mul_2/ReadVariableOp/resource f4 [10]
0.9993584 0.97143805 1.0030435 0.9824484 0.9961821 0.997463 0.97978026 0.9997817
1.0014983 0.9924388
00000000: f4d5 7f3f 2ab0 783f bb63 803f bd81 7b3f
00000010: ca05 7f3f bc59 7f3f e1d2 7a3f b2f1 7f3f
00000020: 1931 803f 7810 7e3f

model_6/dense_12/MatMul f4 [10, 228]
-0.00044012195 0.14896156 -0.08804048 0.06551536 -0.13312426 -0.0864082 -0.11406259 0.11035679
-0.10358644 0.10126352 -0.10305086 -0.0041033914 0.12016148 0.023275187 -0.020244405 -0.113657445
-0.10053838 0.017204436 -0.071991295 0.1448447 0.1425438 -0.0146135185 0.09423132 -0.12998986
0.0234337 -0.067859285 -0.10032436 -0.12467446 0.062186807 0.14424202 0.10619235 0.114627436
0.035121247 0.10117751 0.061991297 -0.079725556 -0.041768197 0.117587045 0.06871038 -0.008718496
-0.018365959 -0.020722626 0.07695153 -0.122796535 -0.014901272 -0.06287548 -0.11494478 0.027278319
0.10423211 -0.0657871 -0.11031213 -0.08563875 -0.06685519 -0.0069682193 -0.10789237 0.14410377
0.1558114 -0.00019341992 0.088466644 0.050945915 -0.1544801 -0.07779963 0.11038855 0.12583366
-0.027967371 -0.07686555 0.10689139 -0.124234535 -0.016783949 -0.15797712 -0.086742274 -0.0526438
-0.11300908 0.12873322 0.12521297 0.1283292 -0.051826194 0.13241515 -0.08125116 -0.08319084
-0.063688315 0.09812378 -0.006903553 -0.1254832 -0.047602925 0.060017854 -0.057232022 0.14432144
-0.09139623 -0.06530891 -0.0167712 -0.076194905 -0.03500095 -0.110404804 0.022757588 -0.09287675
-0.0031761373 -0.15406094 0.036431752 -0.032356367 -0.13422352 0.0112373205 0.09958879 -0.075048365
0.008202894 -0.08727145 0.047849685 0.02215964 0.07972515 0.0613118 -0.15245964 0.08624994
-0.12851168 0.07767368 0.092012145 0.123711936 0.16445036 0.044071347 -0.14562224 -0.020026594
-0.102869585 -0.10560105 0.026463581 -0.13112982 0.14808597 0.11906526 0.09639664 -0.09103377
0.11466946 0.12475739 -0.015543222 0.06839282 0.12404713 0.14641087 -0.052519843 -0.032629065
-0.07509921 0.042721827 -0.10488692 -0.057694096 0.13277836 -0.032542784 0.07512482 -0.029684447
-0.16277285 0.11727413 0.12263716 -0.15371957 0.14261428 -0.070516065 -0.14200044 0.009937927
0.092567496 0.02046054 0.028694868 -0.1097041 -0.17489183 0.14906314 0.07420932 0.03559947
0.10069697 0.03733864 0.10474651 0.07316493 0.090293445 -0.16913404 0.0059525403 0.02031977
-0.16846763 -0.07137907 0.14071663 0.11462917 -0.025436724 0.012913871 -0.011497881 -0.078737855
0.1553282 0.1161562 0.13842537 0.123947635 -0.025981752 0.09774278 -0.07976961 -0.074624695
0.04829304 0.004466839 -0.13552447 0.11556141 -0.024548784 -0.12653571 0.09323483 -0.13614552
0.11810736 0.060144164 -0.13973135 -0.104001515 0.14010264 0.02291759 -0.13504584 -0.04822372
-0.13106467 -0.17319855 0.08726711 0.059772372 -0.015156452 -0.05731448 -0.16706507 0.1441362
0.004072818 -0.076301605 -0.05705569 0.009911025 -0.13622676 -0.11146049 0.15141964 -0.012019359
-0.1517592 -0.14044605 0.05293793 0.14694437 -0.16135809 0.17665987 -0.078241594 0.03541128
0.07043694 -0.053998694 0.10271349 0.0010180318 0.14503334 -0.09203298 0.14087221 -0.10413263
0.0075213206 -0.061570857 -0.14643167 -0.15843987 -0.14159273 0.14799947 -0.1508685 -0.05928315
0.015034583 -0.067497656 -0.15605646 0.03686948 -0.12294999 -0.10535966 -0.050161123 0.01819435
0.12991126 -0.046714563 0.112780906 -0.12119363 -0.097655036 0.018415809 -0.0889446 -0.14176373
00000000: 2bc0 e6b9 6189 183e 914e b4bd eb2c 863d
00000010: ba51 08be c8f6 b0bd a699 e9bd be02 e23d
00000020: 2125 d4bd 4063 cf3d 540c d3bd be75 86bb
00000030: 3917 f63d 9bab be3c 98d7 a5bc 3cc5 e8bd
00000040: 11e7 cdbd 51f0 8c3c 2c70 93bd 2b52 143e
00000050: 00f7 113e 8a6d 6fbc 5afc c03d 101c 05be
00000060: 08f8 bf3c cff9 8abd dc76 cdbd 5355 ffbd
00000070: 98b7 7e3d 2eb4 133e 607b d93d cac1 ea3d
00000080: 4cdb 0f3d 2836 cf3d 96ea 7d3d 2747 a3bd
00000090: 2115 2bbd 7ad1 f03d 07b8 8c3d 06d8 0ebc
000000a0: 3574 96bc 7fc2 a9bc c498 9d3d c07c fbbd
000000b0: 7724 74bc dcc4 80bd 2b68 ebbd c876 df3c
000000c0: a577 d53d 63bb 86bd 53eb e1bd 5e63 afbd
000000d0: 60eb 88bd a955 e4bb adf6 dcbd f08f 133e
000000e0: 068d 1f3e c4d0 4ab9 002e b53d aaac 503d
000000f0: 0830 1ebe 6a55 9fbd 6413 e23d 8ada 003e
00000100: d41b e5bc af6b 9dbd e0e9 da3d ad6e febd
00000110: 7e7e 89bc c1c4 21be efa5 b1bd 06a1 57bd
00000120: 4e71 e7bd a4d2 033e d437 003e bb68 033e
00000130: b447 54bd d697 073e 0267 a6bd f65f aabd
00000140: 056f 82bd 1ff5 c83d 3337 e2bb ab7e 00be
00000150: 49fb 42bd 48d5 753d 206c 6abd 00c9 133e
00000160: f22d bbbd aec0 85bd c163 89bc 130c 9cbd
00000170: 285d 0fbd ea1b e2bd 1f6e ba3c 2a36 bebd
00000180: be26 50bb 27c2 1dbe 7639 153d 1c88 04bd
00000190: e471 09be bd1c 383c 35f5 cb3d f5b2 99bd
000001a0: 6e65 063c 60bb b2bd 08fe 433d 2288 b53c
000001b0: f046 a33d 1522 7b3d 611e 1cbe cfa3 b03d
000001c0: 9198 03be 6113 9f3d dd70 bc3d af5c fd3d
000001d0: ad65 283e 2884 343d ff1d 15be d00e a4bc
000001e0: 4aad d2bd 5d45 d8bd 27ca d83c e546 06be
000001f0: d9a3 173e 7dd8 f33d 9a6b c53d ea6f babd
00000200: d2d7 ea3d cd80 ff3d 00a9 7ebc 8911 8c3d
00000210: 6c0c fe3d bbec 153e 0c1f 57bd 0ea6 05bd
00000220: 9dcd 99bd 15fd 2e3d f4ce d6bd a550 6cbd
00000230: 0df7 073e 954b 05bd 0bdb 993d cc2c f3bc
00000240: edad 26be 6b2d f03d 3129 fb3d aa68 1dbe
00000250: 7a09 123e ba6a 90bd 9068 11be b0d2 223c
00000260: 0794 bd3d dd9c a73c 8011 eb3c 8bac e0bd
00000270: d816 33be 02a4 183e 0efb 973d c0d0 113d
00000280: 373a ce3d 67f0 183d 5785 d63d 7fd7 953d
00000290: c5eb b83d 7931 2dbe 870d c33b a575 a63c
000002a0: c782 2cbe 312f 92bd 0518 103e b3c2 ea3d
000002b0: ad60 d0bc b394 533c 9c61 3cbc 5041 a1bd
000002c0: 5b0e 1f3e 4de3 ed3d 61bf 0d3e 42d8 fd3d
000002d0: afd7 d4bc 5e2d c83d 405e a3bd d5d4 98bd
000002e0: ecce 453d 905e 923b edc6 0abe 76ab ec3d
000002f0: 881a c9bc 9492 01be e7f1 be3d bb69 0bbe
00000300: 46e2 f13d ba59 763d bc15 0fbe bffe d4bd
00000310: 1177 0f3e abbd bb3c 7549 0abe 3c86 45bd
00000320: d135 06be f65a 31be 19b9 b23d e0d3 743d
00000330: c452 78bc 97c2 6abd 1b13 2bbe 7198 133e
00000340: 4675 853b 0444 9cbd 3ab3 69bd da61 223c
00000350: 077f 0bbe 6645 e4bd c00d 1b3e d8ec 44bc
00000360: c466 1bbe 17d1 0fbe 71d5 583d 9678 163e
00000370: 0e3b 25be 53e6 343e 213d a0bd 6b0b 113d
00000380: 3e41 903d bc2d 5dbd 735b d23d 7b6f 853a
00000390: 9f83 143e c97b bcbd ce40 103e 7d43 d5bd
000003a0: 6975 f63b b931 7cbd 2ff2 15be 103e 22be
000003b0: affd 10be 2c8d 173e 467d 1abe e3d2 72bd
000003c0: 9d53 763c 363c 8abd 44cd 1fbe 7404 173d
000003d0: 34cd fbbd cec6 d7bd c075 4dbd 510c 953c
000003e0: 7507 053e c557 3fbd adf9 e63d 5e34 f8bd
000003f0: 5dff c7bd c0dc 963c 9628 b6bd 832a 11be

model_6/dense_13/MatMul f4 [1, 10]
-0.11513203 0.41142842 0.09040398 0.5784438 -0.21805315 -0.11492821 -0.1993938 0.26532415
-0.35194546 0.28890097
00000000: 57ca ebbd bfa6 d23e b925 b93d e514 143f
00000010: 5349 5fbe 7b5f ebbd e32d 4cbe 91d8 873e
00000020: 3232 b4be d4ea 933e
