src/main/assets/7.tflite (tflite, 28664 bytes, 12 tensors)

model_7/conv2d_15/BiasAdd;model_7/conv2d_15/Conv2D;model_7/conv2d_15/BiasAdd/ReadVariableOp/resource f4 [12]
0	0xbc8f9804	-0.017528541
1	0xbc3ce07d	-0.011528132
2	0xba65ff40	-0.0008773692
3	0xbb186955	-0.0023256142
4	0x3b8f98a7	0.0043822112
5	0x3a2b1f28	0.0006527775
6	0xbd278942	-0.040902384
7	0x3a8c8c4a	0.0010722962
8	0x3c793710	0.015210882
9	0x3ac31843	0.001488455
10	0x3cbd22bb	0.02308785
11	0x3c1ddfef	0.009635909

model_7/conv2d_14/BiasAdd;model_7/conv2d_14/Conv2D;model_7/conv2d_14/BiasAdd/ReadVariableOp/resource f4 [4]
0	0xbba4ade2	-0.0050256113
1	0x3b8b814a	0.004257356
2	0x3bab842e	0.005234263
3	0x3b187426	0.002326259

model_7/conv2d_15/Conv2D f4 [12, 1, 11, 4]
0	0x3d1a19d7	0.0376223
1	0x3c3e29e5	0.011606668
2	0xbd09870b	-0.033576053
3	0xbe0f284a	-0.13980213
4	0x3d09db85	0.033656616
5	0xbde65316	-0.11246316
6	0x3d8a81ae	0.06763016
7	0x3c65e921	0.014032633
8	0x3e077008	0.1322633
9	0x3e272194	0.16321403
10	0x3d7f412e	0.06231802
11	0xba96e7e8	-0.0011513205
12	0xbe20a7cc	-0.1568901
13	0xbe0810e8	-0.13287699
14	0x3e153a86	0.14573106
15	0xbe16bb3a	-0.14719859
16	0xbde94c22	-0.11391474
17	0x3c8bf3bf	0.017084
18	0x3dc6f255	0.0971419
19	0xbe3da088	-0.18518269
20	0x3db0e68b	0.086377226
21	0xbccc5299	-0.02494173
22	0xbe3fef94	-0.18743736
23	0x3dde1b51	0.10845054
24	0x3e10a7c9	0.14126505
25	0x3e297089	0.16546835
26	0x3d343025	0.043991227
27	0x3da2cc6f	0.07949149
28	0xbd60c7a8	-0.054877907
29	0xbddbe7ac	-0.10737547
30	0xbe28b6ac	-0.16475934
31	0xbdf5d54d	-0.120035745
32	0xbdabfe5e	-0.08398126
33	0xbe01b668	-0.12667239
34	0xbcf4c54d	-0.029879237
35	0x3d0aaa46	0.03385379
36	0x3c77cdbc	0.0151247345
37	0xbd82e0dc	-0.06390545
38	0x3db50332	0.088385
39	0xbe28aac7	-0.16471396
40	0x3e4768a4	0.19473511
41	0x3e1c0a33	0.15238266
42	0xbdbc935c	-0.09207794
43	0xbda7596a	-0.08171351
44	0x3e280e3f	0.16411684
45	0x3dd9ca3c	0.10634276
46	0xbe13ad3f	-0.14421557
47	0x3dc37b12	0.09544958
48	0xbd8684b2	-0.06568278
49	0xbdd20d58	-0.10256451
50	0xbd8f6a33	-0.07002678
51	0xbdc7ffb7	-0.097655706
52	0xbcb1e79d	-0.021716887
53	0xbe133e6a	-0.14379278
54	0x3d5382ab	0.051638287
55	0xbcc663d4	-0.024217524
56	0xbd91e353	-0.07123437
57	0x3df34336	0.11878054
58	0x3da95152	0.08267464
59	0x3e1f27fe	0.155426
60	0xbcff7271	-0.0311825
61	0xbc7d9610	-0.015477672
62	0xbe070418	-0.13185155
63	0x3cd7ffa8	0.026367024
64	0x3e4622db	0.19349234
65	0xbd4daa6a	-0.050211348
66	0xbd15bf51	-0.036559407
67	0xbe405f2c	-0.18786305
68	0xbe232ce8	-0.15935099
69	0xbc06b453	-0.008221704
70	0x3e004b13	0.12528639
71	0x3e121007	0.14263926
72	0xbe0dabb6	-0.13835034
73	0xbccd49fb	-0.02505969
74	0x3ce0d6ff	0.027446268
75	0x3de2b024	0.110687524
76	0x3e31b995	0.1735595
77	0x3e001fed	0.12512179
78	0xbd5b848b	-0.0535932
79	0xbce9b511	-0.028528722
80	0xbe10e8a7	-0.1415125
81	0x3de32c3d	0.11092422
82	0x3d54661f	0.051855203
83	0xbb4aeaec	-0.0030962778
84	0x3cd65fbe	0.0261687
85	0xbc05f006	-0.008174902
86	0xbe11afbd	-0.14227195
87	0x3e014cba	0.12626925
88	0x3c73382f	0.014844938
89	0x3ce43657	0.027857943
90	0xbd3d2860	-0.046181083
91	0x3df06675	0.11738292
92	0x3e1f245a	0.15541211
93	0xbdedba32	-0.116077796
94	0x3dbdd197	0.09268492
95	0xbca03865	-0.019558141
96	0x3e01a786	0.12661561
97	0x3db2d090	0.087311864
98	0xbe02f280	-0.12787819
99	0xbdbca704	-0.09211543
100	0xbb1dd776	-0.0024084724
101	0xbde7b848	-0.11314446
102	0xbd9bd293	-0.07608523
103	0x3e28955c	0.16463226
104	0x3df7600a	0.12078865
105	0xbe18a30e	-0.1490595
106	0xbc856d40	-0.016287446
107	0x3de1f0d2	0.11032261
108	0x3da44294	0.08020511
109	0xbe34b914	-0.17648727
110	0x3da9b885	0.082871474
111	0xbe2d52ef	-0.16926168
112	0xbdbf3ddc	-0.093379706
113	0xbdbf429f	-0.09338879
114	0xbd9b18e5	-0.07573108
115	0xbe202c35	-0.15641864
116	0x3dea3eac	0.11437735
117	0xbd7150a3	-0.05891479
118	0x3d834d02	0.064111724
119	0xbce291d4	-0.027657427
120	0x3d580b3f	0.0527451
121	0xbe05564f	-0.13021205
122	0x3c0f74a6	0.0087558385
123	0x3ded3ff6	0.11584465
124	0xbd99a867	-0.07502823
125	0x3e15c98f	0.1462767
126	0x3e05855f	0.13039158
127	0xbe0152c2	-0.12629226
128	0x3d270cda	0.04078374
129	0x3df30160	0.11865497
130	0x3dd0d01a	0.10195942
131	0x3e023a87	0.12717639
132	0xbe21ea77	-0.15812097
133	0xbbb324c8	-0.005467031
134	0xbdbd03e2	-0.09229256
135	0x3e04fcaf	0.12987016
136	0xbdab4712	-0.08363165
137	0x3e30dc05	0.17271431
138	0xbc2a2092	-0.010383742
139	0x3d60916a	0.054826178
140	0xbddd0cad	-0.10793433
141	0x3ddc9191	0.10769952
142	0xbaf94cef	-0.001902012
143	0x3e0eb7df	0.13937329
144	0xbd37417b	-0.04474018
145	0x3da2f47f	0.0795679
146	0x3df0b298	0.11752814
147	0x3e306f26	0.172299
148	0xbe098d2f	-0.13432764
149	0xbdd3cfc7	-0.10342365
150	0x3be0f64b	0.006865298
151	0xbd7757ab	-0.06038634
152	0x3d18e40d	0.03732686
153	0x3ce90fa3	0.028449839
154	0xbe359287	-0.17731677
155	0xbd308e8a	-0.043104686
156	0xbe17e5da	-0.14833775
157	0x3d096ada	0.033549167
158	0x38d73d0c	0.0001026337
159	0xbddb3851	-0.10704101
160	0xbd889d31	-0.06670607
161	0xbe02facc	-0.12790984
162	0x3ddef2f6	0.10886185
163	0x3d1315ed	0.035909582
164	0xbd546a17	-0.051858988
165	0xbdf86217	-0.12128084
166	0x3dcb943c	0.09940383
167	0x3dc1d658	0.09464711
168	0xbe343357	-0.1759771
169	0xbcfe6134	-0.03105221
170	0x3e1228d5	0.14273389
171	0x3dec3a09	0.11534507
172	0x3df0d964	0.11760214
173	0x3b844078	0.0040360056
174	0xbdcb46f0	-0.0992564
175	0x3e11ae19	0.14226569
176	0xbdc87278	-0.09787458
177	0x3d463f53	0.048400234
178	0xbc8be4d7	-0.017076893
179	0xbe2c5691	-0.16829897
180	0xbdfebc9e	-0.124383196
181	0xbdf1f82c	-0.11814913
182	0x3e23c382	0.15992549
183	0x3e0987cc	0.13430709
184	0x3e41275a	0.18862668
185	0xbd98c451	-0.074593194
186	0xbe68bc71	-0.22728135
187	0x3dcfcadd	0.10146115
188	0x3cda40ef	0.02664229
189	0x3c0738be	0.0082532745
190	0xbe50ffc2	-0.20410064
191	0x3e2d89c2	0.16947082
192	0xbe421630	-0.18953776
193	0xbd981440	-0.074257374
194	0x3dc80766	0.09767036
195	0x3c6c58ba	0.014425451
196	0xbc0f0b81	-0.00873077
197	0xbd3fd540	-0.04683423
198	0xbcf5d473	-0.03000853
199	0x3dbb0284	0.09131339
200	0x3cfb7d2a	0.030699331
201	0x3d09f476	0.0336804
202	0x3e2004d9	0.15626849
203	0xbe314855	-0.17312749
204	0xbd33e693	-0.043921065
205	0x3c1b7be9	0.009489992
206	0xbdaff307	-0.08591276
207	0x3e441655	0.19149144
208	0xbda334c5	-0.07969049
209	0x3da37b8b	0.07982548
210	0xbd4a783b	-0.049431067
211	0xbd1ce218	-0.038301557
212	0xbe354dcd	-0.1770546
213	0x3dacaf2c	0.08431849
214	0x3dcf110f	0.101106755
215	0xbd8a2a38	-0.06746334
216	0xbd8a5d2e	-0.06756054
217	0x3e21e2c1	0.15809156
218	0xbcac72b8	-0.021050796
219	0xbe1f4871	-0.15554978
220	0xbd66d6c6	-0.056357168
221	0x3e059adc	0.13047355
222	0xbdabb8a3	-0.08384826
223	0xbc447054	-0.011989672
224	0xbe24b2cb	-0.16083829
225	0xba51fb5e	-0.0008010174
226	0xbdbda76b	-0.09260448
227	0x3da818bb	0.08207842
228	0xbdfffde8	-0.12499601
229	0x3dc1e0df	0.09466719
230	0xbdce219a	-0.10065003
231	0x3d92fe69	0.07177431
232	0xbe1286cf	-0.14309238
233	0x3de69a4e	0.112599
234	0xbdf4bd81	-0.119502075
235	0x3b1d4ebf	0.0024003235
236	0x3dd1e688	0.102490485
237	0xbe25c071	-0.16186692
238	0xbcc300b9	-0.023804056
239	0x3dafc02f	0.08581578
240	0x3e282ddb	0.16423742
241	0xbe2ae3e6	-0.16688499
242	0xbe3abb46	-0.18235502
243	0x3dc70faf	0.09719788
244	0x3d4a8303	0.04944135
245	0xbc80fb3a	-0.015744794
246	0xbd5b71d3	-0.053575348
247	0xbd8678e6	-0.06566028
248	0x3e356052	0.17712525
249	0x3df05b36	0.11736147
250	0x3d96f57c	0.07371041
251	0xbd4508d4	-0.048104122
252	0xbe29b522	-0.16573003
253	0xbcf456b2	-0.029826496
254	0x3de9a6c8	0.11408764
255	0xbdf03d43	-0.11730435

model_7/conv2d_14/Conv2D f4 [4, 4, 38, 1]
0	0x3cb3bf14	0.0219417
1	0x3d80d068	0.0628975
2	0x3d99b2a0	0.07504773
3	0x3c80e882	0.015735868
4	0x3c972b11	0.018453153
5	0x3da851c4	0.082187206
6	0xbd5ffa9d	-0.054682363
7	0xbd3edb20	-0.046595693
8	0xbd3f8d84	-0.04676582
9	0xbd50b8f5	-0.05095764
10	0x3d64120c	0.055681273
11	0x3ccb2355	0.024797121
12	0x3c9b82bb	0.018983236
13	0xbc9516d1	-0.018199356
14	0xbd9efca4	-0.07763031
15	0x3d94d466	0.07267074
16	0xbd084886	-0.03327229
17	0x3d3a8224	0.045534268
18	0xbd130e55	-0.03590234
19	0xbb8ca325	-0.0042919093
20	0x3d82cc0c	0.06386575
21	0x3d04868d	0.03235488
22	0xbd6a0395	-0.057132322
23	0xbd7acde6	-0.061231516
24	0xbd8a65fa	-0.06757732
25	0xbd22b153	-0.03971989
26	0xbda9317f	-0.08261394
27	0x3d044f3a	0.03230212
28	0xbd326e0b	-0.043561976
29	0xbd4c7510	-0.049916327
30	0x3d1853dd	0.037189353
31	0xbb9a682d	-0.0047121258
32	0xbbdba3f1	-0.006702893
33	0x3cf39f71	0.029739114
34	0x3b88470f	0.0041588615
35	0xbc6cf9f3	-0.014463889
36	0x3a376cb0	0.00069970917
37	0xbd11222b	-0.035432976
38	0xbda166d5	-0.07880942
39	0xbdc8b6b4	-0.09800473
40	0xbd1a0d7a	-0.03761051
41	0x3c7673c7	0.015042252
42	0xbc0cfff2	-0.008605944
43	0x3d2a5745	0.041587133
44	0xbd291e1d	-0.041288484
45	0x3cb5a886	0.022175085
46	0xbcb075d3	-0.021540558
47	0xbd15ab6d	-0.036540437
48	0xbcce0cf4	-0.02515266
49	0xbdb8096f	-0.08986174
50	0x3cd53dc9	0.026030438
51	0xbcdc05cc	-0.026858233
52	0x3d749034	0.059707835
53	0x3d5ea5d7	0.054357376
54	0x3cc15ac6	0.023602854
55	0x3d453ce3	0.04815377
56	0x3d97a08e	0.0740367
57	0xbd2472a5	-0.040148396
58	0x3db46a6e	0.08809362
59	0x3c4ec482	0.012620093
60	0x3c61aeea	0.013774613
61	0x3cb1eb44	0.021718629
62	0x3bcbcd07	0.0062195095
63	0xbd963b24	-0.07335499
64	0xbcefcbb6	-0.029271942
65	0x3d271894	0.040794924
66	0x3d99f187	0.07516771
67	0x3c078436	0.008271268
68	0xbd870667	-0.06593018
69	0xbc83ef72	-0.016105387
70	0xbd0e5438	-0.034748286
71	0xbdcb1643	-0.099163555
72	0xbca31ec5	-0.019912133
73	0xbcd3e34a	-0.025865216
74	0xbd82f672	-0.06394662
75	0xbd2bafd6	-0.041915737
76	0xbbece367	-0.007229257
77	0xbcfcf5ce	-0.030878928
78	0xbd05e19c	-0.03268586
79	0xbc86999c	-0.016430669
80	0x3da02766	0.07820015
81	0x3d784ea7	0.060621884
82	0x3d0354ed	0.032063413
83	0xba98e14b	-0.0011663822
84	0x3bbd0524	0.005768435
85	0xbcad8f8a	-0.021186609
86	0xbd6c4ab4	-0.05768843
87	0xbcf4923e	-0.02985489
88	0x3d99012e	0.07470928
89	0x3d44bd93	0.048032355
90	0xbcd7fa64	-0.026364513
91	0xbd9b56e0	-0.075849295
92	0x3ac61bc9	0.0015114482
93	0x3d3b107b	0.045670014
94	0xbd40ec72	-0.04710049
95	0x3d900c57	0.07033604
96	0x3d5b6e28	0.05357185
97	0xbd807068	-0.0627144
98	0xbcb63f40	-0.022246957
99	0xbd6223a5	-0.055209775
100	0x3da522b0	0.08063257
101	0xbccc5a9e	-0.024945553
102	0x3d41368a	0.047171153
103	0xbd697639	-0.05699751
104	0x3b1e6b61	0.002417289
105	0xb9bc159a	-0.0003587425
106	0x3be9ae84	0.0071313996
107	0xbd28498f	-0.041085776
108	0xbdaa1f2b	-0.08306726
109	0xbc6d7c15	-0.0144949155
110	0x3d92a728	0.07160789
111	0x3c948c62	0.018133346
112	0xba3db779	-0.00072371174
113	0x3da068af	0.07832467
114	0xbd094e80	-0.03352213
115	0xbdc63cf0	-0.09679592
116	0xbc4ddcc4	-0.012564842
117	0x3d904f8c	0.07046422
118	0x3d2f9e90	0.042875826
119	0xbd71026a	-0.058840193
120	0xbd8df087	-0.069306426
121	0x3d57a341	0.052645925
122	0xbc27cac6	-0.010241216
123	0x3d97a36e	0.074042186
124	0x3cdcef74	0.026969649
125	0x3bd8c2cd	0.006615019
126	0x3d820799	0.063491054
127	0xbc9c4fce	-0.019081023
128	0xbcc555bc	-0.024088733
129	0x3db52b2e	0.088461265
130	0x3bb1968d	0.0054195584
131	0xbd8352a8	-0.0641225
132	0x3d5b09db	0.053476196
133	0x3d46d47a	0.048542477
134	0xbd2f4557	-0.042790737
135	0xbda79419	-0.08182544
136	0xbd9cb0d4	-0.07650915
137	0x3d9b9dc2	0.07598449
138	0x3d0888f8	0.03333375
139	0xbd55bda2	-0.0521828
140	0xbd201ae3	-0.03908814
141	0x3cd83291	0.0263913
142	0xbc53cbc0	-0.012926996
143	0x3d78a8c7	0.060707834
144	0x3d17c0b4	0.03704901
145	0xbcbc4249	-0.022980826
146	0x3d002e87	0.031294372
147	0x3d1d6e5f	0.038435336
148	0x3d2c68a0	0.042091966
149	0xbd97f323	-0.074194215
150	0xbd9f8bdd	-0.07790349
151	0xbd9379f5	-0.07200996
152	0x3d966e89	0.07345302
153	0x3d87488d	0.06605635
154	0xbd10e15d	-0.035371173
155	0x3df9d2df	0.121984236
156	0x3c7ec507	0.015549905
157	0xbd3f5645	-0.046713132
158	0x3d83341d	0.06406424
159	0x3d969ef7	0.07354539
160	0xbd2f6675	-0.04282232
161	0xbdbff024	-0.09371975
162	0xbc6c7028	-0.014431037
163	0xbd5d9c2f	-0.054104026
164	0xbd8bc235	-0.068241514
165	0x3d970dab	0.07375654
166	0x3a5f8495	0.0008526531
167	0x3d9cf21e	0.07663368
168	0x3a901095	0.001099127
169	0x3c6d2e10	0.014476314
170	0x3c94503b	0.018104663
171	0xbd70281b	-0.058631998
172	0xbdd7465b	-0.10511466
173	0xbb634bef	-0.003468271
174	0xbce201d2	-0.027588759
175	0xbd0b314a	-0.033982553
176	0x3cf9046f	0.030397622
177	0xbcc38387	-0.023866428
178	0x3d9f7a0d	0.07786951
179	0x3ccc901c	0.02497106
180	0xbd515672	-0.05110783
181	0xbba8eb17	-0.005154978
182	0xbc120f81	-0.008914829
183	0x3c5ba934	0.01340704
184	0x3d38d116	0.045121275
185	0xbd9a5f41	-0.075376995
186	0x3d910d11	0.0708257
187	0xbcba7b01	-0.022763731
188	0xbd6e31f2	-0.0581531
189	0xbd309e36	-0.04311963
190	0x3db4a186	0.08819871
191	0xbc793931	-0.015211389
192	0x3df78c35	0.12087289
193	0x3cf61f05	0.030044088
194	0x3dad6084	0.084656745
195	0x3d7167d9	0.058936927
196	0x3c81454b	0.015780112
197	0xbc0075a6	-0.00784055
198	0xbdafc693	-0.08582797
199	0xbc4b31ee	-0.012402041
200	0xbbbe1d88	-0.0058018602
201	0xbd8e7d58	-0.06957501
202	0x3d29cb80	0.04145384
203	0xbd15fc3f	-0.036617514
204	0xbcd7e9a0	-0.026356518
205	0x3d31bc49	0.043392453
206	0xbaed1022	-0.0018086473
207	0x3c39aacc	0.011332225
208	0xbd61def9	-0.055144284
209	0x3c0e4cf4	0.008685339
210	0xbd91922f	-0.071079604
211	0xbd071fd8	-0.032989353
212	0xbc3d310d	-0.011547339
213	0x3d5ff2b5	0.054674823
214	0xbc9af83b	-0.018917194
215	0x3cec065f	0.028811632
216	0xbd1fcd67	-0.039014246
217	0xbd8b54de	-0.068032965
218	0x3cea18bf	0.028576253
219	0xbd5f829f	-0.05456793
220	0x3ca823bb	0.02052485
221	0xbd6403cc	-0.055667683
222	0xbceb1b83	-0.028699642
223	0x3d8d6b85	0.06905273
224	0x3d62eb88	0.0554004
225	0x3c7af754	0.015317757
226	0x3c324433	0.010880518
227	0x3ccbd7d8	0.024883196
228	0xbc102b3e	-0.008799372
229	0xbd0758f0	-0.0330438
230	0x3d9d7a0d	0.07689295
231	0xbc6654af	-0.014058276
232	0x3dadee56	0.084927246
233	0x3cde6f08	0.027152553
234	0x3da7ca70	0.08192909
235	0x3dae3e18	0.08507937
236	0xbc218a28	-0.009859599
237	0xbdabc76b	-0.08387645
238	0xbd7b6c65	-0.06138267
239	0xbd459ef2	-0.048247285
240	0x3d841cfd	0.064508416
241	0x3ca93ec9	0.020659821
242	0x3dab1a24	0.08354595
243	0xbd6b0ba8	-0.057384163
244	0x3d6dda5a	0.058069564
245	0x38a4ae38	7.85258e-05
246	0x3cd2ee74	0.025748469
247	0xbd7c10d5	-0.06153949
248	0xbdc3120e	-0.09524928
249	0xbd9e1883	-0.07719519
250	0xbcdb5283	-0.026772743
251	0xbdaf41b2	-0.08557452
252	0x3dc3278a	0.09529026
253	0xbd4682c7	-0.048464563
254	0x3cd48434	0.025941946
255	0x3c294c6d	0.010333163

model_7/dense_14/BiasAdd/ReadVariableOp/resource f4 [10]
0	0x3c514ca9	0.012774625
1	0xbcdf7c2d	-0.027280891
2	0x3c4f61c3	0.012657586
3	0x3c8f47b9	0.017490255
4	0xbc936215	-0.017991105
5	0xbb6871f9	-0.0035468324
6	0xbc6b9e9f	-0.01438108
7	0x39d16286	0.00039936992
8	0xbbadb715	-0.005301366
9	0xbbc5bc15	-0.006034384

model_7/layer_normalization_21/add/ReadVariableOp/resource f4 [4]
0	0x3cc7c422	0.024385516
1	0x3c78f537	0.0151951825
2	0xbc6a909c	-0.014316704
3	0xba83040b	-0.0009995712

model_7/layer_normalization_21/mul_4/ReadVariableOp/resource f4 [4]
0	0x3f7a3dc1	0.9775048
1	0x3f7daf90	0.9909601
2	0x3f89e7e3	1.0773891
3	0x3f7c5375	0.98564845

model_7/layer_normalization_22/add/ReadVariableOp/resource f4 [12]
0	0xbb671d70	-0.003526535
1	0xbb8ca0eb	-0.004291644
2	0xbbeef6f9	-0.007292625
3	0x39a0967e	0.00030629704
4	0x3bd7a064	0.0065803993
5	0x3a0a15de	0.00052675407
6	0xbc9d8928	-0.01923044
7	0x3b1cf9d5	0.0023952622
8	0x3c1af3dc	0.009457555
9	0x3b56268c	0.0032676784
10	0x3cb31832	0.021862123
11	0xbc27165b	-0.010198201

model_7/layer_normalization_22/mul_4/ReadVariableOp/resource f4 [12]
0	0x3f8063ca	1.0030453
1	0x3f78c885	0.9718097
2	0x3f817068	1.0112429
3	0x3f7ff03c	0.99975944
4	0x3f822113	1.0166343
5	0x3f7f9267	0.9983277
6	0x3f8083ea	1.0040257
7	0x3f817598	1.0114012
8	0x3f7e02b7	0.9922289
9	0x3f7f7930	0.9979429
10	0x3f80a47b	1.0050195
11	0x3f80048c	1.0001388

model_7/layer_normalization_23/mul_2/ReadVariableOp/resource f4 [10]
0	0x3f78929f	0.97098726
1	0x3f809ce2	1.0047877
2	0x3f736eae	0.9509076
3	0x3f78080c	0.9688728
4	0x3f80244b	1.0011076
5	0x3f7767cd	0.9664276
6	0x3f807e1c	1.0038486
7	0x3f76b2d4	0.9636662
8	0x3f767ffb	0.9628903
9	0x3f7a01cc	0.9765899

model_7/dense_14/MatMul f4 [10, 228]
0	0xbd10134d	-0.035174657
1	0xbdcc52eb	-0.09976753
2	0xbc4a030c	-0.012329828
3	0x3dd2f8ee	0.10301386
4	0x3d0694bf	0.0328567
5	0xbd749986	-0.059716724
6	0xbcc096b6	-0.023509365
7	0xbd8bdc98	-0.06829184
8	0xbd6f8012	-0.058471747
9	0xbd48107f	-0.048843857
10	0x3d85fb1b	0.06542035
11	0xbe0e8b1a	-0.1392025
12	0xbde4731d	-0.111547686
13	0xbd906e46	-0.07052283
14	0x3cdcdb11	0.026959928
15	0x3dfc47c6	0.12318377
16	0x3ba3c046	0.004997286
17	0x3d1202f4	0.035647348
18	0xbcd1c623	-0.025607174
19	0xbcb2c67f	-0.021823166
20	0x3c815ede	0.015792307
21	0x3dc87179	0.09787268
22	0x3cc95bbb	0.024579873
23	0x3db6d68f	0.089276426
24	0xbddf2886	-0.10896401
25	0x3ca81a42	0.020520333
26	0xbd8bc2f6	-0.06824295
27	0x3da5e1e6	0.08099727
28	0xbdc0f355	-0.09421412
29	0xbb9d6b87	-0.004804078
30	0xbdee5ae3	-0.11638429
31	0x3e110500	0.14162064
32	0xbce28d27	-0.027655197
33	0x3dca1fdc	0.09869358
34	0xbdfc055d	-0.123057105
35	0xbccf837e	-0.025331255
36	0x3d928286	0.071538016
37	0x3e056b1f	0.13029145
38	0x3dc7f6d5	0.09763876
39	0xbb53746a	-0.0032265433
40	0xbe077ac0	-0.13230419
41	0x3d325315	0.043536264
42	0xbdcf8b05	-0.10133938
43	0x3e29414d	0.16528817
44	0x3c60495a	0.013689363
45	0xbe0bdce4	-0.13658482
46	0xbc8399a9	-0.016064482
47	0x3bbcf4ef	0.005766503
48	0xb9da3cfe	-0.00041625643
49	0x3e0c0e2f	0.13677286
50	0xbcf5e22b	-0.030015072
51	0x3d52e01f	0.05148327
52	0x3e05ec35	0.13078387
53	0x3e129bc6	0.14317235
54	0x3c89fb51	0.01684347
55	0xbd88be55	-0.06676928
56	0x3d86f390	0.065894246
57	0x3dd15eab	0.102231346
58	0x3e2dd780	0.16976738
59	0xbe1f8d50	-0.1558125
60	0xbe1d0257	-0.15332924
61	0x3e20e65f	0.1571288
62	0xbcd2a050	-0.025711209
63	0xbd90a3ce	-0.07062493
64	0x3e2919c8	0.16513741
65	0x3d8130a6	0.06308107
66	0x3d60becc	0.054869458
67	0x3d8b9875	0.06816188
68	0xbdcbf1c9	-0.09958226
69	0x3db48e1c	0.08816168
70	0xbd41dedd	-0.04733168
71	0xbd8964dc	-0.067086905
72	0xbcbae5fd	-0.022814745
73	0x3debf357	0.11521023
74	0xbc3e5871	-0.011617766
75	0x3e1b13a7	0.15144216
76	0x3bad3c0c	0.005286699
77	0xbe20963b	-0.15682308
78	0xbe012dc6	-0.12615117
79	0x3dd49043	0.10379078
80	0x3e0fc10d	0.14038487
81	0xbda32be2	-0.07967354
82	0xbe0fdb19	-0.14048423
83	0xbd29b411	-0.04143149
84	0xbe0f02fb	-0.1396598
85	0x3d135acb	0.03597526
86	0x3db661a4	0.08905342
87	0x3e06f69d	0.13180013
88	0x3cf34332	0.029695127
89	0xbdc777e5	-0.09739665
90	0xbd79c51f	-0.060979005
91	0xbd3fecbf	-0.046856638
92	0x3d881972	0.06645478
93	0x3d4b4b70	0.04963249
94	0xbdd48dc6	-0.10378604
95	0xbbdfa90e	-0.006825573
96	0xbe13b8cd	-0.14425965
97	0x3db8a9c3	0.090167545
98	0xbdbce40f	-0.09223186
99	0xbe0d974d	-0.13827248
100	0x3bc4c29b	0.006004644
101	0x3c999300	0.018746853
102	0x3d43d803	0.047813427
103	0x3daf264d	0.08552227
104	0xbd9e8bc9	-0.07741506
105	0x3db7c25c	0.08972618
106	0x3d56eec0	0.052473783
107	0x3d160d76	0.03663393
108	0x3d9293c2	0.07157089
109	0x3e19054e	0.1494343
110	0xbe1fb22b	-0.1559531
111	0xbd4bd36f	-0.049762186
112	0x3b160a33	0.0022894263
113	0x3d787a79	0.060663674
114	0xbd95e27f	-0.07318591
115	0xbc8681c9	-0.016419308
116	0xbd89bc92	-0.0672542
117	0x3de55c63	0.11199262
118	0x3d093f7c	0.03350781
119	0xbe1f3f99	-0.15551604
120	0x3c5a5aae	0.013327284
121	0x3ddf7c22	0.10912348
122	0xbe00c2e6	-0.12574348
123	0x3d8cf952	0.068834916
124	0x3d98f5ae	0.07468735
125	0xbe217f79	-0.15771283
126	0xbd6c8951	-0.057748143
127	0x3b9c43c7	0.004768822
128	0xbda69ac4	-0.08134988
129	0x3d66c947	0.056344297
130	0xbde0c583	-0.10975172
131	0x3c7edf0a	0.015556106
132	0x3dbd53f7	0.09244531
133	0xbd903886	-0.07042031
134	0xbe1dc7b3	-0.1540821
135	0x3d657589	0.056020293
136	0x3dbe50e8	0.092927754
137	0x3d966e5b	0.073452674
138	0x3e0927ba	0.1339406
139	0x3dc1356c	0.094340175
140	0xbe0afc20	-0.1357274
141	0xbd7e8cf0	-0.062146127
142	0xbdd59342	-0.10428478
143	0xbdab785e	-0.083725676
144	0xbd892426	-0.06696348
145	0xbd8f562e	-0.06998859
146	0x3d8da31a	0.06915875
147	0x3deaae3e	0.11459015
148	0x3da489a9	0.08034069
149	0x3e0c150e	0.13679907
150	0xbd411ad6	-0.047144733
151	0x3d8b4fcf	0.06802332
152	0x3c1b793b	0.009489353
153	0xbd9e42c5	-0.07727579
154	0x3e0e6756	0.13906607
155	0xbdf4f73c	-0.11961219
156	0xbdc9bb6e	-0.098502025
157	0xbd18f979	-0.03734729
158	0xbd98e586	-0.07465653
159	0x3dcde3ac	0.100531906
160	0x3d9e1ab8	0.0771994
161	0x3d17ea71	0.037088815
162	0x3dbdd813	0.092697285
163	0x3cb282da	0.02179091
164	0x3d610860	0.054939628
165	0x3daf4bce	0.085593805
166	0x3dcc53d1	0.09976924
167	0xbdb85bc6	-0.090018794
168	0xbcb6a90d	-0.022297407
169	0x3d547e66	0.051878355
170	0xbd1fd6ba	-0.03902314
171	0x3a9b6d64	0.0011858162
172	0xbd01c19d	-0.031678785
173	0xbd747173	-0.059678506
174	0x3d5f01dc	0.054445133
175	0x3e0ebb0c	0.1393854
176	0x3e0fe671	0.1405275
177	0xbe0417cd	-0.12899704
178	0x3dc9e7ca	0.098586634
179	0xbd61df80	-0.055144787
180	0x3b96cf92	0.004602381
181	0x3baa7318	0.0052017085
182	0xbe1a6971	-0.15079285
183	0x3daf46e7	0.085584454
184	0xbc696e17	-0.014247439
185	0x3cd794ab	0.026316008
186	0xbe026613	-0.1273425
187	0x3db11a88	0.086476386
188	0x3d13f8ac	0.036125824
189	0x3d8dc5f1	0.0692252
190	0x3d64e410	0.05588156
191	0x3c8b86f9	0.017032133
192	0x3da64098	0.08117789
193	0xbe03a7c7	-0.1285697
194	0xbe2500dc	-0.16113609
195	0x3e298d7a	0.16557875
196	0xbc537503	-0.012906316
197	0xbe029b0a	-0.12754455
198	0x3dd67074	0.104706675
199	0xbcdfaa7b	-0.027302971
200	0xbc116f49	-0.00887663
201	0x3dd1dc0c	0.10247049
202	0x3e1cd5b6	0.15315899
203	0x3debbe0a	0.115108564
204	0x3dc1dccd	0.094659425
205	0xbd97bc14	-0.0740892
206	0x3de205b7	0.11036246
207	0xbd72d030	-0.059280574
208	0x3dc3a848	0.095535815
209	0xbe0e2af1	-0.13883568
210	0xbad350bc	-0.0016122083
211	0xbdb67b10	-0.08910191
212	0x3d8814e7	0.06644612
213	0xbde834ab	-0.113381706
214	0x3cae4f7c	0.021278135
215	0x3d9c1137	0.07620471
216	0x3df41de0	0.11919761
217	0x3e01f58e	0.12691328
218	0xbdb6ad47	-0.08919769
219	0x3dcd9960	0.100390196
220	0xbd96a29c	-0.07355234
221	0xbdc54151	-0.09631599
222	0xbd534ee2	-0.0515889
223	0x3dcffa68	0.10155183
224	0x3d472a1f	0.048624154
225	0x3c36c819	0.011156105
226	0x3c42682e	0.011865659
227	0x3ccfdc94	0.025373735
228	0x3d7b2bd3	0.06132109
229	0x3df56fb9	0.119842
230	0xbd0db94e	-0.03460055
231	0xbe08965f	-0.13338612
232	0x3d820f5b	0.06350585
233	0x3d861389	0.06546695
234	0xbd8272ad	-0.06369529
235	0x3cd2c3fe	0.025728222
236	0x3e288626	0.16457424
237	0x3dfccd16	0.123438045
238	0x3dbd4c9a	0.09243126
239	0xbd3221b2	-0.043489166
240	0x3b4d6072	0.0031338003
241	0x3db910c4	0.09036401
242	0x3d18e1af	0.037324604
243	0xbcc37dd7	-0.023863716
244	0xbdb8502b	-0.08999666
245	0x3d9ab3d4	0.07553831
246	0xbc8ef767	-0.017451955
247	0xbdcb37e8	-0.09922773
248	0x3dddf5ec	0.108379215
249	0x3dd38aeb	0.10329231
250	0x3c5fb985	0.013655071
251	0xbdfbcc9c	-0.122948855
252	0x3d7bd580	0.061482906
253	0xbe0dea6a	-0.13858953
254	0xbd4dc0a3	-0.05023254
255	0xbdfad3d1	-0.12247432

model_7/dense_15/MatMul f4 [1, 10]
0	0xbeacd72a	-0.33757907
1	0xbe874ef1	-0.26427415
2	0x3f16caa7	0.5890297
3	0xbe7614bc	-0.24031347
4	0xbe8a5829	-0.27020386
5	0x3e638650	0.22219205
6	0xbe895dc9	-0.26829365
7	0x3e83f53f	0.25773045
8	0x3e896f1c	0.26842582
9	0x3ea23559	0.31681326
