src/main/assets/9.tflite (tflite, 28668 bytes, 12 tensors)

model_9/conv2d_19/BiasAdd;model_9/conv2d_19/Conv2D;model_9/conv2d_19/BiasAdd/ReadVariableOp/resource f4 [12]
000000 5a a7 52 bc 7a 7d b8 ba df 0f 77 3c 01 60 7e 3b
       -0.0128572825 -0.0014075481 0.015079468 0.0038814547
000010 c1 dc 0b 3c bd a5 94 bb 69 4d a7 3b 2c 40 e5 bc
       0.008536519 -0.004536359 0.0051056636 -0.027984701
000020 bf 20 0d bd 0a 74 9b 3c 04 be 82 3b 32 97 bf 3b
       -0.034455057 0.01897623 0.003989937 0.0058468813

model_9/conv2d_18/BiasAdd;model_9/conv2d_18/Conv2D;model_9/conv2d_18/BiasAdd/ReadVariableOp/resource f4 [4]
000000 02 d9 91 bb 98 01 1c 3b a5 a7 59 3c 67 81 1c bc
       -0.004450918 0.002380466 0.0132845985 -0.009552336

model_9/conv2d_19/Conv2D f4 [12, 1, 11, 4]
000000 49 45 00 3c 5e 9d 2a bd 82 5e 08 be bd 32 99 3d
       0.007829019 -0.041653983 -0.13317302 0.07480381
000010 7c 15 00 be a2 4d 2a 3e a2 ba 28 3c 1c b3 0d be
       -0.12508196 0.16631177 0.010298403 -0.13837856
000020 74 c7 16 be 91 29 cf bd 54 bf 9a 3d 0a ad 88 3d
       -0.14724523 -0.1011535 0.07556024 0.066736296
000030 9e c5 3f 3e c0 bc 4c bd ff ef 20 be 60 4f 24 be
       0.18727729 -0.049984694 -0.15716551 -0.16045904
000040 75 80 c1 3d a9 19 9d 3d 7a 01 b7 3d 53 00 c8 bd
       0.09448329 0.0767091 0.089358285 -0.09765687
000050 b7 e3 43 3e 1d d7 2b 3e 61 c0 09 be f4 73 38 be
       0.19129835 0.16781278 -0.13452293 -0.18012983
000060 ca 91 d9 3d 0f b7 91 bd 1f 06 dc 3d db 48 62 3d
       0.1062351 -0.07114994 0.10743355 0.05524526
000070 24 d2 9b bd 4a e8 0a be 84 69 21 3e b1 3b 89 3d
       -0.076084405 -0.13565174 0.15762907 0.06700838
000080 9c 2e 9b 3d 87 5b bb bd 7c 59 d6 3d a0 00 09 3e
       0.075772494 -0.09148317 0.104662865 0.13379145
000090 36 4b b1 bd c1 13 13 3d 06 84 9b bd 40 02 8c 3a
       -0.086569235 0.03590751 -0.07593541 0.0010681823
0000a0 4a 02 e6 bc 34 65 50 bd e1 34 1c be 2e 35 b9 bd
       -0.028077263 -0.050877765 -0.15254547 -0.09043346
0000b0 9e 0e 30 3e 89 77 9b 3c 2f 45 79 3d 76 01 3b be
       0.17193076 0.018977897 0.060856994 -0.18262276
0000c0 9f 2a 5f bc 15 88 d3 bc 85 57 a0 bb 1c e3 ca 3b
       -0.0136210015 -0.025821725 -0.0048932456 0.0061916243
0000d0 4d 8d f4 bc e8 18 2d 3e 5d 59 74 bd dd 14 af bc
       -0.029852534 0.16904032 -0.059655536 -0.021372253
0000e0 3d 1d 37 be f3 e5 26 be 8a d8 0b 3e 85 75 f1 bd
       -0.17882247 -0.16298656 0.13656822 -0.11789993
0000f0 8c 14 12 be 6b 95 03 3e 09 ae ef 3b 08 6e 33 3e
       -0.1426565 0.12849967 0.007314448 0.17522442
000100 56 25 e8 bd fd 7d ac 3d b6 40 3b be c8 76 87 3c
       -0.11335246 0.08422468 -0.18286404 0.016536132
000110 db b5 27 3c a9 e1 1e be d8 ff 0d 3e fc 3c 5b bc
       0.010236229 -0.1551577 0.13867128 -0.013381239
000120 29 57 ba bd d2 f9 aa 3d db 33 85 bd 15 0c b5 bd
       -0.09098656 0.08348431 -0.06504031 -0.08840195
000130 3e c8 2f 3e 1e 41 25 be 33 ee 17 3e a6 2a 22 3d
       0.1716623 -0.16138121 0.1483696 0.039591454
000140 0f be 03 3c d0 2e cb bd d8 60 05 3e a4 a6 52 3d
       0.008040919 -0.09921038 0.13025224 0.051428452
000150 10 44 2e be b1 03 85 bd 8e 05 e0 3c bd 9f ba bd
       -0.17018151 -0.06494845 0.027346399 -0.09112499
000160 de fe 35 3d de 88 f6 bd 0f 49 ce 3d 1c b6 7b bd
       0.044432513 -0.12037824 0.100725286 -0.06145297
000170 25 43 0d 3e 9e 28 e5 bd b3 bd a1 bd e4 08 a8 bb
       0.13795145 -0.11189388 -0.078975104 -0.005128013
000180 01 e3 97 bd 26 5e 69 bd 4e a0 a7 3d 38 0a 17 be
       -0.074163444 -0.056974553 0.081848726 -0.14749992
000190 35 fd a5 3c fa 3a 20 3d f6 2e 28 3e 2f a8 00 be
       0.02026234 0.039118744 0.16424164 -0.12564157
0001a0 f4 74 47 bd 27 8c 08 3e 29 19 97 bd aa a8 30 3e
       -0.04869552 0.13334714 -0.07377846 0.1725184
0001b0 b9 9c 83 3d d4 6d 29 3e 30 10 39 3e 31 43 95 bd
       0.06426377 0.16545802 0.18072581 -0.07288206
0001c0 f9 1a 16 be c2 27 ce 3d 8a 73 ec bc e6 ef 0c 3d
       -0.14658727 0.10066177 -0.028863687 0.034408472
0001d0 b3 81 1a 3e b3 c4 02 be 2d 11 14 be 28 cc 8b 3d
       0.15088539 -0.12770347 -0.14459677 0.06826049
0001e0 5a 08 87 3d 7a 25 09 be 1c 6d 01 3e 31 14 25 be
       0.0659339 -0.13393202 0.12639278 -0.16120984
0001f0 95 44 d0 bc ae 40 3f be ce 87 38 3e f4 6e 07 3e
       -0.025423327 -0.18677017 0.18020555 0.13225919
000200 a0 89 1a 3d 6e 3f da 3d 2e ae b9 bb 82 db a8 bd
       0.037728906 0.106566295 -0.005666516 -0.08244993
000210 48 c8 24 be be 3b fa bd 32 26 17 3e 37 4c 36 be
       -0.16092026 -0.12218426 0.14760664 -0.17802511
000220 50 d1 01 3e ae f6 16 3e 04 61 37 3e 04 9c 09 3e
       0.12677503 0.14742538 0.17908102 0.13438421
000230 09 bd f7 bd eb 95 af 3c 8e d5 0d 3d 98 d4 12 be
       -0.120966025 0.021433791 0.03462749 -0.1433891
000240 b1 c7 22 be 88 c4 88 3d f9 3a df 3c 27 26 19 3e
       -0.15896489 0.0667811 0.0272498 0.1495596
000250 78 75 2a 3e 42 8f 0f bc 0c d6 7d bc fc 36 b5 bd
       0.16646373 -0.008762183 -0.015492927 -0.08848378
000260 40 da 8a bd 5d 98 05 be 72 8f 3d bd c1 84 e7 3d
       -0.06779909 -0.13046403 -0.04627938 0.11304618
000270 a7 f0 a7 bd aa 8f 81 3c 8d 7a 99 bd ed 53 3b 3c
       -0.08200198 0.015815575 -0.07494078 0.011433584
000280 c4 37 b6 3d a1 c5 15 3e db fa 18 3e d6 8d 2a be
       0.08897355 0.1462617 0.14939444 -0.16655669
000290 e2 5e b8 bc 24 82 25 be 38 94 c6 3d 34 26 5f 3d
       -0.022506181 -0.16162926 0.09696239 0.054479793
0002a0 f1 bd 7c 3d fe cb 0b be 1a aa 22 bd 06 3d ad 3b
       0.06170458 -0.13652036 -0.039713003 0.0052868156
0002b0 92 d6 ca bc 6d 9f b1 3d 76 34 1f 3e 38 65 fd bd
       -0.024760518 0.08672986 0.15547356 -0.123728216
0002c0 ef 75 58 3c 15 27 20 3e ce ef 6a bd d2 5a 88 bd
       0.013211711 0.15639909 -0.0573576 -0.066579476
0002d0 98 c4 b5 bd 38 23 22 3e e4 77 00 3e c9 63 48 be
       -0.08875388 0.15833747 0.12545735 -0.19569315
0002e0 ba 8a a7 3c 42 59 0a 3e 3a 36 80 bc ab 80 bb 3d
       0.020451892 0.13510612 -0.015650857 0.09155401
0002f0 29 dd 8d bd 1c f3 26 3e b0 2f 36 bd 3f 98 95 3b
       -0.069269486 0.16303676 -0.044479072 0.0045652683
000300 cc 1a be bd d1 fc b6 3b 03 aa ea 3d 89 44 c2 bd
       -0.09282455 0.0055843373 0.114582084 -0.09485728
000310 81 28 15 be b6 2b b6 bc c9 15 fc bd 84 1f b1 3d
       -0.14566232 -0.02223764 -0.12308843 0.08648589
000320 82 19 fb 3d 5e 99 69 3c cb 23 8b bd e9 f2 a8 bd
       0.122607246 0.014257757 -0.06793936 -0.082494564
000330 d4 9b 3a bd fb 2d 0a 3e f8 73 ae 3d 12 1e f3 bd
       -0.045558766 0.13494103 0.08518213 -0.1187097
000340 44 b6 ad 3d 24 a0 b6 3c 43 43 f6 bc de d9 94 bd
       0.0848203 0.022293158 -0.03006137 -0.07268117
000350 4d 56 44 3d 05 6d ca bd 5c c5 87 bd ba a0 31 bd
       0.047933865 -0.09884075 -0.0662944 -0.04336617
000360 62 47 ba bc dd 16 b4 bd 03 38 0a be 08 89 ba 3d
       -0.022739116 -0.08793423 -0.1349793 0.09108168
000370 78 bb 01 3e bc 34 10 3d c5 e2 ff 3d 8d 5a 80 3d
       0.1266917 0.03520654 0.12494425 0.06267271
000380 32 82 16 be 7d bb 30 be 1d 3d 01 be 92 fc 41 3e
       -0.14698103 -0.17259021 -0.12620969 0.18944004
000390 29 48 ed 3d 8f a4 27 be 93 ce cc bc 60 d3 5b bd
       0.11586029 -0.16371368 -0.025000846 -0.05366838
0003a0 5b 24 e3 bd 17 57 99 3b 59 b3 53 3a 33 db 18 3e
       -0.11090919 0.0046795714 0.0008075736 0.14927368
0003b0 ad b7 11 3e 39 b9 ca 3d 16 fe 92 3d f2 a0 69 bd
       0.14230223 0.0989861 0.07177369 -0.057038255
0003c0 7e 73 88 bd 5a d5 8a bd 3e bb 0b 3e bc d2 7d 3c
       -0.066626534 -0.06778975 0.13645646 0.0154921375
0003d0 fd ba ca bd 08 22 b2 bd 55 c5 c9 bd 24 91 6c 3d
       -0.098989464 -0.08697897 -0.09852091 0.057755604
0003e0 d7 cf 7e bd d0 79 eb 3d 9a 76 73 3b b4 70 d3 bd
       -0.06220993 0.11497843 0.003714955 -0.10324231
0003f0 26 4a 38 3e c8 fb 57 bd d5 10 82 3d ee 70 0b be
       0.17997035 -0.05273035 0.06350867 -0.13617298

model_9/conv2d_18/Conv2D f4 [4, 4, 38, 1]
000000 fc 7a 68 bd e5 c5 2f 3d b5 30 38 bd 5f f9 20 bd
       -0.056757912 0.042913336 -0.044968326 -0.03930032
000010 09 08 95 bc 46 76 13 bc 30 81 59 bc 9f 92 1c 3d
       -0.018192308 -0.009000367 -0.01327543 0.038225766
000020 16 ed c7 bc 92 6e f5 bc e2 d7 ce 3c c1 c1 b0 bd
       -0.024405044 -0.02995995 0.025249425 -0.086307056
000030 12 b7 21 bd 52 23 67 3d ed 01 62 3c 2b c6 eb 3c
       -0.03948123 0.05643017 0.013794404 0.028781017
000040 93 e6 7f 3b 31 23 ff ba 09 72 48 3d 76 82 85 bd
       0.0039047345 -0.0019465444 0.048936877 -0.06519024
000050 e6 15 a8 bd 8d 99 1b 3d c5 1b 97 3d c5 c9 76 3d
       -0.08207302 0.037988234 0.073783435 0.060251016
000060 56 9b b8 bd 6b a1 43 bc 5d 96 39 3c 64 ae 85 3c
       -0.09014003 -0.0119403405 0.011327353 0.016318507
000070 15 39 8f bb f6 14 03 3d 6b 86 de 3c 3e e5 41 3d
       -0.0043708184 0.03200241 0.027163705 0.047337763
000080 50 02 ab bb 8a 28 83 bd ed 42 4d bc db e8 cd 3c
       -0.0052187815 -0.064042166 -0.012528163 0.025135448
000090 d1 7d b0 bd 90 ac 6c 3d cd f5 80 bd ae ef 8b bc
       -0.086177476 0.057781756 -0.06296883 -0.017082062
0000a0 a7 59 9a bd b2 81 a9 bc 86 52 3e 3d 09 9a b8 bd
       -0.07536631 -0.020691726 0.04646542 -0.09013755
0000b0 ec ab 17 3c e8 cc 82 3d 5e 74 56 3d d7 d9 53 bc
       0.009257298 0.06386739 0.05235707 -0.012930355
0000c0 90 84 7c 3d 5b 5d 13 bd 03 5d 8c 3b 60 6b af 3c
       0.06164986 -0.035977703 0.004283549 0.021413505
0000d0 f6 5a a3 bd e5 e7 25 3d 98 c5 ac bd f4 01 e2 3c
       -0.07976334 0.040504355 -0.084361255 0.027588822
0000e0 65 02 3e 3d 10 2a c5 bb ba 93 b0 bd ee 9c b0 bd
       0.046389002 -0.006016977 -0.086219266 -0.08623682
0000f0 e4 d7 4b bd 63 05 8f 3d 75 ad 87 bd 96 86 9b 3c
       -0.049766436 0.06983449 -0.06624881 0.018985074
000100 f7 fe f7 3c 11 33 ed bc 3b 60 f8 3c c4 8a b8 bd
       0.030272944 -0.028955014 0.030319324 -0.090108424
000110 9c c8 4f 3d df 94 57 3d 32 43 9a bd 14 61 32 3d
       0.050728425 0.05263221 -0.07532348 0.043549612
000120 33 95 b2 bd 3b cf 01 bd e1 33 8e 3c e0 75 ab bd
       -0.08719864 -0.03169177 0.017358722 -0.08372092
000130 d1 d9 62 3d 07 dc 5c bc 01 a3 80 3d c0 47 d9 bc
       0.055383507 -0.013480193 0.062810905 -0.02652347
000140 bb 01 96 bb ec 3d 27 bd 5d d2 c0 bc a1 75 a2 3d
       -0.004577843 -0.040830538 -0.023537809 0.07932592
000150 f3 6f 90 bc c1 99 0d 3d 27 79 4d 3d 3d 4e 4b 3d
       -0.017631507 0.03457046 0.050164368 0.04963516
000160 40 9a 6c bd 33 f5 57 3d ab c8 00 3d 9d 78 73 3d
       -0.05776429 0.052724075 0.031441372 0.059441198
000170 6a 4e 2c bd 00 50 5d bd 91 9e 81 3c b5 1b 83 3c
       -0.04206697 -0.054031372 0.01582268 0.016004423
000180 1e 92 a4 3d b9 53 86 bd 79 11 85 bc 0d b3 95 3d
       0.08035682 -0.065589376 -0.016243683 0.07309542
000190 59 14 ab 3d 4d a7 2d 3d 0d 46 9e bc cd d8 2d bd
       0.083534904 0.04239588 -0.019320512 -0.042443085
0001a0 c0 fc 29 3d 9d 8a f6 3c 4c 6e 4c bd a3 78 bb 3c
       0.041500807 0.030095393 -0.049909875 0.022884673
0001b0 3d 68 aa 3d d7 60 57 3c 58 5f 0a 3d d1 18 af bd
       0.08320663 0.013145647 0.033782333 -0.08549655
0001c0 af a2 c6 3c e4 80 aa bd 41 77 56 bc ed 97 e9 bc
       0.024247495 -0.08325365 -0.013089956 -0.028514827
0001d0 72 7c a0 bc b7 dc 02 bd e9 c4 93 3d f6 e0 8f bd
       -0.01959059 -0.03194877 0.07215292 -0.0702533
0001e0 e2 f5 34 bd f3 25 6d bd be 73 c2 bc 74 b7 a0 3d
       -0.044179805 -0.05789752 -0.02373683 0.07847491
0001f0 c3 d3 8b bd 27 df e1 3c 9f 1b 21 3c 16 cc bc 3c
       -0.068275 0.027572228 0.009833246 0.023046535
000200 b6 5d d4 bc 15 15 89 bd 3b fd a0 bd c7 eb a5 3d
       -0.025923591 -0.06693474 -0.078608 0.081016116
000210 02 60 6b 3d 94 be b8 bc 6f 46 43 bd f0 95 71 bd
       0.057464607 -0.022551812 -0.047674593 -0.058980882
000220 af e7 11 3d b0 26 a0 bd be 06 73 bd 36 a3 fe 3c
       0.03562134 -0.07819879 -0.0593326 0.031083684
000230 29 20 57 bc 7f d4 84 3c fb b1 57 3d 4b d1 8e 3d
       -0.013130226 0.016214607 0.05265997 0.06973513
000240 a2 1f ba bd 1c e0 b4 3c e3 f7 f4 bc 18 3e 22 3d
       -0.09088065 0.02207952 -0.029903358 0.03961
000250 e2 ee bc bd 73 e2 fa bc e4 b1 f1 3c 2d d5 9a bd
       -0.09225251 -0.030625558 0.02950377 -0.07560191
000260 c1 bc 0d 3d 8e eb a3 bd 24 9c 44 bb 92 83 e7 bc
       0.034603838 -0.08003913 -0.0030000294 -0.02826098
000270 6a da 98 3d c9 a0 09 3d 87 7e 82 bd 99 d1 c4 3c
       0.07463534 0.033600602 -0.063717894 0.024025725
000280 e5 10 a8 3d 34 22 99 3d 2a ef 11 bd 16 79 97 bd
       0.082063474 0.07477227 -0.035628475 -0.07396142
000290 4d f3 b0 3d bb 88 4a 3d 68 68 8c bd ba a0 fa bc
       0.08640156 0.049446803 -0.068558514 -0.030594219
0002a0 ae 18 ba bc ff f7 74 bd 32 d6 1d 3d 9f 78 48 3d
       -0.022716846 -0.05980682 0.03853435 0.04894316
0002b0 9e f9 00 bd a9 ae 74 3d 20 ff 98 bd d0 07 8b bd
       -0.031488054 0.05973688 -0.07470536 -0.067885995
0002c0 b0 c7 84 bd ac 4d 83 3d 9a 7c 97 3d 3a d4 8e 3b
       -0.064834 0.06411299 0.07396813 0.0043587955
0002d0 16 a1 a6 bb e7 e5 87 bd f2 47 a3 bd 23 c1 3f 3c
       -0.005085121 -0.06635647 -0.07972707 0.011703762
0002e0 a9 72 4f 3c 80 bd 93 bd 22 7b a2 bd 6c 48 3e 3b
       0.012661614 -0.07213879 -0.07933642 0.0029034866
0002f0 92 14 9e 3c 08 1d e1 bc 3a 80 bd 3d 42 08 e4 3a
       0.019296918 -0.027479663 0.09252973 0.001739748
000300 4c 50 66 bd 70 7e f6 3b 4f 33 61 bc 7b 59 50 3c
       -0.05622892 0.0075223967 -0.013745143 0.012716646
000310 c2 84 88 bd 86 95 30 bd 90 65 f2 3c b5 4e 0d bd
       -0.066659465 -0.043111347 0.029589444 -0.03449889
000320 11 fd 96 3d 4a 7f 31 bc 43 09 c3 bb b3 05 8a 3c
       0.07372487 -0.010833571 -0.005952032 0.01684842
000330 97 27 1b bd fc d6 49 bd 68 37 92 3b 25 78 f6 3c
       -0.037879553 -0.04927729 0.0044621713 0.030086586
000340 aa 2c 4b bd d6 d2 82 bd d4 d3 99 3b f9 0d 9c bc
       -0.04960314 -0.0638787 0.0046944413 -0.019049631
000350 c4 26 38 bc 10 65 9f bd 77 07 98 bd 67 5c 12 bd
       -0.011239711 -0.07782948 -0.07423299 -0.035732653
000360 a8 ef 95 bd 97 19 98 bc 71 9f f1 bc fe 30 00 3d
       -0.073211014 -0.01856689 -0.029494973 0.031296723
000370 74 52 93 bd 8d 43 12 bd 90 52 09 bc 47 cd f1 3c
       -0.07193461 -0.035708953 -0.008381501 0.02951683
000380 ce a7 71 3d cf 98 22 3c 21 36 8c bd c4 29 e5 bc
       0.05899792 0.009924128 -0.06846262 -0.027974017
000390 da b0 e0 3c cb e4 71 3d af 49 a4 bc be bf 85 3c
       0.02742808 0.059056085 -0.020054666 0.016326781
0003a0 7d 87 4b bd cb cd 0e bd f8 9e 02 bd bb 8a b1 3d
       -0.04968976 -0.03486423 -0.031889886 0.08669039
0003b0 4f 68 52 bd 25 9c 87 bd a4 aa 50 bd ca d8 bc 3d
       -0.051369008 -0.06621579 -0.050943986 0.09221037
0003c0 65 5b 28 bc ac 2a a6 bd 3b 30 95 3b a4 67 b9 3c
       -0.010275696 -0.08113608 0.0045528687 0.022632428
0003d0 c2 7d 8d bd e4 af ab 3d ce ba 98 3d 51 a1 3d 3a
       -0.06908752 0.08383158 0.07457505 0.0007233816
0003e0 c7 31 1d bd 89 9a 2c 3c 54 a9 c7 3c 52 67 93 bd
       -0.03837755 0.010534891 0.024372734 -0.07197441
0003f0 c0 2e 19 3d 42 ba 40 3d 18 df 3e bd 82 a2 4d 3d
       0.0373981 0.04705263 -0.046599478 0.050203808

model_9/dense_18/BiasAdd/ReadVariableOp/resource f4 [10]
000000 30 64 82 3b b9 2b 01 bc c1 df 05 bc 53 a1 20 3c
       0.0039792284 -0.007883959 -0.008171023 0.009804088
000010 ea e3 11 bc ba a0 f2 bb 66 8c aa bb d0 60 88 3c
       -0.008904437 -0.007404414 -0.005204725 0.016647726
000020 c9 ae 32 bc be 38 9c b9
       -0.01090593 -0.00029796915

model_9/layer_normalization_27/add/ReadVariableOp/resource f4 [4]
000000 4f 6d 66 3b 6e 9f 65 3c 78 85 ad 3c 28 b8 01 bc
       0.0035160368 0.014015062 0.021181807 -0.007917441

model_9/layer_normalization_27/mul_4/ReadVariableOp/resource f4 [4]
000000 5b b9 7e 3f 39 8f 7d 3f 7d f7 82 3f 1d 3c 7f 3f
       0.9950158 0.99046665 1.0231777 0.997011

model_9/layer_normalization_28/add/ReadVariableOp/resource f4 [12]
000000 b9 a3 12 bc 26 88 ed b9 df d9 65 3c a3 cd 7c 3c
       -0.008950167 -0.000453056 0.014028995 0.015429887
000010 8d eb f4 3b 5d 13 11 bc fd 75 3d 3b 15 62 48 bc
       0.007474369 -0.008854714 0.0028909438 -0.012230416
000020 18 88 37 bc 59 00 1d 3d 8c ca d7 3a ea be 58 3c
       -0.011201881 0.03833041 0.0016463562 0.013229111

model_9/layer_normalization_28/mul_4/ReadVariableOp/resource f4 [12]
000000 44 ac 81 3f b5 85 7f 3f 55 1f 82 3f 01 f3 81 3f
       1.0130696 0.99813396 1.0165812 1.0152284
000010 8b 70 7e 3f 84 24 7f 3f 22 df 7e 3f 52 a4 81 3f
       0.99390477 0.99665093 0.99559224 1.0128272
000020 90 bb 81 3f 04 1e 79 3f 19 16 7f 3f 58 af 7c 3f
       1.0135365 0.97311425 0.99643093 0.98705053

model_9/layer_normalization_29/mul_2/ReadVariableOp/resource f4 [10]
000000 47 06 77 3f d4 a0 79 3f f8 3a 7f 3f ed f5 77 3f
       0.96493953 0.9751103 0.99699354 0.9685963
000010 27 0b 80 3f 74 4d 7d 3f 39 b8 7e 3f af 90 7b 3f
       1.0003403 0.9894631 0.9949985 0.98267645
000020 c6 25 7d 3f f8 3d 7f 3f
       0.9888576 0.9970393

model_9/dense_18/MatMul f4 [10, 228]
000000 1e 13 da bd 83 0f e2 3d 95 0c aa bb bc ed f2 3c
       -0.106481776 0.11038115 -0.005189488 0.029654376
000010 75 ea 03 3e cd 24 68 3d 04 a4 0d 3d 47 df 39 bc
       0.12882407 0.05667572 0.034580246 -0.011344737
000020 e1 c8 92 bd 3c 8b 1c 3d 6b ce 1f 3d d1 f5 b3 bd
       -0.07167221 0.03821872 0.039015215 -0.0878712
000030 c4 e7 51 bd 96 ef 34 bd 51 5f 99 bd 01 b9 94 bd
       -0.05124642 -0.0441738 -0.07488883 -0.07261849
000040 c4 92 ff b9 55 11 21 3e 38 2a 6e 3d 14 99 c9 bd
       -0.0004874674 0.15729268 0.05814573 -0.098436505
000050 42 82 8f bc dc 66 1d 3e 69 81 f5 bc c7 44 74 bd
       -0.017518166 0.15371269 -0.029968934 -0.059635904
000060 81 5f a8 3c de 3f 9f 3d 0f c4 02 3d 7a 11 cb 3d
       0.020553352 0.077758536 0.031925257 0.09915443
000070 2c 5a 32 3c a0 6c 05 be 57 9b 51 bd 51 12 db bc
       0.010885756 -0.13029718 -0.051173534 -0.026742132
000080 62 54 c1 bd 3d 49 1a 3e f4 8f 8e 3d b2 83 ab bd
       -0.09439923 0.15067 0.06961051 -0.08374728
000090 6d 8b 2d 3d 04 87 17 3e 39 8c 6d 3d 65 51 f1 3d
       0.042369295 0.14797598 0.057995055 0.11783103
0000a0 9b d7 99 3d 8d de a9 3c ee b2 24 bc bf 11 28 3d
       0.075118266 0.020736003 -0.010052426 0.04103255
0000b0 6b a3 45 3d d2 93 f6 bd 44 95 fc bb 20 0b f1 3d
       0.04825155 -0.12039913 -0.0077082235 0.117697
0000c0 82 cf 04 bc c9 fb 69 bd 08 81 98 bd d3 55 02 3d
       -0.008106114 -0.057124887 -0.07446486 0.03182013
0000d0 b5 e8 00 3e 80 c7 af 3d fa 1d a2 3d 3b 73 00 3c
       0.1258877 0.085829735 0.07915874 0.007839973
0000e0 b8 0e 19 3d 24 9f e1 bc 97 b0 96 3d b2 73 21 bd
       0.037367553 -0.027541704 0.073579006 -0.039416976
0000f0 8c 15 cd bd e3 9f 21 3e 0b cc fa bc 72 23 0c 3e
       -0.10013875 0.15783648 -0.030614873 0.13685396
000100 ac a8 d3 3d dc 50 c9 3c 08 0e 10 3e 5f 77 7b bd
       0.10334906 0.02457469 0.14067852 -0.061393138
000110 01 a4 fc 3d 51 df ec bd 80 e7 17 3e dc 2f 27 bd
       0.12335969 -0.11566032 0.14834404 -0.040817127
000120 1d 24 fe 3b c4 7b ca bd f6 fe e4 3d 53 b8 25 3d
       0.00775577 -0.09886888 0.111814424 0.04045899
000130 10 59 51 bc 19 ed 03 be e8 42 8a 3c 77 47 28 bc
       -0.012777582 -0.12883414 0.016877607 -0.010270945
000140 f6 d1 92 bc 70 bc 96 3d 94 6c ba 3d 30 4a f3 bd
       -0.017922383 0.0736016 0.09102741 -0.118793845
000150 38 e0 b6 3d 5f be 04 3e dd 0d 72 bd a4 ff d4 3c
       0.08929485 0.12963246 -0.059095252 0.026000805
000160 5f d0 58 3d 02 a4 80 3d 6c 11 c0 3d f8 66 16 be
       0.052933093 0.06281282 0.09378323 -0.14687717
000170 f8 27 33 3d d4 24 96 3d 3a f3 55 bd 8b 26 b8 3d
       0.04373929 0.07331243 -0.052233912 0.089917265
000180 f2 b5 a4 bd 4b 94 79 3b 87 b9 2b bd 92 50 92 3d
       -0.08042516 0.0038082774 -0.04192498 0.07144274
000190 c8 07 13 3d 95 81 03 be 31 6d d0 3d 24 5e dd 3d
       0.035896093 -0.128424 0.101770766 0.108089715
0001a0 49 ba ba 3d 4f 98 ab 3b 0b d6 e1 bd 89 0b 0a 3c
       0.09117562 0.0052366625 -0.110271536 0.008425602
0001b0 43 25 88 3d da b0 13 3e 07 e0 9f bc bf 49 ac 3c
       0.06647732 0.14422932 -0.019516004 0.021031259
0001c0 b4 6f b5 bd 66 76 d2 bd cd b7 b0 3d f2 aa b8 bd
       -0.08859196 -0.10276489 0.08628807 -0.0901698
0001d0 e2 8a 10 3e 4d b6 c3 3c 78 a4 51 bc 30 79 e2 3c
       0.1411548 0.023890639 -0.01279556 0.027645677
0001e0 b0 4b 2d bc 39 68 26 3d 22 98 64 3d 6e 36 d2 bd
       -0.010577127 0.04062674 0.055809148 -0.10264288
0001f0 d9 fd 2f 3d fd 53 a1 3c 5d 4e c5 3d 3d f2 17 be
       0.042966697 0.019693369 0.09634087 -0.148385
000200 80 ed 06 be 04 66 26 3d 19 53 97 bc 5a 47 57 bd
       -0.13176537 0.040624633 -0.018472241 -0.05255828
000210 56 0a d8 3c c0 d1 ab 3d 86 25 ff 3d c4 20 ec bd
       0.026372116 0.08389616 0.12458329 -0.11529687
000220 7d c3 0f 3e 35 6e 1b be 91 35 a2 3a 3d 61 c0 bd
       0.14039417 -0.1517876 0.0012375583 -0.09393547
000230 91 1d 69 bc 6e a5 f3 3d f9 c2 10 3e da 85 e1 3d
       -0.014228241 0.118967876 0.14136876 0.11011858
000240 bb 14 66 3d 93 d3 f6 3d aa 6c 44 3d c8 b5 ae bd
       0.056172114 0.12052073 0.047955193 -0.08530766
000250 57 d1 14 3e e7 16 05 bd 44 50 b7 bd 83 d1 e0 3d
       0.14532982 -0.032492545 -0.08950856 0.10977461
000260 fe be 94 3d cc 76 17 be 7f b3 93 3d 01 f8 2f bd
       0.07262991 -0.14791411 0.072119705 -0.042961124
000270 9d 4b eb 3d e6 4c e8 3d eb bb fa b9 d6 69 7b 3d
       0.114890315 0.11342792 -0.00047823726 0.06138023
000280 e1 26 db bd 3d b8 26 bd 31 a3 1d be ee 28 f8 bd
       -0.10700775 -0.040703047 -0.15394284 -0.12117182
000290 f3 bc 2c bd f4 09 06 bd 8c 73 6e 3d 06 7b bb bd
       -0.042172384 -0.032724336 0.058215663 -0.09154324
0002a0 44 5d e3 bd 63 f7 ae 3d 83 d0 10 3d 2c f1 1d 3e
       -0.111017734 0.08543279 0.035355102 0.15424031
0002b0 36 1d 4b 3d b8 9d 0f 3d 7d e9 f9 3d 78 1c f3 3d
       0.049588405 0.03506252 0.122027375 0.11870664
0002c0 5b a4 cd bd 83 b6 6b 3d 36 2f 14 be f3 61 1f be
       -0.10041114 0.057547104 -0.14471135 -0.15564708
0002d0 10 64 2e bd 91 e5 74 bd 89 71 99 3d b4 3f 35 3d
       -0.042575896 -0.059789244 0.07492358 0.044250205
0002e0 22 11 17 bd e1 28 ec 3d 8f a2 ab 3d 2f 87 47 3d
       -0.036881573 0.115312345 0.08380615 0.048712905
0002f0 7f a1 7e 3d 3e 3d d6 bd 22 87 d1 3d a5 75 aa bc
       0.062165733 -0.104609 0.10230853 -0.02080805
000300 6b 3a 94 bd 89 de f0 bc ed b8 0a 3e e1 4c 71 bd
       -0.07237705 -0.029402988 0.13547106 -0.058911208
000310 23 74 01 3d b8 61 cb 3c 09 61 fc 3d 41 bf a5 bd
       0.031604897 0.02482687 0.123231955 -0.080931194
000320 6d 62 3d 3d 93 66 2a 3d ab 33 8d bb 41 c4 97 bd
       0.046236444 0.04160173 -0.004309138 -0.07410479
000330 71 cc f0 3c 61 27 0c be c8 c1 ef 3d cb a4 46 3c
       0.02939436 -0.13686897 0.11706883 0.012124251
000340 31 62 5c bd 06 18 80 3d 98 5a ec 3d f4 b7 80 bd
       -0.05380458 0.06254582 0.11540717 -0.06285086
000350 d1 25 b8 bd 55 3a dd ba 68 19 07 3e f8 8d 33 bd
       -0.08991588 -0.0016878346 0.13193285 -0.043836564
000360 2f 9c 4f bd f9 69 03 3e 06 a3 66 3b 77 e1 37 bd
       -0.050686058 0.12833394 0.0035192384 -0.044892754
000370 76 22 fc 3d 05 35 b3 bd 87 d4 ad bd 33 07 ee 3a
       0.123112604 -0.08750347 -0.08487802 0.0018160105
000380 a8 92 44 3d 2e d5 0a 3e 3a 6b f5 ba 01 e1 19 3e
       0.047991425 0.13557884 -0.0018723973 0.15027238
000390 30 94 00 3e 03 8d 71 bc 12 11 25 3d 90 5d 3f bc
       0.12556529 -0.0147430925 0.040299483 -0.011680022
0003a0 c9 c5 ad bc 93 84 54 3d 4d 7f c8 3d da 4b cc 3d
       -0.021212475 0.051884245 0.09789906 0.09975405
0003b0 88 bc da bc 63 b1 1d 3e 62 45 15 3e a0 ac a5 bd
       -0.026701227 0.15399699 0.14577249 -0.08089566
0003c0 4f 1f ca bd 72 69 96 bd 76 7a 63 3c 33 40 12 3d
       -0.09869253 -0.07344331 0.013884177 0.035705756
0003d0 c4 12 4b 3b da fb 0d 3e 4e 54 2d 3d 89 43 ca bd
       0.0030986527 0.13865605 0.042316727 -0.098761626
0003e0 6a 37 0a 3e ab f9 93 3d 53 a2 4f bc 08 10 19 3e
       0.13497701 0.07225355 -0.012672978 0.14947522
0003f0 fe 08 aa bd 53 b3 8d 3d 0f ab d5 3c 16 4e e4 ba
       -0.083024964 0.06918969 0.026082544 -0.0017418291

model_9/dense_19/MatMul f4 [1, 10]
000000 12 b4 b7 3e 0d 0f 4c be dc fa 51 3d 35 76 ae 3d
       0.3587957 -0.19927616 0.05126463 0.0851864
000010 5c d5 8f 3e a0 d0 d7 be 3e b3 3b bf 96 9a 21 bf
       0.28092468 -0.42151356 -0.73320377 -0.63126504
000020 cc 21 c9 3b fe 60 ca be
       0.006138062 -0.39527124
