src/main/assets/a.tflite (tflite, 561108 bytes, 15 tensors)

sequential/conv2d_5/BiasAdd;sequential/conv2d_5/BiasAdd/ReadVariableOp/resource;sequential/conv2d_5/Conv2D f4 [32]
00000000: 0000 0000 0000 0000 0000 0000 0000 0000
00000010: 0000 0000 0000 0000 0000 0000 0000 0000
00000020: 0000 0000 0000 0000 0000 0000 0000 0000
00000030: 0000 0000 0000 0000 0000 0000 0000 0000
00000040: 0000 0000 0000 0000 0000 0000 0000 0000
00000050: 0000 0000 0000 0000 0000 0000 0000 0000
00000060: 0000 0000 0000 0000 0000 0000 0000 0000
00000070: 0000 0000 0000 0000 0000 0000 0000 0000
0.0 0.0 0.0 0.0 0.0 0.0 0.0 0.0
0.0 0.0 0.0 0.0 0.0 0.0 0.0 0.0
0.0 0.0 0.0 0.0 0.0 0.0 0.0 0.0
0.0 0.0 0.0 0.0 0.0 0.0 0.0 0.0

sequential/conv2d_4/BiasAdd;sequential/conv2d_4/BiasAdd/ReadVariableOp/resource;sequential/conv2d_4/Conv2D f4 [16]
00000000: 0000 0000 0000 0000 0000 0000 0000 0000
00000010: 0000 0000 0000 0000 0000 0000 0000 0000
00000020: 0000 0000 0000 0000 0000 0000 0000 0000
00000030: 0000 0000 0000 0000 0000 0000 0000 0000
0.0 0.0 0.0 0.0 0.0 0.0 0.0 0.0
0.0 0.0 0.0 0.0 0.0 0.0 0.0 0.0

sequential/conv2d_3/BiasAdd;sequential/conv2d_3/BiasAdd/ReadVariableOp/resource;sequential/conv2d_3/Conv2D f4 [8]
00000000: 0000 0000 0000 0000 0000 0000 0000 0000
00000010: 0000 0000 0000 0000 0000 0000 0000 0000
0.0 0.0 0.0 0.0 0.0 0.0 0.0 0.0

sequential/conv2d_2/BiasAdd;sequential/conv2d_2/BiasAdd/ReadVariableOp/resource;sequential/conv2d_2/Conv2D f4 [4]
00000000: 0000 0000 0000 0000 0000 0000 0000 0000
0.0 0.0 0.0 0.0

sequential/conv2d_1/BiasAdd;sequential/conv2d_1/BiasAdd/ReadVariableOp/resource;sequential/conv2d_1/Conv2D f4 [2]
00000000: 0000 0000 0000 0000
0.0 0.0

sequential/conv2d_5/Conv2D f4 [32, 3, 3, 16]
00000000: 3238 0c3d 8b30 ed3d 101d f93b 02d9 4c3d
00000010: d2f3 5a3d ca39 4a3d 20e1 55bb 1013 98bc
00000020: 3834 6d3c b417 a1bd 841e cbbc 4ecb c2bd
00000030: abfa d7bd 3cc5 54bd 5fc7 d73d 1c5b 8e3c
00000040: dba5 c13d e069 693b b6f6 b0bd 30f6 20bc
00000050: 784a 94bd 1966 ad3d eff6 953d cd50 de3d
00000060: 1320 a23d 34f4 59bd 0f8f d1bd ec12 00bd
00000070: f7e3 9f3d b559 da3d 863d 603d b414 a3bd
00000080: 4921 77bd 4cda d63c 259a cf3d ceeb cabd
00000090: a503 813d f6f7 7d3d 8d49 cfbd 8204 e5bd
000000a0: 944a e1bc 3290 ccbd 66d9 343d 4333 ea3d
000000b0: 8e88 15bd dee8 b8bd 58e6 66bc 0405 edbc
000000c0: 88ee 1b3c 1efa 7f3d c4a1 90bc 4af8 5e3d
000000d0: 20f0 59bc a4aa a83c 88af 44bc ad6d d03d
000000e0: 972a e13d c5e4 813d c217 713d e99d e0bd
000000f0: 18a6 3cbc c5e7 d83d 80bc 0bbd 6a78 6dbd
00000100: d0ff 9bbd 1652 7bbd 82cd 61bd 9feb 81bd
00000110: be96 2c3d f080 45bd 0eef 30bd 125b 0abd
00000120: 3bf8 9c3d 32b0 abbd 4c4f 97bd 46d6 773d
00000130: 628b 23bd 3863 1cbc e15f e23d 303d bdbc
00000140: 0012 c939 18ce 9cbc 20df 80bd 7bba 833d
00000150: 090d e63d e015 48bb 9a55 03bd 9492 c3bd
00000160: 20c8 5bbc 31cd ae3d 2840 e3bc c0f7 803b
00000170: 488c 233c 2623 163d e0ab e7bb 326b 0d3d
00000180: 6c40 b73c 3c86 edbd f1e1 ab3d 286b a0bd
00000190: f7ed dd3d 35b8 b93d 8483 a3bd b47c 3dbd
000001a0: dec1 9abd 8f68 f03d eea8 c5bd 4468 cebc
000001b0: 2384 cf3d d36a 973d 3524 c2bd 6727 983d
000001c0: 3e5d 6c3d 1269 363d 981b 04bd 9ec6 56bd
000001d0: f9be 883d 0815 4ebd 4afa 5e3d ecb6 a13c
000001e0: 00ce 91bd 6c4b 89bd bf3b a43d 5287 debd
000001f0: bb78 d93d 17f0 d83d 782e 2b3c f868 2a3c
00000200: e8b5 033c 8408 a03c fe7f 2c3d 2c82 1bbd
00000210: dafc 9bbd 8f33 e43d 8b8a dcbd 0ae2 bdbd
00000220: b9f4 e7bd d970 9bbd c0c6 833a e795 e93d
00000230: 3b4b 83bd e875 2abc 0879 89bd c067 70bc
00000240: 9786 b13d 10cf 863b 0972 debd dc2f 7fbd
00000250: 25d9 e7bd d6d1 0c3d 0434 bcbd 7456 1ebd
00000260: e3e7 e43d 40e3 9bba f8f0 403c a8ca 2f3c
00000270: 484c 7e3c 8fdb bb3d b8de abbc 3895 a5bc
00000280: d0af adbb 1603 343d 80dd 41bb d780 c33d
00000290: bc5a 8f3c 5645 033d 4303 c73d 18b6 5bbc
000002a0: 03bc c7bd fa87 6d3d 18d8 263c 6bbf a03d
000002b0: 880f 77bc 43f6 e33d 5a3f 7e3d 2098 7bbc
000002c0: 4a95 0b3d e46b e23c 450d babd 1c8b c03c
000002d0: 80de f0ba d8b3 2c3c 6caa db3c de66 683d
000002e0: 9825 69bc 47ea 8c3d 0bf8 dc3d 4bed d83d
000002f0: 4cb2 e03c e84b 063c c828 e2bc 0272 eebd
00000300: 4a43 bbbd b22c 6e3d 40ad 7ebc 9883 783c
00000310: c639 6d3d 8aa3 583d d9cd db3d 4e38 36bd
00000320: fb97 c13d 298d b7bd 98d8 473c 28bd 99bc
00000330: 90f9 b4bd 6d15 b8bd dc1d df3c e1b4 e33d
00000340: 3459 b1bc 0b23 983d 5b56 d83d b8ab 7d3c
00000350: 2df6 c83d ad5a e23d 5ed1 533d 0113 d73d
00000360: f91b de3d ba16 71bd 80fc 323a 98dc 1b3c
00000370: 94ea b53c 7837 f7bc 8802 033c 3006 c0bc
00000380: 6386 e8bd e0e9 a0bd 8916 78bd 9536 e0bd
00000390: 2033 31bc 06a4 1d3d 4586 863d 2eea 213d
000003a0: f1b6 f0bd 16eb 7bbd 3a6f e1bd eca3 b0bd
000003b0: 90d9 83bc 0869 6abd b6aa 0a3d 3a87 cebd
000003c0: bcb1 aebc fac9 f0bd 06ff c0bd c97f 863d
000003d0: 7627 0fbd a809 8fbd 5848 7e3c a26b 1cbd
000003e0: 6bda bb3d 23c6 b43d 13f6 9f3d c83d 6cbd
000003f0: 7bc1 d6bd 7c30 58bd f2f7 123d a04a 48bb
0.03423328 0.115815245 0.0076023415 0.050011642 0.05345518 0.04937152 -0.0032635406 -0.018563777
0.014477782 -0.07865849 -0.024794824 -0.095114335 -0.10545858 -0.05194591 0.10536074 0.017377429
0.094554625 0.0035616085 -0.086408064 -0.009824321 -0.07240766 0.08466739 0.073224895 0.10855255
0.07916274 -0.053211406 -0.102323644 -0.031268045 0.07807153 0.106616415 0.054746173 -0.07962933
-0.060334478 0.026227139 0.101368226 -0.099082574 0.06299523 0.062004052 -0.101214506 -0.111825004
-0.027501382 -0.099884406 0.04415264 0.11435559 -0.03650718 -0.09028791 -0.014093004 -0.028933056
0.0095173195 0.06249439 -0.01765526 0.054436006 -0.013301879 0.02058918 -0.012004741 0.10177169
0.109944515 0.063424625 0.058860548 -0.10967619 -0.011514209 0.105910815 -0.034115314 -0.057976164
-0.07617152 -0.06135758 -0.05512763 -0.06343769 0.042135946 -0.048218668 -0.04319673 -0.033778258
0.07664534 -0.08383216 -0.073881716 0.06050708 -0.039927848 -0.00954514 0.11053444 -0.023100466
0.0003835112 -0.019141242 -0.06292558 0.06432053 0.11232955 -0.0030530617 -0.032064058 -0.09549442
-0.013414413 0.08535231 -0.027740553 0.003935784 0.009982176 0.036654614 -0.0070700496 0.034526058
0.022369586 -0.11597869 0.08392704 -0.078329384 0.10836404 0.09068338 -0.07984069 -0.046261504
-0.075565085 0.11738693 -0.096513614 -0.025196202 0.10132625 0.07393422 -0.09479562 0.074293904
0.05770611 0.044533797 -0.032252878 -0.05243551 0.0667705 -0.050313026 0.054437913 0.019740544
-0.071193695 -0.06703839 0.08019208 -0.10865654 0.10618731 0.105926685 0.010448091 0.010401003
0.008038975 0.01953531 0.04211425 -0.03796594 -0.07616587 0.111426465 -0.107686125 -0.09271629
-0.11325974 -0.07589883 0.0010053739 0.11405545 -0.064108334 -0.010404088 -0.06712538 -0.014673173
0.08668249 0.0041140392 -0.10861594 -0.0623015 -0.11320714 0.034379803 -0.09189609 -0.038656667
0.111770414 -0.0011893287 0.011776201 0.010729469 0.015521117 0.09172737 -0.020980224 -0.020212755
-0.0053004995 0.043948255 -0.0029581487 0.095460586 0.01749932 0.032048546 0.09717419 -0.013410114
-0.09752657 0.057991005 0.010183357 0.0784901 -0.0150793865 0.11130955 0.062072136 -0.015356094
0.03407792 0.027639337 -0.09084562 0.023503833 -0.0018376857 0.010540925 0.026814662 0.056738727
-0.014230154 0.06880622 0.10789498 0.10592135 0.027428769 0.008196808 -0.027607337 -0.11642839
-0.09143694 0.058148094 -0.015544236 0.015168093 0.057916425 0.052890338 0.10732622 -0.04448729
0.09452816 -0.08962471 0.012197636 -0.018766955 -0.08836663 -0.08988462 0.027235918 0.11118484
-0.02164898 0.07428559 0.10563346 0.0154828355 0.09812579 0.11052451 0.05171334 0.105016716
0.10845179 -0.058859564 0.00068277866 0.009513043 0.022206582 -0.030177817 0.007996209 -0.02344045
-0.11353757 -0.07857108 -0.060568366 -0.10947911 -0.010815412 0.038486503 0.06568579 0.03952997
-0.11753643 -0.061503492 -0.11007543 -0.086250156 -0.016094953 -0.05722907 0.03385421 -0.10084386
-0.021324985 -0.11757274 -0.09423642 0.06567342 -0.034949742 -0.06984264 0.015520178 -0.038188584
0.09172519 0.08826854 0.07810607 -0.057676107 -0.10486122 -0.052780613 0.03588099 -0.0030562058

sequential/conv2d_4/Conv2D f4 [16, 3, 3, 8]
00000000: cd9e 1c3e 20db 263d 18cc c03c 0c85 48bd
00000010: 5809 fbbc 8067 1cbc 20c5 74bd 3987 0c3e
00000020: 5e36 24be c689 eebd 9836 d03c 13da 093e
00000030: d009 403c 2805 9b3c 006f 1e3c 66c0 813d
00000040: 02be b83d 7b47 11be 9b03 d1bd 2641 80bd
00000050: 4019 59bb b3c1 08be 104f d6bd 4027 48bd
00000060: 86e3 e33d 26c2 c0bd 14b8 1c3d 6c6c 2c3d
00000070: 2628 bc3d e127 293e d46e 27bd 92f5 b33d
00000080: 80a7 0ebc 8a5f b13d 56b4 1abe ac3b 273d
00000090: 7a3a 803d c068 963c a359 03be 681e fcbc
000000a0: a579 223e f035 09be d237 af3d b0d1 23be
000000b0: c57c 2a3e c8ea 23be 8c96 58bd e87f 28be
000000c0: fbff ffbd 19de 1b3e 90ef 18be 2896 25be
000000d0: 4ad7 f53d fe2e 0ebe 2c66 353d 9049 8c3d
000000e0: 2c5d 6dbd c04f 913c b0cf e1bd 4072 b0bd
000000f0: 40d5 b03c ab34 9bbd a09b 823b caed a73d
00000100: 1bd2 cbbd 6cfd 43bd 858e 083e 36bb b2bd
00000110: 0080 34bb 4075 3cbb d544 0c3e 11e5 163e
00000120: 3524 0e3e 3461 503d a044 f1bd eb86 b2bd
00000130: 10be e4bd f64c 6fbd 20a6 593d 0bc6 063e
00000140: 701e 9e3d b4ac 223d a041 51bd 805a aeba
00000150: 2623 d13d 1a06 c03d 181b 22be a0cd 8dbd
00000160: f644 58bd b529 163e 362f 5bbd 9a8f 9f3d
00000170: fab4 aa3d 290f 163e 6b5a d5bd 40e7 ccbc
00000180: 36bd a93d f0a4 9a3d 769b 67bd 8062 5abc
00000190: e079 06be 406d 133d 5014 333c ec97 18bd
000001a0: c0a6 39bb f04f a3bd 458f 253e 6cf4 68bd
000001b0: 806f 523d 1a3c fb3d 4c3b 133d 2bbb 1ebe
000001c0: 204a f1bd 0050 6dbc ec3d 653d a8a8 a13c
000001d0: 8a0c 853d 285f e9bc 0c0a 00bd d300 093e
000001e0: d0d0 363c f684 71bd 2e75 01be 60e1 a23d
000001f0: 8bb9 01be 50fc 7f3c e591 083e 4c52 52bd
00000200: d686 f13d bb0d 00be 001c 263b ac20 6ebd
00000210: b02f debd 66fa fdbd 6314 1dbe 8c11 09bd
00000220: 0c2f 74bd 0046 48bd 581e 8bbc 6863 b4bc
00000230: bb70 dbbd a369 1d3e 031b 0a3e 0c14 72bd
00000240: 7622 2bbd c64e f23d 5000 603c 80fd 913d
00000250: a0cb e2bb d0e6 64bc 0c94 3f3d 18b2 e13c
00000260: 5058 55bc 3b43 213e 0c9d 19bd 961e a63d
00000270: 0a25 d33d 6036 8a3d c388 0abe 30c1 003c
00000280: 80ef 61bd cc94 7b3d 00e2 74bb 4df5 1e3e
00000290: 4e53 15be 1e99 18be 9b91 2abe db2f 81bd
000002a0: a0b0 723d 43ef 22be 00fc 503b 0007 afbc
000002b0: 969e f0bd 531c 093e b050 073c 6c24 70bd
000002c0: 26fb eebd f615 75bd cc01 0d3d 8a41 e13d
000002d0: a644 e2bd baa1 a83d b179 293e f8bd 1fbe
000002e0: 6d4b 1e3e 4cc2 443d 308b f0bd 367c 973d
000002f0: eb56 9cbd 4a88 be3d 285a c33c 86b7 93bd
00000300: 80df eb3c f023 843d a00d 0ebe b494 753d
00000310: acf5 663d 0c9f 4a3d a84c f43c 03c6 043e
00000320: d016 ddbd 8b97 21be 5318 1c3e cc71 3f3d
00000330: 6eb6 09be 72d5 cb3d 005e b73c 198d 043e
00000340: b0e8 11be d020 97bd 50ba 60bc 72b6 ae3d
00000350: b011 dcbd b3d7 243e f85b 23be 14d7 523d
00000360: cccf 29bd f9c4 1b3e fdff 263e aece 0dbe
00000370: c07c 5d3b d3a2 113e 806e 9d3a e3ed 26be
00000380: cc32 7cbd b670 d53d 0084 7fbc 5429 143d
00000390: 61e9 113e d8d6 25be 1a03 fc3d 06b1 bd3d
000003a0: 2018 4ebd 1622 4bbd 13c8 10be 34df 4d3d
000003b0: 05d9 023e c0ea ffbc 82f6 c13d 96e9 833d
000003c0: 5ad3 b43d 06ae 8d3d 46b4 dcbd e04c 033d
000003d0: 60ab 95bb 005e 93bd 5688 8d3d 3611 fb3d
000003e0: ab94 eabd fd5b 033e 5ab9 d23d a01a e0bd
000003f0: f4c8 10bd 505e 86bd 8b1d b4bd 005c 6cbc
0.15294953 0.040736318 0.02353482 -0.04895501 -0.030644104 -0.009546161 -0.059758306 0.13723458
-0.16036364 -0.11647372 0.025416657 0.13462095 0.0117210895 0.018923357 0.009670019 0.06335525
0.09020616 -0.14187424 -0.10205766 -0.06262426 -0.0033126622 -0.1335514 -0.10464299 -0.048865557
0.11127381 -0.09412031 0.038261488 0.042095587 0.09187345 0.16519119 -0.04087718 0.08787073
-0.008706927 0.08660801 -0.15107855 0.040828392 0.062611535 0.018360496 -0.12827162 -0.030776218
0.15866716 -0.13399482 0.08555569 -0.15997958 0.16649158 -0.1600753 -0.052877948 -0.16455042
-0.12499996 0.15221442 -0.14935136 -0.16170561 0.12003954 -0.13885114 0.04428689 0.068499684
-0.057950184 0.017738223 -0.11025941 -0.086155415 0.02158606 -0.07578405 0.003985837 0.081996515
-0.09952184 -0.047849104 0.13335617 -0.08727114 -0.0027542114 -0.002875641 0.13698132 0.1473582
0.13881 0.05087395 -0.11780667 -0.0871714 -0.11169064 -0.058423005 0.053136945 0.13161485
0.07720649 0.039715484 -0.051087976 -0.0013302118 0.10211782 0.09376164 -0.15830648 -0.069239855
-0.05280014 0.14664347 -0.05351182 0.07791062 0.083353 0.1465422 -0.104176365 -0.025012612
0.08288042 0.075509906 -0.056544743 -0.013329148 -0.13132429 0.03599286 0.010930136 -0.03725426
-0.002832815 -0.07974231 0.16167934 -0.056873724 0.051375866 0.12267323 0.03594522 -0.15501086
-0.11781716 -0.0144844055 0.055967256 0.019733742 0.06496532 -0.028487757 -0.03125958 0.1337922
0.011158183 -0.058964692 -0.12642357 0.07953143 -0.12668435 0.015624121 0.13336904 -0.051348016
0.11793296 -0.12505238 0.002534628 -0.058136627 -0.108489394 -0.12401275 -0.15339808 -0.033464
-0.05961518 -0.048894882 -0.016982242 -0.022020057 -0.10714861 0.15372328 0.13486867 -0.05910115
-0.04178091 0.11831431 0.0136719495 0.071284294 -0.0069212466 -0.013971046 0.046772048 0.027550742
-0.013021544 0.15748303 -0.037503287 0.081113026 0.10309799 0.067486525 -0.13528733 0.0078585595
-0.055160046 0.0614212 -0.0037366152 0.15523262 -0.1458256 -0.1490216 -0.16657107 -0.06307956
0.059250474 -0.15911584 0.0031888485 -0.021365643 -0.11748998 0.13389711 0.0082589835 -0.058628485
-0.116689965 -0.059835397 0.03442554 0.10998829 -0.1104825 0.08233972 0.16550328 -0.15599811
0.1545846 0.04803686 -0.11745298 0.07396738 -0.07633766 0.09303339 0.0238467 -0.07212739
0.028793097 0.06452167 -0.13872385 0.059956267 0.056386635 0.049468085 0.029821709 0.1296616
-0.10795367 -0.15780465 0.15243654 0.046739385 -0.13448498 0.09952821 0.02238369 0.1294445
-0.1424892 -0.07379305 -0.013716295 0.085308924 -0.10745561 0.16097908 -0.15953052 0.051474646
-0.041457936 0.15211858 0.1630859 -0.13848373 0.003379628 0.14222269 0.0012011081 -0.16301684
-0.06157188 0.104218885 -0.015595436 0.036172226 0.14249183 -0.16195238 0.12305279 0.0926228
-0.050315976 -0.049593054 -0.14138822 0.05026169 0.12778099 -0.031239867 0.09470846 0.06441037
0.088293746 0.06917958 -0.10776572 0.032055736 -0.0045675486 -0.071956635 0.0691077 0.12259142
-0.114541374 0.1282806 0.10289259 -0.10942578 -0.035347894 -0.065609574 -0.087946974 -0.014426231

sequential/conv2d_3/Conv2D f4 [8, 3, 3, 4]
00000000: fcf3 073d a226 fb3d 5c65 3bbd 523b bb3d
00000010: 19f8 07be c3c6 543e 262f 15be 34db 043d
00000020: dcde 643d b975 3e3e f80d 9e3c 008a 40be
00000030: 7b27 433e f8ab 7bbd 84c7 26bd 92f3 d3bd
00000040: 19b1 25be 98b8 40be cda8 553e 169f ad3d
00000050: 5434 193d f994 2c3e a503 23be 2a72 b2bd
00000060: 410c 093e 348a 183d dd88 333e fc12 59bd
00000070: 0bba 4abe ee5a 9a3d a0cf 0dbd 2416 3cbd
00000080: 00d6 9c3b 2819 dbbd 8933 1d3e 06d6 07be
00000090: a01b b1bd b0e2 42bd c1d4 233e e845 da3c
000000a0: d4a2 663d 42dd 96bd c0a8 24bc fa4e e63d
000000b0: 4e6e a23d a8d8 903c d074 47be d590 333e
000000c0: 1aba 823d 4088 c8bd ab3d 603e 1073 7dbd
000000d0: 4062 223b fa52 d33d 69c7 4dbe c9a5 50be
000000e0: cb3b 6bbe 3fb7 5a3e 7199 5ebe 1072 503c
000000f0: f2db 8ebd b695 fd3d 2c16 4bbe 7ac7 863d
00000100: a124 143e 60ea 3cbe acdb 153d 8f52 4cbe
00000110: 4018 52be 517d 573e 5451 623d 106a 8ebc
00000120: 40b4 b83b 301a 123c 6866 d83c b146 393e
00000130: f4f9 dcbd 2359 083e 50db a4bd eb35 1a3e
00000140: b9b5 10be d460 263d cd13 59be 78c2 01bd
00000150: 5a9a 8bbd a27d b5bd 5e16 fe3d 5947 513e
00000160: e2be 07be 62bf 29be daa4 9ebd 586d c3bc
00000170: b32d 363e c5a2 28be e9bb 6c3e e445 783d
00000180: 0473 74bd 0756 6b3e a450 053d 2e50 3abe
00000190: 2fed 613e 4b05 683e 59d5 1dbe e05b 47be
000001a0: 596f 3e3e a348 4e3e c0b6 343b ccdf 0cbd
000001b0: d185 5d3e e86c bdbc 96e3 d9bd 5834 c23c
000001c0: e22a 26be b6c8 fd3d a407 5cbe be33 62be
000001d0: 409b 82bb 98a4 13be 408e 44be 16c0 0cbe
000001e0: c846 d53c 8dfb 353e 383f bfbd 42de db3d
000001f0: 3068 0ebe 484d c73c 4543 453e d8c0 9e3c
00000200: ba8a 66be b89a 1ebe 8939 6b3e 2c0f 41be
00000210: 000a cbbc ad07 353e ad5d 173e 2a5a d5bd
00000220: 930b 64be 0652 27be 883c ae3c 70da 6bbc
00000230: e70d 4f3e f845 a63c a54a 203e b3a1 39be
00000240: 00ef 03be 5793 193e 2e88 58be 78eb cfbc
00000250: 76ef cbbd 2802 29be cde5 6e3e fc0b 89bd
00000260: fa96 d5bd ebd2 0e3e 5c7a 21be c8e2 cdbc
00000270: dfc0 63be 78fe 51be ced5 d13d eaad 1fbe
00000280: 0bfb 593e b4a2 753d 0cb2 c4bd 6a9a bf3d
00000290: 2cc6 30be 7c7e 793d cec0 8e3d f84f b83c
000002a0: 4cb7 9cbd 7f0f 123e 2832 993c 88bd ecbc
000002b0: 94bd 7c3d 2c7b 51be fcbf d3bd 3085 dbbc
000002c0: bc5d 313d f9e0 1e3e c045 6e3b 08f2 46be
000002d0: 7479 23be bff8 5b3e e056 41bd 0140 41be
000002e0: 7dae 40be f830 d5bc 3457 4dbe 5656 f23d
000002f0: 2cf2 603d 6317 413e b8d2 e03c a509 5dbe
00000300: 1156 53be 50f9 18be d042 65bd e5cb 653e
00000310: 2cda fabd 78be 5abe 4244 bf3d 69e6 5b3e
00000320: 8846 96bd 2497 4ebe 80ea 033b 44e5 1abe
00000330: 1ca5 2dbe e70a 3cbe f2e5 1bbe 82af f93d
00000340: fb21 563e 20f3 653c bdae 32be fc0c 30bd
00000350: 4bd8 463e b933 12be fec2 90bd d0dd 4fbc
00000360: 080e a4bc fc03 023d fb84 f3bd 9ac1 c2bd
00000370: c1a3 353e 1cbc 16bd 56c8 bfbd 0ad1 3cbe
00000380: 20de 14be 3fa2 70be 329d e63d 789a a5bc
00000390: 1ea8 0cbe b215 923d b5dc 343e 6042 c0bb
000003a0: 8717 433e 362c 923d 069e cbbd 645c b4bd
000003b0: 065d fc3d 141d 323d bcfd 013d 33bc 553e
000003c0: 61e0 e8bd aab3 12be 369c c63d ae9f 37be
000003d0: eaf4 cdbd 9ed2 c83d aafb ec3d ca56 3fbe
000003e0: 8087 82bc b05b 3e3c 14ce 6a3d 7244 2fbe
000003f0: 37ff 393e a463 5cbd f412 1c3d f948 683e
0.033191666 0.12263228 -0.04575096 0.09142174 -0.13278235 0.20778947 -0.14568767 0.03243561
0.055876598 0.18599595 0.01929377 -0.18802643 0.1905803 -0.0614433 -0.040717617 -0.10349192
-0.16180839 -0.18820417 0.20865174 0.08477609 0.03740342 0.16853704 -0.15919359 -0.08713181
0.1338358 0.037241176 0.17532678 -0.05299662 -0.19797532 0.07536875 -0.034621835 -0.045919552
0.004786253 -0.106981575 0.1535169 -0.13265237 -0.08647847 -0.047579467 0.15999128 0.026644662
0.05630763 -0.0736642 -0.010049999 0.11245532 0.07931195 0.017681435 -0.19478154 0.17535718
0.06383152 -0.097916126 0.21898524 -0.06187731 0.00247778 0.10318561 -0.200956 -0.20375742
-0.22972028 0.21358965 -0.21738221 0.012722507 -0.06975545 0.12382071 -0.19832677 0.06581016
0.14467098 -0.18448782 0.03658645 -0.19953369 -0.20517063 0.21043898 0.05525334 -0.017384559
0.005636722 0.008917376 0.026416019 0.18093373 -0.10789862 0.13315253 -0.08049643 0.1505963
-0.14131822 0.040619686 -0.2119896 -0.0316796 -0.068165496 -0.08861853 0.1240661 0.20437373
-0.1325641 -0.16576913 -0.07746287 -0.02385585 0.1779087 -0.16468342 0.23118557 0.060613528
-0.05968 0.22982036 0.032547608 -0.18194649 0.22063135 0.22658269 -0.15413417 -0.19468641
0.18597163 0.20144896 0.0027574748 -0.034393117 0.21633078 -0.02312322 -0.10639112 0.0237066
-0.16227296 0.12391798 -0.2148729 -0.2209005 -0.0039857924 -0.14418256 -0.19194889 -0.1374515
0.026034728 0.1777174 -0.0933823 0.10735752 -0.13906932 0.024328843 0.19263943 0.019379064
-0.22513857 -0.15488708 0.22971167 -0.18853444 -0.024785042 0.1767871 0.14781828 -0.10417588
-0.2227004 -0.16339883 0.021269098 -0.014395341 0.20220147 0.020297036 0.15653475 -0.1812809
-0.1288414 0.14997612 -0.21145698 -0.025380835 -0.09957783 -0.16504729 0.2332985 -0.06691739
-0.10429187 0.13947646 -0.15769333 -0.025132552 -0.22241543 -0.20507228 0.10245858 -0.15593687
0.21287172 0.05996962 -0.09604272 0.09355624 -0.17263097 0.06091164 0.06970368 0.02249907
-0.076521486 0.14263724 0.018700674 -0.02889897 0.061704233 -0.20457143 -0.103393525 -0.026796907
0.043302283 0.15515508 0.0036357492 -0.19428265 -0.159643 0.21481608 -0.04720199 -0.18872072
-0.18816562 -0.026024327 -0.20052797 0.118328735 0.054918453 0.18856578 0.027444229 -0.2158571
-0.206383 -0.14938855 -0.05597192 0.22441061 -0.12248644 -0.2136172 0.09339191 0.21474613
-0.073376715 -0.20174843 0.0020128787 -0.1512652 -0.16957515 -0.18363534 -0.15224436 0.121916786
0.209114 0.014035016 -0.1744947 -0.042981133 0.19418447 -0.14277543 -0.07068442 -0.012687162
-0.020026222 0.03174208 -0.118905984 -0.09509583 0.17738248 -0.03680049 -0.09364383 -0.18439117
-0.14537859 -0.23499392 0.112604514 -0.020215258 -0.13736007 0.07133044 0.17662318 -0.0058672875
0.19051944 0.07137339 -0.0994225 -0.088066846 0.1232243 0.043484762 0.03173612 0.20872574
-0.11370922 -0.14326349 0.096977636 -0.17932007 -0.10056479 0.09805797 0.115714386 -0.18685451
-0.015933752 0.01161854 0.057325438 -0.17115954 0.18163763 -0.053805962 0.038104013 0.22684087

sequential/conv2d_2/Conv2D f4 [4, 3, 3, 2]
00000000: 402c 1cbe d060 cfbc 16a8 e8bd ecbe 8fbd
00000010: edd1 8c3e 369d 34be d8c4 383d d08a c33c
00000020: 005c d53c 062f 453e 0d3a 9c3e f5b5 9c3e
00000030: a33e 8c3e a08c c6bd 3b2d 963e a019 b5bd
00000040: f005 223e e351 8cbe 03c4 a4be cc3a b33d
00000050: 3bca 1cbe 367d 083e d3bc 8d3e 26ed 42be
00000060: e658 4f3e b89d a5be 3006 39be 0062 dabb
00000070: f077 143e 68c4 61bd e0cf c63d 4c79 bcbd
00000080: 5b71 a53e a0ad dbbd b0e1 ecbc 3016 71be
00000090: 562b 7c3e e80b 93be 288e 47bd d630 92be
000000a0: b6e5 263e e32d a03e 9863 51bd 0248 703e
000000b0: 0682 8bbe 2378 8c3e eb01 31be a8c3 93be
000000c0: 0b6f 65be 0074 a63c 46f2 13be 407d 24be
000000d0: 70a7 0d3e 2861 353d 663c 46be 5823 6ebd
000000e0: 0338 813e fdfa 973e 6ca7 803d 80f3 d0bc
000000f0: 0a0b 323e fe7d 9cbe 6383 873e 9879 08bd
00000100: 32a3 3d3e c0ee 003e 0012 9dbd 1201 3b3e
00000110: 2b16 7fbe 28dd 493d 60bc d6bd 9645 71be
-0.15251255 -0.025314718 -0.11360185 -0.07018837 0.2750391 -0.17638096 0.0451096 0.023869902
0.026044846 0.1925622 0.3051304 0.30607572 0.27391538 -0.09694791 0.29331383 -0.08842778
0.15822577 -0.27406225 -0.32180795 0.08751449 -0.1531152 0.13329014 0.27683124 -0.19035777
0.20248756 -0.32346892 -0.18068767 -0.0066645145 0.14498878 -0.05511895 0.09707618 -0.09202823
0.32313046 -0.10726476 -0.02891621 -0.2354362 0.24625906 -0.2872002 -0.048719555 -0.28552884
0.16298565 0.3128501 -0.05112037 0.23464969 -0.27247638 0.27435407 -0.17285888 -0.2886021
-0.22405641 0.020318985 -0.14447889 -0.16063404 0.13833404 0.04428211 -0.19358978 -0.058139175
0.25238046 0.29683676 0.06281933 -0.025506735 0.17387024 -0.30564874 0.26467428 -0.033319086
0.18519285 0.12591076 -0.07669449 0.18262127 -0.249108 0.049283177 -0.104851484 -0.23561701

sequential/conv2d_1/Conv2D f4 [2, 3, 3, 1]
00000000: 7ed7 edbe a45a 49be dbfd 6fbe d625 433e
00000010: d565 cebe b603 6b3e eba4 cabe fc5e 78be
00000020: 66c5 50be a83d 5bbe 1cc7 edbe 8ee4 d6be
00000030: c0ac 593c c7d8 a23e c6fe e2be 2960 903e
00000040: a02f aabd dd58 6ebe
-0.4645347 -0.19663483 -0.23436682 0.19057402 -0.40312067 0.22950634 -0.39578947 -0.24254984
-0.20387802 -0.21410239 -0.4644097 -0.41971248 0.013285816 0.31806013 -0.44335002 0.28198364
-0.08309865 -0.23276086

sequential/conv2d/Conv2D f4 [1, 3, 3, 1]
00000000: 50b1 273e 2494 0d3f b0e2 693e 6a70 13be
00000010: 5522 96be 0e9d dcbe 58d8 cdbd eba2 f8be
00000020: 1e14 47be
0.16376233 0.5530417 0.2284038 -0.14398351 -0.29323068 -0.43088573 -0.1005103 -0.48561797
-0.19441268

sequential/dense/MatMul f4 [64, 1920]
00000000: d807 4c3d 9a74 363d 2007 07bd 68f2 32bd
00000010: b882 ba3c 4618 1fbd c068 1aba a046 d83c
00000020: beb4 2f3d 38ba 90bb 7038 2a3b f821 55bc
00000030: a03f b53c 8f6a 26bd 5842 c53c ea0d 183d
00000040: c6c8 3b3d 4e8f 313d ff8a 45bd 79b8 e2bc
00000050: 9865 493d 8882 133c 4ee8 603d 30e4 723b
00000060: 8293 513d 7aab b4bc a4d5 0abd 1453 0f3d
00000070: 6ef1 273d 28bb 983c 9002 c73c 7f60 41bd
00000080: d086 623c 3168 c3bc ef1c e4bc 4880 1d3c
00000090: 1849 023c e0e6 d0ba 3060 423d e090 6d3c
000000a0: 9603 59bd 100b 0fbc 62e3 443d 58e2 fe3c
000000b0: 902c b33c ccfa a83c 0404 8e3c 1826 053d
000000c0: 5c9c 1b3d e3c8 f1bc 806a c9bc a8b5 adbc
000000d0: d611 d1bc b639 463d 20d2 673b b85f 5abd
000000e0: 1a13 193d 8407 7fbc f6f1 85bc d6da 37bd
000000f0: 3661 2fbd a814 ab3c 8884 713c 724a 32bd
00000100: 20b6 133c f8cf 173c b02c 7f3c e940 60bd
00000110: 44cf 5fbc 244a 0bbd 6822 aebc fc58 7dbc
00000120: 1212 273d b504 60bd 8887 48bd 18ca 823c
00000130: b810 4c3c bcab fa3c c41d f53c 701e 97bc
00000140: 90ae 5f3b c42e 403d 9012 edbb e492 463d
00000150: b04a c7bb 2431 62bc b00d 3d3d ac75 78bc
00000160: fca2 2c3d f49a 0ebd 8834 963c fec4 2c3d
00000170: 1e5b 103d e3ef 49bd 285b 99bb 9427 143d
00000180: 041c dd3c f8f3 2e3d 58bb 793c 58e9 44bd
00000190: daa3 3c3d a456 e53c 8871 dbbb 2c91 ac3c
000001a0: 906a e83b 3a51 603d 40f6 a93c 84b6 40bd
000001b0: 1035 4cbd e42c 02bc 6cc8 61bc 58c4 e03c
000001c0: dcca e3bc f225 233d e006 eb3c f8e5 18bd
000001d0: 6065 f63b 60ef 5fbc a240 f2bc 8080 1a3a
000001e0: 68f0 253d 80f3 3b3c ccbd 98bc 6035 51bd
000001f0: f83a 193d 508a b73c d427 2dbc d048 4bbd
00000200: 90bb 41bd 60e6 ea3c feb6 213d 9a1e d0bc
00000210: fcbb fb3c 589d 6a3c 5a10 283d 3c2b 083d
00000220: 502c 823c 98d4 9b3c 8cdc 1abd 08e6 14bd
00000230: e2cd 1f3d 7069 bf3c 5c2f 0c3d 6282 1c3d
00000240: 00c9 35ba 2c04 c13c 60e4 bcbc 387d 9c3c
00000250: c012 a4bb e0c0 013b 567a 51bd 7c7c 84bc
00000260: 1a7b 5c3d 4889 75bc 3894 023c 8092 193b
00000270: e6e7 143d d031 30bc 03c5 18bd 082a 153c
00000280: fc0d 33bd 0aa2 a8bc 2866 c4bb c092 c93c
00000290: 9065 423d e08e 643c d9dc 47bd a18c 3bbd
000002a0: 3cc9 f23c bcbd 8c3c 405a dd3a 84c1 a93c
000002b0: 1a37 94bc 9ec1 093d 38ee c13c 007d 7239
000002c0: 18cc 8fbb a031 fd3c 0041 a0ba 482f 49bc
000002d0: 388c 4d3d 080d bcbb eee6 183d d091 0c3d
000002e0: 9457 873c ea39 e4bc 3451 f43c a0f6 173d
000002f0: 9e62 2abd 9a25 39bd 4040 f03b eba2 3cbd
00000300: 00bc 673c 11df 45bd c8dc 803c b8b5 403d
00000310: 3646 2f3d e007 bf3c d4c7 aabc 54a7 24bc
00000320: 3854 ee3c bac2 003d a06c 863a 10ec 74bc
00000330: 8868 72bc c66d 293d a63c 19bd acac 42bc
00000340: f064 7dbb f6bd 83bc b743 10bd 5cc1 ca3c
00000350: 1943 cfbc 3c56 cf3c 6298 f1bc 5819 f13b
00000360: 20b3 4cbc 54b7 2bbc 5892 4d3d 0246 21bd
00000370: 48f2 bf3c d8bd 963c 085e 463c 18a2 4b3d
00000380: 74e8 59bc 0ce6 20bd ecf2 2a3d b8d2 113c
00000390: 903d e13b 201d 33bb a809 d7bb fcaf 3d3d
000003a0: e01b dfba b8d1 583d 6800 4a3c 8840 443d
000003b0: fea4 83bc 3c55 ef3c 54b5 9bbc 14be 14bc
000003c0: 60bd 22bd 2088 96bb 7089 793b 9c57 583d
000003d0: 40ff a53c 042c 1c3d 6827 503c f84a e73c
000003e0: e429 573d 76ea 293d e084 86bc 4407 52bc
000003f0: e864 80bb 799e 3bbd d048 093c ba46 013d
0.049812168 0.044544794 -0.03296578 -0.043688208 0.02276741 -0.03884151 -0.0005890243 0.026400864
0.04289698 -0.0044167303 0.002597358 -0.013008587 0.022125065 -0.040628966 0.024079487 0.037122644
0.04584577 0.043349557 -0.04822826 -0.027675854 0.049169153 0.009003289 0.054909043 0.003706228
0.051166065 -0.022054423 -0.03389515 0.03499134 0.04100173 0.01864393 0.024293214 -0.047211166
0.013826087 -0.023853393 -0.027845828 0.009613104 0.007951997 -0.0015937947 0.047455013 0.014499873
-0.052981935 -0.008730665 0.04806841 0.031113788 0.021871835 0.020627402 0.0173359 0.032507032
0.037990913 -0.029514736 -0.024586916 -0.021204785 -0.0255212 0.04839488 0.0035373047 -0.05331394
0.037371732 -0.015565757 -0.016350728 -0.044886433 -0.042817317 0.020883873 0.014741071 -0.043528028
0.00901559 0.009265892 0.015574619 -0.054749403 -0.013660256 -0.034006253 -0.02125664 -0.01546311
0.040788718 -0.05469199 -0.048957378 0.015965506 0.012455158 0.030599467 0.02992142 -0.01844713
0.0034131147 0.0469196 -0.007234879 0.04847993 -0.0060819015 -0.013805661 0.04615563 -0.015164774
0.04214762 -0.034815744 0.018335596 0.042180054 0.035243146 -0.04930104 -0.004680056 0.036170557
0.026990898 0.042713135 0.01524242 -0.048074096 0.0460547 0.027995415 -0.0066968836 0.021065317
0.0070927814 0.054764964 0.020747304 -0.04704906 -0.04985529 -0.007945273 -0.013780694 0.027437374
-0.027806692 0.03983111 0.028689802 -0.03732869 0.007519409 -0.013667911 -0.029571835 0.0005893782
0.040512472 0.011471629 -0.01864519 -0.051076293 0.037409753 0.02240482 -0.010568578 -0.049629986
-0.047298014 0.028674304 0.039481156 -0.025405217 0.030729286 0.01431974 0.04103122 0.033244357
0.01589027 0.019022271 -0.037807986 -0.036352187 0.039014705 0.023365706 0.034224853 0.03821028
-0.00069345534 0.02356156 -0.023058116 0.019102678 -0.005007118 0.00197988 -0.05114206 -0.01617264
0.053828336 -0.014986344 0.007969908 0.0023433268 0.036353968 -0.010754064 -0.03729726 0.009104259
-0.04371451 -0.020585079 -0.0059936233 0.024606109 0.04746014 0.01395008 -0.0487946 -0.04578841
0.029636972 0.017180316 0.0016887859 0.020722158 -0.01809268 0.033631913 0.023673162 0.00023125485
-0.0043883435 0.030907452 -0.0012226403 -0.012279339 0.05018255 -0.005738858 0.037329607 0.034318745
0.016521253 -0.027859647 0.029823877 0.037100434 -0.041597955 -0.045201875 0.007331878 -0.04605381
0.014143944 -0.048308436 0.015730277 0.0470483 0.042791568 0.023319185 -0.020847239 -0.01004966
0.029092893 0.031435706 0.0010255761 -0.01494886 -0.01479543 0.041364454 -0.037411354 -0.0118819885
-0.00386649 -0.016081791 -0.035220828 0.024750404 -0.02530055 0.025309674 -0.029491607 0.0073577575
-0.012493879 -0.010480721 0.050188392 -0.039373405 0.023430958 0.018401071 0.01210738 0.04971513
-0.01330005 -0.03928189 0.041735575 0.008900337 0.006873794 -0.0027330592 -0.0065624304 0.04631041
-0.0017021857 0.05293438 0.012329198 0.047913104 -0.016069885 0.029215448 -0.019007362 -0.009078521
-0.039731383 -0.004593864 0.0038076304 0.052817926 0.020263314 0.038127914 0.012704708 0.02823399
0.052530184 0.041483365 -0.016420782 -0.012819115 -0.003918279 -0.04580543 0.008379176 0.03156159

sequential/dense_1/MatMul f4 [64, 64]
00000000: 1d45 103e 7071 4bbc 8011 5a3c 6fd9 273e
00000010: 2925 3e3e 8288 2bbe 5005 d0bc 268f b23d
00000020: c6e1 0ebe 363c ebbd 96fd 8c3d ccaa 7f3d
00000030: a488 033d 4161 40be de07 83bd 45d5 303e
00000040: 560a 83bd b220 38be b0e6 41bd d766 1b3e
00000050: 80fb aa3b 48a8 17be 8cea 4e3d 1eda a43d
00000060: 2e6b d9bd a441 133d 9af0 e63d ff06 04be
00000070: 8c30 6fbd 5a95 24be bf4c 5b3e 0122 4f3e
00000080: 9eb6 ab3d 30b8 0dbe 4c51 753d 1cef 383d
00000090: 4db8 52be bcba 89bd 94ae 41be bb5f 413e
000000a0: 4ba9 35be acbf 253d 20cf 93bc 59fd 4c3e
000000b0: 6a09 10be ea79 e83d edb6 403e f0b3 063d
000000c0: 6c77 4bbe fa4a a43d 0ead dcbd 84d4 283d
000000d0: 291a 0abe 62d8 883d 291a 0abe 789e 04bd
000000e0: 50b7 a93c c36f 0abe 8289 f1bd d082 45be
000000f0: 3817 58bd bca4 033d 70aa 3ebd ac86 783d
00000100: 02b9 31be 9082 d63c f9a3 c7bd 4b15 ffbd
00000110: 72fd e13d c027 2ebb 637f 403e 085a d3bc
00000120: 9993 273e 62a8 d53d 8e01 9bbd 654b 373e
00000130: b3d7 393e 7cda 603d 945f 443d 4db8 283e
00000140: 6e96 be3d 20fa 7bbc 1483 773d d690 ba3d
00000150: 260f 49be d190 283e 446f 29bd 4825 2ebe
00000160: b0b8 6dbc 97f8 143e 52db 28be c685 ac3d
00000170: 093e 08be c3ba 333e 829a b3bd 5438 bfbd
00000180: 0536 4a3e 0757 cbbd f48b 3a3d ec2a 7b3d
00000190: a0bf ab3b 004f 6bbb 0e7a babd 6303 05be
000001a0: 2f1c 0c3e de6e 40be 2a2c e73d d89f 85bd
000001b0: 4cd9 6ebd 51d2 393e 30fe e3bd 5a7f 05be
000001c0: 24ea 52be 9fa1 133e 892d 4f3e 66a4 dfbd
000001d0: 00bb 78bd 5af3 18be 3e81 ff3d a823 8abd
000001e0: 4f8e 5b3e 2085 7e3c 0ad7 debd ce34 f33d
000001f0: 5f32 123e 7e12 a93d a4e2 613d 8092 23bc
00000200: fac1 e63d 8aaa a23d 547c 26be ce6c 9e3d
00000210: 90ee fdbc 9067 bbbd 2034 58bc d081 e7bc
00000220: 13de 4e3e c878 8ebc 7882 af3c 1abb 45be
00000230: e053 65bc 5c33 27bd b02c 41be 405b e5bd
00000240: 7abe c63d 6a6c d4bd f2c3 d93d 72b6 803d
00000250: c8b5 43bd da07 d63d d1fd 0c3e 1fe3 023e
00000260: 0086 003a b6ba bdbd 124c ec3d b8d2 c2bc
00000270: 5e51 bbbd 045b 57bd c49f 2a3d 64f6 b2bd
00000280: 84e1 16be 2a20 a5bd 9db1 4e3e 1a01 9d3d
00000290: 0038 383a f6b5 5abe 03e5 4b3e 8ec6 48be
000002a0: 7547 043e 7ebb 9c3d 0399 563e e2b9 ab3d
000002b0: 1d9e 51be 3019 373c 8dad 173e ccb6 62bd
000002c0: 5baa 3ebe ec52 253d cf4d e4bd 8ce4 1d3d
000002d0: 1a0c 39be f401 4a3d e5fb 1cbe af49 55be
000002e0: 842e 6e3d 55b1 3f3e de91 8dbd 516a 113e
000002f0: 49cd ccbd cd43 313e 3732 073e 4cb6 1bbe
00000300: 9ab0 e33d 2022 2abc d4c9 7e3d ee3b 843d
00000310: f4a0 2cbe 0532 3e3e 8076 bc3a 524e a73d
00000320: 39d4 ffbd 35b3 203e e51b 253e 59c7 143e
00000330: 767c a73d 50c0 ab3c 7609 0cbe 4f8b 30be
00000340: 36a6 57be 0017 e4bc c25e 95bd b605 8f3d
00000350: e702 e0bd 8741 203e ff19 553e 6094 13bc
00000360: 80ad c23c a009 903c 46b7 52be 80ec f03c
00000370: 50b1 6fbd 8d26 2e3e 4781 3a3e 5fba 093e
00000380: b21f e43d 675a 28be 2c11 453d 7b28 013e
00000390: 0023 7e3a baa5 b4bd ac2d 04bd b253 3bbe
000003a0: 9d1d 58be 2d9d 0f3e 00db 0abb 8ed6 e1bd
000003b0: 4270 b03d f483 8dbd c961 2a3e 4cfe 02bd
000003c0: c1a0 01be e8e1 46bd c7d9 593e ce4b fa3d
000003d0: 002e 113a 0461 37be 60a0 993c d149 193e
000003e0: 0094 d1bc db4f 413e 326f 00be 3a24 43be
000003f0: 04f5 0dbd fa16 b33d e2de fcbd c1e5 473e
0.14088865 -0.012417182 0.013309836 0.16391538 0.18568863 -0.16751292 -0.025393158 0.0871871
-0.13953313 -0.11486094 0.06884305 0.062418744 0.032112733 -0.187871 -0.06397985 0.17268856
-0.06398456 -0.17981222 -0.04733914 0.15175949 0.0052179694 -0.14810288 0.05051665 0.08049415
-0.10616146 0.03595127 0.1127636 -0.12893294 -0.058395907 -0.16072598 0.21415995 0.20227815
0.08384441 -0.13839793 0.059891984 0.045149907 -0.20578118 -0.0672507 -0.18914253 0.18884175
-0.17740361 0.040465996 -0.0180431 0.2001852 -0.14066091 0.11351378 0.1881978 0.032886446
-0.19869775 0.08022113 -0.10775195 0.041218296 -0.13486542 0.06681897 -0.13486542 -0.03237769
0.020717293 -0.13519196 -0.11793806 -0.19288182 -0.052756518 0.032139525 -0.04654926 0.060675308
-0.17355731 0.026185304 -0.09748072 -0.12455233 0.11034669 -0.0026573986 0.18798594 -0.025799766
0.16364898 0.10432507 -0.07568656 0.17899854 0.18148689 0.054895863 0.047942713 0.16476555
0.09306036 -0.015379459 0.06042774 0.091096565 -0.19634685 0.16461493 -0.041365877 -0.17006409
-0.014509365 0.14547954 -0.16489914 0.08423953 -0.13304915 0.17551713 -0.087697044 -0.093369156
0.1974717 -0.099287085 0.045543626 0.06132023 0.0052413493 -0.0035905242 -0.09105311 -0.12989573
0.13682626 -0.18792292 0.112877205 -0.065246284 -0.0583127 0.18146636 -0.11132467 -0.13036862
-0.2059713 0.14417122 0.20232214 -0.109200284 -0.060725212 -0.14936581 0.12475823 -0.06745082
0.21441005 0.015534669 -0.10880859 0.11875306 0.14277028 0.0825548 0.055147782 -0.009983659
0.11267467 0.07942684 -0.16258365 0.077355966 -0.030997545 -0.09150612 -0.013196021 -0.028260142
0.20201902 -0.017391577 0.021424517 -0.19309655 -0.013997048 -0.040820464 -0.18864703 -0.11199045
0.09704299 -0.10372241 0.10633077 0.06284799 -0.047780782 0.10450716 0.13768698 0.12781952
0.000490278 -0.09264128 0.11537947 -0.02378212 -0.09146379 -0.052577034 0.04165627 -0.087384015
-0.14734465 -0.080627754 0.20184942 0.07666226 0.00070273876 -0.21358475 0.1991158 -0.19606993
0.12917884 0.07652949 0.20956807 0.08385064 -0.20470472 0.011175439 0.14812298 -0.05535011
-0.18619673 0.040362284 -0.11147653 0.038548037 -0.18071023 0.04931827 -0.15330465 -0.2082889
0.05814983 0.1871999 -0.069125876 0.14200713 -0.100000925 0.1731102 0.13202749 -0.1520626
0.111176684 -0.010384113 0.062204197 0.06456743 -0.16858274 0.18573768 0.0014378577 0.08169235
-0.1249165 0.15693362 0.16123922 0.1452917 0.08178036 0.020965725 -0.13675484 -0.17240642
-0.21059498 -0.027842999 -0.07293464 0.06983511 -0.109380536 0.15649997 0.20810698 -0.009007543
0.023764372 0.017582715 -0.20577726 0.029409647 -0.058518708 0.17006893 0.18213378 0.13450001
0.11138858 -0.16440736 0.04811208 0.12613098 0.00096945465 -0.08820672 -0.03227012 -0.18293646
-0.21105047 0.14024802 -0.0021187663 -0.11027251 0.086151615 -0.06909934 0.16638865 -0.031980798
-0.12658979 -0.048555285 0.21274482 0.1222149 0.00055381656 -0.17908102 0.01875323 0.14969565
-0.025583267 0.18878119 -0.12542418 -0.19056788 -0.034657493 0.08744617 -0.12347199 0.19521238

sequential/dense_2/MatMul f4 [64, 64]
00000000: f1b2 5c3e 744e 543d e66c b13d 40fd 75bc
00000010: b286 ea3d 906c 38bd 1891 b43c 10e6 29bd
00000020: 5faa 503e 27b0 453e a842 3abd 0d42 3b3e
00000030: 405b 6e3b df9b 193e ec5a 00be c048 c73b
00000040: 2501 313e 5392 463e 0929 2fbe 376e 353e
00000050: 74d1 7abd 4928 19be f108 3a3e 00c6 7bbd
00000060: fc20 37be 0a13 45be e6c9 12be ffbb 143e
00000070: dc31 70bd 0452 52be 3e12 17be 96cc bc3d
00000080: 37dc 403e 5fba 263e b995 03be acfe 1dbe
00000090: 9ce6 383d fdf7 223e 5beb dfbd 4212 a7bd
000000a0: 72b5 d33d cf8f 0b3e 5cf7 4f3d c210 d03d
000000b0: e8cb a5bc a049 683c 5b21 4fbe 6c8f 243d
000000c0: 5b99 f9bd 872d 2d3e e41a 10bd 339a 27be
000000d0: 1081 003c 1c8f d4bd d136 5c3e 80e8 35be
000000e0: 1d34 e2bd f793 51be 1ffa 573e b067 32be
000000f0: 6f6d 4d3e 06ea fa3d 82d9 ca3d 9479 11bd
00000100: e403 4d3d 341f 20be f1e2 263e 2e91 853d
00000110: 921f 9b3d 4a8a a0bd 0a61 0fbe 2d41 593e
00000120: 8ae4 d83d 3daa 283e e8e6 a2bc 0c0e 203d
00000130: ab74 0ebe f875 89bd 89e1 213e fc08 583d
00000140: 36a5 d53d 6fdc 31be 41bc 55be 3aa4 c93d
00000150: 18f8 7dbd 9e36 e73d bec3 8c3d 26df 9f3d
00000160: 6a11 a5bd 3199 5cbe fa1b e23d e3a3 033e
00000170: 805d e93b 0c5f 4a3d d42f 153d 9142 223e
00000180: 391e 1c3e 05f4 3e3e 52fb bfbd 3049 b33c
00000190: d403 2bbe 2c42 543d 0d88 3bbe ac08 53bd
000001a0: 9d36 263e b6b8 0abe 38a8 17be a63d cb3d
000001b0: 02f9 ce3d bfcb 573e 5fbc 593e ebd8 253e
000001c0: 0fe8 023e 0c35 44bd cc1f 18be 7271 0bbe
000001d0: bc7d e4bd 6623 eebd e7c6 163e f9c2 223e
000001e0: 315f 2d3e 16d0 9abd fdc4 313e 3222 97bd
000001f0: d048 c8bc 9f6f 2d3e f43c 53bd 8656 963d
00000200: 17e9 27be 4c4c 293d 0056 13bb 0bbe 403e
00000210: 3b5b 0cbe 3440 6a3d cabd e83d e5bb 37be
00000220: 9a6c 83bd 1acc a73d 71eb 31be c87f 1cbe
00000230: 1f19 41be 929b fc3d 9dd7 f1bd 9f09 403e
00000240: fc37 563d 1a82 2dbe 917e 413e 11c9 553e
00000250: 4a39 fb3d c754 353e 601f 8a3c cfb9 4ebe
00000260: 1c96 87bd 6f50 113e 5f06 2dbe 225b 84bd
00000270: 68ae b8bd 407f 123b 4954 44be 2065 c43b
00000280: f800 a4bd 21a9 2f3e 4ef8 da3d 64aa b0bd
00000290: cd0b 453e ccae 183d fe4b ea3d 9edc 25be
000002a0: 6452 73bd 2cc7 493d 807e b2bd 50b8 c7bc
000002b0: 9b63 e9bd e02a e13c 8a66 2fbe 51a0 463e
000002c0: 1ddf cdbd 9686 c13d 4280 58be 0c01 0dbe
000002d0: bc3e a9bd 6029 98bb 00ad 83ba c8de a2bc
000002e0: 8260 c73d 2a68 25be a3a9 0a3e fecd a23d
000002f0: 094b 0fbe 4e76 873d d793 4c3e faab 903d
00000300: 870b cabd 9228 bf3d 7cc9 123d 981e eb3c
00000310: fd44 5abe f8a3 34bd f158 4cbe bd58 513e
00000320: 5538 543e 83a4 2d3e 34c8 5b3d 409f 603c
00000330: 3938 213e 5696 b43d 374b 393e 0964 3a3e
00000340: c303 3b3e 1681 b43d 6572 f8bd ead2 91bd
00000350: 06e3 a7bd b860 b03c 6750 543e f448 7e3d
00000360: 1462 30bd c0dc 7abc de7f f5bd 2086 cd3b
00000370: eb3a 2ebe 15e0 59be 0cb1 3f3d bc53 793d
00000380: 5746 583e 4185 ffbd 0371 203e 82c3 36be
00000390: 1f97 233e 9c9f 3b3d 1052 333c ec45 c8bd
000003a0: 9378 2c3e fe96 c6bd b208 4cbe 1540 d1bd
000003b0: 4a54 e63d e012 afbc af04 02be 0cbb 4abe
000003c0: d092 edbc f6a1 c93d 91c4 483e ef92 d6bd
000003d0: f258 b1bd 3734 bfbd 1da3 50be ded4 57be
000003e0: 1eb5 b93d e048 f33c ffdd 5b3e e5c5 183e
000003f0: 1876 853c 98bb 8f3c d080 fe3c f84a c8bc
0.21552636 0.05183263 0.08663349 -0.015013993 0.11451472 -0.04502541 0.022041842 -0.04147917
0.20377491 0.19305478 -0.045473725 0.18286915 0.0036370307 0.15000866 -0.12534684 0.0060816705
0.17285593 0.19391756 -0.17105497 0.17717825 -0.061234906 -0.14956774 0.18167473 -0.061468124
-0.17883676 -0.19245544 -0.1433483 0.1452484 -0.0586413 -0.20539099 -0.14753053 0.09218709
0.18834005 0.16282032 -0.12850083 -0.15429181 0.0451418 0.15914913 -0.10933562 -0.08157779
0.10337342 0.13629077 0.05077301 0.10159446 -0.020238832 0.01417771 -0.20227568 0.04017584
-0.12187453 0.16911899 -0.035181895 -0.16367416 0.007843271 -0.103788584 0.21505286 -0.17764473
-0.11045096 -0.204666 0.21091507 -0.17422366 0.20061277 0.12251668 0.099047676 -0.035516337
0.05005254 -0.15636903 0.16297509 0.065218315 0.07574381 -0.078388765 -0.14001861 0.21216269
0.10590465 0.16471191 -0.019885495 0.039075896 -0.13911693 -0.06711954 0.15808691 0.052742943
0.10431902 -0.17369245 -0.20872594 0.09845777 -0.06200418 0.11289714 0.06873272 0.07806234
-0.08059962 -0.21542813 0.11040492 0.12855487 0.007121742 0.04940705 0.036422566 0.15845706
0.15245904 0.18647774 -0.093741074 0.021885484 -0.16700679 0.05182092 -0.18313618 -0.051521942
0.16231771 -0.13547024 -0.14810264 0.09923868 0.10106088 0.21073817 0.21263264 0.16196029
0.12783836 -0.047902152 -0.1485588 -0.13617495 -0.111567944 -0.116278455 0.14724313 0.15894689
0.16930844 -0.075592205 0.17360301 -0.07379569 -0.024448782 0.16937111 -0.0515718 0.07340722
-0.1639751 0.041332528 -0.002248168 0.18822496 -0.13706677 0.057190135 0.113643244 -0.1794277
-0.064171985 0.08193226 -0.1737497 -0.1528312 -0.18857239 0.1233436 -0.11808703 0.1875367
0.052299485 -0.16944161 0.18895938 0.20877482 0.122667864 0.17708121 0.016860664 -0.20188068
-0.06620428 0.14190839 -0.16896962 -0.06462695 -0.0901764 0.002235368 -0.19172777 0.0059935004
-0.08007997 0.17154361 0.106918916 -0.086262494 0.19242783 0.037276074 0.114402756 -0.1619744
-0.059404746 0.04926221 -0.08715534 -0.02437988 -0.11395951 0.027486265 -0.1712896 0.19397093
-0.10052321 0.09449498 -0.21142676 -0.1376993 -0.08263919 -0.004643604 -0.0010046065 -0.019881621
0.09735204 -0.16153017 0.13541274 0.07949446 -0.13993467 0.06614362 0.19978271 0.07064052
-0.0986548 0.0933391 0.03583668 0.028701112 -0.2131538 -0.044101685 -0.19955803 0.20444007
0.20724614 0.16957287 0.053657725 0.013709843 0.15744103 0.08817737 0.18095098 0.18202223
0.18263154 0.08813684 -0.12131194 -0.07120307 -0.08197598 0.021530494 0.20733796 0.062081292
-0.043062285 -0.01531142 -0.11987279 0.0062720925 -0.17014663 -0.21276887 0.046799704 0.06087087
0.21120583 -0.12476588 0.1566811 -0.17848018 0.15975617 0.045806512 0.010944858 -0.097789615
0.1684287 -0.09696768 -0.19925192 -0.10217301 0.112465456 -0.021371305 -0.12697099 -0.19797915
-0.02900067 0.09845345 0.19606234 -0.10477244 -0.08659543 -0.09336131 -0.20374723 -0.21077296
0.090677485 0.029697835 0.21471404 0.14919241 0.016291663 0.017545506 0.031067282 -0.02444981

sequential/dense_3/MatMul f4 [24, 64]
00000000: b043 11bd d6c5 383e 1a78 683e 44a7 5c3e
00000010: 2a3e 24be 0c34 f0bd c6b4 7bbe c0b9 de3d
00000020: 92c7 103e cebb 80bd 7b5a 80be 8043 183e
00000030: 5765 843e 5e1a 3e3e 380e fdbc fc1f 6d3e
00000040: 00c0 21b9 c2e4 cbbd a4e9 56bd 80f2 7f3c
00000050: d0e2 b03c b817 f33d 1c44 b23d c191 62be
00000060: ceee 7f3e 3cdf e9bd fbff 803e 0003 583b
00000070: 6e73 5ebe a456 29be 6a92 673e 306b 413d
00000080: 869f 96bd eee4 84bd 0ce0 37bd bbc7 38be
00000090: e205 d9bd 3c28 343e aa3b 58be 449b 913d
000000a0: bd15 58be c88b dc3d 5870 24bd 1c80 25bd
000000b0: f8b4 813d f631 36be cd67 2ebe c07e 5a3d
000000c0: c049 833c 9bf6 79be 523c d1bd e42a ad3d
000000d0: 1829 6f3d 8836 adbc f024 43bd 70f1 223e
000000e0: 189e e4bd 546b edbd 80e4 cf3c a811 48be
000000f0: 0010 4d3e 9472 71be 580b 893d d478 04bd
00000100: d07d dc3c f2e8 423e 7198 04be 53ab 803e
00000110: d41d b63d 4096 a43c 00e8 383c 07bc 05be
00000120: 2a5d 113e 5519 24be 9870 05be 0635 39be
00000130: 50a1 ccbc 5c00 1ebe 427b 5d3e 0a64 023e
00000140: 3014 643d a0c7 58bc c0e7 ad3b 3ac8 143e
00000150: 2037 363c d07c aa3c 233a 74be de99 4bbe
00000160: b075 8d3d 0028 c439 2b75 5dbe f4ca ee3d
00000170: 249d ccbd ccde 333e 3134 5abe 8e8b 20be
00000180: a881 27be 1468 fcbd 5ed6 dbbd 1029 14bd
00000190: 4207 8abd 0ce2 ae3d 5553 1ebe f002 413d
000001a0: c71e 7fbe 208d 36bd c069 8e3c 2cdc 26bd
000001b0: 6ccf b53d 37e0 823e 04a4 55bd 1a72 1fbe
000001c0: 7c30 163e a021 4d3c 3e8b b1bd 4693 183e
000001d0: b439 1cbd 22e0 2fbe 3edd 253e ba36 743e
000001e0: 7e92 9cbd 6860 d03d aca2 173e ecb9 d93d
000001f0: a246 1abe 2e94 7b3e 684a e8bd 6e43 50be
00000200: 8c67 853d e0f7 963d 7c95 53bd d8e7 1bbd
00000210: d2f0 2ebe 3068 d63d c2f2 243e 2434 f1bd
00000220: 346c 55bd f700 843e 6317 35be 00f5 8bbd
00000230: 1ea0 0bbe 16fc 3e3e e6ee 61be e4c4 b8bd
00000240: c410 2bbd a4e1 a0bd 4037 423d e6a0 143e
00000250: 5986 47be d6d4 043e 700c 083d e273 6b3e
00000260: d027 9e3c a812 82be d0c4 f43d 78ad 3a3d
00000270: e54e 4bbe 1c9d 0c3e d0fc 7a3d a4a2 253e
00000280: 42ca 573e 5432 503e 002f b8ba d882 523d
00000290: c020 723d 1a59 85be 3001 cd3d 467c 6fbe
000002a0: cc99 c1bd 34c8 cb3d 5c28 4c3e 00ab ac3c
000002b0: 1b4e 7dbe c4de b1bd e06d dcbc 68ef b23d
000002c0: e0cd 07bc 7ce9 48be 2041 423d 1ca6 0f3e
000002d0: 5897 e73d 225b 073e 8084 62be fc24 5abd
000002e0: c6e1 26be 447a df3d e8ae ba3d c86d 723d
000002f0: 287a d03d c0b1 01bd 2800 cb3d 183e 473d
00000300: 00de f0bd 46ef 7ebe d83e 02be 962b 543e
00000310: 2ec7 773e 10e0 4fbd f4b7 2ebd 3c74 28bd
00000320: 98da 6c3e a487 78be 2cee 6e3e 08c7 9c3d
00000330: 4425 3ebd af3c 51be bc6c fe3d 860c a2bd
00000340: f04c 973d 182f 283d f11b 803e 0e87 aebd
00000350: 528e 2bbe 760f 073e 2e8a 5abe 381c 203e
00000360: aff0 843e 8bc1 05be b7fb 31be 807b fa3b
00000370: 8482 4d3e 0866 563e 6e36 4dbe 7af6 12be
00000380: 7a97 69be 5436 5c3e 4cc3 0cbe b105 73be
00000390: d8bc 133d 460f 543e c084 583d 3ef4 e2bd
000003a0: 28bd 423d 54cd 05bd 06bc a6bd de7a 6d3e
000003b0: ac9a 6cbd 8041 3fbd c679 9dbd 8e61 5f3e
000003c0: 8685 383e 4807 13bd 76c8 553e 0839 363d
000003d0: 2e7f 7fbe 5839 5f3d 4c81 06bd 448a bc3d
000003e0: c2e8 283e c402 6cbd 3a4c 2dbe 68a2 1c3d
000003f0: f093 2bbe 80a9 47be c006 77bc 44d4 573e
-0.035464942 0.18044218 0.22702065 0.21548182 -0.16039339 -0.11728677 -0.24580678 0.10875273
0.1413863 -0.06285821 -0.2506903 0.14869499 0.25858566 0.18564746 -0.03089057 0.23156732
-0.00015425682 -0.099557415 -0.05246891 0.015621781 0.021592528 0.11869758 0.08704397 -0.22125913
0.2499344 -0.11419532 0.25195298 0.0032960773 -0.2172372 -0.16536957 0.22614446 0.047221363
-0.073546454 -0.064889774 -0.044891402 -0.18044941 -0.10596825 0.17593473 -0.2111651 0.07109693
-0.21102042 0.10768849 -0.0401462 -0.040405378 0.06333345 -0.17792496 -0.17031784 0.053343534
0.016026378 -0.24410479 -0.10216583 0.08455446 0.0583888 -0.021144167 -0.04764265 0.15912414
-0.111629665 -0.11592737 0.025377512 -0.19537985 0.20025635 -0.23578864 0.06691617 -0.032341793
0.02691546 0.19034174 -0.12948777 0.2513071 0.08892408 0.020091176 0.011285782 -0.13060008
0.14195696 -0.16025288 -0.13031232 -0.18086633 -0.024979264 -0.15429825 0.2162905 0.12733474
0.055683315 -0.013231188 0.005307168 0.14529505 0.011121541 0.020811468 -0.23850302 -0.19882914
0.06907213 0.00037413836 -0.21626727 0.11659804 -0.0999091 0.17565459 -0.21308972 -0.15678236
-0.16358054 -0.12324539 -0.10734247 -0.036171973 -0.067396656 0.08539209 -0.15461476 0.047121942
-0.24914084 -0.04456818 0.01738441 -0.040737316 0.08877453 0.25561687 -0.05215837 -0.1557087
0.14666933 0.012520224 -0.086691365 0.1489993 -0.038140967 -0.17175344 0.16197678 0.23849002
-0.07645129 0.10174638 0.14808148 0.10631165 -0.15066007 0.24568245 -0.11342317 -0.20338222
0.065138906 0.07371497 -0.05165623 -0.0380629 -0.17084053 0.10469091 0.1610823 -0.11777523
-0.052105144 0.25781986 -0.17684703 -0.068338394 -0.13635299 0.1865085 -0.22063789 -0.09021929
-0.041764036 -0.078555375 0.04741597 0.14514503 -0.19484843 0.12971815 0.033214986 0.22993425
0.019306093 -0.2540486 0.119516015 0.04557559 -0.19854315 0.13731807 0.061276257 0.16175324
0.21073249 0.20331699 -0.0014052093 0.051394314 0.059113264 -0.26044542 0.10009992 -0.2338725
-0.094531626 0.09950295 0.19937271 0.021077633 -0.24736826 -0.08685067 -0.026907861 0.08737069
-0.0082888305 -0.19620317 0.04742539 0.1402821 0.113081634 0.13218358 -0.22120857 -0.053257927
-0.16297063 0.10911992 0.09115392 0.059186727 0.101795495 -0.031663656 0.09912139 0.0486432
-0.11761093 -0.24895963 -0.12719285 0.20719752 0.24197075 -0.050750792 -0.0426559 -0.041126475
0.23130262 -0.24270493 0.23333043 0.0765515 -0.046422258 -0.20433305 0.12423083 -0.07912545
0.073877215 0.041060537 0.25021318 -0.085218534 -0.1675351 0.13189492 -0.21341774 0.15635765
0.25964877 -0.13062112 -0.17381178 0.007644117 0.20069319 0.2093736 -0.20040295 -0.14351836
-0.2281169 0.215051 -0.13746375 -0.2373264 0.036068767 0.20708951 0.052860975 -0.11081742
0.047543675 -0.03266652 -0.081413314 0.23191401 -0.057764694 -0.046693325 -0.07689242 0.21814558
0.18019685 -0.035895616 0.20877251 0.044487983 -0.24950859 0.054498047 -0.03283815 0.092060596
0.1649504 -0.057619825 -0.1692361 0.03824082 -0.16755652 -0.19498253 -0.015077293 0.21077067
