src/main/assets/b.tflite (tflite, 557440 bytes, 14 tensors)

sequential/conv2d_5/BiasAdd;sequential/conv2d_5/BiasAdd/ReadVariableOp/resource;sequential/conv2d_5/Conv2D f4 [32]
0	0x00000000	0.0
1	0x00000000	0.0
2	0x00000000	0.0
3	0x00000000	0.0
4	0x00000000	0.0
5	0x00000000	0.0
6	0x00000000	0.0
7	0x00000000	0.0
8	0x00000000	0.0
9	0x00000000	0.0
10	0x00000000	0.0
11	0x00000000	0.0
12	0x00000000	0.0
13	0x00000000	0.0
14	0x00000000	0.0
15	0x00000000	0.0
16	0x00000000	0.0
17	0x00000000	0.0
18	0x00000000	0.0
19	0x00000000	0.0
20	0x00000000	0.0
21	0x00000000	0.0
22	0x00000000	0.0
23	0x00000000	0.0
24	0x00000000	0.0
25	0x00000000	0.0
26	0x00000000	0.0
27	0x00000000	0.0
28	0x00000000	0.0
29	0x00000000	0.0
30	0x00000000	0.0
31	0x00000000	0.0

sequential/conv2d_4/BiasAdd;sequential/conv2d_4/BiasAdd/ReadVariableOp/resource;sequential/conv2d_4/Conv2D f4 [16]
0	0x00000000	0.0
1	0x00000000	0.0
2	0x00000000	0.0
3	0x00000000	0.0
4	0x00000000	0.0
5	0x00000000	0.0
6	0x00000000	0.0
7	0x00000000	0.0
8	0x00000000	0.0
9	0x00000000	0.0
10	0x00000000	0.0
11	0x00000000	0.0
12	0x00000000	0.0
13	0x00000000	0.0
14	0x00000000	0.0
15	0x00000000	0.0

sequential/conv2d_3/BiasAdd;sequential/conv2d_3/BiasAdd/ReadVariableOp/resource;sequential/conv2d_3/Conv2D f4 [4]
0	0x00000000	0.0
1	0x00000000	0.0
2	0x00000000	0.0
3	0x00000000	0.0

sequential/conv2d_2/BiasAdd;sequential/conv2d_2/BiasAdd/ReadVariableOp/resource;sequential/conv2d_2/Conv2D f4 [2]
0	0x00000000	0.0
1	0x00000000	0.0

sequential/conv2d_5/Conv2D f4 [32, 3, 3, 16]
0	0xbd5e1d6e	-0.054227285
1	0xbd787dd5	-0.060666878
2	0x3dd9183d	0.10600326
3	0x3dbd2c9f	0.092370264
4	0xbd6fa1d8	-0.058503956
5	0xbb8b67b0	-0.004254304
6	0x3dadbeeb	0.0848368
7	0xbdc79ed8	-0.09747094
8	0xbde8fe7a	-0.113766626
9	0x3d8f2a55	0.06990496
10	0xbdbb60f6	-0.09149353
11	0xbd379faa	-0.044830002
12	0x3d0e12e6	0.03468599
13	0x3dc6bfdb	0.09704562
14	0xbd71fefb	-0.05908106
15	0x3be22df0	0.006902449
16	0x3dcfb6ef	0.10142314
17	0xbd6a1abf	-0.057154413
18	0xbcbab0f0	-0.022789448
19	0x3d8edaa3	0.069752954
20	0x3de26297	0.11053961
21	0xbd35e1b0	-0.044404685
22	0xbd6db89d	-0.05803739
23	0x3c0e5f58	0.008689724
24	0x3db4d34f	0.088293664
25	0xbd481458	-0.048847526
26	0x3dedbb39	0.116079755
27	0x3d0a3d32	0.033749767
28	0xbdef8e84	-0.116971046
29	0x3dd33bf7	0.10314172
30	0xbdb768d2	-0.0895554
31	0x3db3325d	0.087498404
32	0x3db777c1	0.08958388
33	0xbd727b32	-0.05919952
34	0xbd90b130	-0.07065046
35	0xbd524398	-0.051333994
36	0xbd11b920	-0.03557694
37	0x3d707c7e	0.058712475
38	0xbdc9d95c	-0.09855911
39	0xbd372ce8	-0.04472056
40	0xbd9f6084	-0.07782081
41	0x3d819563	0.063273214
42	0x3dca66f1	0.09882916
43	0xbd993d41	-0.074823864
44	0xbda96fef	-0.08273303
45	0xbdc62a6f	-0.09676062
46	0xbc69e978	-0.014276855
47	0xbd2bbcf4	-0.041928247
48	0x3d2c0032	0.041992374
49	0xbd9d882c	-0.07691988
50	0x3dbbe565	0.09174613
51	0xbdbf0610	-0.09327328
52	0x3daca2c7	0.08429485
53	0xbd7b8a54	-0.061411217
54	0x3d1ba1ca	0.03799609
55	0xbca1dc74	-0.01975844
56	0xbd329092	-0.043594904
57	0xbdcaec4e	-0.09908353
58	0xbc8e2ef8	-0.01735638
59	0xbd2393fc	-0.03993605
60	0x3da564fb	0.08075901
61	0xbd26dd34	-0.0407383
62	0x3dd9d0a1	0.10635496
63	0x3d044072	0.032288022
64	0xbd70536b	-0.058673304
65	0xbcb6c360	-0.022309959
66	0x3d0c6e5e	0.03428494
67	0xbde643c8	-0.11243397
68	0xbdb61ca0	-0.088921785
69	0xbd73806a	-0.059448637
70	0x3dca047b	0.09864136
71	0x3d5b2132	0.053498454
72	0x3d54829e	0.05188238
73	0xbd4d6d90	-0.050153315
74	0x3d7b736a	0.061389364
75	0xbb884c70	-0.0041595027
76	0x3cd98c14	0.026556052
77	0xbd7aff07	-0.06127837
78	0xbcb0162c	-0.021494947
79	0xbd12d44c	-0.035846993
80	0xbd3a1694	-0.04543169
81	0xba3e4580	-0.0007258281
82	0x3cb2ca34	0.021824934
83	0xbd0475c0	-0.032338858
84	0x3ccd7efc	0.025084965
85	0x3dc7b951	0.09752143
86	0x3d925d81	0.07146741
87	0x3d827d41	0.063715465
88	0xbdd50a70	-0.104023814
89	0x3d9611cd	0.07327614
90	0x3d84f58b	0.06492146
91	0xbc9c6a48	-0.019093648
92	0x3bdd3590	0.00675077
93	0xbd5595ae	-0.0521447
94	0xbdb94f69	-0.090483494
95	0xbd2ef820	-0.0427171
96	0x3c9b7204	0.018975265
97	0x3ca2f00c	0.019889854
98	0xbd98c2ac	-0.07459006
99	0xbc6d6430	-0.014489219
100	0xbdcb5ab4	-0.099294096
101	0xbd770a0a	-0.06031231
102	0xbd935e72	-0.071957484
103	0x3c82514c	0.015907906
104	0xbd3f89ac	-0.046762154
105	0x3d5a3e92	0.053282328
106	0xbc1eff50	-0.009704426
107	0xbdbce312	-0.09222998
108	0x3cd62d04	0.026144512
109	0xbd4eacae	-0.05045765
110	0xb9996a00	-0.0002926141
111	0xbd02c64c	-0.031927392
112	0xbdc03324	-0.09384754
113	0x3d702e1e	0.05863773
114	0xbb3ffe80	-0.002929598
115	0xbbc34c00	-0.0059599876
116	0x3d99eda5	0.0751603
117	0xbd4ad206	-0.0495167
118	0xbd623d9e	-0.055234544
119	0x3dd887cf	0.105727784
120	0x3c9f6acc	0.019460104
121	0x3d8f6651	0.07001937
122	0x3daefe57	0.08544605
123	0xbda701d0	-0.081546426
124	0x3dcf0265	0.101078786
125	0xbd584bda	-0.052806713
126	0xbda23c5c	-0.07921669
127	0x3da6049f	0.0810635
128	0xbda1a1ea	-0.07892211
129	0xbc7aa598	-0.01529827
130	0xbdf00f76	-0.11721699
131	0xbdb02e4e	-0.08602582
132	0xbd887c00	-0.06664276
133	0x3d06db1a	0.032923795
134	0xbd5cb88c	-0.053886935
135	0x3d887d2b	0.06664499
136	0x3db23dd7	0.08703201
137	0xbd99a3f2	-0.07501973
138	0x3d86ba49	0.065785
139	0xbca9cc28	-0.020727232
140	0x3de15c5b	0.110039435
141	0x3d31227e	0.043245785
142	0xbdb25519	-0.08707637
143	0x3d22a492	0.039707728
144	0x3d1cca9e	0.03827917
145	0xbbc50b20	-0.006013289
146	0xbccb3b18	-0.024808452
147	0x3c19efc8	0.009395547
148	0xbdb95917	-0.09050196
149	0x3d39a8e2	0.045327075
150	0x3cd493e4	0.025949426
151	0xbbcf9310	-0.00633467
152	0xbdac0602	-0.083995834
153	0xbd101fce	-0.03518658
154	0xbd25ca14	-0.04047592
155	0x3ded7f75	0.11596576
156	0xbb5402c0	-0.0032350272
157	0xbd1b65a0	-0.037938714
158	0xbd500f42	-0.0507958
159	0xbdd6df93	-0.10491862
160	0x3d169136	0.036759578
161	0x3dadee65	0.08492736
162	0xbd1d13a2	-0.0383488
163	0xbd462102	-0.048371322
164	0x3d00511e	0.03132736
165	0x3d8d0321	0.068853624
166	0xbdd6f42f	-0.10495793
167	0xbde092c9	-0.10965497
168	0xbd81ae66	-0.06332092
169	0x3b454f00	0.0030106902
170	0x3db9c55d	0.09070847
171	0xbda0b590	-0.0784713
172	0x3cf4777c	0.02984213
173	0x3d64c0a2	0.05584777
174	0x3dd0253d	0.10163353
175	0x3b25ab60	0.002527915
176	0xbd7aabc4	-0.061198965
177	0x3d464a5e	0.048410766
178	0x3dc8872b	0.09791406
179	0x3ae720c0	0.0017633662
180	0xbdbb2fb7	-0.0913996
181	0xbd18d694	-0.037314013
182	0x3d7ed67e	0.062216274
183	0x3da94353	0.08264794
184	0xbd30451c	-0.043034658
185	0xbae23080	-0.0017256886
186	0xbd062600	-0.032751083
187	0x3dba07d1	0.09083522
188	0xbc36dab8	-0.011160545
189	0xbdd0a1cf	-0.101871125
190	0x3dc2cf67	0.09512215
191	0x3d41499e	0.047189347
192	0x3dd09cfd	0.10186193
193	0x3d40f6ae	0.047110252
194	0xbdaa7b38	-0.08324283
195	0xbd032fd4	-0.032028034
196	0xbdd8fd29	-0.105951615
197	0xbd0b312c	-0.03398244
198	0xbdcd9ef2	-0.10040082
199	0x3a74bf80	0.0009336397
200	0x3b32bec0	0.002727434
201	0x3b4364c0	0.002981469
202	0xbd94243a	-0.07233472
203	0x3de0d58d	0.109782316
204	0xbde8edc1	-0.11373473
205	0xbd914c0e	-0.070945844
206	0x3d883739	0.06651158
207	0x3d0051d2	0.03132803
208	0x3dd411bb	0.10354944
209	0x3dddeadb	0.10835811
210	0x3b8dc0c0	0.004325956
211	0xbd44c204	-0.04803659
212	0xbd8bc98a	-0.0682555
213	0xbb49b3c0	-0.0030777305
214	0xbd070d66	-0.032971762
215	0x3dbdebe9	0.09273512
216	0xbde399bf	-0.11113309
217	0xbda6e587	-0.081492476
218	0x3b383320	0.0028106645
219	0xbc63ae90	-0.013896599
220	0xbd964962	-0.073382154
221	0xbd185aa0	-0.0371958
222	0x3dbe15e5	0.0928152
223	0xbd98605f	-0.07440256
224	0xbc065de8	-0.0082011
225	0x3dc22ed1	0.09481586
226	0xbc20ec80	-0.009822011
227	0xbd8f2914	-0.06990257
228	0x3d9dff6f	0.07714736
229	0x3da3d415	0.07999436
230	0xbde4dd78	-0.11175054
231	0xbdd7555a	-0.105143264
232	0xbdc11e2e	-0.094295844
233	0xbd7ac9f7	-0.061227765
234	0xbde56fc4	-0.11202958
235	0x3c65c2a8	0.01402346
236	0xbdc18a9b	-0.09450265
237	0x3c47ceb8	0.012195282
238	0x3d4374fe	0.047718994
239	0x39d00d00	0.00039682537
240	0xbd7e8dee	-0.062147073
241	0x3dd4650d	0.103708364
242	0xbde90c22	-0.11379267
243	0xbd28e986	-0.04123833
244	0x3d57fcce	0.052731328
245	0xbdf02005	-0.11724857
246	0xbd692c0a	-0.056926765
247	0xbdbaec55	-0.09127108
248	0xbdd4eb5f	-0.10396456
249	0xbd525946	-0.05135467
250	0xbc6da7b8	-0.014505319
251	0xbd9a1c6f	-0.075249545
252	0xbde4c316	-0.11170022
253	0xbb4c7140	-0.0031195432
254	0xbd8b75ce	-0.06809579
255	0x3d4dd2be	0.050249808

sequential/conv2d_4/Conv2D f4 [16, 3, 3, 4]
0	0x3e25bfa8	0.16186392
1	0xbe05c7fc	-0.13064569
2	0x3e1b0dcc	0.15141982
3	0x3da42f00	0.08016777
4	0x3df539ec	0.11973938
5	0x3d072a6c	0.03299944
6	0x3ddd22e4	0.107976705
7	0xbd0f05a8	-0.034917504
8	0xbd5ed3cc	-0.054401204
9	0x3e1b4122	0.15161565
10	0xbe0e01bd	-0.1386785
11	0x3e321f46	0.17394742
12	0x3dbf6f98	0.09347457
13	0xbe03367a	-0.1281375
14	0xbd6614b8	-0.056172103
15	0xbe2c77ca	-0.16842571
16	0xbd6678d0	-0.05626756
17	0x3c50ff90	0.012756243
18	0x3dab7d08	0.08373457
19	0x3d204060	0.039123893
20	0xbb093f40	-0.002094224
21	0xbd46c180	-0.04852438
22	0x3ba52b80	0.005040586
23	0xbe26e81c	-0.1629948
24	0xbddf7cff	-0.10912513
25	0x3e2f8a42	0.17142585
26	0x3dc89454	0.09793916
27	0xbc3cf7f0	-0.011533722
28	0xbd8cdbbf	-0.06877851
29	0x3e078d60	0.13237524
30	0x3da914f0	0.08255947
31	0x3e1d9884	0.15390211
32	0xbe1271c8	-0.14301217
33	0x3d841a6c	0.06450352
34	0x3de80950	0.11329901
35	0x3e08c562	0.13356546
36	0x3e3048fc	0.17215341
37	0x3e18fdc8	0.1494056
38	0xbd358d80	-0.044324398
39	0xbe18dd08	-0.14928067
40	0x3cb9f3c0	0.022699237
41	0x3dc5044c	0.0961996
42	0xbe33226d	-0.17493601
43	0x3e269186	0.1626645
44	0xbcb3a3b0	-0.021928638
45	0xbde8f723	-0.113752626
46	0xbe1e73ef	-0.15473913
47	0xbdc75d50	-0.09734595
48	0xbe0b553c	-0.13606733
49	0xbe345e53	-0.17614107
50	0x3d640e34	0.055677608
51	0x39c10c00	0.0003682077
52	0xbdd6a8ef	-0.1048144
53	0x3e273fe4	0.16332966
54	0x3d119c08	0.035549194
55	0x3e0d6e78	0.13811672
56	0x3e1a386a	0.15060583
57	0xbd89d2fc	-0.06729695
58	0x3e0ee18a	0.13953224
59	0x3e237c02	0.15965274
60	0x3e1b9cba	0.15196505
61	0xbcdf2dc0	-0.027243495
62	0xbd7fc420	-0.0624429
63	0x3ddd002c	0.107910484
64	0xbe345fab	-0.1761462
65	0x3e386004	0.18005377
66	0xbe22705d	-0.15863176
67	0x3cc05ae8	0.023480847
68	0xbe2a10aa	-0.1660792
69	0x3e3ab574	0.18233281
70	0x3de6cd0c	0.11269578
71	0x3ceada50	0.028668553
72	0xbe0f381a	-0.13986245
73	0x3e07d1fa	0.13263693
74	0xbdcb2f68	-0.099211514
75	0xbd16f8a0	-0.0368582
76	0xbd58d544	-0.05293776
77	0x3d91a078	0.07110685
78	0x3dca75fc	0.09885785
79	0xbe37c505	-0.1794625
80	0xbe16c7d8	-0.14724672
81	0x3d9223a4	0.07135704
82	0xbe13d5ce	-0.14437029
83	0x3df1389c	0.117783755
84	0xbc3c34a0	-0.011487156
85	0xbd426e84	-0.047468677
86	0x3da5faf8	0.08104509
87	0xbdb508a1	-0.088395365
88	0xbe2d144a	-0.16902271
89	0xbd091494	-0.03346689
90	0x3d9c5e2c	0.07635149
91	0xbe05eac6	-0.1307784
92	0x3e322170	0.17395568
93	0xbc325080	-0.0108834505
94	0xbe30acd7	-0.17253433
95	0x3d3939d8	0.04522118
96	0x3d46cbc8	0.048534185
97	0x3e3597c8	0.17733681
98	0x3d6e4190	0.058167994
99	0x3dbae2a8	0.091252625
100	0xbdad0332	-0.08447875
101	0xbe2aac63	-0.16667323
102	0xbd16b7c4	-0.036796346
103	0xbd37d5f8	-0.04488179
104	0xbd9c6b61	-0.076376684
105	0xbe30187d	-0.17196842
106	0xbbce9060	-0.006303832
107	0x3bc2bbe0	0.0059428066
108	0xbe25be38	-0.16185844
109	0xbdb11ae0	-0.08647704
110	0x3d036d80	0.03208685
111	0xbd5a6d74	-0.05332704
112	0x3e0be380	0.13661003
113	0x3cda3850	0.02663818
114	0xbd9de0f3	-0.07708921
115	0x3e2d4d8c	0.16924113
116	0xba945780	-0.0011317581
117	0xbade0100	-0.0016937554
118	0xbd914287	-0.07092767
119	0x3e03570e	0.12826177
120	0x3e10fd58	0.14159143
121	0x3c123760	0.008924335
122	0x3e2e5112	0.17023113
123	0x3dd9a8c4	0.106278926
124	0x3d7be578	0.061498135
125	0xbcf3a9d8	-0.029744074
126	0xbd586d84	-0.052838817
127	0xbb114880	-0.0022168458
128	0xbe17d062	-0.14825585
129	0xbc905948	-0.017620698
130	0xbd91ff0f	-0.07128727
131	0x3da1e8cc	0.079057306
132	0xbd5eba6c	-0.054377005
133	0x3bda6720	0.0066651255
134	0xbdf57971	-0.11986054
135	0x3e052446	0.13002118
136	0xbdaa0ce6	-0.083032414
137	0x3e0d4d7e	0.13799092
138	0x3ba02ee0	0.0048884004
139	0xbc800d60	-0.015631378
140	0xbdd53f70	-0.1041249
141	0xbd62cf40	-0.05537343
142	0xbd851475	-0.064980425
143	0x3e2dbfec	0.16967744
144	0xbd35b2f8	-0.04436013
145	0x3e31743e	0.17329499
146	0xbe266db2	-0.16252783
147	0x3d5062c4	0.05087544
148	0x3e189764	0.14901501
149	0xbc9dda98	-0.019269273
150	0xbd670da8	-0.056409508
151	0xbdfe811a	-0.12426968
152	0xbd751c0e	-0.05984121
153	0xbe20b1be	-0.15692803
154	0x3d6b698c	0.057473704
155	0xbe387254	-0.18012363
156	0x3e135860	0.14389181
157	0xbe3a5773	-0.18197422
158	0xbc2d9860	-0.010595411
159	0xbe0729b6	-0.13199505
160	0x3c839bb0	0.016065449
161	0xbc2cf760	-0.010557026
162	0xbcf410b8	-0.029793128
163	0xbbe2c740	-0.006920725
164	0x3e0f378e	0.13986036
165	0x37c24000	2.3156404e-05
166	0xbe0fe05b	-0.14050429
167	0xbe089583	-0.13338284
168	0x3da60264	0.08105925
169	0xbda3bfe6	-0.07995586
170	0xbe2ee90c	-0.17081088
171	0x3e00bc58	0.12571847
172	0x3c9f80e8	0.019470647
173	0xbd8a1bdb	-0.06743594
174	0x3d3dbc74	0.0463223
175	0xbd62df98	-0.055389017
176	0x3d2189e0	0.03943813
177	0xbde9c577	-0.114146166
178	0x3db76ac0	0.08955908
179	0x3def9e34	0.11700097
180	0x3c9e8e10	0.01935485
181	0xbdc5aacf	-0.0965172
182	0x3e0fc484	0.14039809
183	0x3daac014	0.08337417
184	0x3d5ab180	0.053391933
185	0xbe2a4fc4	-0.1663199
186	0xbbaf6ec0	-0.0053537786
187	0xbe2e363a	-0.17012873
188	0x3deb1190	0.11477959
189	0x3c3857c0	0.01125139
190	0x3daf2c98	0.085534275
191	0xbe1b3c17	-0.15159641
192	0x3ddb4ea8	0.10708362
193	0xbd9fde43	-0.07806065
194	0xbda0387a	-0.07823272
195	0xbe287b33	-0.16453247
196	0xbdbbdad7	-0.091726
197	0xbd8d2738	-0.06892246
198	0xbe199de8	-0.15001643
199	0xbddc53da	-0.10758181
200	0x3de0f9cc	0.10985145
201	0xbe1e79bb	-0.15476124
202	0xbd1ad184	-0.037797466
203	0xbd1844d4	-0.037175015
204	0xbdd12c53	-0.10213532
205	0xbe3a5c84	-0.18199354
206	0xbe2ac070	-0.16674972
207	0xbce842c0	-0.028352141
208	0x3dac73c4	0.08420518
209	0x3df41874	0.119187266
210	0xbe316004	-0.17321783
211	0xbc1db7c0	-0.009626329
212	0xbc2a2540	-0.010384858
213	0x3e218188	0.15772069
214	0xbd6b2e58	-0.057417244
215	0xbd00a4c8	-0.031407148
216	0x3db7f514	0.08982292
217	0x3d0821c4	0.033235326
218	0x3e22e32a	0.15906969
219	0xbe213c13	-0.15745573
220	0xbe0b3675	-0.13594992
221	0x3e1b73a0	0.15180826
222	0xbe172ee6	-0.14763984
223	0x3e231a1a	0.15927926
224	0xbd8c9b4d	-0.06865559
225	0xbd94cf62	-0.07266118
226	0x3e218988	0.1577512
227	0xbda4cb5f	-0.080466025
228	0xbdc560af	-0.096375816
229	0xbd2143ac	-0.039371178
230	0xbd0592d4	-0.03261073
231	0x3d387110	0.0450297
232	0xbe2d47e7	-0.1692196
233	0xbd2bd008	-0.04194644
234	0xbd2804d4	-0.04102023
235	0xbd18eae0	-0.03733337
236	0x3df29e40	0.1184659
237	0x3daa67e4	0.08320597
238	0xbd88e996	-0.06685178
239	0xbdcf39f1	-0.10118473
240	0x3d18e670	0.037329137
241	0xbbee1cc0	-0.007266611
242	0x3ccf7c20	0.025327742
243	0xbdeeff65	-0.116698064
244	0x3d140f80	0.036147594
245	0xbe2cde7a	-0.16881743
246	0x3da43b70	0.08019149
247	0xbdb36b2b	-0.08760675
248	0xbcc3a018	-0.02388005
249	0xbdaf0368	-0.085455716
250	0xbe248c2a	-0.16069093
251	0x3e184d46	0.14873227
252	0xbdfa54ee	-0.1222323
253	0xbd0f5ae0	-0.034998775
254	0xbdb346b3	-0.08753719
255	0x3dc8eeac	0.09811148

sequential/conv2d_3/Conv2D f4 [4, 3, 3, 2]
0	0xbea0c36e	-0.313991
1	0x3e627aea	0.221172
2	0x3e2030d6	0.1564363
3	0xbe9b35d6	-0.3031451
4	0xbe6647cb	-0.22488324
5	0x3ddbd82c	0.10734591
6	0x3d7f5e00	0.062345505
7	0xbe88df03	-0.26732644
8	0x3d76e9e8	0.060281664
9	0xbe60be7b	-0.21947663
10	0xbe4a43c0	-0.19752407
11	0xbe6c1d46	-0.23058042
12	0xbe9c0816	-0.3047492
13	0xbd492928	-0.049111515
14	0xbc328800	-0.010896683
15	0x3e4793ca	0.19489971
16	0xbd2c35a8	-0.042043358
17	0x3da15494	0.0787746
18	0xbc8c0b30	-0.017095178
19	0xbe985530	-0.29752493
20	0xbe02dc0b	-0.12779252
21	0xbe9bce8e	-0.30431026
22	0x3e6bd8b2	0.23031881
23	0xbd9ce8d4	-0.07661596
24	0x3e46de6a	0.19420782
25	0x3dc01cf4	0.09380522
26	0xbd311880	-0.043236256
27	0xbd816634	-0.06318322
28	0x3d9624ac	0.07331213
29	0x3e5115aa	0.2041842
30	0x3e99544d	0.2994713
31	0x3cc80450	0.024416119
32	0xbddcf20c	-0.10788354
33	0x3db86280	0.090031624
34	0x3e1ed0c6	0.15509328
35	0xbe3070b6	-0.17230496
36	0x3ccaf2d0	0.024773985
37	0xbe513586	-0.20430574
38	0xbd5147a8	-0.051093727
39	0xbe43215b	-0.19055693
40	0xbe44ab0b	-0.19205873
41	0xbe40fe56	-0.18847021
42	0xbe4c4330	-0.19947505
43	0x3e4612e6	0.19343147
44	0xbe9efc0e	-0.31051677
45	0xbe9eb0be	-0.3099422
46	0x3e9db40d	0.3080143
47	0xbc667b00	-0.014067411
48	0xbe733036	-0.2374886
49	0x3be63140	0.007024914
50	0x3d0f8868	0.035042197
51	0xbe6fc950	-0.23416638
52	0x3e81df69	0.2536576
53	0x3e2111c0	0.15729427
54	0x3e8a8ab9	0.27058962
55	0x3e996c0d	0.2996525
56	0xbe8bc063	-0.27295217
57	0xbe8cb243	-0.27479753
58	0x3e86ffa5	0.26366916
59	0x3b850e00	0.004060507
60	0xbe9503a8	-0.29104352
61	0x3dabae14	0.08382812
62	0xbe91471e	-0.2837457
63	0x3e7be636	0.24599537
64	0x3e3d605a	0.18493786
65	0x3e79ea92	0.24405888
66	0x3e740ec2	0.23833755
67	0x3e404baa	0.18778864
68	0xbd7ca5a8	-0.06168142
69	0xbc256d00	-0.010096788
70	0xbe587dc6	-0.21141729
71	0xbe251130	-0.16119838

sequential/conv2d_2/Conv2D f4 [2, 3, 3, 1]
0	0x3dd5dffc	0.10443112
1	0x3ed8cdeb	0.42344603
2	0xbdc84824	-0.09779385
3	0xbde52e6c	-0.11190495
4	0xbb5af780	-0.0033411682
5	0xbd0b2ee0	-0.03398025
6	0xbdbfaac8	-0.09358746
7	0x3e802a89	0.25032452
8	0x3ecdc37f	0.40188214
9	0xbe820527	-0.25394556
10	0xbe28f34e	-0.16499063
11	0x3d1d7888	0.038445026
12	0xbdcea630	-0.100902915
13	0x3ede4023	0.43408307
14	0x3e8060e5	0.25073925
15	0x3ea639c3	0.32465944
16	0xbcbcab30	-0.023030847
17	0xbe119e14	-0.14220458

sequential/conv2d_1/Conv2D f4 [1, 3, 3, 1]
0	0x3ed751a6	0.4205448
1	0xbeaefa7f	-0.34175488
2	0xbe008bf4	-0.12553388
3	0xbef87476	-0.48526353
4	0x3e1a4330	0.15064692
5	0xbd8e35d8	-0.06943864
6	0xbed658e2	-0.41864687
7	0x3e5572a0	0.20844507
8	0x3f06c53e	0.5264472

sequential/conv2d/Conv2D f4 [1, 3, 3, 1]
0	0xbe6d8d2c	-0.23198384
1	0x3e0b294c	0.13589972
2	0x3e763260	0.24042654
3	0x3e0b8114	0.13623458
4	0x3ea1f58a	0.31632644
5	0xbe4da6ce	-0.20083162
6	0x3e0c275c	0.1368689
7	0xbef0ea65	-0.4705383
8	0xbef31785	-0.4747888

sequential/dense/MatMul f4 [64, 1920]
0	0xbbbee750	-0.0058259144
1	0x3d10f926	0.035393856
2	0xbc9a85e8	-0.01886268
3	0x3b318970	0.0027089976
4	0x3b959858	0.00456528
5	0x3d251142	0.04029966
6	0x3d1b8e1e	0.03797733
7	0xbcf3ea7f	-0.029774902
8	0xbd0bf124	-0.034165516
9	0x394e7500	0.00019689277
10	0x3ab419e0	0.0013740622
11	0x3c60b828	0.013715781
12	0x3ba38ce0	0.004991159
13	0xbd082e18	-0.033247083
14	0x3ce41228	0.027840689
15	0x3d03f922	0.032220013
16	0xbd07beb4	-0.033140853
17	0xbd2937f4	-0.041313127
18	0x3d1dffc4	0.038573995
19	0x3ceeae84	0.02913595
20	0x3d3b2374	0.045688108
21	0x3c653f88	0.013992198
22	0x3d323fee	0.043518
23	0x3cf9db90	0.030500203
24	0xbd0c57cc	-0.034263417
25	0x3d18fd42	0.0373509
26	0x3caa1c74	0.02076552
27	0x3bc76bb0	0.0060858354
28	0xbcc50067	-0.024048043
29	0xbc52f500	-0.012875795
30	0x3d317022	0.04331983
31	0xbcf9c54c	-0.030489586
32	0x3b88fdd0	0.0041806474
33	0x3c8408b0	0.016117424
34	0xbb506740	-0.0031799823
35	0xbd00f2e0	-0.031481624
36	0xbcd7b3d8	-0.026330873
37	0xbd17c41a	-0.03705225
38	0xbc191758	-0.0093439445
39	0xbc383c4c	-0.011244845
40	0xb94cb900	-0.00019523874
41	0x3d49f932	0.049309917
42	0x3d1b502e	0.037918262
43	0xba910ea0	-0.0011066981
44	0xbd4e0440	-0.050297022
45	0x3c791ea8	0.015205063
46	0x3cb25a00	0.021771431
47	0x3c74b830	0.014936492
48	0x3b225430	0.0024769418
49	0xbc8b1ed8	-0.01698248
50	0x3c069928	0.008215226
51	0x3d303d8e	0.043027453
52	0x3d604cc6	0.054760717
53	0x3c6032e8	0.013684012
54	0x3b0da580	0.0021613538
55	0x3d12670c	0.035742804
56	0x3d060a54	0.032724693
57	0x3d195250	0.037432015
58	0xbd5ae004	-0.053436294
59	0xbb10a760	-0.002207242
60	0x3ca269e4	0.019825883
61	0xbbfc6c40	-0.007703334
62	0xbbd7c480	-0.006584704
63	0x3c2b8e78	0.010470979
64	0xbd2e28d0	-0.04251939
65	0x3c79b6b8	0.015241317
66	0x3c90eae0	0.017690122
67	0x3ca0a0b8	0.019607887
68	0x3cca7f80	0.024719
69	0x3b7e6c70	0.0038821958
70	0xbcc21164	-0.023689933
71	0x3c553a18	0.013014339
72	0x3d358d4a	0.044324197
73	0xbd1a12e6	-0.03761568
74	0x3ca3c054	0.01998917
75	0x3d2b25e2	0.041784175
76	0x3ce06728	0.027392939
77	0xbcb603ac	-0.022218548
78	0xbc3b4c28	-0.011431731
79	0x3ceead5c	0.029135399
80	0xbd5ea7d1	-0.05435926
81	0x3c28c028	0.01029972
82	0x3d0650b0	0.032791793
83	0x3d240c2e	0.040050678
84	0xbb90ab08	-0.0044149198
85	0xbd4b31a6	-0.049607895
86	0x3cf576e8	0.029963925
87	0xbd313c28	-0.04327026
88	0x3c6a0750	0.01428397
89	0xbcf62374	-0.030046202
90	0x3d1df330	0.038562
91	0x3c6d2a70	0.01447545
92	0x3c433808	0.011915214
93	0xbb4d34f0	-0.003131207
94	0x3d5e103e	0.05421471
95	0xbbe02b98	-0.0068411343
96	0xbcca2fed	-0.024681056
97	0x3cdc89a0	0.026921093
98	0x3bbf5d58	0.005839985
99	0x3caf5550	0.021402985
100	0x3d2bde12	0.04195983
101	0xbcc0da7e	-0.023541685
102	0xbaeb3e40	-0.0017947629
103	0x3c37e218	0.011223339
104	0x3c86c1c8	0.016449824
105	0xbc27b660	-0.010236353
106	0x3d5376c4	0.051626936
107	0xbd24273d	-0.040076483
108	0xbcea21f7	-0.028580649
109	0xbcf75cb1	-0.030195566
110	0xbc2656c0	-0.010152519
111	0xbd5643ff	-0.05231094
112	0xbce0d77b	-0.0274465
113	0x3d1f3dbc	0.038877234
114	0x3cc888e4	0.024479337
115	0xbd520db0	-0.051282585
116	0xbca34b9c	-0.019933514
117	0x3ce4a948	0.02791275
118	0xbc84434a	-0.016145367
119	0xbd5a1736	-0.053244792
120	0xbb8da0c8	-0.004322145
121	0xbcf45696	-0.029826444
122	0x3a5c6840	0.00084078684
123	0x3d00bede	0.031432025
124	0xbd4c98e3	-0.04995049
125	0xbc37191c	-0.01117542
126	0xbccc96b0	-0.024974197
127	0x3d312e30	0.04325694
128	0xbc9cbedc	-0.019133978
129	0x3c5cd250	0.013477877
130	0xbd2fa09e	-0.042877786
131	0xbc50e860	-0.012750715
132	0x3d0439d0	0.032281697
133	0x3d35bcb0	0.0443694
134	0xbb8c87f8	-0.0042886697
135	0x3ce2c560	0.027682006
136	0xbd305d4c	-0.043057725
137	0x3c730748	0.014833279
138	0x3c0179b8	0.007902555
139	0x3cafada4	0.021445103
140	0x3d3f675c	0.04672943
141	0xbd472514	-0.048619345
142	0xbcb53b5c	-0.022123031
143	0x3d550f7a	0.052016713
144	0x3b8857c0	0.0041608512
145	0xbd3adac8	-0.045618802
146	0x3cb31d30	0.021864504
147	0x3cc32bac	0.023824535
148	0x3d5676a2	0.05235923
149	0x3ca07634	0.019587614
150	0xbc08bd5c	-0.008345928
151	0xbd49681f	-0.049171563
152	0x3d40ba3a	0.0470526
153	0xbc8e6f38	-0.017387018
154	0x3d466376	0.048434697
155	0xbc8e3ea2	-0.01736385
156	0x3c87e7c0	0.01659
157	0x3bfa7c50	0.0076442137
158	0x3aee4a40	0.0018180087
159	0xbb964d80	-0.0045868754
160	0x3c617948	0.013761826
161	0x3c8c2174	0.017105795
162	0xbd573c89	-0.052547965
163	0xbd1fec99	-0.039043996
164	0xbcee1226	-0.029061388
165	0x3d09c854	0.033638313
166	0x3b76b1d0	0.0037642606
167	0x3d515f4e	0.05111628
168	0x3cdc7ce4	0.026915021
169	0x3b469d20	0.0030306056
170	0xbb8c0880	-0.004273474
171	0xbbc876d8	-0.006117683
172	0xbca0dd7a	-0.019636858
173	0xbd55335b	-0.05205093
174	0xbd5836ba	-0.052786566
175	0x3d4c96b0	0.049948394
176	0xbbc546d8	-0.006020408
177	0x3c816b38	0.015798196
178	0xbd212e7c	-0.03935097
179	0x3d24e01c	0.04025279
180	0x3b3d0050	0.0028839298
181	0xbd1ac080	-0.03778124
182	0xbcfb6663	-0.03068847
183	0x3c8d0888	0.017215982
184	0x3c4199d0	0.011816457
185	0x3d006b94	0.031352594
186	0xbcc98596	-0.024599832
187	0x3d5b54d6	0.053547703
188	0xbca97544	-0.0206858
189	0x3c6f1f18	0.014594816
190	0x3c92bf24	0.017913409
191	0x3bbb91d8	0.005724173
192	0x3c8dc320	0.017304957
193	0xbd5e9d4a	-0.05434922
194	0xbca91944	-0.02064193
195	0x3cfb21b4	0.03065572
196	0x3bcdca50	0.006280221
197	0x3ab78940	0.0014002696
198	0x3d45ce8e	0.04829269
199	0x3d374e2a	0.044752277
200	0x3c3a0238	0.011353068
201	0x3a86a6c0	0.0010273084
202	0xbd487219	-0.048936937
203	0xbd186c84	-0.037212864
204	0x3cdea44c	0.027177952
205	0x3b93ab80	0.0045065284
206	0x3c46e798	0.012140177
207	0x3b60e480	0.0034315884
208	0x3d4c16d8	0.049826473
209	0x3cb48eb0	0.022040695
210	0xbd266782	-0.040626056
211	0x3c90ec90	0.017690927
212	0x3d18f2da	0.037340976
213	0xbcf960e1	-0.030441703
214	0x3c29bc30	0.010359809
215	0x3d3ec8c0	0.04657817
216	0x3d0e7746	0.034781717
217	0xbd08fb84	-0.03344299
218	0xbd1ca72c	-0.038245365
219	0xbc9378b0	-0.018001884
220	0xbc9f9a90	-0.01948288
221	0x3c3fe208	0.011711605
222	0xbcb97c94	-0.022642411
223	0x3cb3ad78	0.021933302
224	0xbd595112	-0.05305583
225	0xbc46bbf8	-0.012129776
226	0xbd2514fc	-0.040303215
227	0x3d400b96	0.04688605
228	0x3d3face6	0.04679575
229	0x3cf01828	0.029308394
230	0xbbc2b620	-0.005942121
231	0xbd2269f3	-0.039651822
232	0xbd2873e4	-0.041126147
233	0x3c3b85c0	0.011445463
234	0xbc8f6332	-0.017503355
235	0x3d31d61c	0.04341708
236	0xbd128cc8	-0.03577879
237	0xbd4b71e4	-0.04966916
238	0xbbf502c8	-0.007477138
239	0x3d362566	0.04446926
240	0xbc3905e8	-0.011292912
241	0xbd17ad83	-0.037030708
242	0xbd1a4a58	-0.037668556
243	0x3d21c4dc	0.03949438
244	0x3cf11dc8	0.029433146
245	0x3c4ef2d8	0.012631141
246	0x3d130634	0.035894588
247	0xbcc3371c	-0.02382999
248	0x3d0836c4	0.033255354
249	0x3cda74b0	0.026666969
250	0xbcf66377	-0.030076725
251	0x3d4f4a16	0.050607763
252	0x3c3e4eb8	0.011615448
253	0xbcbf89c6	-0.023381125
254	0x3c781ab8	0.015143089
255	0xbcdeca70	-0.02719614

sequential/dense_1/MatMul f4 [64, 64]
0	0xbe296828	-0.16543639
1	0x3d27664c	0.040869042
2	0x3d6aef94	0.057357386
3	0xbe53a923	-0.2066999
4	0xbe0c3dde	-0.13695475
5	0xbe41f586	-0.18941316
6	0x3d7efeac	0.062254593
7	0xbd3dcf2c	-0.046340153
8	0x3e58eedd	0.21184869
9	0x3e3be36d	0.18348475
10	0xbd9adb3c	-0.07561347
11	0x3d5bb3ec	0.053638384
12	0xbe4c07ed	-0.19924898
13	0x3e0c522b	0.1370322
14	0x3e13bcab	0.1442744
15	0xbbc77e00	-0.0060880184
16	0x3df6390a	0.12022598
17	0xbe01bcc7	-0.12669669
18	0x3ca55540	0.020182252
19	0x3e1d90e1	0.15387298
20	0x3e153695	0.14571603
21	0xbd64fa2c	-0.055902645
22	0xbe25f9b6	-0.16208538
23	0x3d036fa0	0.032088876
24	0x3e4edd0b	0.20201509
25	0x3e1ec07d	0.15503116
26	0x3ca92f00	0.020652294
27	0x3da0076a	0.07813914
28	0xbd8eea6e	-0.06978308
29	0x3dc3f246	0.09567694
30	0x3cffe720	0.031238139
31	0x3e29c68d	0.16579647
32	0x3cb91b10	0.022595912
33	0x3dd706b6	0.10499327
34	0x3e00d46d	0.12581034
35	0xbe3bda41	-0.18344976
36	0xbe055ed6	-0.13024458
37	0xbd8f5af6	-0.06999771
38	0xbca37df0	-0.019957513
39	0xbdec9297	-0.11551397
40	0xbe1e937f	-0.15485953
41	0xbbd3f0e0	-0.0064679235
42	0xbd7ede08	-0.062223464
43	0xbde0bfb9	-0.10974068
44	0x3e4b8f5f	0.1987891
45	0xbdc24b16	-0.09486978
46	0x3e063e97	0.13109814
47	0x3d77dd34	0.06051369
48	0xbd7a20ac	-0.061066315
49	0x3d87b866	0.06626968
50	0xbe438ec7	-0.19097434
51	0x3dbd6576	0.09247868
52	0xbdcd3c61	-0.10021282
53	0x3dbf5726	0.09342794
54	0xbe2cdac2	-0.16880324
55	0x3de7f546	0.11326079
56	0xbd8225d6	-0.06354873
57	0xbe02ff7b	-0.1279277
58	0xbe10a2a8	-0.14124548
59	0xbe3fddcf	-0.18736957
60	0xbe10a2cb	-0.141246
61	0xbe04c67f	-0.12966345
62	0xbd50322c	-0.050829098
63	0x3c2ea7d0	0.010660127
64	0xbd6894ec	-0.056782648
65	0x3e259da1	0.16173412
66	0x3e02d2a7	0.1277567
67	0x3e58bcc5	0.2116576
68	0x3dea8992	0.11452021
69	0xbd147e04	-0.03625299
70	0xbdbe558a	-0.09293659
71	0xbd7408e8	-0.059578806
72	0x3d59e764	0.053199187
73	0x3da2d3e2	0.0795057
74	0x3db0df36	0.08636324
75	0x3d932f8a	0.07186802
76	0x3cb21308	0.02173759
77	0xbca82350	-0.02052465
78	0xbde79e67	-0.1130951
79	0xbbb0ad00	-0.005391717
80	0x3e353e35	0.17699511
81	0x3e432743	0.19057946
82	0x3e3b7773	0.18307285
83	0xbd992b08	-0.07478911
84	0xbbc6e660	-0.0060699433
85	0x3d6cd874	0.057823613
86	0xbcd9b030	-0.02657327
87	0x3e59c5d5	0.21266873
88	0xbd058fc4	-0.03260781
89	0xbd8ff138	-0.07028431
90	0xbe2a3422	-0.1662145
91	0x3daf4a22	0.085590616
92	0x3e08cf91	0.1336043
93	0x3daa3062	0.083100095
94	0x3de19286	0.11014275
95	0x3dd5b44a	0.10434778
96	0x3d8a63f6	0.06757347
97	0x3b156c40	0.0022800118
98	0x3d99f8ee	0.07518183
99	0x3e207b31	0.15671994
100	0xbde94e9b	-0.11391946
101	0xbd7cbeec	-0.061705515
102	0xbe061cbd	-0.130969
103	0xbdf1ec1a	-0.11812611
104	0x3e49894d	0.19681282
105	0x3e4a82e5	0.19776495
106	0x3d0bc5bc	0.03412412
107	0x3e4a13e7	0.19734155
108	0xbd63b238	-0.055589885
109	0x3cac6ea0	0.021048844
110	0x3e1463d7	0.14491211
111	0xbb6ef100	-0.0036459565
112	0xbe3f56db	-0.18685476
113	0x3dee54de	0.11637281
114	0x3e10a5f3	0.14125805
115	0xbc3ede70	-0.011649713
116	0x3e48a713	0.19594984
117	0xbd7611d4	-0.060075596
118	0xbdeafaa3	-0.114735864
119	0x3e350e73	0.17681293
120	0x3e422f85	0.1896344
121	0xbe1b56c6	-0.1516982
122	0xbe23e60a	-0.16005722
123	0x3c5000e0	0.012695521
124	0x3db8a44a	0.09015711
125	0x3d4d5a3c	0.050134882
126	0xbe41a286	-0.18909654
127	0x3d98f286	0.07468133
128	0x3d59c60c	0.053167388
129	0xbe3d589b	-0.18490832
130	0x3e4ca969	0.199865
131	0x3daf5c06	0.08562474
132	0xbe434b36	-0.1907166
133	0xbe03e368	-0.12879717
134	0xbe487676	-0.1957644
135	0xba391900	-0.0007060915
136	0x3d55bb54	0.052180603
137	0x3d07c3a8	0.033145577
138	0x3db6742a	0.08908875
139	0xbd6f0e2c	-0.058363125
140	0xbdf1fdd4	-0.11815992
141	0xbdc33783	-0.095320724
142	0xbdb44246	-0.08801703
143	0xbd57f6cc	-0.0527256
144	0xbe056628	-0.13027251
145	0x3e52020f	0.20508598
146	0x3ccace00	0.024756432
147	0xbde87519	-0.113504596
148	0xbe3a42ab	-0.18189494
149	0x3e409181	0.18805505
150	0x3e438589	0.19093908
151	0xbd2bdd48	-0.041959077
152	0xbd8b1aaa	-0.06792195
153	0x3d22adc4	0.039716497
154	0xbd1f6d9c	-0.03892289
155	0xbde56e16	-0.11202638
156	0x3e38d267	0.18049012
157	0x3e1ef26f	0.15522169
158	0xbdbcbedc	-0.09216091
159	0x3b8d10e0	0.00430499
160	0x3e0ad36f	0.13557218
161	0xbe21bb9e	-0.15794227
162	0x3d34d77c	0.044150814
163	0x3e166e9f	0.14690636
164	0xbe177302	-0.14789966
165	0x3c929130	0.017891496
166	0xbcd892a0	-0.026437104
167	0x3e4cbc05	0.19993599
168	0xbd81ca64	-0.06337431
169	0x3e244ba1	0.16044475
170	0x3e5d6f7b	0.21624558
171	0x3d67253c	0.056431994
172	0x3e12919b	0.14313357
173	0xbe4886df	-0.19582699
174	0x3e423c45	0.18968304
175	0x3e198a61	0.14994194
176	0xbe3ab776	-0.18234047
177	0x3d45a074	0.048248723
178	0x3e41c171	0.18921448
179	0xbdbaa624	-0.0911372
180	0xbe0f123b	-0.13971798
181	0xbe36df62	-0.17858651
182	0x3dfaf906	0.12254529
183	0x3e4dffff	0.20117186
184	0xbe0df942	-0.13864616
185	0x3df4000e	0.11914073
186	0xbd488598	-0.04895553
187	0xbdbbeefc	-0.09176442
188	0xbd6141fc	-0.05499457
189	0x3e4bcc69	0.19902195
190	0x3de75dda	0.11297198
191	0x3e57eb05	0.21085747
192	0xbe2acb0d	-0.1667902
193	0x3e25e535	0.16200717
194	0x3e2f6327	0.17127667
195	0xbd186ce4	-0.03721322
196	0xbdb038fe	-0.086046204
197	0xbd9e9ea2	-0.077451006
198	0xbd398ef4	-0.045302346
199	0x3c541ea0	0.012946755
200	0x3da31b32	0.079641715
201	0x3d753b24	0.059870854
202	0x3da30c12	0.079612866
203	0x3e47a577	0.19496714
204	0x3caff6f8	0.021480069
205	0xbdd6cf88	-0.10488802
206	0xbd971af2	-0.07378186
207	0xbe1f09a7	-0.15531026
208	0x3e2f48ed	0.17117663
209	0xbd00e994	-0.031472757
210	0x3dd8cd06	0.1058598
211	0xbd319c80	-0.04336214
212	0x3b7e9c80	0.0038850605
213	0xbc89fa28	-0.016842917
214	0x3d128aa4	0.03577675
215	0x3e07eeaf	0.13274644
216	0x3dd52b4a	0.10408647
217	0x3d888006	0.066650435
218	0xbe339622	-0.1753774
219	0xbd6dc654	-0.05805047
220	0xbdea0024	-0.11425808
221	0xbd33c088	-0.043884784
222	0xbe3e8e9a	-0.18609086
223	0xbc8f34b0	-0.017481178
224	0x3e4eecdd	0.20207544
225	0xbd25b4e8	-0.04045573
226	0xbe58f904	-0.21188742
227	0x3dd78dc2	0.10525085
228	0x3e32c2ad	0.17457075
229	0xbb1cb080	-0.0023908913
230	0x3e32fb41	0.17478658
231	0x3e2ca645	0.16860302
232	0x3e3997d5	0.18124326
233	0x3c062750	0.008188084
234	0xbd101ea0	-0.035185456
235	0xb917b800	-0.00014469028
236	0x3cada418	0.02119641
237	0xbd86942a	-0.06571229
238	0xbd9bc65c	-0.076061934
239	0xbe5c832d	-0.21534415
240	0x3cf4f268	0.029900745
241	0xbe0f1c64	-0.13975674
242	0xbe1f2028	-0.1553961
243	0xbd385e70	-0.045011938
244	0xbe1ab076	-0.15106377
245	0xbe454b6d	-0.19267054
246	0x3df92362	0.12164952
247	0x3e0c6345	0.13709743
248	0x3e4f2b15	0.20231278
249	0xbe0b2b5e	-0.13590762
250	0x3d10d4b4	0.0353591
251	0xbde2dd19	-0.11077327
252	0xbe4d1fb8	-0.20031631
253	0x3d4b63c4	0.04965569
254	0xbe459c1e	-0.19297835
255	0xbe015b1b	-0.1263241

sequential/dense_2/MatMul f4 [64, 64]
0	0xbceebd78	-0.02914308
1	0xbe55d0e8	-0.20880473
2	0xbe49204f	-0.19641231
3	0x3d9f7e56	0.077877685
4	0x3e324559	0.17409267
5	0xbe4084e2	-0.18800691
6	0x3da05e2e	0.07830463
7	0x3c7a9cb0	0.015296146
8	0xbe37ddac	-0.17955655
9	0x3dd19962	0.102343336
10	0xbdf66b6d	-0.120322086
11	0xbe48e096	-0.19616923
12	0x3ddc85c2	0.107677
13	0x3ce3db20	0.027814448
14	0x3daaeb9a	0.08345719
15	0x3c66ed40	0.014094651
16	0xbe525be8	-0.20542872
17	0x3e1287e3	0.14309649
18	0xbe3a3ad9	-0.18186511
19	0x3e266d57	0.16252647
20	0x3dddcc46	0.10829978
21	0xbd915396	-0.07096021
22	0x3e28c9ad	0.16483183
23	0xbde7eec1	-0.113248356
24	0xbd734b08	-0.059397727
25	0x3dadabda	0.08480044
26	0xbd554738	-0.052069873
27	0xbe5b95fb	-0.21443932
28	0xbcd017f0	-0.02540204
29	0xbcf3aea0	-0.029746354
30	0xbdf40787	-0.11915498
31	0xbe3277ce	-0.17428514
32	0x3e1d1fa9	0.15344109
33	0x3e10af79	0.14129438
34	0xbd63122c	-0.055437252
35	0x3ddb9d42	0.10723354
36	0xbd926298	-0.071477115
37	0x3de80eda	0.11330958
38	0x3e4a09ad	0.19730254
39	0xbd92397c	-0.071398705
40	0xbdb5b580	-0.08872509
41	0x3e4525e3	0.19252734
42	0xbe4736c3	-0.19454484
43	0xbd856d7a	-0.065150216
44	0xbd487ee4	-0.048949137
45	0x3dc17922	0.094469324
46	0xbe32711f	-0.17425965
47	0xbe20b170	-0.15692687
48	0x3d17b024	0.037033215
49	0xbdb3535c	-0.08756134
50	0xbe45059e	-0.19240424
51	0x3e4decd9	0.20109881
52	0x3d0efa24	0.03490652
53	0x3cafb498	0.021448418
54	0xbdbd8520	-0.09253907
55	0x3df00596	0.117198154
56	0xbd565118	-0.05232343
57	0x3e3ea98f	0.18619369
58	0xba7ce100	-0.0009646565
59	0xbd4f148c	-0.050556704
60	0x3c292580	0.010323882
61	0xbdcad457	-0.09903782
62	0x3e263d9d	0.16234441
63	0x3db71efa	0.08941455
64	0x3c61ee90	0.013789788
65	0x3da4a962	0.0804012
66	0xbdff9538	-0.12479633
67	0x3e2ce8a5	0.16885622
68	0xbe56c0e3	-0.20972018
69	0xbbdd0da0	-0.006746009
70	0x3e3b9e23	0.18322043
71	0x3d56cafc	0.052439675
72	0x3e054efd	0.13018413
73	0x3da18262	0.07886197
74	0x3bffcf20	0.0078066736
75	0xbde901b8	-0.11377281
76	0x3e503edb	0.20336477
77	0xbc477510	-0.012173906
78	0xbdcea8fa	-0.100908235
79	0x3d9d00aa	0.07666142
80	0x3d7586b4	0.059942916
81	0x3e46f4f5	0.19429381
82	0x3d9a1d76	0.075251505
83	0xbc23ebf0	-0.010004982
84	0xbe5a15b2	-0.21297339
85	0xbd7681d0	-0.060182393
86	0x3d638d34	0.055554584
87	0xbe538a0e	-0.20658132
88	0xbe50cd63	-0.20390849
89	0x3c9f2358	0.019426033
90	0xbd575e6c	-0.052580282
91	0xbe1a0dfc	-0.15044397
92	0x3d150714	0.036383703
93	0xbcc68390	-0.024232656
94	0xbe3618f8	-0.17782962
95	0x3d8cd976	0.06877415
96	0x3e28cd6d	0.16484614
97	0xbdbf0658	-0.09327382
98	0xbd226d20	-0.03965485
99	0xbdac8d92	-0.0842544
100	0x3e0ec45b	0.13942091
101	0x3ded010e	0.11572467
102	0xbe2b4784	-0.167265
103	0xbe159d4c	-0.14610785
104	0x3b127a00	0.002235055
105	0x3bc601c0	0.006042689
106	0xbc3fb270	-0.011700258
107	0xbd444d90	-0.047925532
108	0xbe01304e	-0.12616083
109	0x3d3f932c	0.046771213
110	0x3e570f19	0.21001853
111	0xbe3be2c0	-0.18348217
112	0x3e5bbe6d	0.2145936
113	0x3df155ae	0.1178392
114	0x3e2cdfa1	0.16882183
115	0xbe11d19b	-0.14240114
116	0x3d9aa296	0.07550542
117	0xbdfbcb92	-0.12294687
118	0xbbaae640	-0.005215436
119	0x3d40c08c	0.047058627
120	0xbe13e3d8	-0.14442384
121	0x3bf1c360	0.007378027
122	0xbe425bef	-0.18980382
123	0xbe2a87e1	-0.16653396
124	0xbd2c4404	-0.042057052
125	0xbe476328	-0.19471419
126	0xbe02f0fd	-0.12787242
127	0x3c881628	0.016612127
128	0x3e0869e1	0.1332164
129	0x3e40b6e5	0.18819769
130	0x391ab000	0.0001475215
131	0xbb939f20	-0.004505053
132	0x3c68f470	0.014218435
133	0x3d023b98	0.031795114
134	0xbe4899e9	-0.19589962
135	0xbde0dd0f	-0.109796636
136	0xbd9f27bc	-0.077712506
137	0x3e276915	0.1634868
138	0x3d5440dc	0.051819667
139	0xbce862a0	-0.02836734
140	0x3caafc98	0.0208724
141	0x3d62c42c	0.055362865
142	0xbe45c301	-0.1931267
143	0x3d70a394	0.05874975
144	0xbdd0bca3	-0.101922296
145	0xbdf469ee	-0.11934267
146	0x3e0bc35b	0.13648741
147	0x3d5ffae4	0.054682627
148	0x3d6671cc	0.05626087
149	0x3e2c725d	0.16840501
150	0x3e073b8b	0.13206308
151	0xbc913290	-0.017724305
152	0x3dd94226	0.1060832
153	0x3cae2350	0.021257073
154	0xbcb71eb8	-0.022353515
155	0x3e36a23d	0.17835326
156	0x3e4dff4b	0.20116918
157	0x3e1c8dd1	0.15288474
158	0xbe4d5db9	-0.20055284
159	0x3e4b1a59	0.1983427
160	0x3d2d1f64	0.042266265
161	0xbd113624	-0.035452023
162	0x3e013765	0.12618788
163	0x3e0aeea9	0.13567604
164	0x3d29b82c	0.041435406
165	0x3bbfee00	0.005857229
166	0xbc7fc3e0	-0.015610665
167	0xbe438072	-0.19091967
168	0xbd0dc5a8	-0.034612328
169	0x3df2cdde	0.11855672
170	0x3d9e886a	0.07740863
171	0x3e3101d1	0.17285849
172	0xbdc4cd07	-0.09609418
173	0x3e582fa7	0.21111928
174	0x3e27b36f	0.16377042
175	0x3dd77936	0.10521166
176	0xbd8e48a6	-0.0694745
177	0x3debae7a	0.11507888
178	0xbd5cd208	-0.05391124
179	0xbe47aeb8	-0.19500244
180	0x3e42b507	0.19014369
181	0xbd696318	-0.05697927
182	0xbdc78055	-0.09741274
183	0xbdbe4576	-0.09290592
184	0x3d5edcf4	0.054409936
185	0x3dd4da3e	0.10393189
186	0x3e3c1e21	0.18370868
187	0x3e17ec29	0.14836182
188	0x3cc37ff0	0.023864716
189	0xbd483808	-0.04888156
190	0x3e2f99cf	0.17148517
191	0x3db1b83e	0.086777195
192	0xbe3c7a60	-0.18406057
193	0xbcb14c10	-0.021642715
194	0xbd03d624	-0.032186642
195	0x3e0ddc8f	0.13853668
196	0xbceb3ba0	-0.028714955
197	0xbe23cf9e	-0.15997168
198	0xbdbb635e	-0.09149812
199	0x3d4fa424	0.050693646
200	0xbd9ccda8	-0.07656413
201	0x3e338e2d	0.17534705
202	0x3d5a91f4	0.053361848
203	0xbe3d586e	-0.18490764
204	0x3d64bd1c	0.05584441
205	0xbd97feca	-0.07421644
206	0x3dcf669a	0.101269916
207	0x3d88ab22	0.06673266
208	0x3e220ef9	0.15826024
209	0xbe4046cd	-0.18777008
210	0x3e012faf	0.12615846
211	0x3e111919	0.1416973
212	0x3c4007b0	0.011720583
213	0x3ce9c968	0.02853842
214	0x3d764f7c	0.060134396
215	0x3c327cd0	0.010894015
216	0x3dda6926	0.10664587
217	0x3e5a99df	0.2134776
218	0x3d3d5ea4	0.046232834
219	0xbdda5903	-0.10661509
220	0x3ccaf9c0	0.024777293
221	0xbcb4cf50	-0.02207151
222	0xbbbd8800	-0.0057840347
223	0x3d493df4	0.04913135
224	0xbe45ad04	-0.19304281
225	0xbd9b0f8c	-0.07571325
226	0x3e3a797d	0.18210407
227	0xbe4e4011	-0.20141627
228	0x3e276ea7	0.16350804
229	0xbe229b45	-0.15879543
230	0x3da6b1b2	0.081393614
231	0x3adf5f80	0.0017042011
232	0xbd75ed04	-0.06004049
233	0xbdc50c8b	-0.09621533
234	0x3e4a3095	0.19745095
235	0xbe171bd3	-0.14756708
236	0x3e06dca5	0.13170107
237	0xbd3f3068	-0.046677023
238	0x3e30e0db	0.17273276
239	0x3e4598e1	0.192966
240	0x3de0c2ba	0.10974641
241	0x3d3dc90c	0.04633431
242	0xbe435bab	-0.19077937
243	0x3e5d38e5	0.21603735
244	0x3d486b74	0.0489306
245	0x3e380b31	0.17973019
246	0xbe3f1800	-0.18661499
247	0xbc1eafc0	-0.009685457
248	0x3e1c5a4d	0.15268822
249	0x3d4e39ac	0.05034797
250	0x3d10b0b4	0.035324767
251	0xbe074c64	-0.13212734
252	0xbdbcd20c	-0.09219751
253	0x3dc6b332	0.097021475
254	0xbe1a61a0	-0.15076303
255	0x3e0e595d	0.13901277

sequential/dense_3/MatMul f4 [24, 64]
0	0x3d41f3e0	0.047351718
1	0xbd3964a8	-0.04526201
2	0xbd417f08	-0.047240287
3	0xbe4c34e8	-0.19942057
4	0x3dd2bbb4	0.10289708
5	0x3d0895f8	0.033346146
6	0xbdd029e4	-0.1016424
7	0xbcc4ec98	-0.024038598
8	0x3e4f6d4c	0.20256537
9	0x3c704c20	0.014666587
10	0xbdc1d2a8	-0.094640076
11	0x3e60e668	0.21962893
12	0xbc804900	-0.01565981
13	0x3dbb5dc4	0.09148744
14	0x3da980dc	0.08276531
15	0xbe212710	-0.15737557
16	0xbe64af32	-0.22332457
17	0xbe360a56	-0.1777738
18	0x3e536902	0.20645526
19	0x3e325c00	0.17417908
20	0x3e64616a	0.22302786
21	0xbe0f3af4	-0.13987333
22	0x3d4d7b08	0.05016616
23	0x3e31b4ba	0.17354098
24	0xbe44e6ec	-0.19228715
25	0x3da08278	0.07837385
26	0xbb8e0440	-0.0043340027
27	0xbd948648	-0.072521746
28	0xbd8f662c	-0.070019096
29	0x3e807e01	0.25096133
30	0x3d5d94f0	0.054097116
31	0xbd649144	-0.0558026
32	0xbb64f200	-0.0034934282
33	0xbccf87b0	-0.025333256
34	0x3d691808	0.056907684
35	0xbe6b01ca	-0.22949901
36	0xbd321ef8	-0.043486565
37	0x3da0297c	0.078204125
38	0xbdd863a2	-0.105658785
39	0xbe32c396	-0.17457423
40	0xbe6186fa	-0.22024146
41	0xbc1459a0	-0.009054571
42	0x3dc5fc0c	0.09667215
43	0x3ddd3c00	0.1080246
44	0x3de4b754	0.111677796
45	0x3c9e48b0	0.01932177
46	0xbe06f972	-0.13181093
47	0xbe5255e4	-0.20540577
48	0x3e63a22a	0.2222983
49	0xbd5e9eb0	-0.054350555
50	0xbdd47054	-0.103729874
51	0xbe075ead	-0.1321971
52	0x3e0128e6	0.12613258
53	0xbe6342df	-0.22193478
54	0x3e66673e	0.22500321
55	0xbe1bc128	-0.15210402
56	0xbe416aab	-0.18888347
57	0x3e5e1e74	0.21691304
58	0xbe431ea7	-0.19054662
59	0xbe65a763	-0.22427134
60	0xbdd0ac52	-0.101891175
61	0x3dbf2ca4	0.093346864
62	0xbd85fea4	-0.065427095
63	0x3e15aedc	0.14617485
64	0xbe7a2763	-0.24429087
65	0xbe75db62	-0.24009469
66	0x3e7ec3e6	0.24879417
67	0x3cc27570	0.02373764
68	0x3e1ab8fc	0.15109628
69	0xbe34ce78	-0.17656887
70	0x3ce43a60	0.027859867
71	0xbc006800	-0.0078372955
72	0x3df35d94	0.11883083
73	0x3e4008f8	0.18753421
74	0x3e1104a8	0.14161932
75	0x3e0079ec	0.1254651
76	0xbe1bb234	-0.15204698
77	0x3cce07d0	0.02515021
78	0xbccb3270	-0.024804324
79	0xbe2a0366	-0.16602859
80	0xbdbd559e	-0.09244846
81	0x3c1b7ac0	0.009489715
82	0x3e251066	0.16119537
83	0x3d9895e0	0.074504614
84	0x3e818efb	0.25304398
85	0x3da0bb18	0.07848185
86	0x3d7445b0	0.05963677
87	0x3e656278	0.22400844
88	0xbe6bd642	-0.23030952
89	0x3e3bc37e	0.18336293
90	0xbdd75ce2	-0.10515763
91	0xbd600650	-0.05469352
92	0xbe70d011	-0.23516871
93	0xbe3a5e99	-0.18200149
94	0xbe568f28	-0.20953047
95	0x3ca671a0	0.020317852
96	0xbdd3a24e	-0.103336915
97	0x3e2849fc	0.16434473
98	0x3d8e7d8c	0.0695754
99	0xbe7d8849	-0.2475902
100	0x3dcbfe18	0.09960574
101	0xbe550bdb	-0.20805304
102	0xbd21d888	-0.03951314
103	0xbd82bc58	-0.0638358
104	0x3c4b5480	0.012410283
105	0x3b456c80	0.0030124485
106	0x3d1c3728	0.03813854
107	0xbd947c18	-0.072502315
108	0xbe614973	-0.22000675
109	0x3e188b4a	0.14896885
110	0xbbac63c0	-0.0052609146
111	0x3e1a5a22	0.15073445
112	0xbd242578	-0.040074795
113	0xbe44fae1	-0.19236328
114	0x3e6ae154	0.22937518
115	0xbe568dd6	-0.20952544
116	0x3dff8cb4	0.12478009
117	0xbe1adb60	-0.15122747
118	0xbe7de218	-0.24793279
119	0x3e300624	0.17189842
120	0x3dc3ba6c	0.095570415
121	0xbe2046b4	-0.15651971
122	0x3e6d71e4	0.23187977
123	0x3e15b786	0.1462079
124	0x3e5ed2a8	0.21760046
125	0xbe6a2dd8	-0.2286905
126	0xbd645814	-0.05574806
127	0x3d88dd3c	0.06682822
128	0x3e6535bc	0.2238378
129	0x3dc9afdc	0.09847996
130	0x3e539648	0.20662796
131	0xbe60931c	-0.21931118
132	0x3e0f13a4	0.13972336
133	0x3e4daac2	0.2008467
134	0x3e398b64	0.1811958
135	0x3c2d28c0	0.010568798
136	0xbd489dd4	-0.04897864
137	0x3dd37fd0	0.10327113
138	0xbe460516	-0.19337878
139	0xbe745c2a	-0.23863283
140	0x3e7e1b7e	0.24815175
141	0xbcd8a010	-0.026443511
142	0x3d940210	0.07226956
143	0x3db78bf8	0.08962244
144	0xbe2b1908	-0.16708767
145	0xbd91d458	-0.071205795
146	0xbe739d13	-0.23790388
147	0x3e671876	0.22567925
148	0xbd28b458	-0.041187614
149	0x3d7c0b70	0.061534345
150	0xbe2c0494	-0.16798621
151	0xbe0f7f80	-0.14013481
152	0xbdabfd86	-0.08397965
153	0xbe5da098	-0.21643293
154	0x3e5d496a	0.21610036
155	0x3ca9ecf0	0.020742863
156	0x3e10473c	0.14089674
157	0x3dea217c	0.11432168
158	0xbd4ce490	-0.05002266
159	0xbe11a2fe	-0.14222333
160	0xbd0b96c4	-0.03407933
161	0x3e37326e	0.17890331
162	0x3dd2c19c	0.10290834
163	0xbde556d4	-0.11198202
164	0xbe35eadc	-0.17765373
165	0xbd83c402	-0.0643387
166	0xbc940c48	-0.018072262
167	0x3d1bf0a8	0.038071305
168	0x3e3ca8ac	0.18423718
169	0xbd613848	-0.054985315
170	0xbe51ee7d	-0.20501132
171	0x3dad7a3c	0.0847058
172	0xbc173b40	-0.009230435
173	0x3e03bb0c	0.12864321
174	0xbdc514aa	-0.09623082
175	0x3d619b80	0.055079937
176	0x3d8c5ad4	0.068532616
177	0x3dba9ef4	0.09112349
178	0x3e5aba3a	0.21360102
179	0x3e1c0f9e	0.15240332
180	0xbe5373cc	-0.20649642
181	0xbc250540	-0.0100720525
182	0xbe843718	-0.25823283
183	0x3e298c6e	0.16557476
184	0xbd8bf794	-0.06834331
185	0x3e3cf14c	0.18451422
186	0xbd0ad2dc	-0.033892497
187	0x3e4547f0	0.19265723
188	0x3e234e5e	0.15947863
189	0xbe7f143d	-0.24910064
190	0xbdbdd66a	-0.09269412
191	0x3e36fe98	0.17870557
192	0xbde0e42c	-0.1098102
193	0xbcdd0640	-0.02698052
194	0xbe5599c6	-0.20859441
195	0xbe4827bc	-0.19546407
196	0x3ddecc8c	0.10878858
197	0x3d663a28	0.056207806
198	0xbe7d021f	-0.2470784
199	0x3e46a1b6	0.19397625
200	0xbd837f3c	-0.064207524
201	0x3e26318e	0.16229841
202	0x3e1f27b8	0.15542495
203	0xbc9acfe0	-0.01889795
204	0xbe50c857	-0.20388924
205	0x3dbcd1e0	0.09219718
206	0xbe540004	-0.20703131
207	0x3e7d1dee	0.24718449
208	0xbd13cc1c	-0.036083326
209	0x3d244b38	0.040110797
210	0x3cd5c4b0	0.026094764
211	0x3e4a79ba	0.19772997
212	0xbd9d5c66	-0.07683639
213	0x3d24e070	0.040253103
214	0x3e19c19c	0.15015262
215	0x3e229df6	0.1588057
216	0x3dd6d870	0.10490501
217	0xbe7a0519	-0.24416007
218	0xbe3552df	-0.17707394
219	0xbe1cb052	-0.15301636
220	0xbe16814e	-0.14697763
221	0xbcc3a090	-0.023880273
222	0xbcc3deb8	-0.023909912
223	0x3dc652e0	0.09683776
224	0x3d1592b8	0.036516875
225	0x3db8ccf4	0.09023467
226	0x3d758678	0.059942693
227	0x3e47f348	0.19526398
228	0xbe5780de	-0.21045253
229	0x3daa18dc	0.08305523
230	0xbd98106c	-0.07425007
231	0xbdb600ae	-0.088868484
232	0x3e5c474e	0.21511576
233	0xbe1d9aeb	-0.15391128
234	0x3e1f69fe	0.15567777
235	0xbe4e91ea	-0.2017285
236	0x3e080e50	0.1328671
237	0xbd7b2070	-0.06131023
238	0xbe19b832	-0.15011671
239	0xbe677cf4	-0.2260626
240	0x3e056f4a	0.13030735
241	0xbd6d3270	-0.05790943
242	0xbe372f71	-0.17889191
243	0xbe46f1ba	-0.19428149
244	0x3e3a8426	0.18214473
245	0x3cbd48b0	0.02310595
246	0x3e607d34	0.21922761
247	0xbe65665e	-0.22402331
248	0xbe4f8e2b	-0.20269077
249	0x3e6c8fea	0.23101774
250	0x3db7de3c	0.08977935
251	0xbc330900	-0.010927439
252	0xbdea1470	-0.114296794
253	0xbbc5d640	-0.0060375035
254	0xbcff6a90	-0.031178743
255	0xbe6d0bb7	-0.23149
