src/main/assets/c.tflite (tflite, 277920 bytes, 12 tensors)

sequential/conv2d_5/BiasAdd;sequential/conv2d_5/BiasAdd/ReadVariableOp/resource;sequential/conv2d_5/Conv2D f2 [32]
00000000: 0000 0000 0000 0000 0000 0000 0000 0000
00000010: 0000 0000 0000 0000 0000 0000 0000 0000
00000020: 0000 0000 0000 0000 0000 0000 0000 0000
00000030: 0000 0000 0000 0000 0000 0000 0000 0000
0.0 0.0 0.0 0.0 0.0 0.0 0.0 0.0
0.0 0.0 0.0 0.0 0.0 0.0 0.0 0.0
0.0 0.0 0.0 0.0 0.0 0.0 0.0 0.0
0.0 0.0 0.0 0.0 0.0 0.0 0.0 0.0

sequential/conv2d_4/BiasAdd;sequential/conv2d_4/BiasAdd/ReadVariableOp/resource;sequential/conv2d_4/Conv2D f2 [8]
00000000: 0000 0000 0000 0000 0000 0000 0000 0000
0.0 0.0 0.0 0.0 0.0 0.0 0.0 0.0

sequential/conv2d_5/Conv2D f2 [32, 3, 3, 8]
00000000: 91a9 2091 9aaa f429 852b 82a9 172a e229
00000010: 83a8 0530 4bac 2328 9b29 ca2d ebae fa2a
00000020: 5e26 2620 92a2 0db0 9128 08b0 c92f 0bb0
00000030: 282a eb2b ce2f a2ae c7a8 e0ab 382d f72d
00000040: 06a7 a12f 12b0 6f2e 6226 b2ac 40ab 0ca0
00000050: 2a25 741b 5ead 77af 2ca8 9cac 0f26 e3af
00000060: bead f7ae a228 e72a 14a9 aaaf beac a0af
00000070: 5e2e d99e 502b aa2f ecae b928 b92c a829
00000080: 5020 63ae feac 912c d82f 2b28 7e2a ac2c
00000090: 12b0 c22d 5b28 7ea8 af2c 13ae 2fad cbae
000000a0: 99af b6a7 47ad f8af 74af 0630 9c25 d9ae
000000b0: 18af a62e 3dae 04ad 061a 0c2c a0aa 3f2f
000000c0: b72b 2eae 33ae b19a 1aaf 74a5 14af 1227
000000d0: a62a 5dac 58a4 ee2e 5caf 4a28 f22c 5b2a
000000e0: 20a8 12b0 e9ae bf2c 2fa7 b3a9 8422 f52d
000000f0: 012c c420 2529 cf2f 5327 4ba7 742c 3b1c
00000100: e224 5aa9 f92c ceab 64ac 5c2e 2d2f ffa9
00000110: 8e2a e6ac ecaa 1eaa 3eaf f0ac 9c2f d12d
00000120: 5aa6 1bab 33ae 41ad 5fa9 11af 692d e5a7
00000130: fca8 1bab e1a5 aea6 7fa1 359f 61a4 4b29
00000140: 36a9 0029 c9a9 0da9 0230 c9a5 c02a 9cad
00000150: 8d2c 402c 0ca7 23a5 f3ab 19b0 2a2e 4026
00000160: aaac 452a 208c fca9 172d af9b 62ad de2f
00000170: 522c 0dae 152d b8a4 7dad e5a6 8a2b 322d
00000180: 652c a6af 7a23 052d 74ad a82a c728 6c1f
00000190: 272d f01a 7325 5528 69a0 5e2e cf2e 2dae
000001a0: b724 73ae 5493 8b2e 70aa 8fac c2ac 68aa
000001b0: 24ae 1326 9828 3daf a5ab 082d 1425 172a
000001c0: 2dad ef2d f3ab 19ad 2aa4 65ac a6a8 d4ae
000001d0: a8ad 4daf 672b 21a9 6cad 04ab 1e99 1629
000001e0: ea28 ce2c 6326 152f 31a8 7aad 2aaf 4e2a
000001f0: 9122 602c b82d 65af 7a1d 7a2d 1ea9 bd2e
-0.0435 -0.0006256 -0.05157 0.0465 0.05875 -0.04303 0.04758 0.04596
-0.03525 0.1256 -0.0671 0.03232 0.0438 0.09045 -0.1081 0.0545
0.02487 0.0081 -0.01283 -0.1266 0.03568 -0.126 0.12164 -0.1263
0.0481 0.06186 0.12195 -0.10364 -0.03732 -0.06152 0.08154 0.0932
-0.02744 0.1192 -0.1272 0.1005 0.02493 -0.07336 -0.05664 -0.007904
0.02017 0.00364 -0.08386 -0.11664 -0.0326 -0.072 0.02367 -0.1232
-0.0897 -0.1088 0.0362 0.05392 -0.03967 -0.11975 -0.0741 -0.11914
0.0995 -0.006687 0.05713 0.11975 -0.10815 0.0369 0.0738 0.0442
0.00842 -0.0998 -0.078 0.07135 0.12256 0.03256 0.05072 0.073
-0.1272 0.08997 0.03403 -0.0351 0.0732 -0.0949 -0.081 -0.10614
-0.1187 -0.03012 -0.08246 -0.1245 -0.11646 0.1257 0.02191 -0.107
-0.11084 0.1039 -0.0975 -0.07837 0.002941 0.06323 -0.05176 0.1132
0.06027 -0.09656 -0.09686 -0.003267 -0.11096 -0.0213 -0.1106 0.02762
0.05194 -0.0682 -0.01697 0.1083 -0.115 0.0335 0.0773 0.04965
-0.03223 -0.1272 -0.108 0.07416 -0.02806 -0.04453 0.012726 0.0931
0.06256 0.00931 0.0402 0.122 0.02861 -0.02849 0.0696 0.00413
0.01907 -0.0418 0.0777 -0.06097 -0.0686 0.09937 0.1121 -0.04684
0.0512 -0.07654 -0.05408 -0.0478 -0.11316 -0.07715 0.1189 0.0909
-0.02481 -0.0555 -0.09686 -0.0821 -0.04196 -0.1104 0.08453 -0.03084
-0.03894 -0.0555 -0.02296 -0.0261 -0.010735 -0.00704 -0.0171 0.04135
-0.0407 0.03906 -0.0452 -0.03946 0.1252 -0.0226 0.05273 -0.08765
0.0711 0.0664 -0.02753 -0.02007 -0.0621 -0.128 0.0963 0.02441
-0.0729 0.04898 -0.0002518 -0.04675 0.0795 -0.003752 -0.0841 0.1229
0.0675 -0.09454 0.0794 -0.01843 -0.08575 -0.02693 0.0589 0.0812
0.06866 -0.1195 0.0146 0.0784 -0.0852 0.052 0.03732 0.007248
0.0805 0.003387 0.02129 0.03384 -0.00861 0.0995 0.1064 -0.0965
0.01842 -0.10077 -0.0008945 0.10223 -0.0503 -0.0712 -0.07434 -0.05005
-0.09595 0.02373 0.0359 -0.1131 -0.05972 0.0786 0.01984 0.04758
-0.0809 0.0927 -0.0621 -0.07965 -0.01627 -0.06866 -0.03632 -0.1067
-0.0884 -0.1141 0.05783 -0.04007 -0.0847 -0.0548 -0.002499 0.03973
0.0384 0.0751 0.02495 0.11066 -0.03275 -0.0856 -0.11194 0.04926
0.012825 0.06836 0.08936 -0.11554 0.00535 0.0856 -0.03998 0.1053

sequential/conv2d_4/Conv2D f2 [8, 3, 3, 2]
00000000: 17ab 7e31 63b0 f330 e7b2 1c33 3aa6 30ae
00000010: 7daf b330 4416 1a2c 4a90 c8a5 a725 7826
00000020: 1aaf 8bb1 d82b 6fb1 cdb0 af2a dc2f c72a
00000030: 1a2f 8a22 9830 97a0 b733 3e33 a5a9 6d28
00000040: e326 5c30 54b1 74b2 1533 32b0 b033 58b1
00000050: 81b1 dbb1 1226 4432 00ae d232 92b0 a42a
00000060: 0f34 a623 ac21 45aa fdb2 1c33 1e32 4cb0
00000070: adb2 1033 902c 2fb0 beb3 17b1 5e28 12a8
00000080: b333 13b4 00b4 6c33 6f29 07a6 ec31 81b1
00000090: bb27 b92d 952f 4e31 1bb3 1e34 d9b1 362d
000000a0: daaa 09af 932d 15ae 18b4 d4aa 7320 152f
000000b0: a1b1 9f28 5e32 2a31 012f 0f2f 4a33 bb20
000000c0: adac a633 ddaf 652d e931 d2b3 0c24 7fb2
000000d0: b22f db32 4c2c 4bb1 60a4 3cac e131 8d29
000000e0: b128 f624 80ad afa8 f433 f9b0 01b2 7d30
000000f0: 1830 19a1 4db2 94b0 41b3 08b4 eaa4 5a31
00000100: f42e 9f33 71b1 6eae b7b3 d524 e933 68ae
00000110: 13b2 74b1 9330 f8ab b02f c81f 7fa1 d3b2
-0.0554 0.1716 -0.1371 0.1547 -0.2157 0.2222 -0.02432 -0.0967
-0.117 0.1469 0.00153 0.0641 -0.0005236 -0.02258 0.02208 0.02527
-0.11096 -0.1732 0.06128 -0.1698 -0.15 0.05222 0.1228 0.05295
0.11096 0.01277 0.1436 -0.008965 0.2411 0.2263 -0.0441 0.03458
0.0269 0.1362 -0.1665 -0.2017 0.2213 -0.1311 0.2402 -0.167
-0.172 -0.183 0.02371 0.1958 -0.09375 0.2131 -0.1428 0.05188
0.2537 0.01494 0.01108 -0.04898 -0.2184 0.2222 0.1912 -0.1343
-0.2086 0.2207 0.0713 -0.1307 -0.242 -0.159 0.03412 -0.0318
0.2406 -0.2546 -0.25 0.2319 0.04245 -0.02354 0.185 -0.172
0.0302 0.0894 0.11847 0.1658 -0.222 0.2573 -0.1827 0.0814
-0.05353 -0.1099 0.0871 -0.09503 -0.2559 -0.05334 0.00869 0.11066
-0.1759 0.0361 0.199 0.1614 0.10944 0.1103 0.2278 0.00924
-0.07306 0.239 -0.12286 0.0843 0.1847 -0.2444 0.01581 -0.203
0.12024 0.2142 0.06714 -0.1654 -0.01709 -0.06616 0.1837 0.04337
0.03665 0.01938 -0.08594 -0.0366 0.2485 -0.1554 -0.1876 0.1403
0.1279 -0.00996 -0.1969 -0.1431 -0.2267 -0.252 -0.0192 0.1672
0.10864 0.2382 -0.17 -0.10046 -0.2411 0.01888 0.2472 -0.1001
-0.1898 -0.1704 0.143 -0.06226 0.1201 0.0076 -0.010735 -0.2133

sequential/conv2d_3/Conv2D f2 [2, 3, 3, 2]
00000000: 04ab 81b5 8da7 f235 6832 25b4 6b36 7e25
00000010: 7b36 1236 e6b0 d8af 7eb5 06a7 f2b0 04b0
00000020: 37b6 3b36 a2b5 9b30 14b6 de34 9029 9b33
00000030: 4f32 7ab2 7b30 732e 1736 1834 04b6 9525
00000040: 8730 ecb2 3c35 18a8
-0.0548 -0.344 -0.0295 0.3716 0.2002 -0.259 0.4011 0.02145
0.405 0.3794 -0.1531 -0.12256 -0.3433 -0.02744 -0.1545 -0.1255
-0.3884 0.3894 -0.352 0.1439 -0.38 0.3042 0.04346 0.2377
0.1971 -0.2024 0.14 0.10077 0.3806 0.2559 -0.376 0.0218
0.1415 -0.2163 0.3271 -0.03198

sequential/conv2d_2/Conv2D f2 [2, 3, 3, 1]
00000000: b5a2 21b2 b233 8a35 2cb6 3236 1f23 ab2b
00000010: 44af ed34 d734 7832 25b2 20b0 6734 b3b6
00000020: c9ad cc34
-0.0131 -0.1915 0.2405 0.3462 -0.3857 0.3872 0.01391 0.0599
-0.1135 0.3079 0.3025 0.2021 -0.192 -0.1289 0.2751 -0.4187
-0.0904 0.2998

sequential/conv2d_1/Conv2D f2 [1, 3, 3, 1]
00000000: 1534 84b8 1ab8 c537 7631 9bad a79e 51b1
00000010: 9a34
0.2551 -0.5645 -0.5127 0.4856 0.1707 -0.0876 -0.006496 -0.1661
0.2876

sequential/conv2d/Conv2D f2 [1, 3, 3, 1]
00000000: ecb4 b6b5 2e35 afb2 34ae 5caf 2d35 e2b1
00000010: 1238
-0.3076 -0.357 0.3237 -0.2089 -0.0969 -0.115 0.3235 -0.1838
0.509

sequential/dense/MatMul f2 [64, 1920]
00000000: e498 3ca7 2c27 ab2a 0124 9029 ff1e cb26
00000010: 8695 a0a2 e72a 1c1f a81b 08ab 95a2 49a9
00000020: aca8 4ea7 a920 b428 e214 2823 7c9d c323
00000030: 3d2a cd90 2328 f329 802a d528 d7a8 2d2a
00000040: 13a8 f026 bc24 9e26 43aa 4326 19a4 932a
00000050: 18a0 669d 8427 7e1e 99a9 5d2a d929 35a4
00000060: 7a15 1528 e4a8 bd28 5e24 b826 6829 8598
00000070: 99a9 f823 a0a2 8daa 0a21 1629 1f9c 9e24
00000080: 2514 ca25 d527 94a9 c6a5 bfaa ce28 3428
00000090: be1c eaa8 b7a8 56aa 8a2a dc29 b7a9 6522
000000a0: e1a0 4025 1fa8 22a8 2f22 be21 3ea8 ed28
000000b0: 5ca8 12a6 c129 7e29 0027 4baa e024 052b
000000c0: 22a4 cea9 1529 5f2a 10a9 f228 55a4 689d
000000d0: afa3 642a c6a6 87a6 5728 3224 9029 e5a2
000000e0: 0c2a 65aa e918 0ba8 5ea8 19aa c229 4a15
000000f0: 2caa 79a2 432a 2fa2 ca27 ad10 cc2a be24
00000100: eba0 ecaa db25 77a6 01a3 e226 ad22 dc9b
00000110: faa1 3c22 8caa 0f2a 0428 6ca3 d6aa a22a
00000120: d121 5790 8c2a bf29 1e24 be27 54aa 0f24
00000130: 5313 d1a6 a929 6ea1 f3aa d728 cd20 07aa
00000140: c825 c325 e8a2 aa25 00a6 7e21 529e a11f
00000150: faa7 0ea6 d399 6eaa 2e16 992a df26 c4a6
00000160: 3e26 6020 6ea9 e8a4 920e 1528 8721 2c23
00000170: 1b27 9e28 caa6 6aa9 0b29 4f21 d728 6127
00000180: dba8 949e 57a2 66aa d3a8 ada8 1028 26aa
00000190: 729d 80a6 6aaa 8f28 b3a3 6726 2ca8 7d9f
000001a0: a6aa eba9 89a5 00a8 afa5 3d27 42a9 2ba1
000001b0: 1825 03aa 7ba6 ac29 1929 27a1 3e28 c122
000001c0: 10a4 cda0 0aa7 629c c520 a5a4 27a9 6028
000001d0: 77aa b527 5fa9 4388 289d 1c27 29a0 80a3
000001e0: 7098 ffa2 192a 0128 bb28 dba6 4e26 992a
000001f0: 6128 d11e 9f27 ba21 c1a9 7ba8 c9a5 ad2a
-0.002388 -0.02826 0.02802 0.0521 0.01564 0.04346 0.006832 0.02654
-0.0013485 -0.01294 0.05392 0.006943 0.003738 -0.05493 -0.012856 -0.0413
-0.0365 -0.02853 0.0091 0.03674 0.001192 0.01398 -0.005356 0.01516
0.04874 -0.000586 0.03232 0.04648 0.05078 0.03775 -0.0378 0.04825
-0.03183 0.0271 0.0185 0.02585 -0.04892 0.02446 -0.016 0.05136
-0.007996 -0.005272 0.02936 0.00634 -0.04373 0.0497 0.0457 -0.01643
0.001337 0.0319 -0.0382 0.03702 0.01706 0.02625 0.04224 -0.002207
-0.04373 0.015564 -0.01294 -0.05118 0.00984 0.03973 -0.004025 0.01804
0.001012 0.02261 0.0306 -0.04358 -0.02255 -0.0527 0.03754 0.03284
0.00463 -0.0384 -0.03683 -0.0495 0.0511 0.04578 -0.04465 0.01249
-0.00953 0.02051 -0.0322 -0.0323 0.01208 0.011215 -0.03314 0.03848
-0.03406 -0.02371 0.04495 0.0429 0.02734 -0.04916 0.01904 0.05484
-0.01614 -0.04535 0.0397 0.04977 -0.03955 0.03864 -0.01692 -0.00528
-0.01501 0.04993 -0.02646 -0.0255 0.0339 0.01639 0.04346 -0.013466
0.04724 -0.04996 0.002398 -0.0316 -0.03412 -0.04764 0.04498 0.001291
-0.04822 -0.01264 0.04892 -0.01208 0.03043 0.000571 0.0531 0.01852
-0.009605 -0.05408 0.02287 -0.02525 -0.01368 0.02689 0.01304 -0.003838
-0.01167 0.01218 -0.05115 0.04733 0.03137 -0.014496 -0.0534 0.05182
0.01136 -0.00053 0.05115 0.0449 0.01608 0.03024 -0.04944 0.01585
0.000894 -0.02663 0.04422 -0.010605 -0.0543 0.0378 0.00938 -0.0471
0.02258 0.0225 -0.01349 0.02213 -0.02344 0.01073 -0.006172 0.00745
-0.03116 -0.02365 -0.002844 -0.05023 0.001509 0.05154 0.02684 -0.02643
0.02438 0.008545 -0.04242 -0.01917 0.000401 0.0319 0.010796 0.01401
0.02776 0.03607 -0.02652 -0.0423 0.0394 0.01037 0.0378 0.02882
-0.03793 -0.006424 -0.01238 -0.05 -0.0377 -0.03653 0.03174 -0.04803
-0.005318 -0.02539 -0.0501 0.0356 -0.01504 0.02501 -0.0326 -0.007313
-0.05194 -0.04623 -0.02162 -0.03125 -0.0222 0.02827 -0.04108 -0.01009
0.0199 -0.04697 -0.02531 0.0443 0.03983 -0.01006 0.03314 0.01319
-0.01587 -0.00938 -0.0275 -0.00428 0.009315 -0.01814 -0.04025 0.03418
-0.0505 0.0301 -0.04196 -0.00013 -0.005035 0.02777 -0.008125 -0.01465
-0.002167 -0.013664 0.04764 0.03128 0.03696 -0.02678 0.02463 0.05154
0.0342 0.006657 0.02977 0.011185 -0.04495 -0.035 -0.0226 0.05215

sequential/dense_1/MatMul f2 [64, 64]
00000000: 3ba0 c6af 2730 02ac c1b1 49b1 7da1 7eb1
00000010: 06a8 7031 30b2 baaf 3fb0 a8b1 2732 c79f
00000020: ecb2 fd2f 8eab a9b1 d62c f3ad 4d30 1bb1
00000030: f0a9 e630 a0af 82a7 45b0 e3ac a331 70b1
00000040: a82a bb31 ed2f daae 08ab 22af b130 bba4
00000050: 92ae 25b1 0a30 4a27 4730 e6b1 a22e 27ac
00000060: dda7 1d29 85a7 f225 8a2e aa2d a530 6a2b
00000070: 5ea7 7eb0 a1b0 02ac 7f31 a7b1 aaa8 88b0
00000080: e92e 13b0 11b0 202d d230 5d2f 89ae d6b2
00000090: 2830 3231 df31 8d2e 75b2 a1ad 7dae 9332
000000a0: 3131 c1b2 08b0 0d2c 042c c524 86ac 30ab
000000b0: 3d2d 7331 842c 8fab 1b2f 952f 0c2f e4ae
000000c0: af32 b9ab e02c 262a 5724 74b1 b319 1f30
000000d0: 492d 9132 27ae fcae 3a2c 11b2 1bb1 b9ad
000000e0: ed2d 5c32 91b1 8816 2eb0 d72f 9daa 20b2
000000f0: e5b1 33b2 05ad ef31 a3b2 a62b 0130 e3ab
00000100: 28ac a62e 31a7 bd31 de30 daaf 69a5 f3ad
00000110: 4e2e bfae 33a7 01b1 53b0 0930 6db2 d931
00000120: 23a7 a72f d020 1232 8530 052c 0c32 77b0
00000130: 7f2e 1ba1 00a3 b42e aab0 10b0 a9ae 872e
00000140: 62ab 892d 23ab 40af f4b0 8d2d 6c31 73b2
00000150: 00b1 8ab0 8cb1 6dad 6932 c9af 3330 1bb2
00000160: e328 d7ad 0632 ac30 bb20 6732 cdab b0b2
00000170: 29b2 e931 91af a7aa 2331 7ab0 112f 8531
00000180: e7b1 1c2a 762f bbae ba30 54b1 212e 51b1
00000190: 93b1 2eb2 b3b2 a696 d22f 562d 27af a4ae
000001a0: 4fac 132e bcb1 d432 1529 9932 fc2f 5eaf
000001b0: 60ae caac bea7 ad30 b1b1 24b0 36af db26
000001c0: 6bb0 fe29 d62b 3bab 132c a9a5 ec2e 82b0
000001d0: 4db1 661c 642c 5d2e 382c 20ad e8b0 e929
000001e0: 282d f6b0 0032 af2b d82c dd26 39b1 4730
000001f0: 95b0 112f f3ad ecb2 8fa6 d9b1 0029 84a6
-0.00826 -0.12146 0.1298 -0.0626 -0.1798 -0.1652 -0.01072 -0.1716
-0.03143 0.1699 -0.1934 -0.1207 -0.1327 -0.1768 0.1923 -0.007595
-0.2163 0.1248 -0.05902 -0.1769 0.07556 -0.09296 0.1344 -0.1595
-0.0464 0.1531 -0.11914 -0.02933 -0.1334 -0.07635 0.1761 -0.1699
0.052 0.1791 0.12384 -0.10706 -0.05493 -0.11145 0.1466 -0.01848
-0.10266 -0.1608 0.1262 0.02847 0.1337 -0.1843 0.10364 -0.0649
-0.03072 0.03995 -0.02937 0.02322 0.1022 0.0885 0.1451 0.05792
-0.02878 -0.1404 -0.1447 -0.0626 0.1718 -0.1766 -0.03644 -0.1416
0.108 -0.1273 -0.1271 0.0801 0.1506 0.11505 -0.1021 -0.2136
0.1299 0.1624 0.1835 0.10236 -0.2018 -0.08795 -0.1014 0.2054
0.1622 -0.211 -0.126 0.0633 0.06274 0.01863 -0.0707 -0.05615
0.08185 0.1703 0.07056 -0.05905 0.111 0.11847 0.1101 -0.10767
0.2089 -0.06033 0.0762 0.04803 0.01695 -0.1704 0.002783 0.1288
0.0826 0.2052 -0.0961 -0.10913 0.06604 -0.1896 -0.1595 -0.0894
0.0926 0.1987 -0.174 0.001595 -0.1306 0.1225 -0.05167 -0.1914
-0.1842 -0.1937 -0.0784 0.1854 -0.2074 0.05975 0.1251 -0.0616
-0.06494 0.1039 -0.02809 0.1793 0.1521 -0.1227 -0.02113 -0.09296
0.0985 -0.1054 -0.02812 -0.1564 -0.1351 0.1261 -0.2008 0.1827
-0.02788 0.11957 0.0094 0.1897 0.1412 0.0628 0.189 -0.1395
0.1015 -0.00997 -0.01367 0.10474 -0.1458 -0.127 -0.10406 0.102
-0.05768 0.0865 -0.05576 -0.1133 -0.1548 0.08673 0.1694 -0.2015
-0.1562 -0.1418 -0.1733 -0.0848 0.2003 -0.12164 0.1312 -0.1908
0.03818 -0.09125 0.1882 0.146 0.00924 0.2001 -0.06094 -0.209
-0.1925 0.1847 -0.1182 -0.05197 0.1605 -0.1399 0.1104 0.1725
-0.1844 0.04773 0.1166 -0.10516 0.1477 -0.1665 0.09576 -0.1661
-0.1742 -0.1931 -0.2094 -0.001623 0.1222 0.0834 -0.11176 -0.10376
-0.0673 0.0949 -0.1792 0.2134 0.0397 0.2062 0.12476 -0.1151
-0.0996 -0.0748 -0.03024 0.1461 -0.1779 -0.1294 -0.1127 0.02678
-0.1381 0.0468 0.06122 -0.0565 0.06366 -0.02211 0.10815 -0.1409
-0.1656 0.004295 0.0686 0.0994 0.0659 -0.0801 -0.1533 0.04617
0.08057 -0.155 0.1875 0.06003 0.0757 0.02681 -0.1632 0.1337
-0.1432 0.1104 -0.09296 -0.2163 -0.02562 -0.1827 0.03906 -0.02545

sequential/dense_2/MatMul f2 [64, 64]
00000000: 4dae 0c2a a0b1 18b2 72b0 02b2 27a5 5f2b
00000010: 9e24 a02a e6ac d431 d4b2 1c18 4032 0e32
00000020: 9e2a 6130 c2a8 c930 74af b1b2 3331 a0af
00000030: 5db1 ac30 7b23 de32 282d 9d30 27ad 1c31
00000040: 6ab2 f131 412b cc98 95af 64b0 dbb2 5e2d
00000050: 9d30 1930 d030 60a8 f1ac db2c a320 1f1b
00000060: 4fae 1c2e b7ad 9e2e 19b2 7032 0925 602f
00000070: c62d 5ab2 ae31 30a8 cfad 4f30 48ad 9830
00000080: 1930 7731 ed32 9f31 5632 f130 a7b0 ddab
00000090: 31a9 1ab0 5032 8928 cdad 892a f331 7d30
000000a0: 87ae 64a1 bf2c 0731 8c31 8f2c ed25 04b0
000000b0: ca9b 7b28 2b2a 73b0 aba6 0f2d b62e ea30
000000c0: 26af deb2 ee28 3a2d 4aa8 3cb1 b12c 44b0
000000d0: 242d afa9 5730 d2b2 33b2 0fac 3a2c 59a4
000000e0: f22d 8b2e d6b2 c41b 92b0 c6ac c429 5325
000000f0: 8eb1 b0b0 d730 9928 8422 67ae 1221 3131
00000100: f22f 8631 e8b1 9032 33a9 352b 2cb1 87aa
00000110: 202f 0d32 f930 6f32 c9ae 10b0 bab1 64aa
00000120: 4baf f02d df32 20ad ee2e c5b2 1431 eb2a
00000130: d132 28ac ccaa d82e 09b0 3331 a830 09ad
00000140: 1f29 69af 622c 2eb1 42ab b7ac c7ac 23ac
00000150: 37ae cbb2 d5b1 629d 9aaf c7b2 5fad a330
00000160: 91b0 8db2 9e30 05b1 a02c 102c 92b1 2a31
00000170: 022c c6b1 042e 102e dab2 14b0 762f c328
00000180: 93b1 3230 b0ad 0b2f 4d30 e2aa f626 a026
00000190: b3b2 f4ac 58b2 f92b 16b1 f130 9b30 1528
000001a0: 48b2 e7b0 2229 5629 8732 83b2 41b0 5d2f
000001b0: dc99 f0ab 2bb2 e42b ed2d cf30 96b0 db2c
000001c0: 2f31 0128 14af cbac d9b0 c722 8032 ef2b
000001d0: 06ac d0ac c824 0129 49aa 07a9 f5a5 9eac
000001e0: 7499 f630 4ca1 202f 90b2 a0ae 2a31 db24
000001f0: b7a8 e123 63b1 fd2d c82c ea2d 9fb2 022e
-0.09845 0.04724 -0.1758 -0.1904 -0.1389 -0.1877 -0.02013 0.0576
0.01804 0.05176 -0.07654 0.1821 -0.2134 0.002007 0.1953 0.1892
0.0517 0.1368 -0.03717 0.1495 -0.11646 -0.2091 0.1625 -0.11914
-0.1676 0.146 0.01461 0.2146 0.08057 0.1442 -0.0805 0.1597
-0.2004 0.1857 0.05667 -0.002342 -0.11847 -0.1372 -0.2142 0.08386
0.1442 0.128 0.1504 -0.03418 -0.0772 0.07587 0.009056 0.003477
-0.0986 0.09546 -0.0893 0.1034 -0.1906 0.2012 0.01967 0.11523
0.0902 -0.1985 0.1775 -0.0327 -0.09076 0.1346 -0.0825 0.1436
0.128 0.1708 0.2164 0.1757 0.198 0.1544 -0.1454 -0.06143
-0.04056 -0.1282 0.1973 0.03543 -0.09064 0.05106 0.1859 0.1403
-0.102 -0.01053 0.07416 0.1571 0.1733 0.0712 0.02315 -0.1255
-0.003803 0.035 0.0482 -0.139 -0.02605 0.07904 0.10486 0.1536
-0.1117 -0.2146 0.0385 0.08167 -0.0335 -0.1636 0.0733 -0.1333
0.0803 -0.0444 0.1356 -0.2131 -0.1937 -0.0634 0.06604 -0.01698
0.0929 0.10223 -0.2136 0.003792 -0.1428 -0.0746 0.04504 0.0208
-0.1736 -0.1465 0.1512 0.03592 0.012726 -0.10004 0.0099 0.1622
0.12415 0.1726 -0.1846 0.2051 -0.04062 0.0563 -0.1616 -0.051
0.1113 0.1891 0.1554 0.201 -0.106 -0.127 -0.179 -0.04993
-0.11395 0.0928 0.2147 -0.0801 0.1083 -0.2115 0.1587 0.05405
0.213 -0.06494 -0.0531 0.10693 -0.1261 0.1625 0.1455 -0.0787
0.04 -0.1158 0.0685 -0.1619 -0.0567 -0.07367 -0.07465 -0.06464
-0.0971 -0.2123 -0.1823 -0.005257 -0.1188 -0.2118 -0.0839 0.1449
-0.1427 -0.2047 0.1443 -0.1569 0.07227 0.0635 -0.1741 0.1614
0.0626 -0.1804 0.094 0.0947 -0.2141 -0.1274 0.1166 0.0372
-0.1742 0.1311 -0.08887 0.11005 0.1344 -0.05377 0.02719 0.02588
-0.2094 -0.0774 -0.1982 0.0623 -0.1589 0.1544 0.1439 0.0319
-0.1963 -0.1532 0.0401 0.0417 0.204 -0.2035 -0.1329 0.11505
-0.002861 -0.062 -0.1927 0.06165 0.0926 0.1503 -0.1433 0.07587
0.162 0.03128 -0.1106 -0.0749 -0.1515 0.01324 0.2031 0.06198
-0.06287 -0.0752 0.01868 0.0391 -0.0491 -0.03928 -0.02327 -0.07214
-0.002663 0.155 -0.010345 0.1113 -0.2051 -0.1035 0.1614 0.01897
-0.03683 0.01539 -0.1683 0.09357 0.0747 0.0924 -0.2069 0.0939

sequential/dense_3/MatMul f2 [24, 64]
00000000: b02d ca33 1b34 ef2a 16ad b928 acb3 16ac
00000010: 67b2 4ea3 69a9 9331 26aa 4ba8 eeb1 38b0
00000020: 002e 3a25 8932 12b0 ac2e 3c2c c232 bc2a
00000030: b1a4 c5af 2d34 87b2 e18c 1ea7 7fb1 02ab
00000040: e1b1 c532 d132 0c29 61b0 402c df31 bb99
00000050: 3828 439e 3930 2033 25a4 1e2f 5230 92b1
00000060: 882c ec33 6cb3 26b2 62ad cf31 3625 8031
00000070: a231 4031 3833 4fb1 28ad 1eb4 1629 dab0
00000080: 13b3 612b a633 a52a 2d34 432e 71ae 1ab4
00000090: 372d 98ab 8f2a 2fae 3cb2 3830 f12e c0ad
000000a0: 5628 4eb3 96a9 4b2e 16a9 12b3 7aac 2db1
000000b0: 832d b233 ab2e c9ad c59c 53b2 b633 6cb3
000000c0: 27ac b7ae 512c 85b3 409a d6ad afb2 6aac
000000d0: 0f23 7331 0d34 d432 fdaa 3fb0 c32e 05b0
000000e0: 6f26 f2b3 2dad f232 3333 8d31 edb3 0133
000000f0: beac 6aad f1ae ddb3 57a2 f2b0 992d d4b2
00000100: 4930 d72d ae33 eb31 4033 f5a3 7e30 90b1
00000110: 8824 95aa cc30 12aa 8db3 432a c033 27b0
00000120: de2a b1a9 efb0 62a0 2d34 d62c da26 1734
00000130: de2e 4c2f 7aad 99b2 f731 16b4 aeb3 f330
00000140: 05b4 2fb3 e930 89a7 9829 2a31 44ac 4f2f
00000150: 4631 d331 b233 0a33 c630 4431 be30 ffa9
00000160: 6132 0634 2fac a12f df33 46b3 3f33 59b3
00000170: d82c 8b32 3c2c 9131 7aa7 db28 072b 1b23
00000180: dd2c 0c30 cc32 d233 ed2b a7a9 6b32 95b0
00000190: a4b2 ae31 f330 66b0 a3b3 a931 b2ad d1ad
000001a0: 6fb2 8531 491a 47b0 1628 d7b0 d0b0 dbb3
000001b0: d6ae f7ac b030 bb2b 4c29 08b1 7eb0 7ca1
000001c0: f2b3 31b1 a032 ffae f630 1bb2 08b0 2728
000001d0: c624 672c 702f 3032 11ab 049d 9332 3b2f
000001e0: c6ae 9e2e 61b1 e9ad 502e d132 df30 37b2
000001f0: 5d26 b697 64b3 98ae b5a2 1bac 4432 87b0
0.08887 0.2434 0.2566 0.05417 -0.07947 0.0369 -0.2397 -0.06384
-0.2001 -0.01427 -0.04227 0.1742 -0.04803 -0.03354 -0.1853 -0.1318
0.09375 0.02042 0.2042 -0.1272 0.10425 0.06616 0.2112 0.0526
-0.01833 -0.1214 0.261 -0.204 -0.0002978 -0.0278 -0.1718 -0.05475
-0.1837 0.2115 0.213 0.03943 -0.1368 0.0664 0.1835 -0.002798
0.03296 -0.006115 0.132 0.2227 -0.01619 0.1112 0.135 -0.1741
0.0708 0.2476 -0.2319 -0.1921 -0.0841 0.1815 0.02036 0.1719
0.176 0.1641 0.2256 -0.1659 -0.08057 -0.2573 0.03973 -0.1516
-0.2211 0.05765 0.239 0.0519 0.261 0.09784 -0.10065 -0.2563
0.0815 -0.05933 0.05124 -0.0966 -0.1948 0.1318 0.10846 -0.08984
0.03387 -0.2283 -0.04364 0.0983 -0.03973 -0.221 -0.06995 -0.1617
0.0861 0.2405 0.1042 -0.0904 -0.004658 -0.1976 0.241 -0.2319
-0.0649 -0.1049 0.06744 -0.235 -0.003052 -0.0912 -0.2089 -0.069
0.01379 0.1703 0.2532 0.2134 -0.0546 -0.1327 0.10565 -0.1256
0.02513 -0.2483 -0.0809 0.217 0.225 0.1735 -0.2477 0.2189
-0.0741 -0.0846 -0.10846 -0.2457 -0.01238 -0.1545 0.08746 -0.2134
0.1339 0.09125 0.24 0.1849 0.2266 -0.01554 0.1404 -0.1738
0.0177 -0.05142 0.1499 -0.04742 -0.236 0.04892 0.2422 -0.1298
0.05365 -0.04446 -0.1542 -0.00856 0.261 0.07556 0.02676 0.2556
0.1073 0.114 -0.0856 -0.2062 0.1864 -0.2554 -0.24 0.1547
-0.2512 -0.2245 0.1534 -0.02943 0.0437 0.1614 -0.06665 0.1142
0.1648 0.182 0.2405 0.22 0.1492 0.1646 0.1482 -0.04684
0.1993 0.2515 -0.06537 0.1192 0.246 -0.2273 0.2264 -0.2296
0.0757 0.2045 0.06616 0.174 -0.0292 0.03793 0.0549 0.01388
0.076 0.1265 0.2124 0.2444 0.06192 -0.04416 0.2006 -0.1432
-0.2075 0.1775 0.1547 -0.1375 -0.2386 0.1769 -0.089 -0.0909
-0.201 0.1725 0.003069 -0.1337 0.03192 -0.1512 -0.1504 -0.2455
-0.1068 -0.0776 0.1465 0.0604 0.04138 -0.1572 -0.1404 -0.01071
-0.2483 -0.1622 0.207 -0.1093 0.155 -0.1908 -0.126 0.03244
0.01865 0.0688 0.1162 0.1934 -0.0552 -0.004898 0.2054 0.113
-0.10583 0.1034 -0.1681 -0.09235 0.09863 0.213 0.1522 -0.1942
0.02486 -0.001883 -0.231 -0.103 -0.0131 -0.06415 0.1958 -0.1415
