src/main/assets/clustering.tflite (tflite, 10672 bytes, 6 tensors)

model_23/dense_46/BiasAdd/ReadVariableOp/resource f4 [44]
00000000: d30c e8bb 17ed 813c 68c8 be3b 0e59 b7bc
00000010: 7005 73bc 0dd3 ca3c 2462 7b3c 7db3 a23c
00000020: 3e08 a93c a014 bc3b 5865 623b 5e68 763c
00000030: 4657 4d3b 3b56 6abc 05b0 9cba 9231 c63c
00000040: 228c 80bc 1793 dd38 e351 c53b c171 953d
00000050: 22b6 36bc 56aa 91bc 4c5b 323d 0eb2 293d
00000060: 6322 f23c a007 993b d871 9f3c f68e 80bc
00000070: a67e e0bc c0e9 a83a c8c3 2ebc 7231 843c
00000080: 66d0 d6bc 5ace 0f3d 6eb3 1ebc 00e0 683c
00000090: 2dca 49bc cde0 a2bb 0709 363c 2d96 403c
000000a0: c556 c83c 8dbf 65bc 5cf6 1ebd 89cc 85bc
-0.007081607 0.015860124 0.00582223 -0.022381332 -0.014832839 0.02475884 0.015343223 0.019860977
0.020633813 0.0057397634 0.003454527 0.0150395315 0.0031332537 -0.0143027855 -0.0011954313 0.024193559
-0.01569182 0.00010565499 0.0060217245 0.072970875 -0.011151822 -0.017781418 0.0435441 0.04142957
0.029557412 0.0046700984 0.019463465 -0.01569317 -0.02740414 0.0012887046 -0.010666795 0.016136859
-0.026222419 0.0351089 -0.009686334 0.014213562 -0.012316269 -0.004970646 0.011110551 0.011754555
0.024455437 -0.01402272 -0.038809165 -0.016332882

model_23/dense_47/BiasAdd/ReadVariableOp/resource f4 [16]
00000000: d349 843b f6a9 88bc 8e7c 683c 4a9b a1bb
00000010: 0f0c b63a 3f30 a63c c27a e83c 302b 533c
00000020: 349f 9cbc 914b e6bc ade5 4bbc d06c b3bc
00000030: d6f0 9bbb 4614 513c 5277 e4bc 51f1 c9bc
0.004037121 -0.016682606 0.014189852 -0.004931842 0.0013889092 0.020286677 0.028378848 0.012888715
-0.019118883 -0.028112205 -0.012444896 -0.021902472 -0.0047589345 0.012761181 -0.027888928 -0.024651201

model_23/dense_48/BiasAdd/ReadVariableOp/resource f4 [23]
00000000: 1db5 433d 3b41 40bd 8638 88bd b137 34bb
00000010: d688 91bc 3153 673d 5397 aa3b 18e0 363b
00000020: becf e3bc bb4f ae3c d28f 133d 27e6 9e3c
00000030: d958 a33c 8392 613a 7b8e b83c 5c93 173c
00000040: 65ad a9bb 0975 813d 0386 27bc e12d 59bd
00000050: 8823 a8bc d923 1dbd b977 4bbd
0.047780145 -0.04693721 -0.06651406 -0.0027499015 -0.017765444 0.056475822 0.0052060275 0.0027904566
-0.02780902 0.021278253 0.03602583 0.019396855 0.019939827 0.0008604901 0.022528877 0.009251442
-0.005178141 0.06321151 -0.010224822 -0.05302227 -0.020524755 -0.038364265 -0.049674723

model_23/dense_46/MatMul f4 [44, 23]
00000000: e254 95be 7ff2 963d 2b22 fc3d 4f8e 653e
00000010: a9ba 193e 1334 c13c 4a82 2f3e 690b 29bd
00000020: 9b78 653e f111 f4bc adab 85be 099c cebd
00000030: d300 8d3e 3d50 7e3e 8b6c 983e 9186 513e
00000040: 5ad3 97be aa3f fcbd fa76 0a3d 94a2 92be
00000050: 50c5 b23b 322d 623e b7bc 053e b08e 863d
00000060: 19d0 483e f6e2 d03d 2a05 883e e203 d0bd
00000070: 08bf e43d eaff e13c 62e0 52bd c976 143e
00000080: 268c 0f3e 2054 2abd 8cdd 1cbe 32c6 51be
00000090: fecb 7f3e 225e f53d 6175 97be 97a1 dabd
000000a0: 9a0f 33be c104 dbbd b595 b23d a911 92be
000000b0: 7ebf 28be d4b3 023e 69a0 8e3e 3825 e8bd
000000c0: b74a acbd bfac 6a3d 4d8b e63d f60c 7d3e
000000d0: 7889 893e 6982 813e cd02 82be 43ce afbc
000000e0: 252c 99be d496 0a3e 74ae a7bc 4136 37be
000000f0: 10ef 143e 0ddd 13be ecd3 35bc 1fbb 5dbe
00000100: 99a3 8fbc 081e a3bd ead4 933e cff1 883e
00000110: cd6b 1bbc ee5f 703e 3eba 9d3d 64a7 0b3e
00000120: 88c3 9b3e 57c6 ecbd 5f13 0ebe 84cc 15be
00000130: 9eac 3e3e 0f40 003e 8b85 01be d6b0 833e
00000140: 3610 953e 4777 7e3e 31f9 043e 9209 77bd
00000150: cd30 9bbe 1ac1 09be 25ea 9abe c2ab 2d3e
00000160: 68e4 7d3e 4843 8abe a0b2 0fbe ff4b 7f3e
00000170: 27ad 8d3d 1a84 0f3e 2b66 0abe 82f1 483e
00000180: 01ad 9c3e b678 3ebd 8014 40be 22bb 52be
00000190: ca50 df3d 13ec 86bd e47c b63d e827 9cbd
000001a0: 584e 943e 88e5 4ebd ad58 40be b215 29be
000001b0: 2086 11be a095 6ebe d27c 5ebe 5cc4 2a3e
000001c0: 6c2b 05be 4d06 ea3d d1bf 833e fea1 18b9
000001d0: 29ac cbbd 8349 1ebd 4082 08be ca88 883e
000001e0: b040 863e 6208 46bc 6387 aebe 5fa3 04bd
000001f0: 9eb4 35be 354b dc3d 88e9 6c3d 9e5a 733d
00000200: 7ddc 723e 4e30 48bd 751e 093e c6b1 923e
00000210: 5888 7d3e 528a 883e afde 853d 81fe d03d
00000220: 12c1 46bc fc8c 813d 336e d13d b07f a0bd
00000230: 7377 89be 5a6a 883e 4932 853e 3cf6 013b
00000240: ca99 d13d 20ec 463e 3bf4 e93c 02be 7cbb
00000250: b923 913e 45a9 2dbe 45a6 363d 5a9c 22be
00000260: 64c3 86bb 7cfa 1fbd 431a 35bd e5d9 1d3e
00000270: e481 2fbe 6657 8abe 90ba 8e3e e777 26bd
00000280: 2c6d 8c3e 442e 8dbe 83d9 0abe 5978 efbc
00000290: cb23 95be a3cd a9bb 14a6 763e ba8e 313e
000002a0: b249 d9bc 7193 81bd 3aba b03d 8a9a f73d
000002b0: 5bc0 92be b0e3 62be ccbe 6f3e 8d51 87be
000002c0: 64f7 3e3c f412 6b3e f017 623c 0f80 ec3b
000002d0: 9f96 91be d9a2 83be 16b8 bf3d 2b3e 7b3e
000002e0: be41 41bd 8a28 20be c6a7 89be b861 b9bd
000002f0: 24e2 e93d d955 46bd b817 8b3e 9928 043b
00000300: 4b6f 94bb 446e 61bc 2d43 6c3e 7bf8 22be
00000310: dca5 193e 4f1b 95be c29d da3d d7d6 393d
00000320: f47c bfbd ef2b d1bb 5d14 c13b c817 743e
00000330: 10c9 3c3e b9fb 46be 4bf0 79be 6d4e 313e
00000340: f4d7 863e 3131 f0bd b29c 853e 0dcf 82be
00000350: 50f6 f83d 3a3c c33b eadc 8dbe ed1e fb3c
00000360: d83e 6c3e a100 72be 0e8e 22be 977d 4abe
00000370: eb75 5bbc 8b73 033e 6ebc 16be 9d60 863e
00000380: 26eb aabd f0be f83d abaf 84be c433 8bbe
00000390: 395a ef3d c4ed cebd 060d 87be 84f1 13be
000003a0: 5bb7 3e3e 94e5 df3d 6a49 153e d238 8e3e
000003b0: ecb7 78be 5f81 9b3e 9e41 40be 78b5 87bd
000003c0: 4cd5 82be d8b1 33be 1963 133e 6edc 333e
000003d0: 6939 46be c62e 1a3e 069f 9a3e 9eb6 68be
000003e0: ca9e 183e 6eca 0abe 6c20 0d3e 0a3d 703e
000003f0: 298c 4b3e 8855 9a3e 6a29 533d f4c0 5dbc
-0.29166323 0.07370471 0.123112045 0.22417568 0.15012611 0.023584401 0.17139545 -0.041270647
0.22409289 -0.029793711 -0.2610754 -0.10088355 0.2753969 0.24835296 0.29770312 0.2046149
-0.29653436 -0.123168305 0.03380487 -0.28639662 0.0054556504 0.22087553 0.1306027 0.06570184
0.19610633 0.10199539 0.2656644 -0.101569906 0.11169249 0.02758785 -0.05148352 0.14498438
0.14018306 -0.041584134 -0.15318888 -0.20485762 0.2498016 0.11980845 -0.2958174 -0.10675352
-0.1748642 -0.10694266 0.087199606 -0.285291 -0.16479298 0.12763911 0.27856758 -0.11335224
-0.08412688 0.05729365 0.11257038 0.24711975 0.26862693 0.25294808 -0.25392762 -0.021460658
-0.29916492 0.13534099 -0.020468928 -0.1789179 0.1454432 -0.14439793 -0.011097889 -0.21653412
-0.017534064 -0.079647124 0.28873378 0.26746985 -0.009486151 0.23474094 0.077015385 0.13638073
0.30422616 -0.11561268 -0.13874577 -0.14628798 0.18620536 0.12524436 -0.12648599 0.25720853
0.2911393 0.24850188 0.12985684 -0.06031186 -0.3031067 -0.13452569 -0.30256763 0.16960052
0.24794161 -0.27004457 -0.14032984 0.24931334 0.06917792 0.14015236 -0.13515536 0.19623378
0.30600742 -0.046501838 -0.1875782 -0.20579198 0.10904081 -0.06587996 0.0891054 -0.07624799
0.28966022 -0.050511867 -0.18783827 -0.16512182 -0.14211321 -0.23299265 -0.21727303 0.16676468
-0.13004845 0.11426983 0.25732282 -0.00014556196 -0.09944946 -0.038644325 -0.13330936 0.26666862
0.26221228 -0.01208696 -0.34087667 -0.032382365 -0.17744681 0.10756532 0.0578399 0.05941259
0.23716922 -0.048874192 0.13390525 0.28651255 0.24759042 0.2666803 0.06536614 0.10204793
-0.0121309925 0.06325719 0.10226097 -0.078368545 -0.26848945 0.2664364 0.26014927 0.0019830605
0.10234411 0.19426012 0.028558841 -0.0038565402 0.28347567 -0.16959102 0.04459216 -0.15879956
-0.004112648 -0.03905724 -0.0442145 0.15415151 -0.17139393 -0.27019805 0.2787671 -0.04064169
0.27427042 -0.2757436 -0.13559537 -0.02923219 -0.2912887 -0.0051819845 0.24086791 0.17339602
-0.026524398 -0.0632695 0.0862927 0.12090023 -0.2866238 -0.22157168 0.23412627 -0.26429406
0.011655662 0.22956449 0.013799652 0.007217414 -0.28435227 -0.2571018 0.093612835 0.24535434
-0.047181837 -0.15640464 -0.26885813 -0.090518415 0.11420086 -0.048421714 0.27166533 0.00201658
-0.0045298687 -0.0137591995 0.230725 -0.159151 0.15004677 -0.29122397 0.10674621 0.045370903
-0.09350005 -0.006383411 0.00589232 0.23837197 0.18436074 -0.19431962 -0.2440807 0.17315073
0.26336634 -0.117281325 0.26096112 -0.25548592 0.121563554 0.0059581073 -0.27707607 0.030654395
0.23070848 -0.23633052 -0.15874502 -0.19774471 -0.013394813 0.12837045 -0.14720318 0.26245585
-0.08345632 0.121457934 -0.25915274 -0.27187932 0.116871305 -0.10103944 -0.26377124 -0.144476
0.18624632 0.109324604 0.14578786 0.27777725 -0.2428891 0.3037214 -0.18775031 -0.06626409
-0.25553358 -0.17548311 0.14393272 0.17564556 -0.19357838 0.15056905 0.3019945 -0.22725913
0.14904323 -0.13553783 0.13781899 0.23460785 0.19877686 0.3014338 0.051553167 -0.013534773

model_23/dense_47/MatMul f4 [16, 44]
00000000: 5663 7ebe de02 aa3e 34d7 89bd d90f 20bd
00000010: 4be8 9a3e 6748 4c3d 99c1 e0bb 69d8 5fbd
00000020: 1dbb 4f3e f1ac 4e3e 55b4 a2be efb9 a83b
00000030: eb74 12be d41d 983d 6419 0b3e 926d c83d
00000040: e005 29bd 1e20 543d 8df5 c0bc 4c9b db3d
00000050: 1acf 5d3c dda3 db3d 1f34 6fbe 5662 1b3e
00000060: 2e17 813e 7cd1 98be 75e8 d8bd d2df 5cba
00000070: 639e 41be 6bd5 6ebd 7ed0 4ebe dc1f 493e
00000080: 68d8 2fbe 65dd a0bd ff9b 70be 11fa ebbd
00000090: 6661 08be 55fd 96bd 4b16 db3c f42d 7c3c
000000a0: f514 693e 2ab2 753e c3ab 1cbe 0eac 42be
000000b0: bfbb 78be 18cb 08bd 8221 f6bc e0c8 dbbd
000000c0: 0c5f 1a3e cd44 b73d 2ecb 86be 08f8 17be
000000d0: 8607 6abe 967c 86be 7aa3 b7be 9b79 58bd
000000e0: 43d3 86be 3948 563e 6cee 723d 2e29 b83d
000000f0: 0316 063d 3b43 943e c831 2c3e c65e d2bd
00000100: a2df 803e d507 b53e 0e96 bd3e 411f 9abe
00000110: 047a ccbd f181 dcbd d2e6 9b3e 4591 c4bd
00000120: fd60 afbd e935 a2be b9a9 823d 2690 d8bd
00000130: c37d 1fbe 9568 43bd b43c c3bd 3e9a aa3e
00000140: fb16 afbd 99eb 5dbe f1e4 d0bd 83cc 61be
00000150: f9fd bfbd 7f95 803e 1f5d a23e e9af 11bc
00000160: 2647 603e e4a4 543e f69e 60be d637 1bbe
00000170: 88e2 44be 96c3 873e 1743 563e a731 843d
00000180: 903b c6bd c9a8 0d3e a948 2bbe 8bb3 57be
00000190: 5c71 773e e1b3 32be fe09 98bd 3740 52bd
000001a0: 6894 843e 1733 103e 4dfc 013e 8550 753d
000001b0: 8e4d c23d 4520 8f3d 38a5 013e bedc 7cbe
000001c0: 1b40 bf3c ad9b 16be b257 a8be a88a adbd
000001d0: f6c8 c43d 1408 8f3e a88c 933e 576a 98be
000001e0: 3671 06be 760a d33d c007 333e 8876 95be
000001f0: 74e6 81be 83c6 78be 130f ba3d 97c1 843e
00000200: ddae 90bd 58cc 84be c45c 343e 879e bbbd
00000210: 9932 833e 27d7 693d 3152 9fbe d7ae 833e
00000220: a3d4 8cbe 18e8 963e 2f16 693e 96d6 3dbe
00000230: 786c 583e f9fb ad3d 73af fc3b 6826 a1be
00000240: 405c c53d c63c 3cbe 1a30 8b3d 3538 9c3e
00000250: 1ee5 96be 75a4 21be 806d d4bd 3491 f43d
00000260: 5fd1 83be d15f 85be 821f 9d3e 465e 58be
00000270: ef2f 1ebd 63e0 d63d e40d 8b3e 41b5 e13a
00000280: 503e 803c c8f7 073e 8011 8f3e 3cc5 863e
00000290: 8b76 923e ec10 17bb 3422 7ebe b6da 083d
000002a0: 830c debd 8d50 1ebe 3a4f dbbc 150e 5cbe
000002b0: 6199 a53d 3ff0 913e 0415 afbb b395 0d3e
000002c0: 4c52 1c3e 737a 943e 16ba 51be c96c 4d3e
000002d0: e6f1 623e 0052 90bd cbd9 6ebe 72f8 c13e
000002e0: 79e1 013e 7082 9c3e 11cd e43d d779 1cbe
000002f0: daa0 21be fb59 1abe 2177 b1be c6cb 0e3e
00000300: e3b6 4c3e 61cf 9b3e 9bee 8d3e e334 823d
00000310: b26f 38be 79ec 6bbe 41e7 5e3d 7d40 a33a
00000320: f989 b3be 0b1a 1e3e 1d11 d13d 4828 9abe
00000330: f306 9dbe 9c79 9a3e 91d3 d53d 98bc 5cbc
00000340: b7a9 603e d569 40be 3225 86be 18af 873e
00000350: 44cd 383e 5a26 8f3e 5acd 36be f52e b2be
00000360: 4910 6f3d 749f 8d3d 8c9e c0bd 9be7 623e
00000370: cc73 8ebe eac9 3cbd 04dd 6b3b 9209 1f3d
00000380: 1e18 023d 9a42 c63d 0f99 60bd bd8e 26be
00000390: 5b39 cebd 33dc 193d e0fa 28be 6620 2dbe
000003a0: 7f07 823e 7c1f 9bbd 63ed 873d c7f6 8b3e
000003b0: 06be 99bd 2400 65be d560 9dbc 24e0 0c3e
000003c0: 4d60 4c3e f5bd 153d 53bb 143e c0d5 d7bc
000003d0: 4b56 983c fc56 193d 5262 2b3e 9d74 0b3e
000003e0: 4a40 223c 124c abbe 630d 0bbe 8e13 8dbe
000003f0: 0782 86be d5f6 393e a0e7 57be 6f0c c73d
-0.24842581 0.33205312 -0.067305 -0.039077614 0.3025535 0.049873736 -0.006859016 -0.054649744
0.20286222 0.2018316 -0.31778207 0.005149118 -0.14302413 0.07427564 0.13583905 0.09786524
-0.04126537 0.05178844 -0.023554588 0.1072298 0.013538146 0.10724614 -0.23359726 0.15174231
0.25212997 -0.29847324 -0.10591213 -0.0008425686 -0.18908076 -0.058309 -0.20196721 0.1964106
-0.17172396 -0.07854728 -0.23497008 -0.11522306 -0.13318405 -0.07372538 0.026744029 0.015391815
0.227619 0.23993745 -0.15299897 -0.19010946 -0.2429037 -0.03339681 -0.030045275 -0.10731673
0.1507532 0.089486696 -0.2632689 -0.1484071 -0.22854432 -0.26266927 -0.3586691 -0.052850347
-0.26333055 0.20925988 0.059309408 0.089922294 0.032735836 0.28957543 0.16815865 -0.10271983
0.25170618 0.35357538 0.37028545 -0.3010197 -0.0998421 -0.10766972 0.3044954 -0.095980205
-0.08563421 -0.31681755 0.06380028 -0.10574369 -0.15575318 -0.04770716 -0.095330626 0.33320802
-0.08549305 -0.21671905 -0.10199917 -0.22050671 -0.09374613 0.25114056 0.3171167 -0.008892038
0.21902141 0.20766026 -0.21935639 -0.15158018 -0.1922704 0.26516408 0.2092403 0.06454783
-0.096793294 0.13833918 -0.16726936 -0.21064584 0.24164337 -0.17451431 -0.07423781 -0.05133077
0.25894475 0.14081989 0.12693901 0.059891243 0.09487449 0.06988577 0.12660682 -0.24693581
0.023345998 -0.14707823 -0.32879406 -0.08473712 0.09608643 0.2793585 0.2881825 -0.2976863
-0.13129124 0.1030473 0.17483425 -0.29191995 -0.25371134 -0.24294476 0.090849064 0.25928947
-0.070646025 -0.25937152 0.17613512 -0.09161096 0.2562454 0.05708995 -0.31117395 0.2571933
-0.2750598 0.29473948 0.22762369 -0.1853889 0.21135128 0.084953256 0.007711345 -0.31474614
0.09636736 -0.18382558 0.06796284 0.30511633 -0.29471678 -0.15785392 -0.10372448 0.11941758
-0.25745675 -0.26049665 0.306881 -0.21129712 -0.03861993 0.10492017 0.27159035 0.0017220156
0.015654713 0.13278115 0.2794304 0.26322353 0.28606066 -0.0023050858 -0.24817735 0.033411704
-0.1084223 -0.15460415 -0.026771177 -0.21489747 0.08085895 0.28503606 -0.0053430814 0.13826637
0.15265769 0.2899967 -0.20481142 0.2006103 0.2216259 -0.0704689 -0.23325269 0.3788486
0.12683667 0.30568266 0.11171926 -0.15280853 -0.15784016 -0.15073387 -0.346612 0.13944921
0.19991641 0.30431655 0.27721104 0.063577436 -0.18011358 -0.23039426 0.05441976 0.0012455132
-0.35066202 0.15439622 0.10208342 -0.30108857 -0.30669364 0.30170906 0.10440744 -0.013472699
0.21939741 -0.18790372 -0.26200253 0.26500773 0.18047053 0.27958947 -0.17851773 -0.3480145
0.05836514 0.06915179 -0.094052404 0.22158663 -0.2782272 -0.046090998 0.003598989 0.038827486
0.03176128 0.09680672 -0.054833468 -0.16265388 -0.100695334 0.037563514 -0.16501951 -0.1690689
0.25396344 -0.075743645 0.06637075 0.27336714 -0.07506947 -0.22363335 -0.019211212 0.13757378
0.19958611 0.03655811 0.14524584 -0.026347041 0.018595835 0.03743647 0.16736725 0.13618703
0.009903023 -0.33456475 -0.13579325 -0.27553982 -0.26271078 0.18160565 -0.21084452 0.097191684

model_23/dense_48/MatMul f4 [23, 16]
00000000: 3db8 ae3e 07c5 b33b c1b1 c0bd 7142 2e3e
00000010: 7ec3 6abc 42e5 dd3e 1200 ad3e aa76 d0be
00000020: cb89 22bd 595c 0bbe 5a64 263e 4f88 313e
00000030: ddf4 bfbe 5d08 96be 803d d5be eae9 b3be
00000040: 18ec 393c 23ee 453e 90b1 a9be be27 49be
00000050: eb7e c83e f0ca 643c ce67 983e 2964 0f3e
00000060: bae3 a1bc 3369 ad3e e3bd 3abe d434 7b3e
00000070: 8fe8 2a3e 02cf 43be d339 a03d 2491 97be
00000080: d2c2 54be 08b1 8e3e 5b01 26be 9c52 a63e
00000090: 3dcc 243e 68d5 493d b49f 523d 45ef 1e3e
000000a0: c6eb 86be c361 12bd 0557 a73e b3e6 2e3c
000000b0: 342f cdbd e607 b2be 06cb bdbe ca96 47bd
000000c0: 422a 7b3e 0a27 16be 0e3d 8e3e 6106 11be
000000d0: 6b16 353d 72dc 89be 64ad 983d da18 c6be
000000e0: a1cd 733e 7334 1fbd 5de9 50be a0f0 95bd
000000f0: 537b b03e df48 0e3d ef1b 9fbe ad27 003e
00000100: bd93 b9bd 6c43 3bbe 18d7 8c3e 699c 873e
00000110: b3c1 68be 7304 59bd 8e3d 0e3d 6246 1abe
00000120: feb2 4b3e 642d 73bd 0b07 b6bd 5728 c33d
00000130: 468c 993e 3e74 aebe 75dd 133e 11df 81bc
00000140: 555b 91bc 9615 e23e f523 873d cc90 8cbe
00000150: dbcc 52be b1fe 013f 1387 10bf c1d7 dc3d
00000160: 7090 8bbe f249 0e3e 9ec8 a63e 02be 8a3d
00000170: 812e 483d 431e b63d 9076 1ebe b233 823d
00000180: 4ff5 383c 4ede aa3e 5049 0ebe c729 16be
00000190: 447a 323f fa63 21bf 36f0 b93d b617 adbe
000001a0: 483f 6b3e 1874 6fbe 522b 573b 9d83 b4be
000001b0: 1340 5ebe 0db9 ea3e 914a 843d 47ac 43be
000001c0: 9186 3ebe fd15 09be 3cae 973e 6814 16be
000001d0: 87e0 95be 9e17 80be be55 073e 0ff1 393e
000001e0: 384c c0be 60e3 15bd 5cf4 a0be 8706 acbe
000001f0: 0f72 40ba 1225 6a3e 10a5 bfbd 0c2e bcbe
00000200: 01ad 483e 4b18 e1bd fb76 8a3b 2456 c5be
00000210: ad88 db3c da87 083e 508d b8bd d511 b5be
00000220: 3454 7fbe 1963 923e 8d43 c0be 5c95 6fbb
00000230: 289a 823d 97c2 2d3e ccbd 293e 4980 9bbe
00000240: affa 53be 52b4 1c3e 92ed 993e 70ec 30be
00000250: 0752 14be f456 203e dc40 5d3d 7df9 03bf
00000260: 7b54 7d3e 0618 103e 89cb a53d 5163 fdbd
00000270: 3a2b 783e 187b 5a3e 5947 a3bc 60ac 683e
00000280: 2305 7ebe fa0a 023e d779 953e 1fb8 f9bd
00000290: 355e babe 6ea8 6b3e 7d7a 95be 8cd4 003e
000002a0: 06d1 353e 710c 573e 6cb8 fa3d 7729 c6be
000002b0: 9b99 7dbe 1731 4f3a 937c 373c d751 23bd
000002c0: faca 9bbd 25ce 8bbe c64d 4d3e e5a6 153d
000002d0: 980b 663e eb41 d93e e533 393e 4ff8 93be
000002e0: 7da1 8abe d3e8 10be a601 cd3e fbb7 bc3e
000002f0: f3c6 d03d 62e9 52bd 007a c0be f629 813e
00000300: 6dff 80be dc27 8e3e c82f 2ebe 3de1 cd3c
00000310: fa33 8e3d c266 133e e791 b43d f157 ec3d
00000320: 6f5b d6be c9f3 81be f652 923e e2bf aa3d
00000330: da76 5d3c 3cb8 6cbd 050c 63be c908 9cbd
00000340: fe52 873e cb6c d33e d104 abbd b4ea 913c
00000350: ff53 583e 4f6a 6f3d edff 783d 8e44 963e
00000360: 47f1 98be 3ab0 1cbd 1d19 4cbe 9a98 69be
00000370: 62a3 5abe fbfb 753d e2d2 213e 97f9 26be
00000380: 40e9 7e3e 5b84 47bd ea82 e5be eae9 af3d
00000390: cfd6 8c3e b193 c4be 469b a9be c485 643c
000003a0: 0f12 693e 62c3 c13d 008e 67be 29f1 6a3d
000003b0: 4751 893d 974c b23d 1a5f 1d3e 9113 4dbe
000003c0: 9dd2 8cbe f228 9cbc 4010 683c abcd 833e
000003d0: e971 8dbe 736c 8c3e 9a57 48be 7c35 99be
000003e0: e17e 033e 7adc 70be d085 8fbe 2b39 b33d
000003f0: 3fac 9dbc 5e80 8abd 3ee6 a6be d33c 7ebe
0.34124938 0.005486134 -0.09408904 0.17017533 -0.0143288355 0.43338972 0.33789116 -0.40715533
-0.03968219 -0.13609447 0.16249219 0.17337154 -0.37491503 -0.29303256 -0.41648483 -0.351394
0.011347793 0.19329123 -0.33143282 -0.19644067 0.3915933 0.0139644 0.29766697 0.14003052
-0.019761909 0.33869323 -0.18236499 0.24531871 0.16690277 -0.19121936 0.07823529 -0.2960292
-0.20777443 0.2786944 -0.16211455 0.324849 0.16093536 0.049275786 0.051421836 0.15520962
-0.26351756 -0.035737764 0.32683578 0.01067512 -0.10018769 -0.3477165 -0.37068957 -0.048727788
0.24527839 -0.1466333 0.27780956 -0.1416259 0.044210833 -0.26926 0.07454947 -0.38690835
0.2380891 -0.03886838 -0.20401521 -0.07321286 0.3446909 0.034737464 -0.31076 0.12515135
-0.09061382 -0.18287438 0.27507854 0.2648652 -0.2273014 -0.05298276 0.034726672 -0.15065911
0.19892499 -0.05936946 -0.08888062 0.095291786 0.29989833 -0.3407306 0.14439948 -0.015853437
-0.017743746 0.44157094 0.06598655 -0.2745422 -0.20585959 0.50779253 -0.56456107 0.10783339
-0.27258635 0.13895395 0.32574934 0.06774522 0.048872475 0.08892491 -0.15474916 0.06357516
0.011288955 0.3337273 -0.13895154 -0.14664374 0.6971781 -0.6304318 0.0907902 -0.33807153
0.22973359 -0.2338413 0.0032832217 -0.35256663 -0.2170413 0.45844308 0.06459535 -0.19108687
-0.1860602 -0.13387294 0.29625118 -0.14656222 -0.29272863 -0.25018018 0.13216302 0.18158363
-0.3755815 -0.036593795 -0.3143643 -0.3359873 -0.0007341215 0.22865704 -0.09357655 -0.3675388
0.19597246 -0.10990962 0.0042256094 -0.38542283 0.02679857 0.13333073 -0.09011328 -0.35365167
-0.24934465 0.2859123 -0.37551537 -0.003655753 0.06377059 0.16968761 0.16576308 -0.3037131
-0.20701097 0.15303162 0.30064064 -0.17277694 -0.14484416 0.1565817 0.054016933 -0.51552564
0.24739258 0.14071664 0.08095462 -0.12372459 0.2423524 0.21336019 -0.019931482 0.22722006
-0.24806647 0.126995 0.2919452 -0.121933214 -0.364 0.2301347 -0.29195014 0.1258108
0.17755517 0.2100084 0.12242207 -0.3870351 -0.24765627 0.00079037383 0.011199134 -0.03987297
-0.07607074 -0.27305713 0.200492 0.036536116 0.2246536 0.42433104 0.18086202 -0.28900382
-0.2707633 -0.14151315 0.4004032 0.36859116 0.101941966 -0.051492102 -0.3759308 0.25227326
-0.25194874 0.27764785 -0.17010415 0.025131816 0.069435075 0.14394668 0.08816891 0.11540211
-0.41866633 -0.25381306 0.2857892 0.0833738 0.013517106 -0.057792887 -0.22172554 -0.07618863
0.26430506 0.4129394 -0.08350528 0.01781211 0.21125792 0.058450993 0.060790945 0.29349178
-0.2987158 -0.038254 -0.19931455 -0.22812119 -0.21351388 0.06005476 0.15803102 -0.16306148
0.24893665 -0.04871021 -0.44826442 0.085895374 0.27507636 -0.3839393 -0.33126277 0.013947908
0.22760795 0.094610944 -0.22612762 0.057358894 0.067049555 0.087060146 0.1536831 -0.20026995
-0.27504435 -0.019062493 0.014164031 0.2574285 -0.2762597 0.2742649 -0.19564667 -0.29923618
0.12841369 -0.23521605 -0.28031778 0.08751138 -0.019247172 -0.06762765 -0.32597536 -0.2482789
