src/main/assets/model.tflite (tflite, 31408 bytes, 10 tensors)

sequential/conv2d_3/BiasAdd;sequential/conv2d_3/BiasAdd/ReadVariableOp/resource;sequential/conv2d_3/Conv2D f2 [16]
000000 00 00 00 00 00 00 00 00 00 00 00 00 00 00 00 00
       0.0 0.0 0.0 0.0 0.0 0.0 0.0 0.0
000010 00 00 00 00 00 00 00 00 00 00 00 00 00 00 00 00
       0.0 0.0 0.0 0.0 0.0 0.0 0.0 0.0

sequential/conv2d_2/BiasAdd;sequential/conv2d_2/BiasAdd/ReadVariableOp/resource;sequential/conv2d_2/Conv2D f2 [8]
000000 00 00 00 00 00 00 00 00 00 00 00 00 00 00 00 00
       0.0 0.0 0.0 0.0 0.0 0.0 0.0 0.0

sequential/conv2d_3/Conv2D f2 [16, 4, 4, 8]
000000 9a a6 85 2f d3 2e b1 2d 1f 2a 6a 1f 11 1f 3e 2f
       -0.02579 0.1175 0.1066 0.0889 0.04782 0.00724 0.0069 0.11316
000010 83 2c 0c a7 e9 1d 04 2f a1 af 83 2d e4 2e 5f 21
       0.0705 -0.02753 0.00577 0.1096 -0.1192 0.0861 0.10767 0.01049
000020 8f 2c 12 ac 2d 2f 17 a7 2d a7 82 2c 87 a4 45 af
       0.0712 -0.0636 0.1121 -0.0277 -0.02803 0.07043 -0.01768 -0.1136
000030 87 2c d6 23 00 aa 64 ac b3 24 08 9f 09 a9 5f 23
       0.07074 0.015305 -0.04688 -0.0686 0.01836 -0.006866 -0.03934 0.0144
000040 cd 2b 35 a9 e6 ae 8a a0 ad 2b e1 2d 7a 2f 68 af
       0.06094 -0.04068 -0.1078 -0.008865 0.05997 0.09186 0.1168 -0.1157
000050 e0 aa 45 24 89 ad 16 ad a2 a5 ff 2e 32 ae 03 ad
       -0.0537 0.01668 -0.0865 -0.07947 -0.022 0.1093 -0.0968 -0.0783
000060 77 ac bd 1d 2d 9c db ad 82 a3 30 af 8b 9f 70 20
       -0.06976 0.005604 -0.004078 -0.0915 -0.01466 -0.1123 -0.007366 0.00867
000070 a7 2c 18 2d 1a 20 47 2e a7 2f ad ac ac 26 3a 21
       0.0727 0.0796 0.00801 0.0981 0.11957 -0.07306 0.02606 0.01021
000080 2c 25 d1 1e a2 ae 04 aa 62 a2 5a 2b 89 21 f1 2e
       0.0202 0.006657 -0.10364 -0.047 -0.01247 0.05743 0.01081 0.10846
000090 e9 aa e1 af 4c aa bd 19 a2 ae 69 2c 64 2b dc 24
       -0.054 -0.1231 -0.0492 0.002802 -0.10364 0.0689 0.05774 0.01898
0000a0 3f 23 22 ae 31 2e 79 1b 2a ae b0 2e 86 2c 8e ab
       0.01415 -0.0958 0.09674 0.003649 -0.0963 0.1045 0.0707 -0.05902
0000b0 59 2e c3 2b ca 20 37 a8 72 2d 35 2c 8e a9 f6 2d
       0.0992 0.06064 0.00935 -0.03293 0.0851 0.06573 -0.0434 0.09314
0000c0 d5 2d 9c 24 95 2f f6 ac 5c a3 87 2f 22 2f ce a0
       0.0911 0.018 0.11847 -0.0775 -0.01437 0.1176 0.11145 -0.009384
0000d0 6a a6 64 2e b8 2e a9 a8 ad 2e 04 ae 22 2f 00 2e
       -0.02505 0.09985 0.105 -0.0364 0.1043 -0.094 0.11145 0.09375
0000e0 a9 29 9d ae b6 aa 6d 2e 44 25 6b aa 75 ac ee 1b
       0.04422 -0.10333 -0.05243 0.1004 0.02057 -0.05014 -0.06964 0.003872
0000f0 00 aa 92 1c 4f 2c c5 2c 90 28 72 ac 50 a9 04 a2
       -0.04688 0.004463 0.0673 0.0745 0.03564 -0.06946 -0.0415 -0.01175
000100 0f 2b 9a ae ef 24 fc 24 22 28 2d ab c5 aa 27 ae
       0.05515 -0.10315 0.01927 0.01947 0.0323 -0.05606 -0.0529 -0.0961
000110 6c ad 57 2d c1 ad 65 2e 59 2e 71 27 d1 2c 6a af
       -0.0847 0.08344 -0.0899 0.0999 0.0992 0.02907 0.07526 -0.11584
000120 17 2e 98 18 e5 ac d1 a6 dc a7 72 ab 34 2f ab 23
       0.09515 0.002243 -0.0765 -0.02663 -0.0307 -0.05817 0.11255 0.01498
000130 7e 2e ef af 6f a9 26 2c a1 a1 b3 a2 8d 2f 13 2b
       0.10144 -0.12396 -0.04245 0.0648 -0.010994 -0.013084 0.118 0.05527
000140 d2 af 43 a1 d7 28 48 2c 4e ad dc ad 37 2f 11 ae
       -0.1222 -0.01028 0.0378 0.0669 -0.0829 -0.09155 0.11273 -0.0948
000150 b9 2f c1 aa e3 aa 45 24 8d ae 3e 2f a5 af 8d a5
       0.12067 -0.05276 -0.0538 0.01668 -0.10236 0.11316 -0.11945 -0.02168
000160 be af de 28 64 2e 3c 2e 23 ae aa 11 b8 2f 12 ae
       -0.121 0.03802 0.09985 0.0974 -0.0959 0.0006914 0.1206 -0.09485
000170 8b ad 11 a3 60 26 0c 28 44 2b 2a 2c a6 2f 36 2a
       -0.0866 -0.0138 0.0249 0.03162 0.05676 0.06506 0.1195 0.04852
000180 63 aa b5 a1 59 22 4e a5 54 ad 9e ab a4 a9 f7 ac
       -0.0499 -0.01115 0.0124 -0.02072 -0.08325 -0.0595 -0.04407 -0.0776
000190 f6 1f de ac 99 1e 06 2f b4 2f 75 2a 27 27 e3 2c
       0.007774 -0.07605 0.006443 0.10974 0.12036 0.05045 0.02794 0.07635
0001a0 a9 a9 21 2b b1 29 26 29 6e a9 ff 2d a4 21 0c 2f
       -0.04422 0.0557 0.04446 0.04022 -0.04242 0.0937 0.01102 0.1101
0001b0 2a aa ce 9f f1 ac 5d 2b 78 23 8e af ae 2d a6 2d
       -0.04816 -0.00762 -0.0772 0.05753 0.01459 -0.11804 0.08875 0.08826
0001c0 f8 23 81 2f 1e 2c 72 28 9e 2e cb ac a9 a5 85 ac
       0.015564 0.11725 0.06433 0.03473 0.1034 -0.0749 -0.02211 -0.0706
0001d0 ec ac 09 28 0a af 6d 2a 0a 27 e8 ae 76 2d bd ae
       -0.0769 0.03152 -0.11 0.0502 0.0275 -0.1079 0.0853 -0.1053
0001e0 a7 2e ea af 9f 1f 89 25 28 2c 02 28 24 ac 84 21
       0.10394 -0.12366 0.007442 0.02162 0.06494 0.0313 -0.0647 0.01077
0001f0 ab 2d 66 2f d3 2d 92 2d aa ac b7 ad 40 ab 5d ac
       0.08856 0.1156 0.091 0.08704 -0.0729 -0.0893 -0.05664 -0.0682

sequential/conv2d_2/Conv2D f2 [8, 4, 4, 1]
000000 55 a8 b6 2b 52 af 13 31 ae 30 d5 b0 85 2b 9f 28
       -0.03384 0.06024 -0.1144 0.1586 0.1462 -0.151 0.05875 0.0361
000010 b2 af cf b0 ff b0 a3 b1 74 af 18 28 10 31 e1 24
       -0.12024 -0.1503 -0.1561 -0.1761 -0.11646 0.03198 0.1582 0.01906
000020 ab 2c fa b1 0c 31 88 b0 e9 31 94 2e 0e 2b 9a 30
       0.07294 -0.1868 0.1577 -0.1416 0.1847 0.1028 0.0551 0.1438
000030 e7 af dc af 36 2a 16 b2 24 ad 1f b0 92 ad 5c 2d
       -0.1235 -0.1228 0.04852 -0.1902 -0.0803 -0.1288 -0.08704 0.08374
000040 a7 a4 1d ac 1f 32 af 2c 5c ab d9 30 ee ac 91 b0
       -0.01817 -0.0643 0.1913 0.0732 -0.0575 0.1515 -0.077 -0.1427
000050 d8 2d 6a b1 cc a5 cc ad 87 a8 12 28 71 32 7e b0
       0.0913 -0.1692 -0.02264 -0.0906 -0.03537 0.0318 0.2013 -0.1404
000060 97 2b 08 a8 a8 2c a0 29 2b 31 12 ac 66 b1 ed af
       0.0593 -0.0315 0.07275 0.04395 0.1615 -0.0636 -0.1687 -0.12384
000070 d3 31 6f 2d 9a 2e df ae bc 9c ba 9e ac ad ff 9e
       0.182 0.0849 0.10315 -0.10736 -0.004623 -0.00657 -0.0886 -0.006832
000080 a3 31 4b 32 e3 31 16 b1 39 b2 9a 2b 37 32 55 b0
       0.1761 0.1967 0.184 -0.1589 -0.1945 0.0594 0.1942 -0.1354
000090 e0 af 90 af 4a 30 66 31 03 b0 49 b0 17 2c 4d 32
       -0.12305 -0.11816 0.134 0.1687 -0.1254 -0.1339 0.0639 0.1969
0000a0 e5 31 98 b1 25 b0 d4 30 ef 31 09 31 60 1b 18 ab
       0.1842 -0.1748 -0.1295 0.1509 0.1854 0.1573 0.003601 -0.05542
0000b0 24 b2 58 b0 20 b0 1f ae bf 26 89 af 7d ad 05 b0
       -0.1919 -0.1357 -0.1289 -0.09564 0.02635 -0.11774 -0.08575 -0.1256
0000c0 cf b0 7f 30 5c 21 da a2 84 31 e6 b0 3d 0e 17 30
       -0.1503 0.1405 0.01047 -0.01338 0.1724 -0.1531 0.0003808 0.1278
0000d0 81 b0 71 ad 7f ad c3 2c 4c af 8c b0 6d aa 62 31
       -0.1407 -0.085 -0.0859 0.0744 -0.114 -0.1421 -0.0502 0.1682
0000e0 9f 26 9c 2d 66 a0 51 b0 22 2d 64 31 ae 27 14 2c
       0.02586 0.08765 -0.00859 -0.1349 0.0802 0.1685 0.03 0.0637
0000f0 e4 30 ca b0 b4 9a f9 30 c2 23 b4 ab a1 2f 45 b0
       0.1528 -0.1497 -0.003273 0.1554 0.01515 -0.06018 0.1192 -0.1334

sequential/conv2d_1/Conv2D f2 [1, 4, 4, 1]
000000 d9 36 e4 2e e8 34 13 36 f8 35 df b4 59 b1 04 32
       0.428 0.10767 0.3066 0.3796 0.373 -0.3044 -0.1671 0.188
000010 87 36 59 ac a1 26 30 b0 4e 31 ee a8 83 b0 29 31
       0.408 -0.06793 0.0259 -0.1309 0.1658 -0.0385 -0.141 0.1613

sequential/conv2d/Conv2D f2 [1, 4, 4, 1]
000000 10 b0 5f b5 59 30 2f b4 53 2f 33 2d a1 2a 37 b3
       -0.127 -0.3357 0.1359 -0.2615 0.11444 0.08124 0.0518 -0.2255
000010 2f 35 00 b2 a7 b5 eb 36 21 31 23 ad 8d 30 b8 b3
       0.324 -0.1875 -0.3533 0.4324 0.1603 -0.08026 0.1422 -0.2412

sequential/dense/MatMul f2 [1, 4800]
000000 60 20 28 a5 53 1d 0f 95 a0 9d 5a 19 6f a5 02 28
       0.008545 -0.02014 0.0052 -0.001235 -0.005493 0.002613 -0.02122 0.0313
000010 49 1a 52 27 06 27 08 9e 82 27 9d 27 7d 28 fd a2
       0.003069 0.0286 0.02744 -0.00589 0.02933 0.02974 0.03506 -0.01365
000020 ec 9e 1e 22 2b a3 ee 21 b3 25 2f 28 6d a6 10 a5
       -0.00676 0.01195 -0.014 0.01158 0.02226 0.03268 -0.0251 -0.01978
000030 a3 20 e7 25 70 28 6b 23 e1 21 19 12 8f a7 31 28
       0.009056 0.02306 0.03467 0.01449 0.01148 0.0007443 -0.02953 0.03275
000040 0d 26 c8 a3 80 27 76 9f be a4 db 24 98 0c a1 a4
       0.02364 -0.0152 0.0293 -0.007286 -0.01852 0.01897 0.0002804 -0.01808
000050 7e 1e 6d 28 9a a5 45 28 2a 28 d0 a2 b4 27 60 28
       0.00634 0.03458 -0.02188 0.03336 0.03253 -0.013306 0.03009 0.03418
000060 26 24 6e 1e 7c a6 3c 14 66 21 86 a4 a9 21 e1 a5
       0.0162 0.00628 -0.02533 0.001034 0.010544 -0.01767 0.011055 -0.02296
000070 f9 a5 11 28 ec a4 19 a5 54 a8 a3 a5 31 22 2a 1c
       -0.02333 0.03177 -0.01923 -0.01991 -0.0338 -0.02202 0.01209 0.004066
000080 7e 22 f1 27 52 27 0d a4 5d 28 61 24 f5 a1 7e a7
       0.01268 0.03102 0.0286 -0.01582 0.0341 0.0171 -0.011635 -0.02927
000090 d1 23 79 a1 8b 20 59 a8 6d 16 af a5 31 a3 c3 21
       0.01527 -0.01069 0.00887 -0.03397 0.001569 -0.0222 -0.014046 0.01125
0000a0 2a 27 67 a7 87 1a e9 9b 50 a1 a6 25 1a a8 d4 27
       0.02798 -0.02892 0.003187 -0.003862 -0.010376 0.02206 -0.03204 0.03058
0000b0 6d a4 45 1f 60 a3 ad 24 3d a0 c2 26 81 26 08 a4
       -0.01729 0.0071 -0.014404 0.01826 -0.00828 0.0264 0.0254 -0.01575
0000c0 db 26 0c 23 3c 21 61 a7 71 28 7e 27 29 a7 3f a5
       0.02678 0.01376 0.01022 -0.02882 0.0347 0.02927 -0.02797 -0.0205
0000d0 c0 a7 25 a8 54 96 40 25 a5 a5 4d 21 aa 99 c0 9e
       -0.03027 -0.03238 -0.001545 0.02051 -0.02205 0.01035 -0.002766 -0.00659
0000e0 fd a4 6a a4 51 a5 08 85 4f a3 35 28 aa 9b 02 23
       -0.01949 -0.01724 -0.02077 -7.68e-05 -0.014275 0.03287 -0.003742 0.01369
0000f0 ad 1e 96 1d 4a a1 74 24 3a a0 60 a4 4d a8 3d 9e
       0.00652 0.005455 -0.01033 0.0174 -0.008255 -0.01709 -0.0336 -0.006092
000100 ca 1f 11 23 6e 22 c2 a0 19 24 6e a7 f8 a6 70 28
       0.007607 0.0138 0.01256 -0.00929 0.016 -0.02902 -0.02722 0.03467
000110 d6 1b 13 28 ad 1c b6 a7 b0 26 57 1f c7 27 96 20
       0.003826 0.03183 0.004566 -0.03012 0.02612 0.007168 0.03038 0.00896
000120 5c 23 7a a6 b8 a6 18 22 bc a4 57 a5 fe 24 75 11
       0.01437 -0.0253 -0.02625 0.0119 -0.0185 -0.02086 0.0195 0.000666
000130 7b a4 a7 00 65 a8 7a a8 5d 28 16 a8 61 a8 66 9f
       -0.0175 9.95e-06 -0.03433 -0.03497 0.0341 -0.03192 -0.0342 -0.007225
000140 e9 27 c8 24 b4 a0 a6 27 52 28 08 80 7c a5 14 21
       0.0309 0.01868 -0.009186 0.02988 0.03375 -5e-07 -0.02142 0.00992
000150 c5 23 5f 20 bb 1f d6 20 d4 97 e8 98 b4 1c a3 22
       0.015175 0.00854 0.00755 0.009445 -0.001911 -0.002396 0.004593 0.01296
000160 07 24 ee 93 0b 20 ba 8b 8b 20 42 a7 43 23 0b a6
       0.01573 -0.000968 0.0079 -0.0002358 0.00887 -0.02835 0.01418 -0.0236
000170 58 20 ef 1e ab 22 68 1b f4 a7 7d 9a 54 a5 36 28
       0.008484 0.00677 0.01302 0.003616 -0.03107 -0.003168 -0.02081 0.0329
000180 f8 25 13 a7 4f a7 85 a0 0a 23 d9 1b dc a6 17 27
       0.02332 -0.02763 -0.02855 -0.00883 0.01375 0.003832 -0.0268 0.0277
000190 c9 a4 d1 22 cc 27 40 9c dd a7 20 1c 1d a4 f4 27
       -0.01869 0.01331 0.03046 -0.00415 -0.03072 0.00403 -0.01607 0.03107
0001a0 80 94 ca 27 9b 22 18 a8 fe 21 c9 a6 69 23 7a 9c
       -0.001099 0.03043 0.0129 -0.03198 0.0117 -0.0265 0.01447 -0.00437
0001b0 9a 20 54 a4 ee 9c 6e a8 b4 a0 a8 a6 75 1f 24 a4
       0.00899 -0.0169 -0.004814 -0.0346 -0.009186 -0.026 0.007282 -0.01617
0001c0 92 27 d0 20 e5 a4 d6 a3 fc a4 ac a3 01 28 90 1e
       0.02957 0.0094 -0.01912 -0.015305 -0.01947 -0.014984 0.03128 0.00641
0001d0 b1 96 e7 a3 61 28 8f 25 7c a8 24 a5 00 a7 c9 a0
       -0.001634 -0.015434 0.0342 0.02171 -0.03503 -0.02008 -0.02734 -0.009346
0001e0 f4 04 1a 1e 0a 27 00 27 30 28 09 14 34 28 84 28
       7.56e-05 0.00596 0.0275 0.02734 0.0327 0.000985 0.03284 0.03528
0001f0 29 24 a9 21 7c 24 c4 a1 c2 83 08 23 2e 28 46 1c
       0.01625 0.011055 0.01752 -0.01126 -5.734e-05 0.01373 0.03265 0.004173

sequential/dense_1/MatMul f2 [64, 1]
000000 f9 b1 c0 b4 1f 32 80 b2 2a b0 44 b2 d8 b4 fc a3
       -0.1866 -0.2969 0.1913 -0.2031 -0.1301 -0.1958 -0.3027 -0.015594
000010 48 b1 6c 34 a6 b2 64 b1 11 32 13 b4 4d 9e 81 2d
       -0.165 0.2764 -0.2078 -0.1685 0.1896 -0.2546 -0.006153 0.086
000020 7f 31 75 ab 40 34 c4 2c 75 30 83 b2 fc 1a bb b2
       0.1718 -0.05826 0.2656 0.07446 0.1393 -0.2035 0.00341 -0.2103
000030 c8 34 d9 33 6a 30 72 2f 43 b4 80 25 38 af 71 b2
       0.2988 0.2452 0.138 0.11633 -0.2664 0.02148 -0.1128 -0.2013
000040 d9 30 0d b2 5a 33 9c 32 08 ac 49 b3 83 29 74 2e
       0.1515 -0.1891 0.2297 0.2065 -0.063 -0.2277 0.04306 0.1008
000050 4f 2e 69 b4 0c b4 bc 2d e1 2e 84 23 0f b3 20 b0
       0.0986 -0.2756 -0.253 0.0896 0.1075 0.01468 -0.2206 -0.1289
000060 f4 30 01 33 70 34 c7 34 ae ac 63 34 70 ac 3e ae
       0.1548 0.2189 0.2773 0.2986 -0.0731 0.2742 -0.06934 -0.09753
000070 6f 2d c1 aa 89 b0 8c ae 62 b0 8b b4 0f b1 86 2c
       0.0849 -0.05276 -0.1417 -0.1023 -0.137 -0.284 -0.1581 0.0707

sequential/dense_2/MatMul f2 [64, 64]
000000 34 9d 7b b2 1a 29 8f 32 71 2a c7 b2 08 2d 94 b0
       -0.00508 -0.2025 0.03986 0.205 0.05032 -0.2118 0.0786 -0.1431
000010 d6 b0 6e 32 8c b1 1a 20 d0 a8 6b a5 32 26 77 2d
       -0.1511 0.2009 -0.1733 0.00801 -0.0376 -0.02116 0.0242 0.0854
000020 16 ad 8d af 88 32 3f 30 76 9d a3 b1 58 a8 0c aa
       -0.07947 -0.118 0.2041 0.1327 -0.005333 -0.1761 -0.03394 -0.04724
000030 e6 b2 a1 a8 23 2c d0 28 b4 30 f6 a8 d7 b2 1b b2
       -0.2156 -0.03616 0.06464 0.0376 0.147 -0.03876 -0.2137 -0.1908
000040 6d 2d ce b2 84 af d8 2f 90 2f a7 ae 7e 2a e6 32
       0.0848 -0.2126 -0.11743 0.12256 0.11816 -0.10394 0.05072 0.2156
000050 0e b1 de b2 98 b2 e5 a1 2f b0 79 32 ca b1 bc b0
       -0.158 -0.2146 -0.206 -0.01151 -0.1307 0.2023 -0.1809 -0.148
000060 38 ae b4 ac e4 b0 e6 2b 60 b1 e3 2e 47 b1 33 2c
       -0.09717 -0.0735 -0.1528 0.0617 -0.168 0.1076 -0.1649 0.0656
000070 9b 24 33 2f 8b 31 fd b0 58 b1 bc ad 30 ae c7 90
       0.01799 0.1125 0.1732 -0.1559 -0.167 -0.0896 -0.0967 -0.000583
000080 43 af 1e 2b 73 b1 58 2c e1 30 5e b2 06 29 9f 2a
       -0.11346 0.0556 -0.1703 0.0679 0.1525 -0.199 0.03925 0.05173
000090 00 b2 e1 2f bc 32 83 b0 9c 2b a2 b2 02 ac 3b a9
       -0.1875 0.1231 0.2104 -0.141 0.05945 -0.2073 -0.0626 -0.04086
0000a0 ef b0 26 ad 0e b0 08 21 10 ad b1 2f 48 32 f0 99
       -0.1542 -0.08044 -0.1267 0.00983 -0.0791 0.1202 0.1963 -0.0029
0000b0 db b2 53 2c ce 32 3f a8 ce 31 08 30 58 28 24 a0
       -0.2142 0.06757 0.2126 -0.03317 0.1814 0.126 0.03394 -0.00809
0000c0 09 ae bc 29 35 2d 3b 1b 7c 30 da ad cd 29 1f 94
       -0.0943 0.0448 0.08136 0.00353 0.1401 -0.09143 0.04532 -0.001006
0000d0 c3 31 8b b1 08 2a 22 31 a8 32 8c a4 b0 b1 2e ad
       0.18 -0.1732 0.04712 0.1604 0.208 -0.01776 -0.1777 -0.08093
0000e0 98 29 d6 30 7a 29 86 b1 e3 2d 07 24 16 ad 92 2c
       0.0437 0.1511 0.0428 -0.1726 0.092 0.01573 -0.07947 0.0714
0000f0 65 29 29 aa a3 b2 7b b0 09 af b7 ab ec b1 f9 31
       0.04214 -0.04813 -0.2074 -0.14 -0.1099 -0.06027 -0.185 0.1866
000100 94 b1 20 2f be 2e df 20 70 32 11 b0 71 ab ec 2a
       -0.1743 0.1113 0.10535 0.009514 0.2012 -0.1271 -0.05814 0.05408
000110 91 ad d3 32 7e a0 f4 2d 14 a6 09 9d a7 a9 f2 2e
       -0.087 0.2133 -0.00877 0.093 -0.02374 -0.004917 -0.04416 0.1085
000120 4b b1 e5 32 b9 26 29 1f cd b0 c4 a8 fd 2e 79 32
       -0.1654 0.2155 0.02626 0.006992 -0.15 -0.03723 0.1092 0.2023
000130 1f 28 76 30 4b b0 6e b1 eb 2f d1 26 6b b0 37 b0
       0.0322 0.1394 -0.1342 -0.1697 0.1237 0.02663 -0.1381 -0.1317
000140 71 b0 ab b1 dc b1 c4 30 95 b0 bd b2 90 31 81 30
       -0.1388 -0.1771 -0.1831 0.1489 -0.1432 -0.2106 0.1738 0.1407
000150 c4 b1 6b 28 fd 2c bd b1 45 2c c7 ab 9a ac 6d 31
       -0.1802 0.03452 0.07794 -0.1793 0.0667 -0.06076 -0.0719 0.1696
000160 06 30 cb a5 c8 96 07 30 6d 9d a7 a2 27 ad b3 31
       0.1257 -0.02263 -0.001656 0.1259 -0.0053 -0.01299 -0.0805 0.1781
000170 4f 30 8e b2 71 ac e2 2a bc b2 aa a6 f6 b0 83 2d
       0.1346 -0.2048 -0.0694 0.05377 -0.2104 -0.02603 -0.155 0.0861
000180 83 2b 01 b2 51 b1 c4 31 07 2e 19 b1 4f ad c7 b1
       0.0587 -0.1876 -0.1661 0.1802 0.0942 -0.1593 -0.08295 -0.1805
000190 12 2c d8 b2 8a b0 d7 b0 f0 ab 65 30 7e a8 20 21
       0.0636 -0.2139 -0.1418 -0.1512 -0.062 0.1373 -0.0351 0.01001
0001a0 f7 30 4e a9 9b ac a8 30 87 27 ce 32 06 2f cf b2
       0.1552 -0.04144 -0.07196 0.1455 0.0294 0.2126 0.10974 -0.2128
0001b0 35 30 68 99 07 ac 23 30 03 b1 c6 28 1e 2f 9b 9c
       0.1315 -0.00264 -0.0629 0.1293 -0.1566 0.0373 0.1112 -0.004498
0001c0 97 ac a0 2d 28 2a ff 24 2a b0 e0 a9 06 2a 26 22
       -0.0717 0.0879 0.0481 0.01952 -0.1301 -0.0459 0.04706 0.01201
0001d0 b3 99 c6 a6 ef 2f 32 2e 29 a4 a2 af 55 ac 84 31
       -0.002783 -0.02646 0.12396 0.0968 -0.01625 -0.11926 -0.0677 0.1724
0001e0 06 9e 7d 30 96 20 0a ac c7 2f ce b2 6a b0 b0 2c
       -0.005882 0.1403 0.00896 -0.0631 0.1215 -0.2126 -0.138 0.07324
0001f0 99 2d 1c 2b 2f b2 87 32 d2 30 9e ac a7 9f d4 28
       0.08746 0.05554 -0.1932 0.204 0.1506 -0.07214 -0.007473 0.03772

sequential/dense_3/MatMul f2 [24, 64]
000000 b9 26 20 2e dd b3 0a 34 2b 28 e7 31 52 ae f1 1d
       0.02626 0.0957 -0.2457 0.2524 0.03256 0.1844 -0.09875 0.005802
000010 8d b1 c5 b0 e2 22 aa b1 5f ab 71 31 80 31 d5 b0
       -0.1735 -0.149 0.01344 -0.177 -0.0576 0.17 0.1719 -0.151
000020 d4 33 e2 b1 5c b1 ac 33 52 b0 9a ae 40 b3 3a 27
       0.2446 -0.1838 -0.1675 0.2397 -0.135 -0.10315 -0.2266 0.02823
000030 69 b1 a1 ad 64 2e fd 2d 01 22 13 31 1a b2 15 33
       -0.1691 -0.08795 0.09985 0.09357 0.01173 0.1586 -0.1907 0.2213
000040 23 b4 83 1b aa b0 6f b3 a5 b0 6f a8 d8 b3 02 b4
       -0.2585 0.003668 -0.1458 -0.2323 -0.1451 -0.03464 -0.2451 -0.2505
000050 88 30 3a 33 3a 31 47 32 3b b0 3f b2 fe 9f 35 b3
       0.1416 0.2258 0.1633 0.1962 -0.1322 -0.1952 -0.007805 -0.2252
000060 2a 2d bc b2 5a ac 90 ad c8 9e 7a b2 09 32 44 31
       0.0807 -0.2104 -0.068 -0.0869 -0.006622 -0.2024 0.1886 0.1646
000070 fe 32 08 23 ba 31 c5 33 f5 31 aa 31 c5 2d 5e 33
       0.2185 0.01373 0.179 0.2428 0.1862 0.177 0.09015 0.2302
000080 2b 34 23 33 d2 2d 5f b1 0b 2f 64 ac 81 2e 09 b0
       0.2605 0.223 0.09094 -0.1678 0.11005 -0.0686 0.1016 -0.1261
000090 21 30 0f b4 5d b1 e6 2b 1f 33 8b a8 28 af 7e 2e
       0.129 -0.2537 -0.1676 0.0617 0.2225 -0.0355 -0.1118 0.10144
0000a0 3c ae a7 a6 19 ac f9 33 c1 ae b9 b1 38 32 62 33
       -0.0974 -0.02599 -0.064 0.2491 -0.1055 -0.1788 0.1943 0.2307
0000b0 a3 b2 7e 24 44 2e 23 33 0c 30 f6 a8 57 9f db b3
       -0.2074 0.01755 0.0979 0.223 0.1265 -0.03876 -0.007168 -0.2455
0000c0 10 b2 19 b3 ce b0 b9 a4 f8 2f 64 29 3c 2c 6b 2e
       -0.1895 -0.2218 -0.1501 -0.01845 0.1245 0.0421 0.06616 0.1003
0000d0 77 31 4a 32 cb ad 61 2d 23 30 53 2b e5 33 5a 32
       0.1708 0.1965 -0.0905 0.08405 0.1293 0.05722 0.2467 0.1985
0000e0 72 0e 6d 33 fe ab c5 28 9d 2e e7 a6 9e 32 99 94
       0.0003934 0.232 -0.06244 0.03726 0.10333 -0.02696 0.2068 -0.001122
0000f0 e1 b2 ec b2 52 b2 9b ab 23 33 3f b1 65 30 f3 29
       -0.215 -0.2163 -0.1975 -0.05942 0.223 -0.164 0.1373 0.04648
000100 e1 33 17 2a 71 ad 0e b4 ca b3 cf 2c 17 b4 50 31
       0.2462 0.04758 -0.085 -0.2534 -0.2434 0.07513 -0.2556 0.166
000110 e1 33 57 ab 62 9c 02 b4 93 2c c8 b1 34 ae b7 aa
       0.2462 -0.05734 -0.00428 -0.2505 0.0715 -0.1807 -0.0969 -0.05246
000120 8d b0 03 a4 c6 32 1f b2 d4 30 cf ae f7 30 ae b2
       -0.1422 -0.01567 0.2117 -0.1913 0.1509 -0.1064 0.1552 -0.2087
000130 c5 ae 43 2c b8 32 e4 31 27 34 8d aa ea 30 fe 32
       -0.1058 0.0666 0.21 0.1841 0.2595 -0.05118 0.1536 0.2185
000140 a6 2a f4 2d 90 b0 16 30 9e b2 8e b1 7b 2f cb 2d
       0.05194 0.093 -0.1426 0.1277 -0.2068 -0.1736 0.1169 0.0905
000150 dd 23 47 b3 09 ae a3 a5 9e 2c b0 31 4d ac 46 31
       0.01536 -0.2274 -0.0943 -0.02202 0.07214 0.1777 -0.0672 0.1648
000160 28 af 63 b2 83 b1 b8 33 41 ad 55 1d b2 33 58 b2
       -0.1118 -0.1996 -0.1722 0.2412 -0.0821 0.005207 0.2405 -0.1982
000170 5c b1 b9 a9 4d 19 c1 b1 7d b2 1b ae 68 2e 1a 33
       -0.1675 -0.0447 0.002588 -0.1798 -0.2028 -0.0954 0.1001 0.2219
000180 61 31 d6 31 7d 31 02 b4 57 2f a9 29 1e b1 74 b3
       0.1681 0.1824 0.1715 -0.2505 0.1147 0.04422 -0.1599 -0.2329
000190 a7 2e 36 2e f2 24 12 2d 86 b3 3d b1 9d 33 16 34
       0.10394 0.09705 0.01932 0.0792 -0.2351 -0.1637 0.2379 0.2554
0001a0 fb 2e 27 34 9e 2f 5b ae d9 b1 5b b1 d1 af 7f b3
       0.1091 0.2595 0.119 -0.0993 -0.1827 -0.1674 -0.12213 -0.2343
0001b0 67 31 06 b2 35 af 8b 31 d4 2d 3a a9 e8 b0 c4 a9
       0.1688 -0.1882 -0.1126 0.1732 0.09106 -0.04083 -0.1533 -0.04504
0001c0 0a b1 01 33 6b 33 35 33 fa 31 97 a6 40 b0 3a b2
       -0.1575 0.2189 0.2318 0.2252 0.1868 -0.02574 -0.1328 -0.1946
0001d0 55 2c fe a7 13 2e 2f 30 83 32 5d b3 c3 32 d8 2f
       0.0677 -0.03122 0.0949 0.1307 0.2035 -0.2301 0.2113 0.12256
0001e0 08 aa cc 2b 3c b1 4a 2e 0c 2c 50 30 23 30 65 2c
       -0.04712 0.0609 -0.1636 0.09827 0.06323 0.1348 0.1293 0.06866
0001f0 8a b2 20 af 21 a4 72 2f 2d b1 92 33 a8 b2 04 33
       -0.2043 -0.1113 -0.01613 0.11633 -0.1617 0.2366 -0.208 0.2192
