src/main/assets/model.tflite (tflite, 341332 bytes, 12 tensors)

sequential/conv2d_3/BiasAdd;sequential/conv2d_3/BiasAdd/ReadVariableOp/resource;sequential/conv2d_3/Conv2D f4 [16]
000000 00 00 00 00 00 00 00 00 00 00 00 00 00 00 00 00
       0.0 0.0 0.0 0.0
000010 00 00 00 00 00 00 00 00 00 00 00 00 00 00 00 00
       0.0 0.0 0.0 0.0
000020 00 00 00 00 00 00 00 00 00 00 00 00 00 00 00 00
       0.0 0.0 0.0 0.0
000030 00 00 00 00 00 00 00 00 00 00 00 00 00 00 00 00
       0.0 0.0 0.0 0.0

sequential/conv2d_2/BiasAdd;sequential/conv2d_2/BiasAdd/ReadVariableOp/resource;sequential/conv2d_2/Conv2D f4 [8]
000000 00 00 00 00 00 00 00 00 00 00 00 00 00 00 00 00
       0.0 0.0 0.0 0.0
000010 00 00 00 00 00 00 00 00 00 00 00 00 00 00 00 00
       0.0 0.0 0.0 0.0

sequential/conv2d_1/BiasAdd;sequential/conv2d_1/BiasAdd/ReadVariableOp/resource;sequential/conv2d_1/Conv2D f4 [4]
000000 00 00 00 00 00 00 00 00 00 00 00 00 00 00 00 00
       0.0 0.0 0.0 0.0

sequential/conv2d/BiasAdd;sequential/conv2d/BiasAdd/ReadVariableOp/resource;sequential/conv2d/Conv2D f4 [2]
000000 00 00 00 00 00 00 00 00
       0.0 0.0

sequential/conv2d_3/Conv2D f4 [16, 4, 4, 8]
000000 70 b2 09 bd 20 16 11 3d 18 2d f4 bd 00 d1 07 3b
       -0.033617437 0.03542149 -0.119226635 0.002072394
000010 50 48 fd bc 78 25 4a 3d 80 b2 a6 bd 00 d5 b2 bd
       -0.03091827 0.04935214 -0.08139515 -0.08732033
000020 1c 8e 89 bd 10 af 21 bd 94 21 e0 bd f4 4b c5 3d
       -0.06716558 -0.039473593 -0.109439045 0.096336275
000030 08 7c 9d bd 80 aa 0c 3b 84 d3 b3 bd e0 09 cc bd
       -0.07689673 0.002146393 -0.08780578 -0.09962821
000040 c8 db 60 3d a0 a1 83 3c 74 66 d4 3d d0 df ff bd
       0.0548971 0.01606828 0.10371104 -0.12493861
000050 b8 ab 8d bd 10 13 db 3c e4 6e af 3d b8 de d7 bd
       -0.069175184 0.026742488 0.085660726 -0.10540527
000060 0c fc ae 3d 58 12 fc 3d d8 d0 f4 3d 30 9f d5 bd
       0.08544168 0.12308186 0.11953896 -0.10430753
000070 90 cc 8e 3d c0 59 c4 bc 40 97 dc bc d0 27 73 3d
       0.06972611 -0.023968577 -0.02692759 0.05936414
000080 80 a5 35 3d 68 80 83 bd 00 85 10 bd 80 ac 6e 3b
       0.044347286 -0.06420976 -0.03528309 0.0036418736
000090 9c ee 8b bd 2c 1b 99 3d 94 e0 c5 3d d0 b3 fc 3c
       -0.068326205 0.07475886 0.096619755 0.03084746
0000a0 c8 b9 91 bd 64 ad cb 3d 48 62 41 3d ac 31 b6 3d
       -0.07115513 0.09945181 0.04721287 0.08896193
0000b0 60 a4 46 bc c0 5f f9 3c 38 64 d8 3d 4c 52 c1 3d
       -0.012124151 0.030441165 0.1056599 0.09439525
0000c0 38 18 52 bd 78 a9 12 3d ec 8d b9 bd 18 d8 db bd
       -0.051292628 0.03580615 -0.090602726 -0.10734576
0000d0 20 ec 50 bc a0 6c ba 3c 54 9a 88 3d d8 5b cf bd
       -0.012751609 0.022756875 0.06670061 -0.1012494
0000e0 f4 b7 81 3d e8 a9 6a 3d 00 fe 9a bc 70 0a a0 3d
       0.063339144 0.05729094 -0.018919945 0.07814491
0000f0 e8 d9 a9 bd 74 41 fa bd 20 dc 36 bc 9c e1 b1 3d
       -0.082935154 -0.122195154 -0.01116088 0.0868561
000100 40 4c 2b bd 9c b7 be 3d 38 74 ec bd 34 1d fe bd
       -0.041820765 0.093123645 -0.115456045 -0.12407914
000110 80 dd 5b 3b d0 19 e9 3d 30 2e cf bd 30 3e 28 3d
       0.0033548772 0.113818765 -0.101162314 0.04107493
000120 e4 53 b6 3d e8 fa c3 3d e0 e2 c7 3d 00 de 20 bb
       0.089027196 0.09569341 0.0976007 -0.0024546385
000130 00 74 3a 3c 40 07 fe bc 40 55 84 bb fc 41 c0 bd
       0.011380196 -0.031009316 -0.004038483 -0.093875855
000140 60 bc 58 bc 60 66 f2 bc c0 84 f4 bd 90 ee 6d 3d
       -0.013228506 -0.029589832 -0.119393826 0.05808884
000150 80 aa 6e 3d 30 89 86 3d 60 73 75 bd b0 f3 08 bd
       0.05826807 0.06569135 -0.059924483 -0.033435524
000160 48 32 12 3d 60 ad a5 3c 00 b0 60 b9 7c 6c 8f bd
       0.035692483 0.020224273 -0.0002142787 -0.070031136
000170 e8 32 be bd 2c e4 cc 3d 80 fb 6e bb 08 c6 de 3d
       -0.09287053 0.10004458 -0.0036465824 0.10877615
000180 44 de 85 bd 58 09 44 bd 30 10 3e 3d 8c 3c 9f 3d
       -0.065365344 -0.047860473 0.046402156 0.0777522
000190 00 a0 78 ba 48 96 5d 3d d0 19 b6 bd 50 f2 cd bc
       -0.0009484291 0.054098397 -0.08891642 -0.025139958
0001a0 20 0b 09 bd 00 41 8d 3d 04 f8 9d bd 10 71 b2 3d
       -0.033457875 0.068971634 -0.07713321 0.08712971
0001b0 70 da ae 3c 00 ef c1 ba 4c 18 d3 bd b4 f5 c0 3d
       0.021344393 -0.0014795959 -0.10307369 0.09421864
0001c0 18 74 ce 3d 5c 37 e6 bd 6c c8 d0 bd c8 e6 4f 3d
       0.10080737 -0.11241028 -0.101944774 0.0507572
0001d0 80 7b f6 3d a0 9c df bd 8c e9 bc bd 20 43 31 3d
       0.120352745 -0.10918546 -0.09224233 0.043276906
0001e0 30 80 1b 3d 18 ae 06 3d 74 c9 c1 bd 60 25 94 bc
       0.037964046 0.032880872 -0.09462252 -0.018084228
0001f0 e8 39 60 3d 20 db c6 bd 90 90 df 3d dc c1 dd bd
       0.054742724 -0.097097635 0.10916245 -0.10827991
000200 c8 19 25 bd 88 19 c6 bd 70 ff f1 3d c8 70 d4 bd
       -0.04030779 -0.096728384 0.11816299 -0.10373074
000210 6c 2b ae bd 90 f2 e2 3c 00 f4 d3 3c 64 32 dd bd
       -0.08504376 0.027703553 0.025873184 -0.10800627
000220 00 74 81 3a 80 14 e5 bd 78 12 0d bd 30 ce d7 3d
       0.000987649 -0.11185551 -0.03444144 0.10537374
000230 dc 90 e4 3d a0 99 f7 bc 00 81 cf bd 2c ce c6 3d
       0.11160442 -0.030224621 -0.10132027 0.09707293
000240 40 7e e9 bc 84 ce f0 bd 70 28 d0 3d 90 69 97 bc
       -0.028502584 -0.1175814 0.10163963 -0.018482953
000250 f0 cc ee 3c c0 6f d3 bc 80 ce a0 3b a0 df 52 3c
       0.029150456 -0.025810122 0.004907429 0.012870699
000260 3c e3 fe 3d c8 54 61 3d 08 e3 1a bd 28 13 24 3d
       0.12445685 0.055012494 -0.03781417 0.04005733
000270 c0 e0 36 3c 88 7f f4 bd 08 bf 92 bd b8 30 e6 3d
       0.011161983 -0.11938387 -0.071653426 0.11239761
000280 f0 f8 a5 bc 70 53 81 3c 40 c8 46 bc a0 eb 06 bc
       -0.020260304 0.015786856 -0.012132704 -0.008234888
000290 c8 f4 ac 3d dc 48 fb bd 44 bc e0 bd 50 50 87 bd
       0.08445126 -0.12269756 -0.10973409 -0.06607115
0002a0 14 91 e0 bd 00 76 92 bd ec b0 97 bd 80 4e 71 3b
       -0.109651715 -0.07151413 -0.07406792 0.0036820471
0002b0 f4 45 c2 bd 48 80 b2 3d c8 82 26 3d 80 81 c6 bd
       -0.09485999 0.08715874 0.040652066 -0.09692669
0002c0 e0 6a 1a 3d 14 73 ac 3d ac 00 ea 3d 34 bb 85 bd
       0.03769958 0.08420387 0.114259094 -0.06529847
0002d0 00 07 43 3d 60 2f 80 3d 10 ed 2f 3d 70 f0 c7 bc
       0.047614098 0.06259036 0.04295069 -0.024406642
0002e0 40 05 7a 3d c0 a2 d2 3b e0 d2 ed 3d d4 c7 e6 bd
       0.061040163 0.0064280927 0.11612487 -0.11268583
0002f0 f0 cd 79 3d 0c 30 b1 bd 00 78 64 ba 40 95 80 3b
       0.060987413 -0.08651742 -0.0008715391 0.003924042
000300 30 5c d6 3c 90 36 0f 3d 44 66 a4 bd 90 54 a4 bc
       0.026167005 0.034964144 -0.08027318 -0.020059854
000310 90 ab f4 bd a0 55 36 bc fc 45 b2 3d f0 ee c6 3d
       -0.119467854 -0.011128813 0.08704755 0.097135425
000320 4c 85 c5 3d 50 01 23 bd 20 d7 dc 3c 00 68 3a 3b
       0.09644565 -0.039796174 0.026958048 0.0028443336
000330 80 c3 57 3d 7c 77 e7 3d 68 59 94 3d 4c 81 94 bd
       0.052676678 0.11302087 0.072436154 -0.07251224
000340 70 05 3c 3d 58 49 a6 3d 08 3a 26 bd cc 31 e9 bd
       0.045903623 0.08119458 -0.040582687 -0.11386451
000350 24 d2 d3 bd 98 e3 c5 bd 10 4c d7 3c 34 4d 88 3d
       -0.103428155 -0.09662551 0.026281387 0.0665535
000360 60 17 53 bd 80 48 13 3b 10 6d a2 3c e0 67 ed bc
       -0.051535964 0.0022473633 0.019827396 -0.028980196
000370 68 98 16 3d 1c 58 ca bd bc ae 80 3d e0 b4 e0 3c
       0.03676644 -0.09880087 0.06283328 0.027429998
000380 c0 d8 78 bd f0 4f 9e bd 30 49 78 3d 68 79 79 3d
       -0.060753584 -0.077300906 0.060616672 0.060906798
000390 d0 75 ee 3c 80 09 e9 bd d4 64 99 bd 40 8a aa 3c
       0.029108912 -0.11378765 -0.074899346 0.020817876
0003a0 a0 fc 2a bc b0 f1 7d 3d 74 d9 f1 bd 20 79 b1 3c
       -0.010436207 0.06199807 -0.11809054 0.021664202
0003b0 88 e2 a3 3d 94 9e d1 3d f4 5f db bd 50 da 4f bd
       0.08002192 0.102353245 -0.10711661 -0.05074531
0003c0 ac cf de 3d 68 21 b6 bd 6c b7 84 3d 60 8d 03 bc
       0.10879454 -0.088930905 0.064802974 -0.008029312
0003d0 00 7e ac bd 08 3d d3 bd 28 e0 21 3d 30 86 f8 3d
       -0.0842247 -0.10314375 0.039520413 0.12134969
0003e0 5c 55 fb bd 48 53 09 3d 40 91 2a 3d 50 d8 e8 bc
       -0.122721404 0.03352669 0.041642427 -0.028423458
0003f0 c0 5f cc bb 80 2b 13 bc a0 0a cb 3d a8 c1 8f 3d
       -0.006237 -0.008982539 0.09914136 0.07019359

sequential/conv2d_2/Conv2D f4 [8, 4, 4, 4]
000000 99 29 bb bd 19 65 30 be 78 df 8a bc 06 1e b7 3d
       -0.091387935 -0.17226066 -0.016952261 0.089412734
000010 20 08 25 3d c4 a1 5d 3d a8 ed 93 bd a6 b7 78 bd
       0.04029095 0.05410935 -0.07223064 -0.060722016
000020 60 2a 97 3c d2 03 ef 3d aa ab dd 3d d8 81 b5 bc
       0.018452823 0.116706505 0.10823758 -0.02215664
000030 76 06 c5 3d 46 f5 f9 bd 0b 82 09 3e ac d3 61 3d
       0.09620373 -0.12204985 0.13428514 0.055133507
000040 a7 68 30 3e 42 ff dc bd 78 06 11 3d 24 8f 4a 3d
       0.17227422 -0.10790874 0.03540656 0.049452916
000050 64 d5 1f 3d 75 81 1b 3e 96 84 0a be f2 1d 6b bd
       0.039021865 0.15186103 -0.1352714 -0.057401605
000060 20 ea 40 3c d5 d0 84 bd b6 58 e5 bd 34 3c 58 bd
       0.01177457 -0.06485144 -0.11198561 -0.05279179
000070 2e 91 e7 bd ca 1e 59 bd 5f 4d 81 bd ce 44 fd 3d
       -0.11306988 -0.05300788 -0.063135855 0.12366639
000080 76 37 64 bd cc 13 b1 bd cb ad 02 3e 47 8b 06 3e
       -0.055716954 -0.08646354 0.1276161 0.13139068
000090 ff 6b 18 3e 36 ee 8e bd 12 97 1d be c7 0b 1c be
       0.14884947 -0.06979029 -0.1538966 -0.15238868
0000a0 46 d5 b2 bd d2 19 fb 3d a0 95 40 3c 24 26 0b 3d
       -0.08732085 0.12260784 0.011754423 0.03397192
0000b0 a5 09 15 3e 64 c7 73 3d 0c bf a5 bd 0a 0a ce 3d
       0.1455446 0.059516326 -0.0809308 0.100605085
0000c0 0a a2 a4 3d 15 a3 da bd 41 c9 18 3e 78 9a dd bd
       0.08038719 -0.10675637 0.14920522 -0.10820478
0000d0 01 42 07 3e a6 e0 16 be b3 a9 0c be 3e 1b c2 bd
       0.13208772 -0.14734134 -0.1373661 -0.09477852
0000e0 f0 49 e7 bd 9e a0 a2 3d 58 fd 02 bd 80 ce 75 3c
       -0.11293399 0.079407915 -0.03197989 0.015002847
0000f0 80 10 96 3c 77 0d 81 bd c9 02 1f 3e d9 4c cb bd
       0.018318415 -0.06301396 0.15528406 -0.09926767
000100 98 22 49 3d c1 8a 2b 3e 00 47 31 3d b4 9d 2d be
       0.049105257 0.16752149 0.0432806 -0.1695469
000110 b6 64 e9 bd 25 4c 2d be c7 6b 20 3e 1c f7 43 3d
       -0.11396162 -0.16923578 0.15666114 0.047843084
000120 60 1c bb 3c fb a1 9a bd 8c f0 18 be 20 e1 8e bc
       0.022840679 -0.075504266 -0.14935511 -0.017441332
000130 8c 04 00 3d ea 4b e2 3d f8 1a 33 bd 01 2b c5 bd
       0.031254336 0.11049636 -0.04372689 -0.09627343
000140 66 4b a9 3d 3c 36 8d 3d 1b fa d9 bd 60 37 05 be
       0.08266334 0.0689511 -0.10643407 -0.13009405
000150 30 2f 26 be 82 08 f5 3d 86 3c ae 3d 79 49 24 3e
       -0.16228938 0.11964513 0.08507638 0.16043653
000160 c6 e4 f9 3d 58 83 ff 3c e0 95 72 bd 12 b7 ba 3d
       0.12201838 0.03119056 -0.059224963 0.09116949
000170 2f cd 07 3e b3 d0 2a be 3c bc 53 bd 11 30 1f 3e
       0.13261865 -0.16681175 -0.051693186 0.1554568
000180 97 31 1d be 0e b8 9d 3d 08 9e 37 3d f7 91 00 3e
       -0.15350948 0.07701121 0.044828445 0.12555681
000190 b6 4f eb 3d 48 84 ad 3c a8 95 8c bd a8 a7 af bc
       0.11489813 0.02118124 -0.06864482 -0.02144225
0001a0 00 4b 24 be 9c 73 12 be 8a 20 aa bd f8 86 f2 3c
       -0.16044235 -0.14301914 -0.083069876 0.029605374
0001b0 0a ac c7 3d 3f 2d 1b 3e c3 ef 1a be da 13 ef 3d
       0.09749611 0.15153979 -0.15130524 0.11673708
0001c0 ff 43 1b 3e d0 ea 81 3d 66 bc cf 3d 8e 6f d5 bd
       0.15162657 0.06343615 0.10143356 -0.10421668
0001d0 29 95 2c 3e 98 b0 d9 3c db 2b d8 bd a0 6b c9 bb
       0.16853775 0.026573464 -0.1055524 -0.006146863
0001e0 5e ec 32 be 1d 52 e3 bd 1c c3 1d bd 5d 49 30 3e
       -0.1747298 -0.11099646 -0.03851615 0.17215486
0001f0 d6 0b d5 3d 52 00 7a bd ff 2a 34 be 8a 4e fe 3d
       0.10402648 -0.06103546 -0.17594527 0.12417324
000200 08 b1 89 bd 3a 6f fa bd 35 e7 32 3e c2 1d cc 3d
       -0.06723219 -0.12228246 0.17471011 0.09966613
000210 08 b0 93 3c e8 83 32 bd 68 d8 b7 3c d0 8b 50 3c
       0.018028274 -0.043582827 0.022442058 0.012728646
000220 74 f0 5c bd 20 fc ce 3b b6 e7 bd 3d a2 2c 0e be
       -0.05394025 0.0063166767 0.09272711 -0.13884214
000230 c0 62 d7 bd be 1b d6 3d 85 0f d1 bd 18 58 b3 bc
       -0.10516882 0.1045451 -0.10208038 -0.021892592
000240 5d 3c 0c 3e 85 fb 91 bd 0d f7 8e bd 65 60 07 3e
       0.13694902 -0.07128052 -0.06980715 0.13220365
000250 8e a0 d7 bd be 2a 8a 3d 20 66 a4 3c 25 08 e5 bd
       -0.1052867 0.06746434 0.020068228 -0.11183194
000260 92 79 04 be 0b a8 0a 3e ec 39 6b bd 15 32 15 3e
       -0.12937 0.13540666 -0.057428285 0.14569886
000270 ce 79 f7 bd 60 f6 6a bc 67 b0 d2 bd f4 d2 4b 3d
       -0.12083779 -0.014340967 -0.10287552 0.049761727
000280 ec fb 07 3d 9a be 04 be 60 48 81 3d f7 27 19 3e
       0.033199236 -0.12963334 0.063126326 0.14956652
000290 c8 16 ec bd 49 cc a0 bd 9b 57 21 3e db ae a0 bd
       -0.11527783 -0.07851464 0.15756075 -0.07845851
0002a0 ff a9 32 be 02 ec dd 3d d1 1c 07 3e b0 ad e2 bd
       -0.17447661 0.108360305 0.13194586 -0.110682845
0002b0 c0 c3 89 3c c4 c6 28 be ec f3 4b 3d 36 1b f5 3d
       0.016816974 -0.16482073 0.04979317 0.11968081
0002c0 d8 9a fc bc a4 71 10 be 09 a4 07 3e 44 cd 1c bd
       -0.030835554 -0.1410585 0.13246168 -0.038281694
0002d0 34 91 86 3d e0 0f 52 bd c2 82 0d be fc b5 37 3d
       0.06570664 -0.05128467 -0.13819411 0.04485129
0002e0 b5 74 22 3e 6d af e8 bd 3e b7 fa 3d d0 d7 a3 3c
       0.15864833 -0.11361585 0.12241982 0.020000368
0002f0 f5 53 20 be d8 4c 3f bd 0b 00 b5 bd 4a 34 f3 bd
       -0.15657027 -0.046704143 -0.08837899 -0.11875208
000300 8f 1e 14 3e 6a 1f 2e be d6 23 f9 3d ae 51 33 be
       0.14464782 -0.17004171 0.12165038 -0.17511627
000310 00 df 12 be 73 5f 31 3e d9 e0 05 be 64 4e 89 3d
       -0.1434288 0.17321567 -0.13074054 0.06704405
000320 f9 51 2a 3e 3a 0b ac 3d 60 ff 2c bd ce 24 61 bd
       0.16632833 0.08400579 -0.042235732 -0.05496674
000330 ed 6c 13 3e 80 b2 51 3c f0 8c 21 3c 53 cb 31 be
       0.1439702 0.012798905 0.009860262 -0.17362718
000340 b0 2e 2e 3d 00 82 3f 3c 3e 15 d9 3d 5d 6c 2d be
       0.042524993 0.011688709 0.10599755 -0.16935869
000350 94 d8 0a bd b8 41 02 be a4 72 93 bd 0f 0a cd bd
       -0.03389795 -0.12720382 -0.071996 -0.10011684
000360 e8 aa 81 3d 18 f5 ae bd de f8 33 be 98 2d c6 bc
       0.06331426 -0.08542842 -0.17575404 -0.024191663
000370 6a 0b a3 3d 3c e4 cb bd 2b f5 13 be dd 08 02 be
       0.079611614 -0.099556416 -0.14448993 -0.12698694
000380 48 ce a2 3c 91 30 03 3e 2a 6e 9a 3d 80 ef 22 3c
       0.019873753 0.12811495 0.075405434 0.009944797
000390 48 94 6a 3d d3 fa 04 3e 3d 7d 1f 3e a0 a0 8a 3d
       0.05727032 0.12986307 0.15575118 0.06768918
0003a0 9e 75 a1 3d 4e 9e 5f bd 19 d6 2d be 7e c1 d9 bd
       0.07883762 -0.05459433 -0.16976203 -0.10632609
0003b0 50 91 97 bd 96 ae d3 bd 11 11 0e 3e 8f 7d 2e be
       -0.07400763 -0.10336034 0.13873698 -0.17040084
0003c0 ac f5 27 be 6a 67 bc 3d e3 98 83 bd 8d 6e 33 be
       -0.1640231 0.09199412 -0.06425645 -0.1752264
0003d0 98 bc 14 3d a4 87 b3 bd bc 8e fb bd 10 46 ca bc
       0.03631267 -0.08766106 -0.12283084 -0.024691612
0003e0 bc 76 29 be 9d 5d 0f 3e 95 44 04 3e 6e 9c 9f bd
       -0.165492 0.14000554 0.12916787 -0.077935085
0003f0 80 c6 f7 ba bc 27 04 be 40 4e 0a bb 5f a8 24 3e
       -0.0018903762 -0.12905782 -0.002110377 0.16079853

sequential/conv2d_1/Conv2D f4 [4, 4, 4, 2]
000000 50 38 98 bd 24 fe 19 3e c0 f4 04 3e e8 ed 98 bd
       -0.07432616 0.15038353 0.1298399 -0.07467252
000010 b8 5a e1 bd 54 29 7a be 5c 99 50 3e 00 b2 3d 3b
       -0.11003631 -0.24429828 0.20371002 0.0028945208
000020 c0 6f 48 3e d0 e5 17 3d 18 d0 7e be 90 f4 23 be
       0.19573879 0.0370844 -0.24884069 -0.16011262
000030 f0 8b e4 bd 90 94 1b 3d 84 65 6c 3e 60 3a 9b bd
       -0.111595035 0.037983477 0.230856 -0.075794935
000040 68 34 37 3e e0 7f a2 3d a0 39 8e bc 50 83 3d bd
       0.17891085 0.079345465 -0.017361462 -0.046267807
000050 b4 c8 3e be 50 7d 2b 3d 00 99 95 bc d8 15 15 3e
       -0.1863125 0.041867554 -0.018261433 0.14559114
000060 80 81 71 be c0 96 28 3c 44 d3 2e 3e d8 63 f6 3d
       -0.23584557 0.010289848 0.17072779 0.120307624
000070 30 37 33 3e e8 bc b5 bd e0 36 97 bc e8 20 46 be
       0.17501521 -0.08873922 -0.018458784 -0.1934849
000080 d0 84 a9 bd 74 f6 1e 3e 30 8d 7e 3e 6c 38 4d be
       -0.08277285 0.15523702 0.24858546 -0.20041054
000090 c0 29 f9 bc 60 3d 36 3d ac 59 7d 3e b0 01 c7 3d
       -0.030415416 0.044492126 0.24741238 0.09717119
0000a0 10 e0 67 bd d8 78 b0 bd e8 c4 f6 3d 40 c6 52 3e
       -0.056610167 -0.08616799 0.12049276 0.20583439
0000b0 d0 8b c7 bd 2c d3 50 be 00 2b d6 bb a8 bb d0 bd
       -0.09743464 -0.20393056 -0.0065358877 -0.101920426
0000c0 00 db 56 3c 5c 4a 0d be 80 f6 50 3c 00 71 ff 3b
       0.013113737 -0.13797897 0.012754083 0.007795453
0000d0 4c ff 73 be 70 2a b0 bd 54 92 41 be e8 2f 1e 3e
       -0.23827857 -0.08601844 -0.18903476 0.15447962
0000e0 fc db 53 be 10 77 43 be a0 2b 86 3c 08 f1 3e be
       -0.20689386 -0.19088387 0.016378224 -0.18646634
0000f0 10 6d 73 be a0 73 60 be 90 eb 5f 3e b8 38 85 3d
       -0.23772073 -0.21919107 0.21867204 0.06504959
000100 ac c1 76 3e f0 3e 04 3e 80 03 1b be c0 cf 1f 3c
       0.24097317 0.12914634 -0.15138054 0.009754121
000110 70 d5 08 3d 70 82 18 be ac ac 2d 3e 04 20 0e 3e
       0.033406675 -0.14893508 0.169604 0.138794
000120 50 42 37 3d ac ae 7c 3e 00 3b ed 3b f8 3f 11 be
       0.044740975 0.24676007 0.0072396994 -0.14184558
000130 40 10 79 bc 00 9c a9 ba f0 55 6a 3d c0 fc 5a be
       -0.015201628 -0.0012940168 0.057210863 -0.21385479
000140 e0 7a b9 3c f8 4a 1a be f4 41 2f be 20 5e 55 be
       0.0226416 -0.15067661 -0.17115003 -0.20836687
000150 24 ef 6a 3e 60 75 a3 3c 1c 83 15 3e 5c 80 09 be
       0.22942787 0.01995343 0.14600796 -0.13427871
000160 40 ae 9f bd e0 dd cb 3d cc 80 22 3e c0 b4 75 3e
       -0.077969074 0.09954429 0.15869445 0.23994732
000170 8c 14 10 be a0 6d 23 3d b4 4a 3b be d4 02 31 be
       -0.14070338 0.03989947 -0.18290216 -0.17286235
000180 b0 18 48 3e e0 b8 2e 3e e4 e1 7e 3e b8 11 3c be
       0.19540668 0.17062712 0.24890858 -0.18366134
000190 50 f6 74 3d 88 b1 56 be 20 f9 a3 3d f4 8a 2d 3e
       0.059805214 -0.2096616 0.08006501 0.16947538
0001a0 9c 7b 5f 3e 34 79 47 3e d8 02 3e be a8 f7 cd bd
       0.21824497 0.19479829 -0.18555772 -0.10057002
0001b0 5c 62 0a be 7c 50 0d 3e 20 2c 89 bd 18 8b b3 3d
       -0.13514084 0.13800234 -0.06697869 0.087667644
0001c0 08 8f 3f 3e 68 68 38 3e 00 8a 76 bb 00 e1 d9 bd
       0.18706906 0.18008578 -0.0037618876 -0.106386185
0001d0 e0 d5 1e be 10 84 08 bd 20 b8 7d be 18 f2 59 be
       -0.15511274 -0.03332907 -0.2477727 -0.21283758
0001e0 1c 98 6b 3e c0 b1 56 bd d0 03 52 be 54 a4 1f 3e
       0.23007244 -0.05241561 -0.20509267 0.1559003
0001f0 40 7e 41 3d fc 78 66 be b8 d5 67 be 38 57 22 be
       0.047239542 -0.2250709 -0.22640121 -0.15853584

sequential/conv2d/Conv2D f4 [2, 4, 4, 3]
000000 24 57 60 be 98 31 31 3e bf 29 6b be 98 43 7d 3e
       -0.21908242 0.17304075 -0.22965144 0.24732816
000010 68 a7 fb bd 64 2b e5 3d f0 a7 a5 bd 4c c7 24 3e
       -0.122877896 0.11189917 -0.08088672 0.1609165
000020 d0 08 e9 bd 4c 49 c8 3d a2 a5 89 bd 40 a4 ec bb
       -0.11378634 0.09779605 -0.06721045 -0.0072217286
000030 c0 a3 74 3c 22 76 48 3e 40 d0 85 bb be 55 05 3e
       0.014931619 0.19576314 -0.004083663 0.1302099
000040 78 65 68 3e 2b eb 0e be 90 30 64 be 74 d7 f4 3d
       0.22694957 -0.13956897 -0.2228415 0.11955157
000050 c0 50 d7 bd 80 28 1b bd 3d 7d 00 be 90 5f 42 bd
       -0.10513449 -0.03788042 -0.12547775 -0.047454417
000060 26 8b 87 be 70 1c f7 3c e8 55 d0 3d 48 9c 00 3d
       -0.2647335 0.030164927 0.10172635 0.03139904
000070 3a dc 29 3e 2c 97 e2 3d bc f0 7b 3e c4 f4 76 3e
       0.16587916 0.1106399 0.24603552 0.24116808
000080 12 90 b2 bd 5c e5 ac 3d 46 ad 9d bd ad da 26 be
       -0.087188855 0.08442184 -0.07699065 -0.16294356
000090 0c 05 52 be 24 f0 c6 3d 2a 98 a4 bd f0 0f fd bc
       -0.20509738 0.09713772 -0.080368355 -0.030891389
0000a0 06 2c 65 3e b4 d4 6e bd 88 7e d0 3d a0 c5 1b 3d
       0.22380075 -0.05830832 0.10180384 0.038030267
0000b0 ae 4f 88 3e 6c 4b 7d be 00 73 72 3b 64 23 39 bd
       0.2662329 -0.24735802 0.0036994815 -0.045199767
0000c0 e0 57 07 bc 28 37 c1 3d 78 40 ab bd 26 b3 48 3e
       -0.008260697 0.09434348 -0.08361906 0.1959959
0000d0 d3 24 68 be bc 48 46 bd 40 89 1f 3c be 33 8d bd
       -0.22670297 -0.04840921 0.009737313 -0.06894635
0000e0 4e 91 a5 bd ed 32 38 be a8 f3 df 3d 00 ae 95 bc
       -0.08084355 -0.17988177 0.109351456 -0.018271446
0000f0 8c 4d fe 3d 78 47 03 be 60 2d 6b 3e d8 9a 35 be
       0.12417135 -0.12820232 0.22966528 -0.1773485
000100 24 8e 5e 3e 73 e7 85 be 94 25 71 3e 84 e3 d2 3d
       0.2173391 -0.26153144 0.23549491 0.102973014
000110 0c 81 44 be 76 d2 52 3e ba b0 47 be 56 f5 f0 bd
       -0.19189852 0.20588097 -0.1950101 -0.11765544
000120 1a 4b 26 3e 34 f7 af 3d f4 57 af 3d da 41 1d be
       0.16239586 0.08592072 0.085616976 -0.15357152
000130 10 ab 85 be 50 e6 41 3d a0 ff 6e bd ee 30 3b 3e
       -0.26107073 0.047338784 -0.05834925 0.18280384
000140 9f 3c 20 be cf 97 88 be b0 13 7c 3e 1b c6 5c be
       -0.15648125 -0.2667832 0.24616885 -0.21559946
000150 bc 79 bd 3d ce ee 35 be ae b8 57 3e 88 f3 63 3d
       0.092517346 -0.17766878 0.21066543 0.05565217
000160 a2 af 77 be 6e 9e 17 be f0 61 ab 3c f4 71 2d be
       -0.24188092 -0.1480653 0.020920724 -0.16938001
000170 70 8b 7b 3e 68 e6 f1 3d 75 98 8a be 50 01 5f 3e
       0.2456491 0.11811525 -0.2706944 0.21777844

sequential/dense/MatMul f4 [64, 1024]
000000 90 66 51 3d d8 70 6d 3c d0 63 6b 3d ea 42 1d 3d
       0.0511232 0.014492236 0.057468235 0.038393892
000010 9c 45 e0 bc 70 61 5e 3c 5a ab 45 3d 98 e1 06 3d
       -0.027376942 0.013573036 0.048259117 0.032929987
000020 42 dc 0f 3d 17 b6 52 bd 4c f9 d2 bc 2a 9e 22 3d
       0.035122164 -0.051443186 -0.02575364 0.03970162
000030 44 46 7c 3d 68 c7 42 bc 60 ee 62 3c 6e ca 85 3d
       0.061590448 -0.0118883625 0.013850778 0.06532751
000040 a4 82 7e bd 5c 81 dc 3c 20 c8 e0 bc de 77 05 3d
       -0.062136307 0.026917152 -0.027439177 0.032585017
000050 d0 29 b2 3b 5c bd ea 3c dc 86 0e 3d 1b 93 88 bd
       0.0054371133 0.028654747 0.03479658 -0.06668683
000060 30 67 dc bc 9c cd b8 3c e0 40 fd 3b 4a 35 31 3d
       -0.026904672 0.02255898 0.007728681 0.04326371
000070 6e 89 96 bd e0 59 6d bb 3e e7 2f 3d 9a 77 66 bd
       -0.073504314 -0.00362169 0.04294514 -0.056266405
000080 99 16 82 bd c4 a4 5d 3d d4 80 ea 3c e0 5d 4a bd
       -0.063519664 0.05411221 0.028625883 -0.049405932
000090 f0 1c 82 3d 0c 97 0e 3d 34 36 5e 3d 16 23 09 bd
       0.06353176 0.03481202 0.05425091 -0.033480726
0000a0 36 a2 8c bd 5b 22 26 bd 50 ca 82 3c bb 59 8a bd
       -0.06866877 -0.040560108 0.01596561 -0.06755396
0000b0 90 0c a6 3c d6 b1 97 3d 20 5c 08 3c 70 81 f4 3c
       0.020269662 0.074069664 0.008322746 0.029846877
0000c0 a0 83 7e 3c 1e db 8e 3d 2c 60 92 bc a0 a5 89 3b
       0.0155343115 0.06975387 -0.017868124 0.0042006522
0000d0 70 71 3e bc 48 36 39 bc 50 9e d2 bb e2 e4 96 3d
       -0.011623725 -0.011304446 -0.0064275637 0.07367875
0000e0 a4 54 93 3c a5 bd 81 bd 08 9a 56 3c b4 be 92 3c
       0.017984696 -0.06335 0.013098247 0.0179132
0000f0 95 52 8d bd 30 df 0f 3d d1 ec 43 bd 74 ca 93 3d
       -0.06900517 0.035124958 -0.047833268 0.07216349
000100 a4 29 54 3d ee 0f 53 bd d8 0a 06 3c e8 d6 44 bd
       0.051797524 -0.051528864 0.008181296 -0.048056513
000110 40 3f 49 3d 88 0e 6b 3d 98 55 06 3d 98 50 ee 3c
       0.049132586 0.057386905 0.032796472 0.029091164
000120 99 7d 61 bd d0 d3 de 3b 08 cd 8d 3c 69 b9 8e bd
       -0.05505142 0.0068001524 0.01730968 -0.06968958
000130 18 10 5d 3d 3e 08 88 3d 98 ae fa bc b8 cb 0e bd
       0.053970426 0.06642197 -0.03060083 -0.03486225
000140 8c 2c 75 3d 20 2e ff bb 72 df 4e 3d f4 31 86 3c
       0.059856936 -0.007787481 0.050506063 0.016381241
000150 b8 8f 74 3c 80 53 69 bb 88 eb 79 3d ee c9 34 bd
       0.014926843 -0.0035602748 0.061015636 -0.044137888
000160 dc ae d0 3c 2d 42 01 bd 84 67 be bc 40 e7 4b bb
       0.025474004 -0.03155725 -0.02324272 -0.0031113178
000170 d8 11 8e 3d fa a6 91 bd 04 46 cc 3c fe 03 57 bd
       0.06936997 -0.071119264 0.02493573 -0.05249404
000180 c4 6b 65 3d d8 9e 04 bd 3c cd a4 3c dc 57 cb bc
       0.056010976 -0.032378048 0.020117395 -0.024822168
000190 a2 21 ca bc ea 8d 3c 3d fc fb 62 bd 0c 92 0b bd
       -0.02467424 0.046033777 -0.055416092 -0.034074828
0001a0 f0 4d 86 3d 54 75 b4 bc 28 4a 4b 3d 01 b3 7d bd
       0.06557834 -0.022028603 0.049631268 -0.06193829
0001b0 a6 4f 88 bc ce d4 01 3d 10 4f b7 3c 30 57 f5 bc
       -0.016639542 0.031697087 0.022376567 -0.0299488
0001c0 c0 42 22 bc c0 00 17 3b 14 4d 1a bd 78 df c2 bc
       -0.00990361 0.0023041219 -0.037671164 -0.023788199
0001d0 4a a0 8a 3d ac 96 80 3d 80 8b 5a ba d4 b7 45 3d
       0.06768854 0.062787384 -0.0008336827 0.048271015
0001e0 a4 9e 8e bc f0 27 e9 3b a0 77 f4 3c aa 13 8f 3d
       -0.01740963 0.0071153566 0.029842198 0.069861725
0001f0 2a 46 3c bd f0 bd 07 3c 00 95 23 bc 30 8c 51 3d
       -0.04596535 0.008285031 -0.009984255 0.051159084
000200 00 98 76 bc 0a d9 cb bc f8 08 28 bd 00 a6 69 3d
       -0.015050888 -0.024883766 -0.04102418 0.057043076
000210 86 29 15 bd fc 7d 92 3c 40 d8 30 bb a8 53 97 3c
       -0.036416553 0.01788234 -0.0026984364 0.018472508
000220 16 46 48 3d 86 ac 14 3d 18 e7 de bc b2 8f 77 bd
       0.048894964 0.036297344 -0.027209803 -0.060439773
000230 f5 17 75 bd f0 16 6f bd 38 53 33 bc 24 a6 86 bd
       -0.0598373 -0.058371484 -0.010945134 -0.065746576
000240 10 e8 00 3c f8 bd cb bc 90 7f 36 bc 14 fd 96 3d
       0.007867828 -0.024870858 -0.011138812 0.073724896
000250 10 be 8b 3d 32 7b 04 3d 3c 8b 10 3d 00 78 0d b8
       0.06823361 0.03234405 0.035289034 -3.372878e-05
000260 78 18 0c bc d8 0c ea 3c 16 91 82 3d 18 3d ae bc
       -0.008550756 0.028570578 0.06375329 -0.021269366
000270 04 1d 73 3d 68 a8 52 3d ae 44 9b bc ba 09 43 3d
       0.059353843 0.051430136 -0.018953647 0.047616698
000280 60 2b ef 3b e0 b1 4b bb b8 38 86 bd b0 42 f2 bc
       0.007298872 -0.0031081364 -0.06553787 -0.029572815
000290 38 52 0c bc 78 39 36 3c b2 36 17 3d 0c 05 89 3d
       -0.008564524 0.0111221 0.036917396 0.06690416
0002a0 e6 e1 10 3d 04 0a 55 3d e6 80 03 3d 24 b8 ab 3c
       0.035371684 0.052011505 0.03210535 0.020961829
0002b0 50 df c0 bb e0 c1 38 bd a5 d2 88 bd 74 95 57 bd
       -0.005885996 -0.04510677 -0.06680802 -0.052632764
0002c0 e0 29 ab bb 5c e5 4c 3d c4 c8 a5 3c 6c 90 4c 3d
       -0.0052234977 0.05002342 0.020237334 0.04994242
0002d0 c8 2e 69 3d e0 fe e9 3c 60 fd 43 bc 44 7a 5f bd
       0.05692938 0.028563917 -0.011962265 -0.05455996
0002e0 02 70 cc bc 64 6c 92 bc 0b 32 65 bd e0 f2 0c bb
       -0.024955753 -0.01787395 -0.055955928 -0.002150707
0002f0 86 63 29 3d 18 44 07 bc c4 bd 64 3d 72 b5 70 bd
       0.04135468 -0.008255981 0.055845037 -0.05876679
000300 22 66 22 bd 1e ef 15 3d 84 76 cf 3c a8 fc 33 3d
       -0.039648183 0.036604993 0.025325067 0.043942124
000310 a4 e4 31 bd b0 e8 20 3c 4e 5a 46 3d ad 5d 59 bd
       -0.04343094 0.009821102 0.048425965 -0.05306785
000320 70 8c 0c 3d 94 cc a7 bc 00 d9 cf 39 70 07 5e 3d
       0.03431362 -0.020483293 0.00039643794 0.05420631
000330 f4 ea 94 3d e0 47 c7 bb 2e 61 95 bc 7c cb 91 bd
       0.07271376 -0.006081566 -0.018234815 -0.0711889
000340 c0 1b 2d bb 34 2a 32 bd 2c 71 44 3d 20 04 4c 3d
       -0.0026414245 -0.04349728 0.04795949 0.04980862
000350 b8 bc 52 bd fb 22 03 bd 90 84 d1 bb c0 80 f8 3c
       -0.051449507 -0.03201578 -0.0063939765 0.03033483
000360 5f 99 85 bd 50 9c b8 3b 8f a0 31 bd bc 1d 8f 3c
       -0.06523394 0.0056338683 -0.04336601 0.017470233
000370 78 80 2a 3d 60 af 5d 3d 0e eb 4e 3d c0 d6 c7 3b
       0.041626424 0.05412233 0.050517134 0.0060985982
000380 2c c4 69 bd ac 42 57 3d 95 13 8f bd 55 3b 7d bd
       -0.05707185 0.052553818 -0.06986157 -0.06182416
000390 e4 7b 56 bc 81 18 78 bd 33 a6 03 bd 30 2f 55 3c
       -0.013091061 -0.060570244 -0.03214092 0.013011739
0003a0 9c b0 67 bc fa 8c b6 bc 64 7c 28 3d 90 c7 cc 3b
       -0.014141228 -0.02228402 0.041134253 0.0062493756
0003b0 22 7a 6f bd a2 45 e4 bc c8 04 e0 3c 58 6a 4d 3c
       -0.058466084 -0.027865235 0.02734603 0.012537561
0003c0 82 b6 15 3d 66 43 2b 3d c0 6c fe 3b c8 f1 58 bc
       0.036551006 0.041812323 0.007764429 -0.013241239
0003d0 da 8b 83 3d d0 26 23 3c c8 1e c8 bc 25 0d 2e bd
       0.06423159 0.009957984 -0.02442874 -0.042493004
0003e0 d0 f7 8f 3c 29 2a 91 bd 38 0d e1 3c 18 16 51 3d
       0.01757422 -0.070881195 0.027472124 0.05104646
0003f0 8c a1 de 3c 80 b7 eb 3c d4 ea 89 3c 82 1c 83 3d
       0.02717664 0.028774023 0.016835608 0.06401922

sequential/dense_1/MatMul f4 [64, 64]
000000 a0 dc c4 3c 61 c9 11 3e e2 b0 25 be 9c 5d 0b be
       0.024030983 0.14236976 -0.16180757 -0.13609928
000010 7e 78 1a be b8 56 00 be d6 ea 08 be 3a dc c5 3d
       -0.15085027 -0.1253308 -0.13370833 0.096611455
000020 da 9e 8d 3d cd f3 19 be 58 5d 9c bd 6c 09 05 be
       0.06915064 -0.15034409 -0.076349914 -0.12991875
000030 3e c7 d3 3d 04 16 7b 3d 0b a8 39 3e 14 ea 44 3d
       0.10340737 0.061300293 0.1813051 0.048074797
000040 99 34 1e be a0 07 87 bc e3 de 2a 3e 62 dd e0 3d
       -0.15449752 -0.016483128 0.16686587 0.109797254
000050 a7 db 53 3e 25 81 19 3e 08 56 25 be 70 a7 15 3c
       0.2068926 0.14990671 -0.161461 0.0091341585
000060 5a 0a 8d 3d 61 2c 09 3e d2 02 f4 3d 7e a8 d4 bd
       0.0688674 0.13395835 0.119146004 -0.103837
000070 44 ae 24 3d 47 cf 02 3e 40 00 7d 3b 48 d1 1e be
       0.040205255 0.12774383 0.0038604885 -0.15509522
000080 a4 a2 0a bd ee ac de bd ee 40 92 3d 0a 90 8b 3d
       -0.033846512 -0.108728275 0.071412906 0.06814583
000090 22 59 1e be c4 e7 0a bd 0d f9 0e 3e e6 8d a2 bd
       -0.15463689 -0.033912435 0.13962193 -0.07937221
0000a0 e4 5e 7f 3d a4 cf 23 be 58 53 43 be 5a de aa 3d
       0.062346354 -0.15997177 -0.19074762 0.083431914
0000b0 34 de 79 3d 16 21 cf 3d 04 93 51 3d 00 59 8e bb
       0.061002925 0.101137325 0.051165596 -0.0043441057
0000c0 96 cf bb 3d 82 e5 b2 bd fb 4c 51 3e 88 53 82 3c
       0.09170453 -0.087351814 0.20439522 0.015908971
0000d0 40 ba 46 bc 38 d1 4b be d6 11 a9 3d f5 59 23 be
       -0.012129366 -0.1990403 0.08255355 -0.15952285
0000e0 a9 d7 ff bd 37 ba 1c 3e 40 0a be bd 60 5b 5c 3c
       -0.12492306 0.1530541 -0.09279299 0.01344952
0000f0 8a a4 f2 3d e6 9f 8b 3d 23 45 29 be 2b bd 22 3e
       0.118477896 0.068176076 -0.1653028 0.15892474
000100 00 6f a4 bc f8 85 f5 bc cc 7e af bd b0 20 4e 3c
       -0.02007246 -0.029971108 -0.085691065 0.0125810355
000110 10 45 59 be ba ba b5 3d 00 ee 00 3a c0 8c 2e 3c
       -0.21217752 0.08873506 0.0004918277 0.010653675
000120 1e 9a 05 be cd 96 5b 3e ce b2 ad bd 6b c0 01 3e
       -0.13047072 0.21444245 -0.0848137 0.12671058
000130 9d 5f 19 3e f2 23 92 3d 7b 1a 07 3e 90 ca d6 3c
       0.1497788 0.07135762 0.13193695 0.026219636
000140 3b f1 5a 3e 68 56 22 be ee 80 28 be ee 59 f4 3d
       0.21381085 -0.15853274 -0.16455433 0.11931215
000150 58 87 dd 3c db 02 42 3e 2a cb eb 3d e6 9a b5 3d
       0.027042076 0.18946402 0.1151336 0.08867435
000160 6b 81 1e be d4 4f 2c 3d 68 b0 22 be 1e 23 43 be
       -0.15479057 0.042068318 -0.15887606 -0.19056365
000170 4b 6c 01 3e 50 0d 27 bd 28 e1 0a bd 70 71 c9 3c
       0.12638967 -0.04078418 -0.033906132 0.024590224
000180 a3 df 14 3e 06 0e d0 bd f2 c7 c6 3d ef 34 5c be
       0.14538436 -0.10158925 0.09706105 -0.21504568
000190 d1 cc 11 3e bc ed 4d 3d 20 ac 3c bd d8 04 2d be
       0.14238288 0.05027555 -0.04606259 -0.16896379
0001a0 e5 f8 41 be 88 16 cb 3c cb 99 37 3e 6b c7 5a 3e
       -0.18942602 0.024791017 0.17929761 0.21365134
0001b0 35 bf 46 3e de 3e f1 bd e4 89 5f 3d b2 29 93 3d
       0.19408877 -0.11779569 0.054574862 0.07185687
0001c0 d4 99 42 be 0d 18 4b 3e 50 36 a3 bd 6a c3 1c be
       -0.19003993 0.19833393 -0.07969344 -0.1530892
0001d0 20 37 25 be 90 79 ad bd 72 73 a4 bd 58 c0 0d be
       -0.1613431 -0.08470452 -0.08029832 -0.13842905
0001e0 5c 9f 1d 3d 40 08 1a bd b8 2a ab 3c 92 4f 0a be
       0.038482055 -0.037605524 0.020894393 -0.13506916
0001f0 8c 1d 3e 3d a0 be a4 bd 10 bc c6 bc dc 42 a5 bd
       0.046414897 -0.08044171 -0.024259597 -0.08069393
000200 f6 49 9d bd 9f 22 05 3e ec 55 aa bd 36 37 a5 3d
       -0.076801226 0.13001488 -0.083171695 0.08067171
000210 80 13 b9 bc 1d 9f 1d be 8a 36 84 3d 00 ee dd bd
       -0.022592306 -0.15392728 0.06455715 -0.108364105
000220 6b d7 4c 3e b7 3e 22 3e e6 6a 13 be ae ed 28 be
       0.2000405 0.15844236 -0.14396247 -0.16496918
000230 14 55 72 bd a1 61 57 3e b5 16 1c 3e 96 2f 1a be
       -0.059163168 0.21033336 0.15243037 -0.15057215
000240 0e 4e 55 be 40 f0 32 be 1b 80 2e be 80 84 89 bd
       -0.20830557 -0.1747446 -0.17041056 -0.067147255
000250 42 33 f8 3d 00 12 92 3c 98 83 c2 3c 22 eb 56 be
       0.12119152 0.017830849 0.02374439 -0.20988134
000260 d6 57 e6 3d 87 7c 2a 3e e0 b7 48 3c ab 88 1b be
       0.11247222 0.16649066 0.0122508705 -0.15188853
000270 e1 96 f4 bd 8c 06 d4 bd 13 0c 2f 3e fc 62 0c 3d
       -0.1194284 -0.10352811 0.1709445 0.034274086
000280 78 cd 4d bd 4f 68 48 3e 00 12 12 be 96 74 f1 3d
       -0.05024478 0.1957104 -0.14264679 0.11789815
000290 20 72 e2 3c 3c 0e 25 3d 69 fb d8 bd a1 ee 35 3e
       0.02764231 0.040296778 -0.10594828 0.17766811
0002a0 62 61 f3 3d 4a 15 f9 3d d8 74 3e bd 46 7a bd 3d
       0.11883809 0.12162264 -0.04649815 0.092518374
0002b0 f0 84 70 bd 5c d2 26 3d e8 19 d2 3c de 8c cd bd
       -0.05872053 0.040727958 0.025647119 -0.10036634
0002c0 62 64 ed 3d ac b1 32 3d 36 5a e6 3d 6a 9a a8 3d
       0.11591412 0.043626472 0.11247675 0.08232577
0002d0 00 8a 8a b9 c2 4e 8f bd f6 3e c5 3d 5d 37 1a be
       -0.0002642423 -0.06997444 0.096311495 -0.15060182
0002e0 48 c7 ab bd ab 47 3c 3e 80 75 4f bd 98 49 ec 3c
       -0.08387619 0.18386714 -0.050649166 0.028843686
0002f0 d0 86 bb 3c 64 0c 6f bd 30 bf 59 be 8b bb 2f be
       0.022891432 -0.058361426 -0.21264338 -0.17161386
000300 d2 a6 07 be 50 12 2c be eb 03 18 3e ad 0e 05 3e
       -0.1324723 -0.1680386 0.14845245 0.1299388
000310 86 94 85 3d 1c 56 a0 bd 2e 9c f5 3d 4b ba 33 be
       0.06522469 -0.07828924 0.119926795 -0.17551534
000320 58 13 a5 bc 48 9a 00 bd e0 8b f9 bc 6f 10 08 3e
       -0.020150825 -0.031397134 -0.030462205 0.13287519
000330 72 e3 2c be f3 e2 44 be 90 db 35 3c a4 8a 54 3d
       -0.16883639 -0.192272 0.011099711 0.05189003
000340 2f c8 ee bd 01 2f 05 3e 40 dd 3c be 25 9f 2b be
       -0.11659276 0.13006212 -0.18443775 -0.16759928
000350 bb 54 1d be 9d 6a 3a be 21 a8 1d 3e 4b 09 01 be
       -0.15364353 -0.18204732 0.15396167 -0.12601201
000360 4c b3 17 be f4 7e 37 3d 37 e3 48 3e b6 a1 d6 3d
       -0.1481449 0.044798806 0.19617926 0.10480063
000370 35 23 42 be 6a 28 06 be 1d 5a 00 be 41 5e 3e be
       -0.18958743 -0.13101354 -0.12534375 -0.18590643
000380 86 0d 0d be c9 f4 11 3e 64 60 c8 bd 46 2b 06 be
       -0.1377469 0.14253534 -0.0978401 -0.13102445
000390 ae 53 f5 3d 99 2a 2d 3e c0 72 43 be 00 0c 59 b9
       0.11978851 0.16910781 -0.19086742 -0.00020699203
0003a0 d4 c0 37 bd ef e4 03 3e 84 8c 48 be 45 bf 1e be
       -0.04486163 0.128803 -0.19584852 -0.15502651
0003b0 dd a9 24 3e fc 52 47 3d 36 2e df 3d 3d 2c 26 3e
       0.16080423 0.048663124 0.10897486 0.16227813
0003c0 ce 2d d8 3d 9e b6 03 be 7e f2 f7 bd 00 a8 d6 b8
       0.105556116 -0.12862632 -0.121067986 -0.000102356076
0003d0 81 60 01 3e 04 03 09 be 50 66 9d 3c 5b a6 2d be
       0.1263447 -0.13380057 0.019213825 -0.16957991
0003e0 f8 e0 31 bd ba 49 dd 3d 55 c5 3f 3e 1c f6 22 be
       -0.043427438 0.10805078 0.1872762 -0.15914196
0003f0 dc db 58 3d ec 20 68 3d 37 a0 bd bd 90 6e 1a be
       0.05294405 0.05667202 -0.09259074 -0.15081239

sequential/dense_2/MatMul f4 [64, 64]
000000 f3 04 42 3e 60 77 6c bc 4f 44 0c be c2 99 fd 3d
       0.189472 -0.014432758 -0.13697933 0.123828426
000010 fe 0b 55 be d6 f9 45 be 44 7e a4 bd 00 a3 c0 3a
       -0.20805356 -0.19333586 -0.08031896 0.0014697015
000020 72 29 0e be 70 bb 25 bc 8f 51 50 3e 50 49 4b bd
       -0.13882998 -0.010115489 0.20343612 -0.049630463
000030 30 1a 4b be 1c 1f 04 bd 3b 82 02 be ce 5e a9 3d
       -0.19834208 -0.03225623 -0.12744991 0.08270036
000040 9f 71 28 3e 66 6d 98 3d f0 15 50 be a8 27 9d 3c
       0.16449593 0.07442741 -0.20320868 0.019183949
000050 e3 25 09 3e f5 57 1c 3e 54 b4 92 bd c4 bd 11 be
       0.13393359 0.15267928 -0.07163301 -0.14232546
000060 f3 c4 3a 3e b4 53 74 bd dd 83 1d 3e 53 64 07 be
       0.18239193 -0.059650138 0.15382333 -0.13221864
000070 b9 ba 19 3e e6 51 b0 3d 04 5d 57 3d 6d 41 4a 3e
       0.15012635 0.08609371 0.05257894 0.1975152
000080 60 05 c3 bc 10 61 ec bd 57 9c 5c 3e af 67 43 3e
       -0.023806274 -0.11541951 0.21544014 0.19082521
000090 e7 ab 0b be 79 2b 03 3e fe 7e af 3d 24 36 f9 bd
       -0.13639794 0.12809552 0.08569144 -0.1216853
0000a0 80 a2 bf bc ec ee 0e 3d d4 6d 0b 3d 57 97 4d be
       -0.023392916 0.034895822 0.034040287 -0.20077263
0000b0 90 d3 5c 3c 3e 83 cb 3d bc 49 2b be c5 9b 10 3e
       0.013478175 0.09937142 -0.16727346 0.14121921
0000c0 a1 ab 46 be 26 a8 21 be 14 13 47 be 62 17 ba 3d
       -0.19401409 -0.157868 -0.19440871 0.09086491
0000d0 91 fe 47 3e 98 61 f6 3c b5 fd 17 3e ed f4 4a 3e
       0.19530703 0.030075833 0.14842875 0.19819994
0000e0 86 ab e1 bd 28 6f 07 bd f6 fa d1 3d f7 67 bb bd
       -0.110190436 -0.03306499 0.10252945 -0.09150689
0000f0 cf 13 52 3e 63 6f 10 3e d6 42 29 be 26 88 1a be
       0.20515369 0.1410499 -0.16529402 -0.15090999
000100 57 63 12 be 7e 1a 0b be 60 6c 25 bd 28 51 f6 bc
       -0.14295708 -0.13584325 -0.040386558 -0.030067995
000110 a8 7e 52 be 95 06 3e 3e 03 d2 2b be fe bc c3 3d
       -0.20556128 0.18557198 -0.16779332 0.09557532
000120 f8 d9 1c bd 70 f4 02 be 82 c4 4a be 5c 64 81 bd
       -0.03829381 -0.12788558 -0.19801524 -0.0631797
000130 b9 53 0f 3e 6c f9 2e 3d 5d 70 3a be db b2 01 3e
       0.13996781 0.042718336 -0.18206926 0.12665884
000140 af 23 3b 3e 1e e3 c7 3d af cc 46 3e 9b e2 3e be
       0.18275331 0.09760116 0.19414018 -0.1864113
000150 c5 39 19 3e d8 bc 1c bd be 4f c5 bd 6c 2d 19 3d
       0.14963444 -0.038266033 -0.0963435 0.037396833
000160 9b 7b bc bd c4 d9 42 bd 5e cc 13 be 84 66 6c 3d
       -0.09203263 -0.04757096 -0.14433429 0.057714954
000170 bc 60 78 3d a0 03 1b be 32 af 3d be e7 df 51 3e
       0.060639128 -0.15138102 -0.18523863 0.20495568
000180 2e 37 bd 3d e2 52 fc 3d d2 b9 00 be 6e 65 99 3d
       0.0923904 0.12320496 -0.12570885 0.07490049
000190 4f 74 d8 bd 5a 96 bb 3d 19 d0 03 3e 5a 5a f5 3d
       -0.10569059 0.09159537 0.12872352 0.11980124
0001a0 ca de 1f be 24 3f 48 3d aa 45 d6 3d e6 b8 99 3d
       -0.15612331 0.04888834 0.10462506 0.0750597
0001b0 9f eb 0d 3e f3 d5 2e 3e 08 ef e8 bc 16 49 17 be
       0.13859414 0.17073803 -0.028434291 -0.14773974
0001c0 d4 d7 45 3d ed 1c 0e 3e cb c7 32 3e 58 79 0a be
       0.048301533 0.13878222 0.17459027 -0.13522851
0001d0 06 6c b5 3d 01 8d 2e 3e 75 7e 29 be 08 f1 9a 3c
       0.088584945 0.17045976 -0.16552146 0.01891376
0001e0 3a 45 06 be 26 41 b3 3d 10 37 e4 3c fa b4 f0 3d
       -0.13112345 0.087526605 0.027858287 0.117532685
0001f0 ec 13 5e bd 92 4b 4c be 84 9e f7 bd 6a a6 45 be
       -0.054218218 -0.19950703 -0.12090781 -0.19301763
000200 22 20 88 bd f6 38 27 be 6d ab 27 3e 14 2e 6a 3d
       -0.06646754 -0.16330323 0.16373987 0.05717285
000210 07 f9 4d 3e 4a 99 b6 bd 27 3b 3b 3e 8f ed c4 bd
       0.20114528 -0.08915956 0.18284284 -0.09615623
000220 b4 a5 7f bd 43 74 47 be a3 74 15 be 34 41 09 3d
       -0.062413886 -0.19477944 -0.14595275 0.03350945
000230 77 0d 5c be 5e e0 f3 3d 80 52 30 be 1e c2 1a be
       -0.21489511 0.11908029 -0.17218971 -0.15113112
000240 a0 de 1c be 78 9e 84 3c 60 4e 91 bc 94 1f 2b 3d
       -0.153193 0.016188845 -0.017737567 0.041778162
000250 41 25 04 3e 04 df 26 3d a0 b2 e1 3c c6 9e d2 3d
       0.12904836 0.040740028 0.027550995 0.1028419
000260 c0 72 85 bc 59 3a 16 3e 0e ac 84 3d 6a c7 dd 3d
       -0.016290069 0.14670695 0.06478129 0.10829051
000270 d9 4c 4a 3e 26 49 fb 3d 8a 8f ca 3d 2e f3 2e be
       0.19755878 0.12269811 0.09890659 -0.17084953
000280 19 6d 43 3e 48 0c 0d bd fa 26 b2 3d d6 64 c6 3d
       0.19084586 -0.03443554 0.086988404 0.09687202
000290 65 15 3b 3e cf 08 07 3e 40 63 09 3c 90 50 35 3c
       0.1826988 0.13186954 0.008385479 0.011066571
0002a0 e0 37 bc 3b 3c a3 4f 3d 2c d0 4d bd 5d 60 45 3e
       0.0057439655 0.05069278 -0.050247356 0.19275041
0002b0 8b 61 53 3e 29 84 1d 3e 7a 66 81 3d 8c 97 9a bd
       0.20642678 0.15382446 0.06318374 -0.075484365
0002c0 91 0b 28 be 70 f6 02 bd 88 74 1d be 80 a2 b2 bd
       -0.16410662 -0.031973302 -0.15376484 -0.08722401
0002d0 4c a3 3b 3d d9 77 47 3e 76 2e 84 3d a6 5c 84 bd
       0.04581003 0.19479312 0.06454174 -0.06462984
0002e0 60 77 09 bc c5 08 42 3e 2b 02 5a be 60 ed a6 bc
       -0.008390278 0.18948658 -0.2128989 -0.020376861
0002f0 16 5c fc bd e8 f3 ca bc a0 68 3a be 4c 1c f9 bd
       -0.123222515 -0.024774507 -0.18203974 -0.121636
000300 4f 2e 40 be ac dc 4f be e6 5b 97 bd 86 82 b7 bd
       -0.18767665 -0.20299023 -0.07390575 -0.08960442
000310 c0 5d 05 be 51 52 02 3e a4 c5 2b 3d cf 47 0b 3e
       -0.13024044 0.12726714 0.04193653 0.13601612
000320 08 29 fe 3c b8 ee ee 3c c3 1e 10 3e d0 bf 44 bd
       0.031025425 0.029166564 0.14074235 -0.04803449
000330 61 a8 2a 3e 2d 4e 24 be 87 bd 39 3e ea a2 cb bd
       0.16665794 -0.16045447 0.18138705 -0.09943183
000340 14 86 62 3d 5a fa 8d 3d 15 ab 47 3e 22 bd f2 3d
       0.055303648 0.069325164 0.19498856 0.118524805
000350 e4 44 38 be a0 36 08 bd c6 f7 cf 3d d3 43 5d be
       -0.1799503 -0.03325522 0.10154681 -0.21607904
000360 11 70 13 3e 80 43 6a bd 95 0b bd bd 68 4c 18 bd
       0.14398219 -0.05719328 -0.09230725 -0.03718224
000370 60 04 5b bd b8 9b fb bc 84 11 2f 3d cc 3b 27 3d
       -0.05347097 -0.0307139 0.042741314 0.04082851
000380 43 af 23 be 1a c7 2d be 4e 30 e2 3d d2 1f eb 3d
       -0.15984826 -0.16970482 0.1104437 0.114806786
000390 da 6a d7 3d 7f ec 08 3e ce c0 ca 3d d2 6c aa 3d
       0.10518427 0.13371466 0.09900056 0.08321537
0003a0 80 41 59 bd fc f7 3e be cd 55 10 3e 90 8b 77 bd
       -0.05304098 -0.18649286 0.1409523 -0.06043583
0003b0 6d 86 1f 3e 85 41 01 3e f0 3f 8e bd 7b 4b 3d be
       0.15578623 0.1262265 -0.06945789 -0.18485825
0003c0 62 7e 9a 3d e0 85 a8 3b be 9c ec 3d 97 cf f6 bd
       0.07543637 0.0051429123 0.11553334 -0.12051313
0003d0 0e 92 f1 3d 01 f8 c7 bd 02 6f d1 bd e4 96 3e 3d
       0.11795436 -0.097641 -0.10226251 0.04653062
0003e0 77 14 36 3e dd 55 be bd 01 43 13 3e c6 6c 4b be
       0.17781244 -0.09293721 0.14381029 -0.19865713
0003f0 fa 60 d0 3d ef 78 45 be 4b d5 2d 3e d6 7d f6 3d
       0.10174747 -0.19284414 0.16975896 0.1203572

sequential/dense_3/MatMul f4 [120, 64]
000000 1b a3 0d 3e 59 db b6 bd f8 ca fd bc 70 80 7e 3c
       0.13831751 -0.08928556 -0.030980572 0.015533552
000010 0e e4 e5 3d 61 50 0b 3e d6 af c4 3d 37 dc 03 3e
       0.112251386 0.13604881 0.096038505 0.12876974
000020 8f 67 03 3e 0c a2 58 3d b6 73 b0 3d c4 17 18 bd
       0.12832473 0.052888915 0.0861582 -0.03713204
000030 94 66 0b be 32 5e ba 3d cc 4a 56 3d 62 6c 17 be
       -0.13613349 0.090999976 0.052317426 -0.14787439
000040 00 97 1b 3a 70 7c 20 be 50 2b a5 bd b0 ef 82 bd
       0.00059352815 -0.15672469 -0.08064902 -0.06393373
000050 02 41 d8 bd 20 9f d8 bc 9f 95 24 3e c0 98 6c 3d
       -0.10559274 -0.026443064 0.16072701 0.05776286
000060 3c 31 7e 3d 61 e1 82 bd 2f 3a b9 bd ad e4 30 3e
       0.062058672 -0.06390644 -0.09044301 0.17274733
000070 10 97 49 3c 20 77 19 3d d6 99 a6 3d 73 89 1b 3e
       0.0123040825 0.037467122 0.081348106 0.15189151
000080 ac f5 73 bd ba 63 be bd e3 a9 f4 bd fa a0 d2 3d
       -0.059560463 -0.09296365 -0.11946466 0.1028461
000090 83 af 19 3e 82 c3 b4 3d 8e 45 ce 3d 0c c1 8d 3d
       0.15008359 0.08826353 0.1007186 0.069215864
0000a0 16 b2 90 3d 02 a7 ae 3d eb c6 11 be 01 3c 2a 3e
       0.07065217 0.08527948 -0.14236037 0.16624452
0000b0 6c 93 de bd c0 38 42 bc 33 15 eb bd 00 a1 c6 bc
       -0.10867962 -0.011854351 -0.11478653 -0.024246693
0000c0 64 4f ce bd 16 51 b9 3d 62 69 1f be 7b 59 26 3e
       -0.10073736 0.09048669 -0.15567544 0.16245072
0000d0 93 ea 31 be 80 1f 19 3d 60 d6 aa 3b 44 00 53 3d
       -0.17374639 0.037383556 0.005213544 0.051513925
0000e0 05 af 2f 3e bc bb 7b bd 6a ea 78 bd b2 af a0 3d
       0.17156608 -0.061458334 -0.06077043 0.07846011
0000f0 18 07 8a bd 80 93 e1 3a 78 40 42 bd 46 3a f4 3d
       -0.06739634 0.0017210096 -0.047424763 0.11925177
000100 0c 41 33 3d e0 0f 35 bc 20 55 fd bb 67 8e 22 3e
       0.043763205 -0.011051148 -0.007731095 0.15874635
000110 d0 18 70 3d c2 c1 ce 3d 18 d0 87 bc 4c 95 37 be
       0.058617413 0.1009555 -0.016578719 -0.17928046
000120 c0 ea fa 3c d7 eb 12 3e 96 91 9f bd be 0a f8 3d
       0.030629516 0.14347778 -0.0779144 0.12111424
000130 ee f9 f7 3d 72 76 e6 3d cc 39 00 bd 1e 96 01 be
       0.12108217 0.112530604 -0.03130512 -0.12654921
000140 50 60 07 3c 28 50 07 bd 0d bb 0c 3e e9 16 11 be
       0.008262709 -0.033035427 0.13743229 -0.14168896
000150 19 e4 15 3e ab 7b 02 3e 5c 46 3b 3d a2 5e 8f 3d
       0.14637794 0.12742488 0.045721397 0.07000472
000160 46 b8 f6 3d f7 ab da bd c0 ac 0b bb 46 89 1e be
       0.12046866 -0.10677331 -0.0021312684 -0.15482053
000170 65 58 26 be 12 b4 f6 3d 72 28 a6 3d 46 e2 38 be
       -0.16244657 0.120460644 0.08113183 -0.18055066
000180 2e d7 b9 3d 3b e4 36 be c6 e5 b9 3d b0 ea 64 3d
       0.090742454 -0.178605 0.09077029 0.055887878
000190 7d b9 06 3e a9 14 25 3e 34 03 1a bd fe 9f a1 3d
       0.13156696 0.16121162 -0.03760071 0.07891844
0001a0 79 d8 27 be 18 90 9c bc 02 27 d2 3d 0a b0 ee 3d
       -0.16391172 -0.019111678 0.102613464 0.116546705
0001b0 62 26 a9 3d 27 10 19 3e 68 e1 91 bd e4 a9 57 3d
       0.08259274 0.14947568 -0.07123071 0.052652255
0001c0 ec 9d 0d be 23 a8 22 be ae 07 bb 3d a0 19 3e 3c
       -0.13829774 -0.15884452 0.09132324 0.011602789
0001d0 e0 bb 25 be 44 00 4e bd fb 84 1f 3e 90 5d 6e bc
       -0.1618495 -0.050293222 0.15578072 -0.014548674
0001e0 c5 02 0f be d8 d6 4e 3d 90 6e 17 be 84 79 61 bd
       -0.139659 0.05049786 -0.1478827 -0.055047527
0001f0 49 4b c7 bd f3 55 20 3e d6 2a 9b 3d f4 ea 5b bd
       -0.097311564 0.15657787 0.0757653 -0.053690866
000200 6a fd 82 bd 1b 4d ab bd ce f1 7a bd a2 3f 84 bd
       -0.06395991 -0.08364316 -0.06126576 -0.064574495
000210 8c ba 7a 3d d2 45 cd 3d 49 60 0a be 3f 13 24 be
       0.06121306 0.10023083 -0.13513292 -0.16022967
000220 ff 24 02 3e b1 6f de bd a0 38 43 3d 23 6f 38 3e
       0.12709425 -0.10861147 0.047661424 0.18011145
000230 ee 29 6a bd 01 25 30 be e8 3c ef bc c0 70 04 3b
       -0.057168894 -0.17201616 -0.029203847 0.0020208806
000240 6d b5 11 be a3 ae 38 3e 23 bc 9b bd d0 17 17 bc
       -0.14229365 0.18035369 -0.076042436 -0.009221986
000250 d7 2d 22 3e 44 ad 29 be 61 ea bd bd f2 d4 8e 3d
       0.15837799 -0.16570002 -0.0927322 0.0697421
000260 b7 e3 15 3e 60 ea 84 3c 9a 8a a4 3d 20 9f c8 3b
       0.14637648 0.01622504 0.08034249 0.006122485
000270 98 71 df bc 54 4f 00 be e1 e3 10 3e 8f 65 30 3e
       -0.027275845 -0.12530261 0.14149429 0.17226242
000280 28 94 2b bd 68 e0 48 bd aa da bb 3d 0d 72 dc bd
       -0.04188934 -0.049042135 0.09172566 -0.10763941
000290 1c be 77 3d cb b6 0e 3e c0 47 9e bb 34 f3 96 bd
       0.060484037 0.13936917 -0.0048303306 -0.07370606
0002a0 34 0b 11 3d 37 f0 14 3e e8 18 4d 3d e0 33 94 bc
       0.035411075 0.1454476 0.05007258 -0.018091142
0002b0 c3 08 36 3e 62 28 f4 3d 18 97 5f 3d c0 c2 5b 3c
       0.1777678 0.11921765 0.054587454 0.013413131
0002c0 d0 6e 80 3d 64 f8 4e 3d 6a f6 c3 3d 18 9b 21 be
       0.06271136 0.050529853 0.09568484 -0.1578182
0002d0 08 79 ef bd b9 73 2f be 4d e4 37 be 9c 49 38 3d
       -0.11693007 -0.17133988 -0.17958184 0.044992074
0002e0 84 04 48 3d 2f a0 2e be 3f 33 da bd c4 94 7d 3d
       0.04883243 -0.17053293 -0.10654306 0.061909452
0002f0 d8 3b cd 3c a3 b3 22 be 4c e6 1b bd ee 6a 0a be
       0.02505295 -0.15888838 -0.038061425 -0.13517353
000300 38 eb bc bd 80 46 ed 3a a0 aa 29 bc 31 2a d1 bd
       -0.09224552 0.0018102676 -0.010355622 -0.102131255
000310 17 ae a9 bd d7 58 24 3e b0 68 44 3c ea be e6 3d
       -0.08285158 0.16049515 0.01198785 0.11266883
000320 96 34 d3 3d 5a a3 05 be 01 2a 10 3e 3a 4d 80 3d
       0.10312764 -0.13050595 0.14078523 0.0626473
000330 2e c5 d0 3d b0 0c c5 3c 80 29 c1 3c e0 61 33 be
       0.10193859 0.024053901 0.023579359 -0.17517805
000340 9d 86 07 be 87 09 31 be 2a 8d d5 3d d5 60 0b be
       -0.13234945 -0.1728879 0.104273155 -0.13611157
000350 4e 6e 0f be 36 79 0e be 8c 1c d9 bd 6f 97 d2 bd
       -0.14006922 -0.13913426 -0.10601148 -0.1028279
000360 ae 66 92 3d 12 fe b5 3d b0 de c2 3c eb 09 20 3e
       0.07148491 0.08886351 0.023787826 0.15628783
000370 48 2f 37 be dc d2 1f 3d 0f 88 11 3e 18 62 16 bd
       -0.1788913 0.03901945 0.14212058 -0.036714643
000380 9c aa 5d 3d a6 62 aa bd a4 62 1b be 4e 73 94 3d
       0.054117784 -0.08319597 -0.15174347 0.07248555
000390 fc 0a 6f 3d 2a ee 9d 3d ea ab a8 3d 2c 28 8f bd
       0.058360085 0.07711442 0.08235915 -0.06990084
0003a0 30 99 32 bd c0 f4 99 bb 7d f6 01 3e 5a 6d d9 3d
       -0.043603122 -0.004698366 0.12691684 0.1061656
0003b0 0e cd c7 3d e5 e8 05 3e 64 85 2a bd 9f 61 32 be
       0.09755908 0.13077123 -0.041631117 -0.17420052
0003c0 58 8c 5f 3d 78 32 06 be b8 a8 60 3d 82 11 a8 3d
       0.0545772 -0.1310519 0.054848403 0.08206464
0003d0 32 02 87 3d cf e4 31 3e 0e 94 12 be e7 1e 0e 3e
       0.065922156 0.1737244 -0.14314291 0.13878976
0003e0 58 40 f5 bc 1a 94 a4 3d ec dd 67 3d de fa 26 be
       -0.029937908 0.08036061 0.056608126 -0.16306636
0003f0 7a 13 eb 3d 4b 51 c3 bd 64 97 2d be 8a 3c 04 be
       0.11478324 -0.0953699 -0.16952282 -0.12913719
