src/main/assets/model.tflite (tflite, 341332 bytes, 12 tensors)

sequential/conv2d_3/BiasAdd;sequential/conv2d_3/BiasAdd/ReadVariableOp/resource;sequential/conv2d_3/Conv2D f4 [16]
0	0x00000000	0.0
1	0x00000000	0.0
2	0x00000000	0.0
3	0x00000000	0.0
4	0x00000000	0.0
5	0x00000000	0.0
6	0x00000000	0.0
7	0x00000000	0.0
8	0x00000000	0.0
9	0x00000000	0.0
10	0x00000000	0.0
11	0x00000000	0.0
12	0x00000000	0.0
13	0x00000000	0.0
14	0x00000000	0.0
15	0x00000000	0.0

sequential/conv2d_2/BiasAdd;sequential/conv2d_2/BiasAdd/ReadVariableOp/resource;sequential/conv2d_2/Conv2D f4 [8]
0	0x00000000	0.0
1	0x00000000	0.0
2	0x00000000	0.0
3	0x00000000	0.0
4	0x00000000	0.0
5	0x00000000	0.0
6	0x00000000	0.0
7	0x00000000	0.0

sequential/conv2d_1/BiasAdd;sequential/conv2d_1/BiasAdd/ReadVariableOp/resource;sequential/conv2d_1/Conv2D f4 [4]
0	0x00000000	0.0
1	0x00000000	0.0
2	0x00000000	0.0
3	0x00000000	0.0

sequential/conv2d/BiasAdd;sequential/conv2d/BiasAdd/ReadVariableOp/resource;sequential/conv2d/Conv2D f4 [2]
0	0x00000000	0.0
1	0x00000000	0.0

sequential/conv2d_3/Conv2D f4 [16, 4, 4, 8]
0	0xbc92f280	-0.017937899
1	0x3d8b8fa4	0.06814507
2	0xbd49bbd8	-0.049251407
3	0xbc24c800	-0.010057449
4	0xbce1cd40	-0.027563691
5	0xbd804d6c	-0.06264767
6	0xbde3bfc8	-0.11120564
7	0x3daacd0c	0.08339891
8	0xbd6cec18	-0.057842344
9	0x39192000	0.00014603138
10	0x3d3c9b58	0.046046585
11	0x3df4f9f8	0.1196174
12	0x3d853304	0.06503871
13	0x3dbb63d0	0.09149897
14	0x3d4b0e78	0.049574345
15	0x3d6f1410	0.058368742
16	0x3d81820c	0.063236326
17	0xbce27d60	-0.027647674
18	0x3de7df30	0.113218665
19	0x3d641d48	0.055691987
20	0xbd827658	-0.063702285
21	0xbcf45d50	-0.029829651
22	0x3dafb74c	0.08579883
23	0x3dcdd600	0.10050583
24	0x3dcd6438	0.10028881
25	0x3d86928c	0.0657092
26	0xbdf15960	-0.11784625
27	0xbdc892e4	-0.09793642
28	0x3de51e9c	0.11187479
29	0x3d60dc30	0.054897487
30	0xbd05b578	-0.032643765
31	0xbc611a00	-0.013739109
32	0xbdf0dc90	-0.11760819
33	0x3d61bab0	0.05510968
34	0x3c239f40	0.009986699
35	0xbddbd61c	-0.107341975
36	0xbdefc2d8	-0.11707085
37	0x3d009e18	0.03140077
38	0xbdcf3bcc	-0.10118827
39	0x3cdb23a0	0.026750386
40	0xbdad255c	-0.08454391
41	0x3c835560	0.01603192
42	0x3d094e18	0.03352174
43	0x3d1e5f98	0.038665384
44	0x3da02b78	0.07820791
45	0xbd7b5e90	-0.06136948
46	0xbd789b20	-0.060694814
47	0xbdf5542c	-0.11978945
48	0xbddb8878	-0.10719389
49	0xbdae8444	-0.085213214
50	0xbda05ee0	-0.07830596
51	0x3d8a8fc0	0.067656994
52	0x3ddbbe6c	0.107296795
53	0xbd147b68	-0.036250502
54	0xbd5c8928	-0.05384174
55	0xbd8db644	-0.0691953
56	0xbc489640	-0.012242854
57	0x3dc80764	0.09767035
58	0xbc133c00	-0.008986473
59	0xbd6fd210	-0.05854994
60	0xbd840734	-0.064466864
61	0x3cc821d0	0.024430186
62	0xbddcf5fc	-0.10789105
63	0xbd6afd30	-0.057370365
64	0x3acebd00	0.0015772879
65	0xbd68f830	-0.056877315
66	0xbd0e1c18	-0.03469476
67	0x3dedfb7c	0.116202325
68	0x3d4d4988	0.050118953
69	0x3dea4cb4	0.11440411
70	0x3b9f8dc0	0.004869193
71	0xbd316008	-0.043304473
72	0xbdffe804	-0.12495425
73	0x3d093b00	0.033503532
74	0xbd30ddb0	-0.043180168
75	0xbce75860	-0.028240383
76	0xbda13870	-0.07872093
77	0x3c3bfd00	0.011473894
78	0x3cbb4210	0.02285865
79	0x3dad2828	0.08454925
80	0x3c6994c0	0.014256656
81	0x3da37f34	0.079832464
82	0xbddca8ac	-0.10774359
83	0xbdc30e8c	-0.09524259
84	0xbdcc3900	-0.099718094
85	0x3de2cc7c	0.110741585
86	0xbdd67168	-0.10470849
87	0xbd445e90	-0.047941744
88	0x3da344f8	0.07972139
89	0x3d48dae8	0.04903689
90	0xbdaced04	-0.08443645
91	0xbdbb3f3c	-0.091429204
92	0x3aa33600	0.0012452006
93	0x3dfe4e48	0.12417275
94	0xbcd80200	-0.026368141
95	0x3d5d7c40	0.054073572
96	0x3ddb3638	0.10703701
97	0x3c535480	0.012898564
98	0xbded8f60	-0.11599612
99	0xbc33ef20	-0.010982305
100	0xbdbd8a78	-0.092549264
101	0xbdaa4fdc	-0.08316013
102	0xbd1f2d18	-0.038861364
103	0xbddece18	-0.10879153
104	0xbd82da70	-0.0638932
105	0x3dd904f8	0.10596651
106	0x3c460e20	0.012088329
107	0xbd07d058	-0.033157676
108	0x3d10fd98	0.035398096
109	0xbdea2578	-0.11432928
110	0x3c1b7640	0.009488642
111	0x3cf92510	0.03041318
112	0xbde5db78	-0.11223501
113	0x3dfb6b34	0.12276307
114	0xbdc575b4	-0.09641591
115	0xbd5b0f00	-0.053481102
116	0xbd0ad5e0	-0.033895373
117	0x3d12dc48	0.035854608
118	0xbdf8ddbc	-0.121516675
119	0xbdffe10c	-0.12494096
120	0xbdf67654	-0.12034288
121	0xbdb8cc98	-0.09023398
122	0x3ba82580	0.0051314235
123	0x3d5d4a58	0.054025978
124	0x3ccbe810	0.02489093
125	0x3d11e288	0.035616428
126	0x3dcdb6ec	0.10044655
127	0x3d8918a0	0.0669415
128	0xbd063a38	-0.032770365
129	0xbdef6f18	-0.11691111
130	0xbde6ca88	-0.112690985
131	0xbdd3f4fc	-0.103494614
132	0xbd411f20	-0.047148824
133	0x3b8b51c0	0.0042516887
134	0x3d430548	0.04761246
135	0x3c3ec440	0.011643469
136	0x3ba76400	0.0051083565
137	0xbd23e8f0	-0.04001707
138	0xbd2005b0	-0.039067924
139	0x3d37f038	0.044906825
140	0xbdd34e6c	-0.10317692
141	0x3d70d870	0.05880016
142	0x3cdfd0d0	0.02732125
143	0xbcb02220	-0.021500647
144	0xbdff6904	-0.12471202
145	0xbb593f80	-0.0033149421
146	0x39fc5800	0.0004813075
147	0xbd4c7e38	-0.04992506
148	0x3c723260	0.014782518
149	0xbdf0b6f8	-0.117536485
150	0x3d0f8b70	0.035045087
151	0xbdf09658	-0.11747426
152	0xbda7bedc	-0.081907004
153	0xbc25dd60	-0.010123581
154	0xbded722c	-0.11594042
155	0x3d61be30	0.055113018
156	0xbde89948	-0.11357361
157	0xbd1a86c8	-0.037726194
158	0x3dd47898	0.10374564
159	0x3d42b1d8	0.047532886
160	0x3df4e520	0.119577646
161	0x3d86302c	0.06552157
162	0x3d2b3c18	0.041805357
163	0x3dbe5e78	0.09295362
164	0xbdb68444	-0.089119464
165	0x3c8b22e0	0.016984403
166	0xbdef2444	-0.11676839
167	0xbda8fb68	-0.08251077
168	0xb9ba9c00	-0.00035592914
169	0xbde8d110	-0.113680005
170	0x3d029350	0.03187877
171	0xba001000	-0.00048851967
172	0x3ced1420	0.02894026
173	0xbdc0d278	-0.09415144
174	0xbc4caee0	-0.012492865
175	0xbd86e100	-0.06585884
176	0xbcf57fc0	-0.029968143
177	0xbda695b8	-0.08134025
178	0x3c984b20	0.01859051
179	0xbdc21188	-0.09476
180	0xbcbf1a60	-0.023328006
181	0x3bb78d40	0.005601555
182	0x3daf12e8	0.08548528
183	0xbb9ee9c0	-0.0048496425
184	0x3d7169f8	0.05893895
185	0xbd97ce28	-0.07412368
186	0x3dbd2df8	0.092372835
187	0x3b83b1c0	0.004018992
188	0xbdc47058	-0.0959174
189	0x3dd86a44	0.105671436
190	0xbd42f840	-0.04760003
191	0xbd8f5e44	-0.070004016
192	0xbdb5bbd4	-0.08873716
193	0xbdf25ffc	-0.11834714
194	0xbd6d0510	-0.057866156
195	0xbd5f3d58	-0.05450186
196	0x3dbfc64c	0.09363994
197	0xbdc6744c	-0.096901506
198	0xbc4f5420	-0.012654334
199	0x3de80fb8	0.11331123
200	0x3dff0f50	0.124540925
201	0x3dbd9e80	0.09258747
202	0x3cfbfad0	0.030759245
203	0x3c14e560	0.00908789
204	0xbdc4c148	-0.09607178
205	0xbd455fb0	-0.048186958
206	0x3dc11ff4	0.09429923
207	0x3dc5f340	0.09665537
208	0xbda08230	-0.07837331
209	0x3dbb0b04	0.091329604
210	0xbd9a4178	-0.075320184
211	0x3da44d20	0.08022523
212	0x3d8ac364	0.06775549
213	0x3d282c38	0.041057795
214	0x3d719828	0.058982998
215	0x3d5182f8	0.051150292
216	0xbbf83c80	-0.0075755715
217	0xbd4d0430	-0.05005282
218	0xbd21fe18	-0.039548963
219	0xbc260140	-0.010132134
220	0xbd72a1f8	-0.059236497
221	0x3d99f404	0.075172454
222	0x3df7e3c4	0.1210399
223	0x3d160ac8	0.036631376
224	0xbd518880	-0.051155567
225	0xbd95fbec	-0.07323441
226	0x3d9df978	0.07713598
227	0x3d3117d0	0.0432356
228	0xbce71370	-0.02820751
229	0x3dfdfad8	0.1240136
230	0xbdb39610	-0.087688565
231	0x3d3dd668	0.04634705
232	0x3b97f840	0.004637748
233	0x3d8d95a0	0.06913304
234	0x3d5695a8	0.052388817
235	0xbdbe2730	-0.09284818
236	0x3d026568	0.03183499
237	0xbdc08754	-0.09400812
238	0x3d6ccea8	0.05781427
239	0xbc926640	-0.017871022
240	0xbd8a107c	-0.067414254
241	0xbc513e40	-0.012771189
242	0xbdf6c08c	-0.12048444
243	0xbcb1ab30	-0.021688074
244	0x3dac044c	0.08399257
245	0x3d186530	0.037205875
246	0x3d005018	0.031326383
247	0xbd9b19f8	-0.075733125
248	0x3de39308	0.11112028
249	0xbbafd780	-0.005366266
250	0xbde8a8dc	-0.11360332
251	0x3df4ccd4	0.1195313
252	0xbddd4018	-0.108032405
253	0x3d2c5c30	0.042080104
254	0xbd757ce8	-0.059933573
255	0x3dde169c	0.10844156

sequential/conv2d_2/Conv2D f4 [8, 4, 4, 4]
0	0x3e2e1aaf	0.17002366
1	0x3dadb0ba	0.084809735
2	0x3cca2ae8	0.024678662
3	0xbdca8911	-0.098894246
4	0x3dcc7c06	0.09984593
5	0x3d659bac	0.056056663
6	0xbe001b6a	-0.12510458
7	0xbd7b558c	-0.06136088
8	0xbe008071	-0.12548997
9	0xbe2d9ac1	-0.16953565
10	0xbd0df1e8	-0.034654528
11	0x3db7a556	0.08967082
12	0x3db65c0e	0.08904277
13	0x3d76f220	0.060289502
14	0x3df48402	0.11939241
15	0x3d1ed730	0.038779438
16	0x3da3da7a	0.080006555
17	0x3dc2ab82	0.09505369
18	0xbd9c0739	-0.07618565
19	0x3dcf85d6	0.10132949
20	0xbde64aa7	-0.112447076
21	0xbe09fb6b	-0.13474815
22	0xbdf5bd1a	-0.11998959
23	0x3e095e39	0.1341485
24	0xbda3a80e	-0.07991038
25	0x3d94714a	0.07248171
26	0xbe0997f9	-0.13436879
27	0xbca4e770	-0.02012989
28	0x3b065bc0	0.0020501465
29	0xbe2ee307	-0.17078792
30	0x3e0bd665	0.13656004
31	0xbe3440ea	-0.17602888
32	0x3d364d0c	0.04450707
33	0xbe1f3f83	-0.15551572
34	0xbd360cc0	-0.044445753
35	0x3dc3a83e	0.09553574
36	0x3d99d392	0.07511057
37	0x3e27d961	0.16391517
38	0x3e0a554d	0.13509102
39	0x3e05f84d	0.13083
40	0x3d115178	0.035478085
41	0xba9de100	-0.0012045205
42	0xbc846cb8	-0.016165122
43	0x3ddb01ba	0.10693689
44	0x3d23bbec	0.03997414
45	0x3c0c9050	0.008579329
46	0xbdd36134	-0.103212744
47	0xbdb12e3f	-0.08651399
48	0x3d7e58a4	0.062096253
49	0xbe2752d6	-0.16340193
50	0xbe055786	-0.13021669
51	0x3dfd7056	0.12374942
52	0x3d841282	0.064488426
53	0xbdce9188	-0.10086352
54	0xbe32d3ce	-0.1746361
55	0x3c103e30	0.008803889
56	0x3e2d2a07	0.16910563
57	0xbd6129c0	-0.054971457
58	0x3d65285c	0.055946693
59	0x3e20581f	0.15658616
60	0xbdedf282	-0.1161852
61	0x3e13816f	0.14404844
62	0x3e065ba1	0.13120891
63	0xbbd25840	-0.0064192116
64	0xbd53ebe4	-0.051738635
65	0xbe1712e0	-0.14753294
66	0x3e0c3221	0.13690998
67	0xbcc795b0	-0.024363369
68	0x3ccab650	0.024745136
69	0x3dc43242	0.095798984
70	0xbdbac054	-0.09118715
71	0xbe3499e1	-0.17636825
72	0xbe233ca4	-0.15941101
73	0x3da2e0a2	0.079530016
74	0xbd09c034	-0.033630565
75	0x3da6627e	0.08124255
76	0x3bc995c0	0.006151885
77	0x3e267b59	0.16257991
78	0x3d80a5be	0.06281613
79	0x3e0f3ec5	0.13988788
80	0x3c5dacb0	0.013529941
81	0x3d2e7a40	0.042597055
82	0xbd4e9c9c	-0.050442323
83	0xbd94c7ff	-0.07264709
84	0xbcf9e3e0	-0.030504167
85	0xbd00b770	-0.03142494
86	0xbe2a1304	-0.16608816
87	0x3c4ac9b0	0.012377188
88	0x3daada0a	0.08342369
89	0x3e296441	0.1654215
90	0x3c8765f0	0.0165281
91	0xbe091de2	-0.13390306
92	0x3d03643c	0.032078013
93	0x3d1c2218	0.03811845
94	0xbba07d00	-0.0048977137
95	0x3a9b7400	0.0011860132
96	0x3badac00	0.005300045
97	0x3dd28566	0.1027935
98	0xbe27a704	-0.16372305
99	0xbd92d1cc	-0.07168922
100	0x3c9649c8	0.018345729
101	0xbdb0e27a	-0.08636947
102	0x3e24d743	0.16097741
103	0x3b07fac0	0.0020748824
104	0x3e10c8d9	0.14139117
105	0x3d884254	0.06653276
106	0x3e0aabc7	0.1354209
107	0xbce0b038	-0.027427778
108	0xbe33e7f7	-0.17568956
109	0x3c75bdb0	0.014998838
110	0xbe348aa4	-0.17631012
111	0xbd8c721a	-0.06857701
112	0x3d15747c	0.03648804
113	0x3def5492	0.116860524
114	0xbc10c210	-0.008835331
115	0xbe21033e	-0.15723893
116	0xbde8dd4d	-0.11370335
117	0x3e2839ad	0.16428252
118	0xbc0b4f20	-0.008502752
119	0x3db6b48e	0.08921157
120	0xbc03a130	-0.008034036
121	0x3e03e309	0.12879576
122	0x3db565aa	0.088572815
123	0xbe21731f	-0.15766571
124	0xbe05729b	-0.13032
125	0xbd76e0b8	-0.060272902
126	0x3d2ccb88	0.04218629
127	0xbd0845c8	-0.033269674
128	0xbdf09aa8	-0.11748248
129	0x3df6f85e	0.12059091
130	0xbd4a05d4	-0.049321964
131	0xbde6cdd2	-0.11269726
132	0xbdfd6862	-0.12373425
133	0xbd198214	-0.037477568
134	0x3c351c70	0.011054143
135	0x3d901ea0	0.07037091
136	0xbd56f570	-0.05248016
137	0xbe322844	-0.17398173
138	0xbd67656e	-0.056493215
139	0x3da0755a	0.07834883
140	0xbdc44e09	-0.095851965
141	0xbcc7ee80	-0.024405718
142	0xbdb912c8	-0.09036785
143	0xbd9281ce	-0.071536645
144	0xbc08d2b0	-0.008351013
145	0x3e213b9f	0.157454
146	0xbc8d16a8	-0.017222717
147	0x3cdf9ed8	0.027297422
148	0xbd5169e0	-0.05112636
149	0x3e0b1aab	0.13584392
150	0x3d219428	0.039447933
151	0x3e20345f	0.15644978
152	0x3d635fa8	0.055511147
153	0xbda8b6e6	-0.0823801
154	0x3c152520	0.00910309
155	0xbd0dc250	-0.03460914
156	0x3cc09800	0.02350998
157	0x3ce47580	0.02788806
158	0xbe33ec1e	-0.1757054
159	0x3e0c6c89	0.13713278
160	0xbe305cec	-0.17222947
161	0x3dfbafba	0.122893766
162	0x38926000	6.979704e-05
163	0xbdaab935	-0.08336107
164	0xbd33077c	-0.04370831
165	0x3e15cdab	0.14629237
166	0xbdad8e31	-0.084743865
167	0x3d176810	0.036964476
168	0xbdcc84b4	-0.099862486
169	0x3e2a0153	0.16602068
170	0x3db96b06	0.09053616
171	0x3b254500	0.002521813
172	0x3e0360bb	0.12829868
173	0x3e2c3a4b	0.16819112
174	0x3c874ae0	0.016515195
175	0xbe288276	-0.16456017
176	0x3e079e59	0.13243999
177	0xbd6427f2	-0.055702157
178	0xbe0a9a0b	-0.13535325
179	0xbdc7b7bb	-0.09751841
180	0x3db53892	0.088486806
181	0x3d7c9840	0.061668634
182	0x3c0f2650	0.008737162
183	0x3e031905	0.12802513
184	0x3ca62218	0.020279929
185	0xbe287f59	-0.1645483
186	0x3c7cdb30	0.015433118
187	0xbdcab6f1	-0.098981746
188	0xbddb671b	-0.10713025
189	0xbda5fc1f	-0.08104729
190	0xbcb4b9b8	-0.022061214
191	0x3e181059	0.14849986
192	0x3d0435b4	0.032277778
193	0xbc972690	-0.018451005
194	0x3de3e46a	0.11127551
195	0x3e12e251	0.14344145
196	0x3ccc6688	0.024951234
197	0x3c570810	0.013124481
198	0x3e2861c7	0.16443549
199	0xbe02637e	-0.12733266
200	0x3e054c7d	0.13017459
201	0x3d21c570	0.03949493
202	0x3ddaf252	0.1069075
203	0xbce065c8	-0.027392283
204	0xbcf36080	-0.0297091
205	0x3b82df60	0.0039939135
206	0x3ca942f8	0.020661816
207	0x3c5ba390	0.013405696
208	0xbcc08b18	-0.023503825
209	0xbd9956c4	-0.07487252
210	0x3e284601	0.16432954
211	0xbd5e2248	-0.054231912
212	0x3e2262d7	0.15858017
213	0xbdfa9ade	-0.1223657
214	0x3e276cbd	0.16350074
215	0x3defe8ae	0.11714302
216	0x3d83bd64	0.06432608
217	0x3d95fe96	0.07323949
218	0xbcdf0b50	-0.027227074
219	0xbdf5b372	-0.11997117
220	0xbdb15c25	-0.08660153
221	0xbd98971e	-0.07450698
222	0x3e093287	0.13398181
223	0xbd166f60	-0.03672731
224	0x3dd0a186	0.10187058
225	0x3d87bd9c	0.06627962
226	0xbe1a1d22	-0.15050176
227	0xbd81689d	-0.063187815
228	0x3e0e1973	0.13876896
229	0xbda7d0b1	-0.081941016
230	0x3d7fb9e4	0.06243314
231	0x3e1c9395	0.15290673
232	0x3e204737	0.15652166
233	0xbdab848c	-0.08374891
234	0xbde50655	-0.11182848
235	0x3df02f62	0.117277876
236	0xbe13310e	-0.14374182
237	0xbd2fde60	-0.042936683
238	0xbdaf388e	-0.08555709
239	0xbde07505	-0.1095982
240	0xbde893f0	-0.11356342
241	0x3e02faa7	0.12790929
242	0x3e33b395	0.17548974
243	0x3b4c0e40	0.0031136423
244	0x3e2a6b7b	0.16642563
245	0x3cdc4798	0.026889607
246	0xbc44e1b0	-0.012016699
247	0x3d8c5572	0.06852235
248	0xbe14773b	-0.14498608
249	0xbe0f86a6	-0.14016208
250	0x3d545fc4	0.05184914
251	0xbe0f7862	-0.14010766
252	0xbe1304d2	-0.14357308
253	0x3d723e54	0.059141472
254	0xbc4018d0	-0.011724666
255	0x3daf5872	0.085617915

sequential/conv2d_1/Conv2D f4 [4, 4, 4, 2]
0	0x3d67fab0	0.05663556
1	0xbe76f2e0	-0.24116087
2	0x3e3e7c7c	0.18602175
3	0xbe2b3ad4	-0.1672166
4	0xbe710f74	-0.23541051
5	0x3e56f01c	0.20990032
6	0x3e3f14dc	0.18660301
7	0xbe4a6704	-0.1976586
8	0xbdd05478	-0.10172361
9	0xbe32580c	-0.174164
10	0xbd9daa58	-0.07698506
11	0xbd9c9890	-0.076462865
12	0xbe5ee1e8	-0.21765864
13	0xbddd1f30	-0.10796964
14	0xbe2eeb80	-0.17082024
15	0x3d464290	0.048403323
16	0x3e7fc830	0.24978709
17	0x3deb2f40	0.114836216
18	0xbda667b0	-0.081252456
19	0x3e1170d8	0.14203203
20	0xbcc41f00	-0.023940563
21	0xbdc75bf8	-0.097343385
22	0x3e710d24	0.23540169
23	0xbda26ae8	-0.07930547
24	0x3e41464c	0.18874472
25	0x3e7d4ac0	0.24735546
26	0xbe1ae8e0	-0.15127897
27	0x3d0a6120	0.033784032
28	0xbc1dc300	-0.009629011
29	0x3ca51e40	0.020156026
30	0xbdc043c0	-0.09387922
31	0x3dbc8960	0.0920589
32	0xbe378234	-0.17920762
33	0x3dc7f618	0.097637355
34	0xbe6de6e4	-0.23232609
35	0xbdef7490	-0.116921544
36	0x3da0de18	0.07854861
37	0xbe5a0434	-0.21290666
38	0xbe596a64	-0.21231991
39	0x3dd078c0	0.10179281
40	0x3e5c96a4	0.2154184
41	0x3dcadce0	0.0990541
42	0xbe3fe520	-0.18739748
43	0x3e3c732c	0.1840331
44	0x3e5b0784	0.21389586
45	0xbe7d0e34	-0.2471245
46	0x3e314588	0.1731168
47	0xbd7c74e0	-0.0616349
48	0xbe278e64	-0.16362911
49	0x3e24f33c	0.16108412
50	0x3de79578	0.11307806
51	0x3e7bc7d4	0.24587947
52	0x3df4f7f0	0.11961353
53	0x3d67a5e0	0.056554675
54	0x3e2cc2f8	0.1687125
55	0xbcef2fc0	-0.029197574
56	0xbd7b09e0	-0.061288714
57	0xbdd340c0	-0.103150845
58	0xbd83d460	-0.06436992
59	0xbe62082c	-0.2207343
60	0x3e748120	0.23877382
61	0xbdf86438	-0.1212849
62	0xbd2b5640	-0.0418303
63	0xbd07e2c0	-0.03317523
64	0xbe7cf698	-0.24703443
65	0x3d1afde0	0.03783977
66	0x3e2ef3e0	0.17085218
67	0xbe564b40	-0.20927143
68	0x3e0cefb0	0.13763309
69	0xbe766f30	-0.24065852
70	0xbe7f1828	-0.24911559
71	0x3e0453d8	0.12922609
72	0xbe4e86c8	-0.20168602
73	0xbd04f040	-0.032455683
74	0x3d7b75d0	0.06139165
75	0xbd837aa8	-0.06419879
76	0xbe209e68	-0.15685427
77	0xbdc25120	-0.094881296
78	0x3e6cb788	0.23116887
79	0xbe39cad0	-0.18143773
80	0x3df759f0	0.12077701
81	0xbe18aee4	-0.14910465
82	0x3a733800	0.0009278059
83	0xbd588860	-0.052864432
84	0x3e770ad0	0.24125218
85	0x3e2928ac	0.16519421
86	0x3dd030d8	0.10165566
87	0x3debadd8	0.115077674
88	0xbcb43da0	-0.022002041
89	0x3e08cffc	0.1336059
90	0xbd2f8720	-0.042853475
91	0xbe6e9770	-0.23299956
92	0x3e6df48c	0.23237818
93	0xbe45fcb0	-0.19334674
94	0x3d48a740	0.048987627
95	0x3df70660	0.12061763
96	0x3d9b4020	0.0758059
97	0xbe51baf0	-0.20481467
98	0x3cc18be0	0.023626268
99	0x3dfbf238	0.12302059
100	0x3dd536e0	0.10410857
101	0xbe202590	-0.15639329
102	0xbe279dc4	-0.16368777
103	0xbe00d7f4	-0.1258238
104	0xbe4f7e60	-0.20263052
105	0x3e47b55c	0.19502777
106	0x3e1182e8	0.14210093
107	0x3da2c138	0.0794701
108	0x3e451c60	0.19249105
109	0xbda46ef8	-0.08028978
110	0xbe5ee1c4	-0.2176581
111	0xbdc81938	-0.09770435
112	0xbd2db320	-0.042407155
113	0xbb392d00	-0.0028255582
114	0x3df53a38	0.11973995
115	0xbe0d40f0	-0.13794303
116	0xbe37d6e0	-0.17953062
117	0x3e208428	0.15675414
118	0xbdfa8570	-0.122324824
119	0x3e3521a4	0.17688614
120	0xbe1015e0	-0.14070845
121	0xbddcb7c0	-0.10777235
122	0xbe0bcdfc	-0.13652796
123	0x3e014e7c	0.12627596
124	0x3e74d7c8	0.23910439
125	0x3da79f88	0.08184725
126	0xbd7867f0	-0.060645998
127	0xbe451404	-0.19245917

sequential/conv2d/Conv2D f4 [2, 4, 4, 3]
0	0x3e76d144	0.24103266
1	0xbdd90768	-0.10597116
2	0x3d822b84	0.06355956
3	0xbe53686f	-0.20645307
4	0x3e7fc570	0.2497766
5	0x3e810cfc	0.2520522
6	0x3e27d7ac	0.16390866
7	0x3d8585f8	0.06519693
8	0x3e7ae9c0	0.24503231
9	0x3de9829c	0.11401865
10	0x3d538660	0.05164182
11	0xbd6d3f0c	-0.057921454
12	0xbc1eade0	-0.00968501
13	0xbdf5c1fc	-0.1199989
14	0xbe498632	-0.19680098
15	0x3db7a148	0.08966309
16	0x3ca1d6f0	0.01975581
17	0xbe66f07e	-0.22552678
18	0xbb377b80	-0.0027997196
19	0x3e2e40d2	0.17016914
20	0xbe40d542	-0.18831351
21	0x3e678022	0.22607473
22	0x3e004228	0.12525237
23	0xbc0983c0	-0.008393228
24	0xbdddcb38	-0.108297765
25	0x3e0864f0	0.13319755
26	0xbe6bd1e6	-0.23029289
27	0xbe3c7170	-0.18402648
28	0x3c828500	0.01593256
29	0xbe2d05e6	-0.16896781
30	0x3e2f079c	0.17092746
31	0x3e465616	0.19368777
32	0xbd88d90e	-0.06682025
33	0x3dcc6f70	0.099821925
34	0x3d9d42a4	0.07678726
35	0x3e325a0e	0.17417166
36	0x3e8b4b54	0.27205908
37	0xb8d27000	-0.00010034442
38	0x3e8833f0	0.26602125
39	0xbe3fc5d4	-0.18727809
40	0xbdc7705e	-0.09738229
41	0x3e7c71dc	0.24652809
42	0x3deb44e0	0.11487746
43	0x3ddd2418	0.107979
44	0x3e02b08a	0.12762657
45	0xbd0d3838	-0.034477443
46	0xb8dd9000	-0.00010564923
47	0xbe00869a	-0.12551346
48	0x3e009dd8	0.12560213
49	0xbdb5df54	-0.08880487
50	0xbdf8933c	-0.12137458
51	0xbaa3ba00	-0.0012491345
52	0x3d9bfacc	0.07616195
53	0xbe89113d	-0.26770964
54	0xbe319ac2	-0.17344192
55	0xbcc3aa10	-0.023884803
56	0xbe31b06e	-0.17352459
57	0x3e292082	0.16516307
58	0x3b989f40	0.004657656
59	0xbd46dcb0	-0.048550308
60	0x3e89c9a6	0.26911658
61	0x3e48bd14	0.19603378
62	0xbe4fd03a	-0.20294276
63	0xbd3d6130	-0.046235263
64	0x3d046778	0.032325238
65	0xbc8168e0	-0.015797079
66	0x3e1f9d34	0.15587312
67	0x3e1c47e2	0.15261796
68	0xbdd4aabc	-0.103841275
69	0xbe20d586	-0.15706453
70	0x3e0ca6f0	0.13735557
71	0x3d4559f0	0.048181474
72	0x3e2f4342	0.171155
73	0xbe299335	-0.16560061
74	0x3e520090	0.20508027
75	0xbdaf9b7e	-0.0857458
76	0x3e285f1e	0.16442534
77	0x3e659bfa	0.22422782
78	0x3d81164c	0.06303081
79	0x3d2550f0	0.04036039
80	0xbe72016e	-0.23633358
81	0xbc2b9a20	-0.010473758
82	0xbd4ef328	-0.05052486
83	0xbd776f90	-0.06040913
84	0xbdaa4ef4	-0.0831584
85	0xbe64b824	-0.22335869
86	0x3e48ca24	0.1960836
87	0x3d4af9f8	0.049554795
88	0xbcf9ef70	-0.03050968
89	0x3e10d816	0.1414493
90	0xbe1dbf12	-0.15404919
91	0xbd8dce44	-0.06924108
92	0x3e6f6ac0	0.23380566
93	0xbe6b8a48	-0.23001969
94	0x3dc5f5a8	0.09665996
95	0xbdf068f4	-0.11738768

sequential/dense/MatMul f4 [64, 1024]
0	0xbd968338	-0.07349247
1	0xbd4d902e	-0.05018633
2	0x3d52e510	0.051487982
3	0x3b9fe330	0.004879378
4	0xbcd2248a	-0.025652189
5	0x3d4743d8	0.048648685
6	0x3cd803fc	0.026369087
7	0x3d5caca0	0.053875566
8	0x3cc95ee4	0.02458138
9	0xbc84ac86	-0.016195547
10	0x3d586ed0	0.052840054
11	0xbcdafa0c	-0.02673056
12	0x3adb2200	0.0016718507
13	0x3a9cfd80	0.0011977404
14	0x3d960016	0.07324235
15	0x3d8142e6	0.06311588
16	0x3cefe3a4	0.029283352
17	0x3ce91c80	0.028455973
18	0x3cfee314	0.031114139
19	0xbd1e4f6c	-0.03864996
20	0x3d97746e	0.07395254
21	0xbc8c9d34	-0.017164804
22	0x3d0d4898	0.03449306
23	0x3b004640	0.0019573122
24	0xbbcb6ad0	-0.0062078014
25	0x3d6b767c	0.057486042
26	0xbd8bef8d	-0.068328
27	0xbd27599a	-0.040856935
28	0x3d362868	0.04447213
29	0x3c05e108	0.008171327
30	0xbc1890a8	-0.0093118325
31	0x3c208b48	0.009798832
32	0x3aa4a740	0.0012562051
33	0xbd8e08ac	-0.06935248
34	0xbd5b2fde	-0.053512447
35	0x3d8f1902	0.06987192
36	0x3d88ccde	0.066797
37	0xbbd2ba30	-0.0064308867
38	0x3d00023e	0.03125214
39	0xbd90b567	-0.0706585
40	0xbd8e08ac	-0.06935248
41	0x3ce39f84	0.027786024
42	0x3d8a6ade	0.067586645
43	0xbcb930dc	-0.022606306
44	0xbd55e358	-0.052218765
45	0x3affa1c0	0.0019503161
46	0xbc183040	-0.009288847
47	0x3c05e6a0	0.008172661
48	0xbd68050c	-0.056645438
49	0x3d08a1ea	0.03335754
50	0x3d71db70	0.059047163
51	0x3d559c8c	0.052151248
52	0x3d890bd4	0.06691709
53	0x3d0cfb92	0.034419604
54	0x3d94bd54	0.07262674
55	0x3d1a4304	0.037661567
56	0x3c759cb0	0.0149909705
57	0xbcbc374a	-0.022975583
58	0xb8f26c00	-0.00011559576
59	0xbd1ae735	-0.037818152
60	0xbc75f170	-0.0150111765
61	0x3d48fffa	0.049072243
62	0xbc1a67e8	-0.009424187
63	0xbb3ea6c0	-0.002909109
64	0xbcc9b3d6	-0.024621885
65	0xbcf3addc	-0.029745989
66	0x3d8a18ba	0.067429975
67	0x3d4e2476	0.05032774
68	0xbd86a1ad	-0.06573806
69	0x3d5d06c8	0.053961545
70	0x3c1717e8	0.009222008
71	0xbd1caf8b	-0.03825335
72	0xbd391ca4	-0.04519333
73	0x3c76e440	0.0150690675
74	0xbd051b74	-0.032496884
75	0xbd13168f	-0.035910185
76	0xbd1e1f56	-0.038604103
77	0x3d8238cc	0.063584894
78	0x3d81a308	0.06329924
79	0x3d333896	0.043755136
80	0x3cb424e8	0.021990255
81	0x3d1d4922	0.038399823
82	0xbd978e5b	-0.07400199
83	0x3d69da70	0.057093084
84	0x3ba326a0	0.0049789697
85	0xbc3d1430	-0.011540458
86	0xbca8ed7c	-0.020621054
87	0xbcf8ed48	-0.030386582
88	0x3d912cdc	0.07088634
89	0xbd2ab5dc	-0.04167734
90	0x3b2e0660	0.0026554093
91	0x3ca8cdc8	0.020605937
92	0xbd6f564e	-0.058431916
93	0x3d2acbf4	0.04169841
94	0x3d37b6ba	0.044851996
95	0x3bad9730	0.005297564
96	0x3c9f9204	0.019478805
97	0x3d92773c	0.071516484
98	0x3d54cf88	0.05195573
99	0xbd547169	-0.05186597
100	0xbd71cafa	-0.059031464
101	0xbcc1013c	-0.023560159
102	0xbd8c0864	-0.06837538
103	0x3b153700	0.0022768378
104	0xbd8b0119	-0.06787319
105	0x3d18f6f6	0.037344895
106	0xbd1a3c98	-0.037655443
107	0x3cd34bb8	0.025792941
108	0xbc109ea0	-0.008826882
109	0x3d67cad8	0.05658993
110	0xbd80b67b	-0.062848054
111	0x3d402c32	0.046917148
112	0xbd7f1c28	-0.06228271
113	0x3d360832	0.04444141
114	0xbd570fba	-0.052505232
115	0xbd628bd1	-0.05530912
116	0x3ca8e420	0.020616591
117	0x3c3a7100	0.01137948
118	0x3d7070e4	0.05870141
119	0xbc9f793e	-0.019466992
120	0xbd71f177	-0.05906817
121	0x3d163ab6	0.036677085
122	0x3cc73ca8	0.024320915
123	0xbd6dd4a0	-0.058064103
124	0xbd59e810	-0.053199828
125	0xbd8c6483	-0.068551086
126	0x3d0ff8c6	0.03514936
127	0xbd01a8a8	-0.031654984
128	0xbbc449d0	-0.0059902444
129	0xbbdd3af0	-0.0067514107
130	0xbca7928a	-0.020455617
131	0xbd920993	-0.071307324
132	0x3d657068	0.056015402
133	0x3cef1d54	0.02918879
134	0x3c950534	0.018190958
135	0xbc6cabe4	-0.014445279
136	0xbcdece2e	-0.027197924
137	0xbd2fae36	-0.04289075
138	0x3c7d6120	0.015465051
139	0x3d0a84fa	0.033818223
140	0x3cc828ec	0.024433576
141	0x3c8b95e0	0.01703924
142	0x3cf5fab8	0.030026779
143	0xbcb2c95c	-0.021824531
144	0x3d781ac4	0.0605724
145	0xbd3a1da4	-0.045438424
146	0xbc963b1a	-0.018338729
147	0x3c11ffd0	0.008911088
148	0xbc81f77c	-0.01586508
149	0xbc82b2e2	-0.015954439
150	0x3cdf8f28	0.027289942
151	0xbd8d602c	-0.06903109
152	0x3be07310	0.006849654
153	0x3d8fd8ee	0.07023798
154	0x3c5bd548	0.013417549
155	0xbd8cd982	-0.06877424
156	0xbd1f218b	-0.03885035
157	0xbc7e0d2c	-0.01550607
158	0x3b566b60	0.003271781
159	0x3cac17c0	0.021007419
160	0x3d9730e6	0.073823735
161	0x3d28e036	0.04122945
162	0x3cac1b64	0.021009155
163	0x3cb9cf44	0.02268184
164	0xbd3b7330	-0.04576415
165	0x3d30e62e	0.043188266
166	0x3d204e6a	0.03913728
167	0x3d22830a	0.03967575
168	0x3d320c68	0.043468863
169	0xbbe7a280	-0.007068932
170	0xbd745f4e	-0.059661202
171	0xbbb6aa30	-0.005574487
172	0xbd03206f	-0.032013353
173	0x3d628b60	0.0553087
174	0xbd0b5cfc	-0.034024224
175	0x3d543e40	0.05181718
176	0x3c9ecf1c	0.019385867
177	0xbd87021b	-0.065921985
178	0x3d64071c	0.055670843
179	0x3ae7c1c0	0.0017681643
180	0x3d398f90	0.045302927
181	0x3d288cd6	0.041149937
182	0x3ca60a30	0.02026853
183	0xbc8b43ec	-0.017000161
184	0xbd87ed37	-0.06637042
185	0x3cd74ea4	0.026282616
186	0xbd85a18a	-0.06524952
187	0x3d385dd0	0.04501134
188	0x3c2ce0f0	0.010551676
189	0xbccfd7de	-0.025371488
190	0x3d9410c0	0.07229757
191	0xbb3e1100	-0.0029001832
192	0xbd2aa2e3	-0.041659247
193	0xbcca54d6	-0.024698656
194	0xbd5e7541	-0.05431104
195	0x3d838312	0.06421484
196	0xbcfcd9c6	-0.030865561
197	0x3c75aa60	0.014994234
198	0x3d97caec	0.07411751
199	0x3d8b2eac	0.06796011
200	0x3bd34620	0.0064475685
201	0x3cecf100	0.028923512
202	0xbd5dd1e2	-0.054155238
203	0xbb14ad20	-0.0022686198
204	0x3d4c6f78	0.049910992
205	0x3d912be8	0.070884526
206	0x3d0ef1de	0.03489863
207	0x3cad2a7c	0.021138422
208	0xbd7e9815	-0.062156755
209	0xbd573ea9	-0.05254999
210	0x3cd420b4	0.0258945
211	0x3d8feb0e	0.07027255
212	0x3d623fcc	0.055236623
213	0xbcd6b19e	-0.026207741
214	0x3be82cc0	0.0070854127
215	0xbd5a6394	-0.05331762
216	0x3cd95ef0	0.026534528
217	0xbd42a659	-0.047521923
218	0x3d658d28	0.05604282
219	0xbd5aa455	-0.053379375
220	0x3d8c4f5a	0.068510726
221	0x3d2b6ed4	0.04185374
222	0xb9c12000	-0.0003683567
223	0x3c2d4628	0.010575809
224	0x3d31f99a	0.04345093
225	0xbce0c904	-0.027439602
226	0x3c39b548	0.011334725
227	0x3cc7e2ac	0.024400078
228	0x3d4778ca	0.048699178
229	0x3d66cca8	0.05634752
230	0xba620380	-0.00086217374
231	0x3d30d868	0.04317513
232	0x3baae9c0	0.0052158535
233	0xbcc2e30a	-0.023789901
234	0xbd493b63	-0.0491289
235	0x3d873096	0.06601064
236	0x3d51861c	0.051153287
237	0x3c5b5740	0.013387501
238	0xba395d80	-0.00070711225
239	0xbd778e06	-0.06043818
240	0x3cba8358	0.022767708
241	0x3d160c98	0.036633104
242	0xbd1d464f	-0.03839713
243	0x3d8ff692	0.070294514
244	0x3cc47a18	0.023984
245	0x3af22740	0.0018474832
246	0xbd4e8cb0	-0.05042714
247	0x3ce92248	0.02845873
248	0xbd3661d8	-0.044526905
249	0x3d4e001c	0.050293073
250	0x3d074432	0.03302402
251	0xbcb4e2c0	-0.02208078
252	0x3d805f08	0.06268126
253	0x3cdecf08	0.02719833
254	0x3cd018e4	0.025402494
255	0xbd7bdfbc	-0.061492667

sequential/dense_1/MatMul f4 [64, 64]
0	0xba845e00	-0.0010098815
1	0x3db4127a	0.087925866
2	0x3cfa5ea8	0.030562714
3	0xbd9e9322	-0.07742907
4	0x3d537ba4	0.051631585
5	0xba4c0800	-0.00077831745
6	0x3d02ee54	0.03196557
7	0xbd130d88	-0.035901576
8	0xbe44c7a8	-0.19216788
9	0xbcb0ff88	-0.021606222
10	0x3e537a2f	0.20652078
11	0x3e3940e7	0.18091165
12	0xbdf055d4	-0.117351204
13	0xbe357242	-0.17719367
14	0xbe4f99a3	-0.20273452
15	0xbe1129c6	-0.14176092
16	0x3da59c9a	0.0808651
17	0xbd633158	-0.05546698
18	0x3cc8f338	0.024530038
19	0x3d5679a4	0.0523621
20	0x3d7b4c7c	0.061352238
21	0x3e115a41	0.14194585
22	0x3dd6332a	0.104589775
23	0xbe0473e2	-0.12934831
24	0x3cc466a0	0.023974717
25	0x3d5a648c	0.053318545
26	0xbbb44840	-0.005501777
27	0xbdc8a7b3	-0.09797611
28	0x3e0edc2f	0.13951181
29	0x3e51b915	0.2048076
30	0xbe51b192	-0.20477894
31	0xbdfce0c7	-0.123475604
32	0xbddad6d5	-0.10685507
33	0x3e17f11d	0.14838071
34	0x3dfe1972	0.12407197
35	0xbcff15c8	-0.031138316
36	0x3d6e1aec	0.058131143
37	0x3df9ace6	0.12191181
38	0xbe44d004	-0.19219977
39	0x3e45a625	0.1930166
40	0x3ccf3ea8	0.025298432
41	0xbe1888d4	-0.14895946
42	0x3de41fc6	0.11138873
43	0x3e3345c1	0.17507078
44	0x3e100e8d	0.1406805
45	0xbe4bd3db	-0.19905035
46	0xbdb4db3c	-0.08830878
47	0x3d32a37c	0.043612942
48	0xbe1ecc5b	-0.15507643
49	0x3dd429ca	0.10359533
50	0x3d262f3c	0.04057239
51	0xbc275a80	-0.010214448
52	0x3de0bbc6	0.10973315
53	0x3d383c2c	0.04497926
54	0x3da9d0da	0.082917884
55	0x3d868686	0.06568627
56	0x3bae9e20	0.0053289086
57	0xbe1bddcf	-0.15221332
58	0x3de6e8a6	0.11274843
59	0x3e17a68d	0.14809628
60	0xbe2213af	-0.15827821
61	0x3dfddfca	0.123962
62	0x3e0d22e7	0.13782845
63	0x3e53f193	0.20697622
64	0xbcf00dd0	-0.029303461
65	0xbca36310	-0.019944698
66	0x3d4aa8d4	0.049477413
67	0xbde9739a	-0.113990024
68	0xbd7c7518	-0.061635107
69	0x3d934cf2	0.071924105
70	0xbc5a48c0	-0.013323009
71	0x3e3a7ab1	0.18210866
72	0x3dff6982	0.12471296
73	0x3e2c1bad	0.16807432
74	0x3d4e62ec	0.050387308
75	0xbba2f9a0	-0.0049736053
76	0x3da86d2e	0.082239494
77	0x3dfff666	0.12498169
78	0x3d4561c4	0.04818894
79	0xbe0c367a	-0.13692656
80	0xbe0237c4	-0.12716585
81	0x3c98bd28	0.018644884
82	0xbe1f3a46	-0.15549573
83	0xbe528906	-0.20560083
84	0x3e25caf5	0.16190703
85	0xbe4b2512	-0.1983836
86	0x3d3c8e7c	0.04603432
87	0xbdcc1085	-0.09964088
88	0xbd0097a0	-0.0313946
89	0x3c160980	0.009157538
90	0xbde67e8f	-0.11254608
91	0xbe4aae4d	-0.19793053
92	0x3d0be7ac	0.034156486
93	0xbd96dc9e	-0.07366298
94	0xbe0bd046	-0.13653669
95	0xbb52fc40	-0.003219381
96	0x3dbb1002	0.091339126
97	0x3e5ab9e3	0.21359973
98	0xbe596355	-0.21229298
99	0x3d72cd14	0.05927761
100	0xbc6176e0	-0.013761252
101	0xbe014e6d	-0.12627573
102	0xbc3422c0	-0.010994613
103	0x3e20da27	0.15708219
104	0x3de158ae	0.110032424
105	0xbe55d5ca	-0.20882335
106	0xbe235404	-0.15950018
107	0xbbdb7160	-0.006696865
108	0x3e03d4ff	0.1287422
109	0xbcea91f8	-0.028634056
110	0x3ccc9748	0.02497448
111	0xbe4a9325	-0.19782694
112	0xbe0a77fd	-0.13522334
113	0x3e3e5815	0.18588288
114	0xbd3a5b58	-0.04549727
115	0xbe433eea	-0.19066969
116	0x3d3faa84	0.046793476
117	0xbd92afdc	-0.07162449
118	0x3e43ae21	0.19109394
119	0xbcfd25c0	-0.03090179
120	0x3e4f8e8d	0.20269223
121	0x3e0a6535	0.1351517
122	0xbd66f294	-0.056383684
123	0x3e572263	0.21009211
124	0x3db8e2fe	0.0902767
125	0x3d26a94c	0.040688798
126	0x3d4b5abc	0.049647078
127	0xbe516779	-0.20449628
128	0xbdef95a6	-0.11698465
129	0x3d3affe4	0.045654193
130	0x3e186dab	0.14885585
131	0x3dc3226e	0.09528051
132	0x3da247a6	0.07923822
133	0x3e465807	0.19369517
134	0x3d69be94	0.057066515
135	0x3c2c7780	0.010526538
136	0xbd26d2c0	-0.04072833
137	0x3e2ba36b	0.16761558
138	0xbe5a169a	-0.21297684
139	0xbe0fc611	-0.140404
140	0x3dc80d16	0.09768121
141	0xbd9cf9f6	-0.07664864
142	0xbc68a2a0	-0.014198929
143	0x3d51d364	0.05122699
144	0xbe1b6008	-0.15173352
145	0xbd7605b4	-0.060064033
146	0xbdcd93d2	-0.1003796
147	0xbd813174	-0.063082606
148	0xbdd0ff4b	-0.10204943
149	0xbd8cd796	-0.06877057
150	0xbd2f6664	-0.042822257
151	0x3e5da9e1	0.21646835
152	0xbdb63984	-0.08897689
153	0x3e3943d1	0.18092276
154	0x3df92b52	0.12166466
155	0xbdc695d4	-0.09696546
156	0xbe2d1ac7	-0.16904746
157	0xbe147fdd	-0.14501901
158	0xbe1d7910	-0.15378213
159	0x3ddf267a	0.10896011
160	0x3dc7228e	0.09723388
161	0x3d3540fc	0.044251427
162	0x3e092da7	0.13396321
163	0xbe2d30d9	-0.16913165
164	0x3e080225	0.13282068
165	0x3cee6ae0	0.029103696
166	0xbcf190f0	-0.029488057
167	0x3acb1880	0.0015494972
168	0xbdfa7cc5	-0.12230829
169	0x3ddcb47a	0.10776611
170	0xbe3e166d	-0.18563242
171	0xbdb17d7c	-0.08666512
172	0xbe08cd00	-0.13359451
173	0x3e30008b	0.17187707
174	0xbd927962	-0.07152058
175	0x3d9c81fe	0.076419815
176	0x3d7193ac	0.05897872
177	0x3e3cee3f	0.18450259
178	0xbe4acf05	-0.19805534
179	0xbd39c41c	-0.04535304
180	0x3db5015e	0.088381514
181	0x3e50e881	0.20401193
182	0x3dc7f7d2	0.09764065
183	0xbe4980ab	-0.19677989
184	0xbe4f16db	-0.20223562
185	0x3de77da2	0.113032594
186	0xbd2677a4	-0.040641442
187	0xbbe772e0	-0.0070632547
188	0xbde01a50	-0.10942519
189	0xbe07ec78	-0.132738
190	0x3cc911f0	0.024544686
191	0xbe05ca40	-0.13065434
192	0xbd3fabdc	-0.046794757
193	0xbdf7a332	-0.12091674
194	0x3d6d7464	0.057972327
195	0x3ddc2d72	0.107508555
196	0x3e505225	0.20343836
197	0x3db759d2	0.08952679
198	0x3e393629	0.18087067
199	0x3df6861e	0.120372996
200	0xbc2bf180	-0.01049459
201	0x3d1cee7c	0.038313374
202	0x3cc51ee0	0.024062574
203	0xbc193570	-0.009351119
204	0x3e53d5a1	0.20686962
205	0x3e4b3923	0.19846015
206	0xbb878b80	-0.0041365027
207	0x3e13d699	0.14437331
208	0xbbba13c0	-0.005678624
209	0x3e3a5fc7	0.18200599
210	0xbd12d580	-0.03584814
211	0xbded689b	-0.115922175
212	0x3e5b2519	0.2140087
213	0xbdf0bfb3	-0.11755314
214	0x3d38000c	0.04492192
215	0x3dcb3b2e	0.09923397
216	0xbd945714	-0.07243171
217	0x3e44c821	0.19216968
218	0xbe54d0cb	-0.20782773
219	0x3e32702d	0.17425604
220	0x3d0ad40c	0.03389363
221	0xbe514443	-0.20436196
222	0xbe09d696	-0.13460764
223	0x3e4fc697	0.202906
224	0xbe517c07	-0.20457469
225	0x3d76ceac	0.06025569
226	0xbe24497b	-0.16043656
227	0x3ca9d0c0	0.020729423
228	0x3e2f00b9	0.1709012
229	0x3d480d54	0.048840836
230	0x3e1e479f	0.15457009
231	0xbe1a2a3a	-0.1505517
232	0x3dcf3bbe	0.10118817
233	0x3e4545b1	0.19264866
234	0x3db0a4ca	0.08625181
235	0xbdd496be	-0.10380314
236	0xbc693110	-0.014232889
237	0x3e310125	0.17285593
238	0x3d0a6954	0.033791855
239	0x3e302883	0.17202954
240	0x3be63880	0.0070257783
241	0xbdc5a18e	-0.09649955
242	0x3cd4ee70	0.025992602
243	0xbd7e9650	-0.062155068
244	0xbd46eb00	-0.048563957
245	0x3c0ecce0	0.008715838
246	0xbe3c58ab	-0.18393199
247	0xbde3e5ce	-0.11127816
248	0x3dd37a32	0.10326041
249	0x3d4bc2dc	0.04974638
250	0xbe4b6cc6	-0.19865713
251	0xbe1f30d4	-0.1554597
252	0x3b99c220	0.004692331
253	0x3d926e3a	0.0714993
254	0x3e2566b3	0.16152458
255	0xbe259593	-0.1617034

sequential/dense_2/MatMul f4 [64, 64]
0	0x3e04cbfd	0.1296844
1	0xbe4abee8	-0.19799387
2	0x3d38a0e4	0.045075312
3	0xbe333cef	-0.17503713
4	0x3e4635e7	0.193565
5	0xbe5cf0e4	-0.21576267
6	0x3e071ea7	0.13195287
7	0x3df2fe56	0.11864917
8	0x3d62f5ec	0.05541031
9	0x3dc749da	0.09730883
10	0x3e04ef55	0.12981923
11	0x39342400	0.00017179549
12	0x3d28a454	0.04117234
13	0x3db7e19a	0.08978577
14	0x3d94a10a	0.07257278
15	0x3e1608cb	0.14651792
16	0x3d61740c	0.05504231
17	0x3c643340	0.013928235
18	0xbdf6a49d	-0.12043116
19	0xbc766370	-0.015038356
20	0xbc420a60	-0.011843294
21	0xbdc05648	-0.09391457
22	0xbe46e5ec	-0.19423646
23	0x3cc88cd0	0.024481207
24	0xbda6cb62	-0.08144261
25	0xbbae0d80	-0.005311668
26	0x3d61e19c	0.0551468
27	0x3e25f081	0.16205026
28	0x3d1e06cc	0.0385807
29	0xbdad9e58	-0.08477467
30	0x3d6796f4	0.056540444
31	0xbe1caed2	-0.15301064
32	0x3da7dafe	0.08196066
33	0xbe2ea867	-0.17056428
34	0xbd62b348	-0.055346757
35	0xbe38e5ac	-0.18056363
36	0x3e0a9411	0.13533045
37	0xbe57ef17	-0.210873
38	0x3d1ba5d4	0.037999943
39	0xbc1b15e0	-0.009465665
40	0xbd5de178	-0.054170102
41	0x3e0615b3	0.13094215
42	0xbe05d1ae	-0.13068268
43	0x3e4f4185	0.20239837
44	0xbdf3eb38	-0.11910099
45	0xbcb37aa8	-0.021909073
46	0xbc86fd90	-0.01647833
47	0xbded5afe	-0.11589621
48	0xbe2c315e	-0.16815707
49	0xbd043114	-0.032273367
50	0x3d8f2eb6	0.06991331
51	0x3dc91bea	0.09819777
52	0xbdda7389	-0.10666568
53	0xbdfe6bbd	-0.12422893
54	0x3e1fc3c1	0.15602018
55	0xbd80ac08	-0.06282812
56	0x3db300ea	0.08740409
57	0x3e2def6d	0.16985865
58	0xbd0b70d0	-0.034043133
59	0xbd0aa530	-0.03384894
60	0x3da215da	0.07914324
61	0xbd1d86cc	-0.03845863
62	0x3ce5f0b8	0.028068885
63	0xbd196640	-0.03745103
64	0x3dbb217e	0.091372475
65	0x3e1695c5	0.1470557
66	0xbe56b493	-0.20967321
67	0x3dfcc53a	0.123423055
68	0xbdc8fd70	-0.09813964
69	0x3dde7302	0.1086178
70	0xbcddb8b8	-0.02706562
71	0x3df1923a	0.11795469
72	0xbdaef172	-0.08542146
73	0x3d546bac	0.051860496
74	0x3e2a212d	0.16614218
75	0x3e4363df	0.19081067
76	0x3dd88502	0.10572244
77	0xbe4c6a27	-0.19962369
78	0x3dc224e6	0.09479694
79	0x3e105001	0.14093019
80	0xbd000894	-0.03125818
81	0x3e1f51ed	0.15558596
82	0xbda87f66	-0.08227424
83	0x3db4921a	0.08816929
84	0xbe38d2c5	-0.18049152
85	0xbe4e4cd4	-0.20146495
86	0x3dc26a52	0.09492935
87	0x3cdfde38	0.027327642
88	0x3e25dff9	0.1619872
89	0x3e418b43	0.1890078
90	0xbe4e1305	-0.20124443
91	0xbe017d54	-0.12645465
92	0xbe25e54e	-0.16200754
93	0xbd87fed0	-0.066403985
94	0x3e09b0c7	0.13446341
95	0xbe05faf3	-0.13084011
96	0x3de0be96	0.109738514
97	0x3e424a31	0.18973614
98	0xbcbab908	-0.022793308
99	0xbd80aa9a	-0.0628254
100	0x3d343d84	0.04400398
101	0x3dd48426	0.10376768
102	0x3df65992	0.12028803
103	0xbdbf536b	-0.093420826
104	0xbdf2e322	-0.118597284
105	0x3e2c9baf	0.16856264
106	0xbcff1520	-0.031138003
107	0x3e4072cb	0.1879379
108	0x3c616860	0.013757795
109	0xbe1ab50f	-0.15108131
110	0x3e4b20d1	0.19836737
111	0xbe4523a1	-0.19251873
112	0x3e54c76d	0.207792
113	0x3e4e36b1	0.2013805
114	0x3c1fa9d0	0.009745076
115	0xbc0821f0	-0.008308873
116	0xbd6e1bf4	-0.058132127
117	0x3e2d1ab1	0.16904713
118	0x3d5698cc	0.052391812
119	0x3c684ea0	0.014178902
120	0x3d5272ac	0.05137889
121	0x3dff74c6	0.12473445
122	0xbe031366	-0.12800369
123	0x3e269583	0.16267972
124	0x3bba7360	0.0056900233
125	0x3e09bc89	0.13450827
126	0xbe21ae43	-0.15789132
127	0x3e542477	0.20717035
128	0xbd61f648	-0.055166513
129	0x3def0936	0.11671679
130	0x3b1693c0	0.002297625
131	0x3e1db903	0.15402608
132	0xbd90e940	-0.07075739
133	0x3d40d25c	0.047075614
134	0xbe039a8e	-0.12851927
135	0xbd955d5a	-0.07293196
136	0x3e150c45	0.14555462
137	0xbe56914c	-0.20953864
138	0x3e25d82d	0.16195746
139	0xbdb180d6	-0.08667152
140	0x3d43f53c	0.047841296
141	0xbe25da70	-0.16196609
142	0xbe0b68a6	-0.13614139
143	0xbe471d3a	-0.19444743
144	0x3d569294	0.05238588
145	0x3d9ea0ca	0.07745512
146	0x3db87c0a	0.090080336
147	0xbdda6739	-0.106642194
148	0xbb8faec0	-0.0043848455
149	0xbd8b4ef4	-0.068021685
150	0xbd6adb44	-0.057338014
151	0xbe27f9b5	-0.1640385
152	0xbd140658	-0.036138862
153	0x3cf37908	0.029720798
154	0xbd80f7de	-0.06297277
155	0xbe44df8d	-0.19225903
156	0xbe3cc958	-0.18436182
157	0x3d9af862	0.075669065
158	0x3d9f0c06	0.07765965
159	0xbe22fa2b	-0.15915744
160	0x3c21e790	0.009881869
161	0xbdfbe9b8	-0.12300438
162	0x3ddf92f6	0.109167024
163	0xbcead900	-0.028667927
164	0xbe2b7cf7	-0.16746889
165	0xbb2d8cc0	-0.0026481599
166	0x3dab202a	0.08355744
167	0xbe34228e	-0.17591307
168	0xbe025822	-0.12728932
169	0xbd9cfaa2	-0.07664992
170	0xbe42596e	-0.18979427
171	0xbb34cb00	-0.0027586818
172	0xbe5b858d	-0.21437664
173	0x3dc9c4ce	0.09851991
174	0x3d819e32	0.063290015
175	0x3e0c6035	0.13708575
176	0x3e1b9049	0.15191759
177	0xbe4c0605	-0.19924171
178	0xbe31be96	-0.17357859
179	0x3e0f6a79	0.1400546
180	0x3e515287	0.20441638
181	0xbe0fd94e	-0.14047739
182	0x3e5a375f	0.21310185
183	0x3e366f31	0.17815854
184	0x3d8f8d46	0.07009368
185	0x3d89a07a	0.067200616
186	0xbe4553df	-0.19270276
187	0x3e54f97b	0.20798294
188	0x3d98733e	0.07443856
189	0x3db8bb3e	0.090200886
190	0xbc883310	-0.016625911
191	0x3d62271c	0.05521308
192	0x3d61e9b4	0.055154517
193	0xbd0e200c	-0.03469853
194	0x3e3e5e6d	0.18590708
195	0x3deb6e9a	0.11495705
196	0xbdc3eed6	-0.09567039
197	0x3dafc18a	0.085818365
198	0xbe23227e	-0.15931126
199	0xbdcc8854	-0.0998694
200	0xbddee11c	-0.1088278
201	0x3dec41c6	0.11535983
202	0xbe1d8216	-0.15381655
203	0x3d126ba4	0.035747185
204	0xbdfcca4a	-0.12343271
205	0x3e3ec3e3	0.18629412
206	0xbe0f78f3	-0.14010982
207	0xbe0e2c04	-0.13883978
208	0x3cda3e00	0.026640892
209	0xbe461de9	-0.19347347
210	0xbdaee382	-0.085394874
211	0xbd0554d4	-0.0325516
212	0x3e07a933	0.13248138
213	0x3cd07cb8	0.025450096
214	0xbe212634	-0.1573723
215	0xbe24cb5f	-0.16093205
216	0xbc840f08	-0.016120449
217	0x3e1857d7	0.14877258
218	0xbdbbdf7a	-0.09173484
219	0xbe2213ca	-0.15827861
220	0x3e1d8c6d	0.153856
221	0xbd5c38d8	-0.053765148
222	0x3e3bf9cb	0.18357007
223	0x3e002d23	0.12517218
224	0xbc085f70	-0.008323535
225	0x3dd2dc86	0.10295968
226	0x3da9317a	0.0826139
227	0xbd898bc8	-0.06716114
228	0xbe118d64	-0.14214092
229	0x3d5422e4	0.051791087
230	0xbd357dac	-0.044309303
231	0xbd6807a8	-0.056647927
232	0xbd957082	-0.0729685
233	0xbcbb4fd0	-0.022865206
234	0x3cd95cb8	0.02653347
235	0x3e29bb07	0.16575252
236	0x3da255e6	0.0792654
237	0xbe577791	-0.21041705
238	0x3df1361a	0.11777897
239	0xbe131edc	-0.1436724
240	0x3e4d7653	0.20064668
241	0x3d7fd1b4	0.062455848
242	0x3df70c2e	0.1206287
243	0x3e2a223b	0.1661462
244	0x3e389cff	0.1802864
245	0xbe356c36	-0.1771706
246	0xbe1f0f79	-0.15533246
247	0xbdc1555a	-0.09440108
248	0xbe353d72	-0.17699221
249	0x3dc0e956	0.09419505
250	0x3d42392c	0.047417805
251	0x3dc96e3e	0.0983548
252	0x3dba56a6	0.09098558
253	0x3d33028c	0.0437036
254	0x3e3ab819	0.1823429
255	0x3e2b963d	0.1675653

sequential/dense_3/MatMul f4 [120, 64]
0	0xbdc4e973	-0.096148394
1	0xbc508ae0	-0.012728423
2	0xbdb1b0e1	-0.08676315
3	0x3dd7cb86	0.10536866
4	0x3d190164	0.03735484
5	0xbe11fce1	-0.14256622
6	0xbde1f990	-0.110339284
7	0xbd91aac3	-0.07112648
8	0xbd3a9bd8	-0.04555878
9	0x3e04fb69	0.1298653
10	0xbd0445a4	-0.032292977
11	0x3d8dd146	0.06924681
12	0xbe14a99a	-0.14517823
13	0x3de6b402	0.112648025
14	0x3cc13c90	0.023588449
15	0x3d80bde2	0.06286217
16	0xbe0af7f0	-0.13571143
17	0x3c48f4f0	0.012265429
18	0xbcbc1230	-0.022957891
19	0x3dacdc9e	0.08440517
20	0xbd9b86ea	-0.07594092
21	0xbd841884	-0.064499885
22	0xbe2cb2b5	-0.16865046
23	0xbc8c8208	-0.017151847
24	0x3d7708c4	0.060311094
25	0x3da4325e	0.08017419
26	0x3e19e511	0.15028788
27	0xbdd79606	-0.105266616
28	0x3db1589e	0.086594805
29	0x3d95b69a	0.07310219
30	0xbe165971	-0.14682557
31	0x3e0e4be3	0.13896136
32	0x3ce2d260	0.027688205
33	0x3e0e72db	0.13911001
34	0xbcaf6260	-0.021409214
35	0x3d2fa540	0.042882204
36	0xbdc82c04	-0.0977402
37	0x3c30b8c0	0.010786235
38	0x3cc93530	0.024561495
39	0x3d79a234	0.060945705
40	0x3e1bdc67	0.15220796
41	0x3cb1b638	0.021693334
42	0x3de7c36a	0.11316569
43	0xbdcc3699	-0.09971351
44	0x3e156b23	0.1459165
45	0xbe383427	-0.17988645
46	0x3e121345	0.14265163
47	0xbe376fd1	-0.17913748
48	0xbdbd3c52	-0.09240021
49	0xbd4614bc	-0.048359618
50	0x3d9ba3be	0.07599591
51	0xbde61415	-0.11234299
52	0xbe2670b1	-0.16253926
53	0xbd81e076	-0.06341641
54	0x3e0074bb	0.12544529
55	0xbd3c0c3c	-0.045910105
56	0xbd53e0b8	-0.05172798
57	0xbcee25a8	-0.02907069
58	0xba379800	-0.0007003546
59	0x3e0e41eb	0.13892333
60	0x3dd0ff52	0.102049485
61	0xbe0141b0	-0.12622714
62	0x3de4cc8e	0.11171828
63	0x3dfc545a	0.12320776
64	0x3d1e4f58	0.038649887
65	0xbdf766b0	-0.12080133
66	0xbd8cccfe	-0.06875037
67	0xbe2d342f	-0.16914438
68	0x3d377880	0.044792652
69	0xbdf5fab6	-0.1201071
70	0x3d9722da	0.07379694
71	0xbd6730b2	-0.056442924
72	0x3e04d8e9	0.1297337
73	0xbe2ff729	-0.17184128
74	0xbd4f7274	-0.05064626
75	0xbe2d3409	-0.16914381
76	0x3e0eb0f5	0.13934691
77	0xbdd5321c	-0.10409948
78	0x3d977c2e	0.07396732
79	0xbe1a75d5	-0.15084012
80	0x3d252b60	0.04032457
81	0x3da1872e	0.078871116
82	0xbca42890	-0.020038873
83	0x3c95b2f8	0.018273816
84	0x3df39f4a	0.11895616
85	0xbb1f21c0	-0.0024281591
86	0xbe217dda	-0.15770665
87	0xbdacf1db	-0.08444568
88	0x3db7a66e	0.08967291
89	0x3d8206a6	0.06348924
90	0xbd8b92ac	-0.06815085
91	0xbe2d1565	-0.16902693
92	0x3dd6f822	0.10496546
93	0x3e1da103	0.15393452
94	0x3e2ee94f	0.17081188
95	0xbe0d94fc	-0.13826364
96	0x3d75c1a4	0.059999123
97	0x3e1588dd	0.1460299
98	0x3d2588e0	0.040413737
99	0x3d7cf500	0.061757088
100	0xbc022ac0	-0.007944763
101	0x3d1a5288	0.037676364
102	0x3e028e49	0.1274959
103	0x3b345c80	0.0027520955
104	0xbe2fbcfb	-0.17161934
105	0xbd9c2005	-0.07623295
106	0xbada6300	-0.0016661584
107	0x3e098095	0.13427956
108	0xbd57c964	-0.052682295
109	0xbdc8ca85	-0.098042525
110	0xbd6aa1d4	-0.057283238
111	0xbd8ee5bd	-0.06977413
112	0xbd482a4c	-0.048868462
113	0xbda62b4e	-0.081137285
114	0xbc5901a0	-0.013245016
115	0xbe389b38	-0.18027961
116	0x3dcb5afe	0.09929465
117	0xbc009240	-0.007847369
118	0x3e14555b	0.14485686
119	0x3e1a332b	0.15058582
120	0xbd44799c	-0.04796754
121	0x3ce53330	0.02797851
122	0xbc876320	-0.016526759
123	0x3d3aba30	0.04558772
124	0x3d5a01b8	0.053224295
125	0xbc78de30	-0.015189692
126	0xbc86fa20	-0.01647669
127	0x3dc84bce	0.097800836
128	0xbe2fbd66	-0.17162094
129	0x3d102044	0.03518702
130	0xbdea1911	-0.11430562
131	0x3dd210d2	0.102571145
132	0x39ee1e00	0.0004541725
133	0x3e11edad	0.14250822
134	0x3e00ddf1	0.12584664
135	0x3e04002b	0.12890689
136	0x3dd5d1d6	0.10440414
137	0x3d2bd128	0.041947514
138	0xbd7b7a24	-0.06139578
139	0x3cc56440	0.024095654
140	0x3c70d900	0.014700174
141	0xbc661020	-0.01404193
142	0x3d9fab3a	0.07796331
143	0x3e1b281f	0.15152024
144	0x3ccce1d8	0.025010034
145	0xbd384460	-0.044987082
146	0x3cdb2520	0.026751101
147	0xbcae4998	-0.021275327
148	0xbe0b22bf	-0.13587473
149	0xbcaad918	-0.020855471
150	0xbe115429	-0.14192261
151	0x3db9f2f6	0.09079544
152	0x3e260b2d	0.162152
153	0xbdeba547	-0.115061335
154	0xbe12f1f0	-0.14350104
155	0xbe1f026b	-0.15528266
156	0x3e1f20e5	0.15539892
157	0xbe2093bc	-0.15681356
158	0xbe1dcf6a	-0.15411153
159	0xbdc32c52	-0.09529938
160	0x3db1a30a	0.08673675
161	0x3df74d0e	0.12075244
162	0x3d7c2718	0.06156072
163	0xbcb48810	-0.022037536
164	0x3e17d47f	0.14827155
165	0x3e1c5525	0.15266855
166	0x3dc7301a	0.097259715
167	0xbe0eb8ad	-0.13937636
168	0x3d608908	0.054818183
169	0xbdbca53f	-0.09211206
170	0x3db9e2e2	0.090764776
171	0xbe0147ea	-0.1262509
172	0xbe0dd2c9	-0.1384994
173	0x3c28ee40	0.0103107095
174	0x3de2c976	0.11073582
175	0x3d9a587e	0.0753641
176	0xbe26cf7c	-0.16290087
177	0x3df8a216	0.121402904
178	0xbcc072d8	-0.023492262
179	0x3de62252	0.11237015
180	0xbcd68c38	-0.026189908
181	0xbd9933ba	-0.07480569
182	0x3df3366a	0.11875613
183	0xbe0ad1c5	-0.13556583
184	0x3d3f7928	0.046746403
185	0x3e265fc3	0.16247468
186	0x3df7274e	0.12068044
187	0x3e205b27	0.15659772
188	0xbe06346f	-0.1310594
189	0x3dc7fcea	0.097650364
190	0x3e2c4d7b	0.16826431
191	0x3e2d8aeb	0.16947524
192	0x3d7feacc	0.06247978
193	0xbd0d6678	-0.03452155
194	0xbda3f15a	-0.080050185
195	0x3c01cb90	0.007922068
196	0x3e0680eb	0.13135116
197	0xbe035844	-0.1282664
198	0x3d4cb550	0.0499776
199	0x3e29820d	0.16553517
200	0x3dfdf7a6	0.12400751
201	0xbd8f8eb7	-0.070096426
202	0xbd63a5ec	-0.055578157
203	0xbe07846a	-0.13234106
204	0xbd224c10	-0.03962332
205	0xbd23f700	-0.04003048
206	0xbddfd9e9	-0.10930235
207	0x3e364819	0.1780094
208	0x3e349199	0.17633666
209	0x3deab776	0.11460774
210	0xbde4470b	-0.11146363
211	0xbdeac371	-0.11463059
212	0x3d39c448	0.045353204
213	0x3da76916	0.081743404
214	0xbc866380	-0.016404867
215	0x3dc63662	0.096783414
216	0xbe0fe121	-0.14050724
217	0x3e2a0519	0.16603507
218	0xbe039fcf	-0.12853931
219	0x3dc91762	0.09818913
220	0x3d694c44	0.0569575
221	0x3d5a5a28	0.053308636
222	0x3c481470	0.012211904
223	0x3e15a3f5	0.14613326
224	0x3d103c08	0.0352135
225	0xbcb26af8	-0.021779522
226	0xbe12f769	-0.14352192
227	0x3dfaae7a	0.1224031
228	0xbd9c823c	-0.07642028
229	0xbd26d668	-0.040731817
230	0x3d258608	0.040411025
231	0xbe0e4810	-0.13894677
232	0xbd94e6d4	-0.072705895
233	0xbdbfe73a	-0.09370275
234	0x3e0e3f71	0.13891388
235	0x3ca4e998	0.020130917
236	0xbcc70e88	-0.024298921
237	0x3e29da01	0.16587068
238	0xbe11a6b2	-0.14223745
239	0xbd837b24	-0.064199716
240	0x3c711a00	0.014715672
241	0xbdbeb9fa	-0.09312816
242	0x3dd7e8c6	0.10542445
243	0x3d800a52	0.062519684
244	0xbd768692	-0.06018693
245	0xbe26f2a7	-0.16303502
246	0xbe2d0b51	-0.16898848
247	0x3e27ac27	0.16374265
248	0xbe36c02f	-0.1784675
249	0xbc180ea0	-0.009280831
250	0xbb3b0c80	-0.0028541386
251	0xbd9d2968	-0.07673913
252	0xbe1f4100	-0.1555214
253	0xbe05e1e0	-0.13074446
254	0x3b6ecb00	0.0036436915
255	0xbca450c0	-0.020058036
