src/main/assets/modelo_test.tflite (tflite, 476488 bytes, 17 tensors)

sequential/conv2d_6/BiasAdd;sequential/conv2d_6/BiasAdd/ReadVariableOp/resource;sequential/conv2d_6/Conv2D f4 [96]
000000 00 00 00 00 00 00 00 00 00 00 00 00 00 00 00 00
       0.0 0.0 0.0 0.0
000010 00 00 00 00 00 00 00 00 00 00 00 00 00 00 00 00
       0.0 0.0 0.0 0.0
000020 00 00 00 00 00 00 00 00 00 00 00 00 00 00 00 00
       0.0 0.0 0.0 0.0
000030 00 00 00 00 00 00 00 00 00 00 00 00 00 00 00 00
       0.0 0.0 0.0 0.0
000040 00 00 00 00 00 00 00 00 00 00 00 00 00 00 00 00
       0.0 0.0 0.0 0.0
000050 00 00 00 00 00 00 00 00 00 00 00 00 00 00 00 00
       0.0 0.0 0.0 0.0
000060 00 00 00 00 00 00 00 00 00 00 00 00 00 00 00 00
       0.0 0.0 0.0 0.0
000070 00 00 00 00 00 00 00 00 00 00 00 00 00 00 00 00
       0.0 0.0 0.0 0.0
000080 00 00 00 00 00 00 00 00 00 00 00 00 00 00 00 00
       0.0 0.0 0.0 0.0
000090 00 00 00 00 00 00 00 00 00 00 00 00 00 00 00 00
       0.0 0.0 0.0 0.0
0000a0 00 00 00 00 00 00 00 00 00 00 00 00 00 00 00 00
       0.0 0.0 0.0 0.0
0000b0 00 00 00 00 00 00 00 00 00 00 00 00 00 00 00 00
       0.0 0.0 0.0 0.0
0000c0 00 00 00 00 00 00 00 00 00 00 00 00 00 00 00 00
       0.0 0.0 0.0 0.0
0000d0 00 00 00 00 00 00 00 00 00 00 00 00 00 00 00 00
       0.0 0.0 0.0 0.0
0000e0 00 00 00 00 00 00 00 00 00 00 00 00 00 00 00 00
       0.0 0.0 0.0 0.0
0000f0 00 00 00 00 00 00 00 00 00 00 00 00 00 00 00 00
       0.0 0.0 0.0 0.0
000100 00 00 00 00 00 00 00 00 00 00 00 00 00 00 00 00
       0.0 0.0 0.0 0.0
000110 00 00 00 00 00 00 00 00 00 00 00 00 00 00 00 00
       0.0 0.0 0.0 0.0
000120 00 00 00 00 00 00 00 00 00 00 00 00 00 00 00 00
       0.0 0.0 0.0 0.0
000130 00 00 00 00 00 00 00 00 00 00 00 00 00 00 00 00
       0.0 0.0 0.0 0.0
000140 00 00 00 00 00 00 00 00 00 00 00 00 00 00 00 00
       0.0 0.0 0.0 0.0
000150 00 00 00 00 00 00 00 00 00 00 00 00 00 00 00 00
       0.0 0.0 0.0 0.0
000160 00 00 00 00 00 00 00 00 00 00 00 00 00 00 00 00
       0.0 0.0 0.0 0.0
000170 00 00 00 00 00 00 00 00 00 00 00 00 00 00 00 00
       0.0 0.0 0.0 0.0

sequential/conv2d_5/BiasAdd;sequential/conv2d_5/BiasAdd/ReadVariableOp/resource;sequential/conv2d_5/Conv2D f4 [32]
000000 00 00 00 00 00 00 00 00 00 00 00 00 00 00 00 00
       0.0 0.0 0.0 0.0
000010 00 00 00 00 00 00 00 00 00 00 00 00 00 00 00 00
       0.0 0.0 0.0 0.0
000020 00 00 00 00 00 00 00 00 00 00 00 00 00 00 00 00
       0.0 0.0 0.0 0.0
000030 00 00 00 00 00 00 00 00 00 00 00 00 00 00 00 00
       0.0 0.0 0.0 0.0
000040 00 00 00 00 00 00 00 00 00 00 00 00 00 00 00 00
       0.0 0.0 0.0 0.0
000050 00 00 00 00 00 00 00 00 00 00 00 00 00 00 00 00
       0.0 0.0 0.0 0.0
000060 00 00 00 00 00 00 00 00 00 00 00 00 00 00 00 00
       0.0 0.0 0.0 0.0
000070 00 00 00 00 00 00 00 00 00 00 00 00 00 00 00 00
       0.0 0.0 0.0 0.0

sequential/conv2d_4/BiasAdd;sequential/conv2d_4/BiasAdd/ReadVariableOp/resource;sequential/conv2d_4/Conv2D f4 [16]
000000 00 00 00 00 00 00 00 00 00 00 00 00 00 00 00 00
       0.0 0.0 0.0 0.0
000010 00 00 00 00 00 00 00 00 00 00 00 00 00 00 00 00
       0.0 0.0 0.0 0.0
000020 00 00 00 00 00 00 00 00 00 00 00 00 00 00 00 00
       0.0 0.0 0.0 0.0
000030 00 00 00 00 00 00 00 00 00 00 00 00 00 00 00 00
       0.0 0.0 0.0 0.0

sequential/conv2d_3/BiasAdd;sequential/conv2d_3/BiasAdd/ReadVariableOp/resource;sequential/conv2d_3/Conv2D f4 [8]
000000 00 00 00 00 00 00 00 00 00 00 00 00 00 00 00 00
       0.0 0.0 0.0 0.0
000010 00 00 00 00 00 00 00 00 00 00 00 00 00 00 00 00
       0.0 0.0 0.0 0.0

sequential/conv2d/BiasAdd;sequential/conv2d/BiasAdd/ReadVariableOp/resource;sequential/conv2d/Conv2D f4 [2]
000000 00 00 00 00 00 00 00 00
       0.0 0.0

sequential/conv2d_6/Conv2D f4 [96, 3, 3, 32]
000000 50 c2 99 3b 62 98 7d bd 90 96 47 3d fe 21 04 3d
       0.0046923533 -0.0619129 0.048727572 0.03225898
000010 a0 bb 23 bc 28 b4 51 3d 7c 24 9e bc 00 f0 4f bb
       -0.009993464 0.0511972 -0.019304506 -0.0031728745
000020 5c 4f 7c 3d 2b b8 41 bd 60 83 57 bc 9a bb 92 3d
       0.06159912 -0.047294777 -0.013153881 0.071646884
000030 64 60 3b bd 28 58 78 3c 18 3a 65 3d 80 54 d1 bc
       -0.045746222 0.015157737 0.055963606 -0.025552988
000040 8a fe 32 3d 5b 00 27 bd 34 c0 79 3d 60 a5 74 3d
       0.04369978 -0.040771823 0.060974315 0.059728026
000050 5c c6 67 3d 50 0f 2e 3c ce 1b 65 bd 28 c2 b8 3c
       0.056585655 0.010623768 -0.05593472 0.022553518
000060 1e 3a 02 3d 16 6c 27 3d 90 10 98 3c 74 74 21 3d
       0.031793706 0.040874563 0.018562585 0.0394177
000070 e0 77 e4 bb 60 e6 cd 3c cb fb 10 bd 24 5c e8 3c
       -0.006972298 0.025134265 -0.03539638 0.028364249
000080 c6 17 5d bd 8e 02 8a bc 97 a8 01 bd 34 71 87 3c
       -0.05397775 -0.016846921 -0.03165492 0.016533472
000090 60 b9 0a 3d be 6c 50 bd 20 a7 9b 3c ca 57 2d bd
       0.033868194 -0.050884955 0.01900059 -0.04232005
0000a0 ac 58 10 3d 20 c1 7a 3d 0a b2 00 3d c6 ed 78 bd
       0.035240814 0.061219335 0.03141979 -0.060773633
0000b0 bc c1 14 3d 08 fc 05 bc cd 87 78 bd 56 f9 56 3d
       0.036317572 -0.008177765 -0.060676385 0.05248388
0000c0 34 e1 ca bc db 61 82 bd f4 1e cf 3c 3c 56 44 bd
       -0.024765588 -0.06366321 0.025283314 -0.047933802
0000d0 c8 6c 3a bd 42 60 93 3d f8 81 41 3d a2 d5 42 bd
       -0.045513898 0.07196094 0.04724309 -0.047567017
0000e0 e6 50 5c bd cc cd 66 3d 00 31 7f 3c b8 59 0f 3d
       -0.05378809 0.056348607 0.015575647 0.03499767
0000f0 00 50 63 3c 19 e5 13 bd 90 f8 36 3c 76 e4 2c 3d
       0.013874054 -0.036107156 0.01116766 0.042210065
000100 18 c5 02 bd 44 5a 66 bd 34 6d 2b bd 10 01 84 3b
       -0.031926244 -0.056238428 -0.04185219 0.004028447
000110 4b 54 63 bd ca 4e 99 bc 96 6e 83 3d 8a 8b 4d 3d
       -0.05550031 -0.018714327 0.06417577 0.050181903
000120 c2 ff 8d bd 64 1e e9 3c 40 bf 6f 3d 74 bb 27 bd
       -0.069335476 0.028456874 0.058532 -0.040950254
000130 c4 a8 7d bd c4 e0 5f 3d e0 1a c8 bb a0 37 bc 3c
       -0.061928526 0.054657713 -0.0061067194 0.022975743
000140 ac 2e 2c bd e2 f6 56 3d 3e 3a 83 bc ca fb d5 bc
       -0.042036697 0.05248154 -0.016018983 -0.026121039
000150 60 d4 28 3c a0 47 00 bb 0b bc 6c bd a6 38 d9 bc
       0.01030454 -0.0019573942 -0.05779652 -0.02651627
000160 ba b8 72 bd a2 ad 13 3d f8 4a 0f 3c 08 b7 83 3d
       -0.0592582 0.03605426 0.008745901 0.06431395
000170 b0 26 1e bc 56 74 89 bd 14 0c 51 3d de 32 21 bd
       -0.0096527785 -0.067116424 0.05103691 -0.03935515
000180 2c c7 8c 3c 24 6e 93 bc a0 37 ee bb aa 1f e0 bc
       0.017184816 -0.017996855 -0.0072698146 -0.027358849
000190 40 fc b0 3c 2a 28 35 3d 78 10 b0 3c c8 65 35 3c
       0.021604657 0.044227757 0.021492228 0.01107163
0001a0 14 f0 8a bd b2 00 0b bd 92 60 8a bd 3e 2b 8c 3d
       -0.067840725 -0.03393621 -0.067567006 0.06844185
0001b0 20 da 11 3b 20 17 75 3d 80 ad f8 3a 7e 0d 41 3d
       0.0022255257 0.059836507 0.0018972605 0.047132008
0001c0 40 cd 6d 3d 9c 3a 1f 3d 18 5a 56 bd ec a1 89 3c
       0.05805707 0.038874254 -0.052332014 0.016800843
0001d0 b0 b6 72 3d c6 83 0a 3d 00 40 7e 3a 00 4c 8c 3d
       0.059256256 0.033817075 0.0009698868 0.06850433
0001e0 10 a6 3b bc 2c f1 7c 3d b0 9a 7d 3d fe 11 1c 3d
       -0.011453167 0.061753437 0.0619151 0.038103096
0001f0 6c 78 8b 3c 9c 6d 4b 3d f8 4f a6 3c 20 84 85 3b
       0.017025195 0.04966508 0.020301804 0.0040745884
000200 20 75 46 bb c8 9f 00 bd f6 27 62 bd 04 4c 33 3d
       -0.0030282214 -0.03140238 -0.05521389 0.043773666
000210 c9 63 8d bd b6 94 b9 bc 5e a6 34 3d c0 1f b7 3a
       -0.06903798 -0.022653919 0.044103973 0.0013971254
000220 0c 56 8c 3c 44 bf 34 3d b8 09 41 3d cd db 83 bd
       0.017130874 0.044127718 0.04712841 -0.06438408
000230 48 3d 19 3c 74 77 88 3d f0 58 3f bd ae 31 54 bd
       0.0093529895 0.06663409 -0.046715677 -0.05180519
000240 46 a9 33 3d be 5b 8a bd 98 b7 2f 3d 94 69 a9 3c
       0.043862604 -0.0675578 0.042899698 0.020680226
000250 b0 69 21 bc 07 61 2d bd ea a7 b0 bc 38 d8 62 3d
       -0.009851858 -0.04232886 -0.021564443 0.055381984
000260 59 56 86 bd b4 ce 2a 3d 68 e5 e2 bc cc 9e 20 bd
       -0.06559438 0.041701034 -0.02769728 -0.03921394
000270 52 6d 86 3d f8 f9 0b 3d ba 3a 8c 3d 44 1d 5b 3d
       0.0656382 0.034173936 0.06847139 0.053494707
000280 72 37 38 3d 8c 1d 31 bc 44 43 6a bd d3 b6 82 bd
       0.04497475 -0.010810267 -0.057193056 -0.06382527
000290 91 f1 80 bd 2e 76 4c bd 1e 2a 91 3d d6 c8 c2 bc
       -0.06296075 -0.049917392 0.07088111 -0.023777407
0002a0 88 81 90 3d a8 34 1b 3c 6c bb 68 3d a0 0f 5e 3b
       0.07055956 0.009473003 0.056819364 0.0033883825
0002b0 34 76 8c 3c 2c 88 3b bd 60 f7 d0 bb 9a 9a 44 3d
       0.017146207 -0.04578416 -0.0063771456 0.047999002
0002c0 f6 c1 8b 3d da 4f c6 bc f9 a6 8f bd 7c 21 2f bc
       0.068241045 -0.024207998 -0.070142694 -0.010689136
0002d0 7f c1 8f bd a1 3c 20 bd 96 c0 bb bc ca c8 91 bc
       -0.07019328 -0.03912032 -0.02291898 -0.017795939
0002e0 d8 51 f1 3c 00 72 7c 39 ec bf 9d 3c d4 d0 24 bc
       0.029457971 0.00024075061 0.019256555 -0.010059554
0002f0 c8 c0 78 3d 0c ef ba 3c 1a db 8b 3d 44 1c 81 3d
       0.060730726 0.022819065 0.068289 0.06304219
000300 4c 23 25 3d eb 51 06 bd 94 79 6c 3d 9a e4 83 3d
       0.040316865 -0.032792967 0.057733133 0.06440087
000310 57 e0 84 bd 5a 75 38 bd 00 b7 4e bb 68 51 a7 3c
       -0.06488102 -0.04503379 -0.0031542182 0.02042456
000320 28 95 7b bc 60 11 28 3c 2c db 58 3d 7a c5 02 3d
       -0.015355386 0.010258049 0.052943394 0.03192661
000330 77 3f 0b bd 94 08 3c bc 00 78 18 3b 60 7f 88 3b
       -0.03399607 -0.011476655 0.0023264885 0.004165575
000340 9c 07 dd bc 78 c7 f4 3c 64 1c 21 3d d2 57 3f bd
       -0.026981167 0.02988027 0.039333716 -0.04671461
000350 d0 0a 61 3d e0 f3 9f bb b0 f5 65 3d 2e 09 49 bd
       0.054941952 -0.004881367 0.05614251 -0.04908102
000360 ec a1 c1 bc 5c 95 fc 3c d2 cc 68 bd ae 77 38 3d
       -0.02363678 0.030832939 -0.056835957 0.04503601
000370 20 a2 08 3c 8c a1 94 3c d4 03 d6 3c 10 38 3a 3d
       0.008339435 0.018143438 0.026124872 0.04546362
000380 76 ae c0 bc 08 6f fe bc 40 ae cb 3b 00 60 10 bc
       -0.02352069 -0.031058803 0.0062158406 -0.008811951
000390 a6 ae 02 3d 3c eb ca bc 74 83 45 bd d2 5d fe bc
       0.03190484 -0.024770372 -0.048221067 -0.031050596
0003a0 60 9c 12 bc 00 af 79 3b a0 00 69 3b ce c3 59 bd
       -0.0089484155 0.0038098693 0.003555335 -0.05316525
0003b0 44 62 0a bd 46 e1 45 bd 4a be 45 3d 5c 37 70 3d
       -0.03378512 -0.04831054 0.048277177 0.058646545
0003c0 28 54 00 3c b4 09 f2 3c e7 8c 82 bd a0 36 4f bb
       0.007832564 0.029545642 -0.06374531 -0.0031618252
0003d0 e0 f7 e9 bb 28 f9 40 3d eb 10 11 bd a0 3f 6f 3c
       -0.0071401447 0.047112614 -0.035416525 0.014602572
0003e0 08 0f 1e 3d 60 32 a8 bb 4a b9 13 bd 00 44 65 39
       0.038588554 -0.0051329583 -0.036065377 0.00021864474
0003f0 10 8b 28 3d a0 9d 71 bc de 65 1c 3d fa 10 99 bc
       0.041148245 -0.014747053 0.038183086 -0.018684853

sequential/conv2d_5/Conv2D f4 [32, 3, 3, 16]
000000 00 67 20 bc 62 e3 31 bd d2 1b 03 3d 3e e3 0c 3d
       -0.009790182 -0.04342974 0.032008953 0.034396403
000010 36 c3 75 3d bd 49 88 bd 98 9b 2c 3c e0 f5 b3 bb
       0.06000062 -0.066546895 0.010535143 -0.005491957
000020 af 20 c0 3d 81 08 d1 3d e2 a4 52 3d ec 28 ff 3c
       0.09381234 0.102067 0.051426776 0.031147443
000030 40 f7 83 bd 45 0c ea 3d c8 e3 b8 bd f0 44 47 bc
       -0.064436436 0.114281215 -0.09027821 -0.012162432
000040 2f 03 a1 bd 02 74 7f 3d bd fc c6 bd ee 94 ea bd
       -0.07861935 0.062366493 -0.09716175 -0.11454187
000050 80 ac e9 3b c1 64 9d 3d bc ed 83 bd 00 e8 28 bb
       0.0071311593 0.07685233 -0.064418286 -0.0025773048
000060 00 51 c9 bc b1 0d e1 3d 06 05 47 3d 29 d8 9b 3d
       -0.024574757 0.109889396 0.048588775 0.07609589
000070 7f 29 a7 3d cd ce 9a bd d2 6c 31 3d 52 20 df bd
       0.081622116 -0.07558975 0.04331667 -0.108948365
000080 1c 24 8c bd 57 fa b2 3d 40 4e 3e bb ed 83 e7 3d
       -0.06842825 0.08739155 -0.002903834 0.1130446
000090 13 45 84 3d 1a 1c 4d 3d 76 0c 90 bd a3 7e a4 3d
       0.06458487 0.050075628 -0.07033627 0.080319665
0000a0 6b f8 66 bd b3 e2 eb bd 16 33 82 bd 3f 84 a0 3d
       -0.056389254 -0.11517849 -0.063574 0.07837724
0000b0 1b 48 ce bd a0 0c f1 bc 8f 2d aa 3d 50 75 c5 bd
       -0.10072347 -0.029424965 0.08309471 -0.09641516
0000c0 ae 65 e8 bd 28 6f 89 bd 96 33 6c 3d 2e ba 43 3d
       -0.11347519 -0.067106545 0.057666384 0.047784977
0000d0 20 0b de 3b 9e 27 4e 3d 81 eb b8 bd 75 35 96 3d
       0.0067762285 0.05033075 -0.09029294 0.07334415
0000e0 58 44 20 bc 64 58 b9 3c a0 6f 1d 3b b0 4b a7 bc
       -0.009781919 0.022625156 0.0024022833 -0.020421833
0000f0 06 98 27 3d 03 e2 8c 3d 7a 43 0d 3d 4e b7 cb bd
       0.040916465 0.06879046 0.03448818 -0.09947072
000100 47 68 db bd 20 5d ab bb 46 11 3a 3d 86 86 25 3d
       -0.10713249 -0.005229607 0.04542663 0.040411495
000110 a9 2c b3 3d 75 94 d3 3d 31 0b 82 3d a0 7e 34 bb
       0.087487526 0.1033105 0.06349791 -0.0027541295
000120 25 ad b7 3d 9d 0b 7d bd 00 22 fe b9 f8 ae 65 3c
       0.089685716 -0.061778653 -0.00048471987 0.014018767
000130 a3 d9 cf bd 50 c6 b2 bc 58 09 0d bc 18 44 1c 3c
       -0.10148933 -0.021823078 -0.008608185 0.009537719
000140 72 c2 07 bd 88 e4 5f bc 82 4f e0 bd 21 14 ee 3d
       -0.033144422 -0.013665326 -0.10952665 0.11624933
000150 cc 0a 87 bc b2 1f 14 bd 80 42 e2 3a 68 10 a5 bd
       -0.01648464 -0.03616304 0.001726225 -0.0805977
000160 89 67 b6 3d af ef 80 3d 8d 28 83 3d 8d 48 a0 3d
       0.089064665 0.06295716 0.06404219 0.07826338
000170 e8 87 07 bd a8 90 24 bd b0 f9 f6 bb 62 23 79 bd
       -0.033088595 -0.040177017 -0.0075370893 -0.06082476
000180 67 60 e5 bd ad 40 a9 3d 85 be d8 3d c8 fa ed bc
       -0.11200028 0.08264289 0.10583214 -0.029050246
000190 73 34 c7 3d 6e 53 4d 3d 2b 5a ac 3d a4 0d 1a bd
       0.09726801 0.050128393 0.08415636 -0.037610665
0001a0 54 d6 d0 bd 98 04 9b bc dd ae a1 bd 60 07 7f bd
       -0.1019713 -0.018923089 -0.07894681 -0.062262893
0001b0 b9 bb 99 3d 30 28 26 bd 1d 6a c4 3d a7 8a 8b 3d
       0.075065084 -0.04056567 0.09590552 0.06813555
0001c0 08 30 1d bd 0a ad 19 3d 90 e7 86 3b f0 f4 aa 3b
       -0.038375884 0.03751854 0.00411696 0.005217187
0001d0 80 85 fd bc 4b 2a e5 bd 7c 3d 9f 3c e0 e6 d4 3b
       -0.030947447 -0.11189707 0.019438498 0.006497249
0001e0 b3 d8 91 3d 18 9d fc bc 5c cc a6 3c 29 96 b1 3d
       0.0712141 -0.030836627 0.020361118 0.08671219
0001f0 0c 64 06 bd e8 ad 19 3c cd 29 e8 3d b1 73 96 3d
       -0.032810256 0.009379841 0.11336098 0.07346285
000200 8b 70 91 3d 8c 7c db bd 98 7f 21 bd 0b e4 d8 3d
       0.07101544 -0.10717115 -0.039428324 0.10590371
000210 07 76 bb bd 7f 2e ef bd 57 3d d0 3d 80 75 c4 bc
       -0.09153371 -0.1167879 0.1016795 -0.02398181
000220 0c a2 e0 bd 24 e8 87 3c 6f ca 83 3d aa 51 ac bd
       -0.10968408 0.016590185 0.064350955 -0.08414014
000230 70 e9 6e bd 74 85 30 bd c3 ae b7 3d 2e 76 5f bd
       -0.058328092 -0.04309602 0.0896888 -0.054556064
000240 2a 52 c7 bd 8b ba ec bd a8 1f 3f bc 4a 2c 2d 3d
       -0.097324684 -0.11559018 -0.011665262 0.042278565
000250 f6 0a 34 bd 35 2a de 3d 63 cd e1 3d 81 8d e3 bd
       -0.043955766 0.10847894 0.110255025 -0.11110974
000260 fc f3 53 bd 8e eb 19 3d af 6c de 3d af c0 bb bd
       -0.051746354 0.037578158 0.108605735 -0.09167611
000270 2e 28 4b 3d fa de 17 3d 1a 01 9d bd 43 cf d2 3d
       0.049598865 0.03707788 -0.07666226 0.10293438
000280 ad 34 8f 3d 31 8a ec 3d 94 77 15 bd 2b 0e d5 3d
       0.06992469 0.115497954 -0.03649099 0.10403093
000290 c8 49 1f 3c d2 c9 af bd b6 13 7a bd d0 30 e0 3b
       0.009722181 -0.08583416 -0.061053954 0.0068417564
0002a0 37 0e d0 3d 6e df 9e bd 4c bf d7 3c 42 32 78 bd
       0.10158961 -0.077574596 0.026336335 -0.060594805
0002b0 36 4c 18 3d 9a 9e 70 3d 4c c6 97 bd 40 bb 3c bb
       0.037182055 0.058745004 -0.07410869 -0.0028798133
0002c0 45 ed a3 bd 58 98 3f bc 1d e2 ae bd c9 b5 92 3d
       -0.0800424 -0.011694036 -0.085392214 0.07163579
0002d0 74 f2 dd bc 7a be 61 3d 44 74 e0 3c 46 17 a0 bd
       -0.02709315 0.055113293 0.02739919 -0.07816939
0002e0 7c ad ab bd 52 2b 4b 3d 32 1c 83 bd 20 97 91 bd
       -0.08382699 0.04960186 -0.06401862 -0.07108903
0002f0 30 09 20 bc 50 2b e3 3b 83 b8 9a 3d 7b 0f 8b 3d
       -0.0097678155 0.0069326535 0.07554724 0.06790062
000300 1b 87 a2 3d 8b 51 c4 3d dd bb 90 3d fa 8e f0 bd
       0.079359256 0.095858656 0.07067082 -0.117460206
000310 bf 37 b6 bd 45 f4 a4 3d 02 91 73 3d 4c 95 c5 3c
       -0.088973515 0.08054403 0.059464462 0.024119042
000320 f1 27 e1 3d 9d 3c 97 3d 33 16 e5 bd 72 7a d0 bd
       0.10993946 0.07384608 -0.11185875 -0.101796046
000330 e4 69 cf bc 25 9c e2 3d c2 86 b9 bd 74 97 9d 3c
       -0.025319047 0.110649385 -0.09058906 0.019237258
000340 12 1c 4f 3d cf ef ba 3d 00 21 52 bd ef c8 79 bd
       0.05056388 0.09127771 -0.051301003 -0.06098264
000350 1b 18 ee 3d fe a9 78 3d 81 8a c2 bd d5 9b 99 3d
       0.116256915 0.060708992 -0.09499074 0.07500426
000360 42 29 7d 3d 7e 7d 2a 3d 7e 3d d9 bd 27 47 8a 3d
       0.061806925 0.041623585 -0.10607432 0.067518525
000370 bc 35 b1 bc 0d 1d b4 3d f4 c7 c8 3c cd ea 8a bd
       -0.021632068 0.087946035 0.024509408 -0.06783066
000380 a7 82 de 3d a2 f7 5a 3d 20 a7 f2 bb fb 30 a6 3d
       0.10864764 0.053458817 -0.0074051768 0.08114811
000390 ac f0 92 3c 34 72 95 3c 74 1f 93 bc 00 01 b9 ba
       0.017937027 0.018242933 -0.017959334 -0.0014114678
0003a0 1c 93 fb bc fd 37 bf 3d 36 69 d7 bd a7 14 df 3d
       -0.030709796 0.09336851 -0.10518114 0.10892611
0003b0 28 32 63 bd 38 14 e2 bc d0 23 8b 3b 76 00 48 3d
       -0.055467755 -0.027597532 0.0042462125 0.048828565
0003c0 8b bb c7 3d cc 4b f7 bc ef ca e9 bd 79 b8 e9 bd
       0.09752568 -0.03018751 -0.1141566 -0.114121385
0003d0 d9 b4 e7 3d cd 57 8c bd 14 39 8b 3c 97 a1 a7 bd
       0.11313791 -0.06852684 0.01699499 -0.08185118
0003e0 16 c6 53 bd e1 fb bc 3d 18 15 28 3c 30 a8 6c bc
       -0.05170258 0.092277296 0.010258935 -0.014444396
0003f0 40 f6 c8 ba 24 ee f1 3c 3b 31 d8 3d e2 0d 63 3d
       -0.0015332177 0.0295325 0.10556265 0.05543316

sequential/conv2d_4/Conv2D f4 [16, 3, 3, 8]
000000 b0 4a 52 bc 50 fb 2b bc 3b 0c 25 be e0 ec 44 3d
       -0.01283519 -0.010496929 -0.16117947 0.048077464
000010 12 82 ec 3d 5a fd f1 3d 8b 40 21 3e 78 d6 19 be
       0.115482464 0.11815901 0.15747277 -0.1502322
000020 33 43 22 3e 80 26 52 3d 5b 4b 28 3e ba 0f cf 3d
       0.15845947 0.051306248 0.16434996 0.101104215
000030 5a 5a f5 3d 60 1e f0 bd 50 a2 02 be 1b 60 96 bd
       0.11980124 -0.117245436 -0.1275723 -0.073425494
000040 34 1f 1c bd c0 aa c8 bd 70 7c 82 3d 50 69 f2 bd
       -0.038115695 -0.09798193 0.06371391 -0.11836493
000050 d4 c4 00 3d a0 13 54 3d e3 5b 0d be 2c 0b 3b 3d
       0.03143771 0.05177653 -0.13804583 0.04566495
000060 26 3f 8e 3d c1 82 0a 3e b2 5d ea 3d f0 9d 90 bd
       0.06945638 0.13526441 0.11443652 -0.07061374
000070 c6 e3 89 3d 30 72 63 3c a6 ca 07 be 50 ba 31 3c
       0.067328975 0.013882205 -0.13260898 0.010847643
000080 00 e0 e0 bb d1 0c 1e 3e e8 31 f7 3c 26 51 f8 3d
       -0.0068626404 0.15434577 0.030175164 0.12124853
000090 18 3e e5 bc 4e 63 08 be 4e 2c 06 be 76 f8 04 be
       -0.02798371 -0.13319132 -0.13102838 -0.12985405
0000a0 f1 fd 19 3e 56 f8 24 be 56 39 e0 3d 00 2a d0 3c
       0.15038277 -0.16110358 0.10948436 0.025410652
0000b0 5a df c7 3d 80 fa b1 bc 40 b0 70 bd f0 c3 a6 3d
       0.09759398 -0.021725893 -0.058761835 0.08142841
0000c0 40 13 1d be e6 12 03 be 2c 11 55 3d d6 8c 0f be
       -0.15339375 -0.12800178 0.05201833 -0.14018568
0000d0 e9 1a 00 3e ce 61 19 be 06 cd c8 bd 03 fd 22 be
       0.12510265 -0.14978716 -0.0980473 -0.15916829
0000e0 46 db df 3d 96 a8 ed 3d fb 67 0d 3e 30 74 44 3c
       0.10930495 0.11604421 0.13809197 0.011990592
0000f0 7b 24 9c bd 16 02 1c be 03 3d 1d 3e 32 ae db 3d
       -0.076241456 -0.1523517 0.15355305 0.107265845
000100 26 fb 86 bd ee 3b 0a be 4c a0 71 3d 8b a5 22 be
       -0.065908715 -0.13499424 0.05899076 -0.15883462
000110 7b 29 d9 bd 6b 03 8f bd 0c d2 17 3d ca 08 d3 3d
       -0.10603615 -0.06983074 0.03706555 0.10304411
000120 90 7e 8a 3d 8d 8d 21 3e 80 fa de bd f6 3d 21 be
       0.06762421 0.15776654 -0.10887623 -0.15746292
000130 98 d7 c7 bc c0 51 93 3d d0 d2 99 bd 00 88 fa bc
       -0.024394795 0.07193327 -0.075109124 -0.030582428
000140 90 4c d5 bd 10 6b b2 bd c0 51 c9 3c 46 2c fa 3d
       -0.10414994 -0.08711827 0.024575114 0.12215476
000150 0a e2 d9 3d 12 d7 bc 3d 16 fd 73 bd 16 68 90 bd
       0.10638817 0.09220709 -0.059567533 -0.07051103
000160 30 57 e0 bd 2c d0 00 bd 40 b7 24 bb ba fc ac 3d
       -0.1095413 -0.03144853 -0.002513364 0.08446641
000170 72 d6 d2 3d 00 7e 2b 3b 36 eb 9c 3d 86 05 9c bd
       0.102948084 0.002616763 0.076620504 -0.07618241
000180 b0 38 80 3d f2 41 fb 3d bb 3a ad bd e0 d6 3d 3d
       0.06260812 0.122684374 -0.084584676 0.0463475
000190 50 e4 a0 bd fb 84 26 be 66 11 19 be 3e 6a 09 be
       -0.07856047 -0.16261666 -0.14948043 -0.13419434
0001a0 33 d6 13 3e 00 b6 da bd 88 b0 24 be 00 8a 9d bb
       0.1443718 -0.10679245 -0.16082966 -0.0048077106
0001b0 60 bb 7c bd 50 ca 98 3d 40 d9 f7 bc f8 98 24 be
       -0.061702132 0.07460463 -0.03025496 -0.16073978
0001c0 f4 57 55 3d a3 c2 24 3e 96 3a c9 3d 00 60 1a 3b
       0.05208583 0.16089873 0.098256275 0.0023555756
0001d0 e0 c4 9b bd 02 a9 d9 3d 20 70 29 3d 00 7e 54 3d
       -0.0760591 0.10627939 0.041366696 0.051877975
0001e0 08 ce 01 be cb ff 27 3e 76 71 c5 3d 4b e2 a1 bd
       -0.12676251 0.16406171 0.096407816 -0.0790449
0001f0 6a d8 e3 3d 40 62 6b 3d d0 3b 1a 3c f5 0a 24 3e
       0.11125262 0.057466745 0.0094136745 0.16019805
000200 f4 f3 39 3d 36 4f c2 bd 6e 85 10 be 20 3c 01 be
       0.045398667 -0.094877645 -0.141134 -0.12620592
000210 22 78 d6 3d 50 ee 84 3d 86 9e 14 be cc 6e 7f 3d
       0.10472132 0.06490767 -0.14513597 0.062361524
000220 98 75 eb 3c 6b fe dd bd b6 c1 e0 3d 2a 3e a1 3d
       0.028742597 -0.10839542 0.109744474 0.07873185
000230 d6 77 4c bd a9 a8 16 3e 4c 79 57 bd 80 30 49 3d
       -0.049918972 0.14712776 -0.052605912 0.04911852
000240 fb d4 01 3e e9 69 27 3e d0 1a 41 bc 16 5c 46 bd
       0.12678902 0.16348995 -0.011786178 -0.048427664
000250 d8 1e f1 bc 80 ee d2 ba d2 28 e6 3d 03 10 1a 3e
       -0.029433653 -0.0016092807 0.112382546 0.1504517
000260 80 7c a3 3d d8 b0 ba bc 76 6f 8a 3d 10 66 96 3d
       0.07982731 -0.022789404 0.06759541 0.073436856
000270 0c f1 51 bd 7b ad 00 3e a0 db 09 bd 30 4c 9d 3d
       -0.05125527 0.12566178 -0.033656716 0.07680547
000280 b0 5c 2e 3c 80 65 db bd 78 13 0a be 50 5e 5e bc
       0.010642216 -0.10712719 -0.13483989 -0.013572291
000290 a0 ad d8 bb 73 08 0f 3e 80 3b f3 bc b0 6a a8 3d
       -0.0066124946 0.13968067 -0.029691458 0.08223474
0002a0 0b 35 d1 bd 8a 75 ba 3d 11 fe 10 3e 66 94 8e 3d
       -0.10215195 0.0910445 0.14159419 0.069618985
0002b0 80 58 fa bd ab da 22 be 36 0f a3 bd fd e2 08 3e
       -0.12223911 -0.15903728 -0.07961886 0.13367839
0002c0 2c 9d 39 bd 36 67 c9 bd 6c 31 46 3d 7b e9 cf bd
       -0.045315906 -0.09834139 0.048386976 -0.10151955
0002d0 b6 02 d3 3d 6b 9e e3 bd c0 62 de 3c a0 db 8e 3d
       0.103032514 -0.111142 0.027146697 0.06975484
0002e0 66 4c dd bd 06 ab c0 bd b0 ee 8d bd c0 e6 dc bd
       -0.108055875 -0.0940762 -0.06930292 -0.107861996
0002f0 72 a3 bd 3d 46 b8 19 be 14 a6 45 3d e8 69 bd bc
       0.0925969 -0.15011701 0.048254088 -0.02312179
000300 d0 f4 4d bc ec 65 0a bd eb 6f 25 be 40 2b c5 bd
       -0.012570575 -0.033788607 -0.16155975 -0.0962739
000310 cb 30 80 bd b6 07 89 3d d4 04 2a bd a0 04 df 3b
       -0.062593065 0.06690924 -0.04150851 0.0068059713
000320 1b 4d 26 3e a8 51 dd bc bd 1b 10 3e 40 31 e4 3c
       0.16240351 -0.027016476 0.14073081 0.027855515
000330 00 2c 62 3b a1 37 21 3e 4b 26 0e 3e 80 a4 80 3d
       0.003451109 0.15743877 0.13881795 0.06281376
000340 40 75 17 bb 0b 3e 87 bd 16 f3 8e bd 7b 6f 22 3e
       -0.0023110658 -0.06603631 -0.06979959 0.15862839
000350 a0 fc a9 bd e8 f2 c5 3c ea 62 c3 3d 40 a6 41 bd
       -0.083001375 0.024163678 0.09540351 -0.04727769
000360 f6 7d 02 be 35 2f 20 3e 09 e7 25 3e 3d f9 23 3e
       -0.12743363 0.15643008 0.16201414 0.16013046
000370 80 6c cd bd 66 67 d5 3d a0 6a 9b bd 4c 2d 78 3d
       -0.1003046 0.10420112 -0.075886965 0.060590073
000380 42 d6 b2 3d f4 fa 1a 3d a0 6b 54 3d e8 22 28 be
       0.08732273 0.037836984 0.05186045 -0.16419566
000390 ca 87 8d 3d c5 2d 0e 3e 16 1a aa bd c0 df 9c bc
       0.06910665 0.13884647 -0.08305757 -0.019149661
0003a0 00 6f 6d 3c aa 10 c6 3d 3a 74 9e 3d d0 ed 0b be
       0.0144917965 0.09671147 0.07737012 -0.13664937
0003b0 b2 44 ad 3d 20 06 b1 bd 4c 0d 6f bd a6 33 cb bd
       0.08460368 -0.086437464 -0.05836229 -0.099219605
0003c0 de f0 25 be 40 fe 01 be 40 b2 97 3d 8c dd 01 3d
       -0.16205165 -0.12694645 0.07407045 0.031705424
0003d0 e0 89 2a be cc 71 5a 3d 00 f5 53 3c cc d0 53 3d
       -0.16654158 0.05333118 0.0129368305 0.051712796
0003e0 c9 60 28 3e c3 91 14 be 16 78 a3 3d ba 20 c3 3d
       0.1644317 -0.14508729 0.07981889 0.095277265
0003f0 06 7c a5 bd da ef 93 3d f4 9b 3f 3d fe 63 0c be
       -0.08080296 0.072234824 0.046779588 -0.13710019

sequential/conv2d_3/Conv2D f4 [8, 3, 3, 4]
000000 52 43 ce 3d ee 08 fe 3d 09 83 6c 3e 98 97 52 bd
       0.10071434 0.12404047 0.23096861 -0.051414102
000010 dc 16 1f be 60 34 3b bc ac 5f 61 be 14 fb 41 be
       -0.15536064 -0.011426061 -0.22009152 -0.18943435
000020 e4 cc 37 3d 95 91 53 3e 2f 28 1e be 96 9f e5 bd
       0.044873133 0.20661004 -0.15445016 -0.11212079
000030 00 00 4b ba 8a 94 ea 3d 3b 4d 6b 3e f4 1a 32 be
       -0.00077438354 0.11454113 0.2297868 -0.17393094
000040 70 84 d2 bd e7 16 41 be 26 df a9 3d a2 57 ff bd
       -0.10279167 -0.18856393 0.08294515 -0.124678865
000050 e8 72 d7 bc c4 2d e2 bd ee ce 9f 3d 68 93 0b bd
       -0.026299909 -0.11043885 0.078031406 -0.034076124
000060 00 af 4d bb 14 8b ca bd 87 6d 51 be fc f6 4f be
       -0.0031384826 -0.09889808 -0.20451938 -0.20309061
000070 89 84 50 3e 9a 26 0d be ef c8 3a 3e b0 75 ae bc
       0.20363058 -0.13784257 0.18240713 -0.021296352
000080 a0 4a 09 bd 36 93 57 be b1 6b 37 be fd d4 28 be
       -0.033518434 -0.2105225 -0.17912175 -0.16487499
000090 26 4a f8 3d 00 c4 0a bb 51 14 28 3e c0 76 b0 3b
       0.12123518 -0.0021173954 0.16414 0.00538525
0000a0 16 dd 3b be 2f 79 2a 3e 49 ff 07 3e d0 fa de bd
       -0.18346056 0.1664779 0.13280977 -0.108876824
0000b0 36 44 9b 3d 20 ac de 3b 7d b2 4c 3e 0a 73 bd bd
       0.075813696 0.0067954212 0.19989963 -0.092504576
0000c0 26 ed b7 3d 0b 4f 17 3e f4 65 0c 3d 90 20 e8 bc
       0.08980779 0.14776246 0.034276918 -0.02833584
0000d0 11 78 0f 3e 48 c7 4e be a0 8d 02 be 3e 43 d6 3d
       0.14010645 -0.20193207 -0.12749338 0.10462044
0000e0 6c ea 66 bd 3e e4 4e be 46 8e a7 3d f4 ff 11 3d
       -0.056375906 -0.20204255 0.081814334 0.035644487
0000f0 8a cc b7 bd 41 c9 46 be 34 ec 7b 3d c8 64 a2 3c
       -0.089745596 -0.1941271 0.061504558 0.019823447
000100 0b 6d 43 be c2 8b d7 3d 16 96 d5 3d 78 32 0d bd
       -0.19084565 0.105247036 0.10429017 -0.03447196
000110 5b 0b 50 be f6 7d c3 3d 62 2b ad 3d d1 6a 28 3e
       -0.20316832 0.095455095 0.0845554 0.16446997
000120 b9 5c 35 3e 12 6a c6 bd dc 5f 49 3d 33 3f 4a 3e
       0.17711152 -0.096882 0.049163684 0.19750671
000130 b6 10 c4 bd 75 89 5e 3e 5e e2 9a bd be cc e2 3d
       -0.095735 0.21732123 -0.07562707 0.11074208
000140 fc f2 1a be 06 5b 35 be 07 90 42 3e 14 73 04 3d
       -0.15131754 -0.17710504 0.19000255 0.03233631
000150 89 f8 59 3e 41 da 6f 3e 9e 2f 8f 3d b8 d8 69 bd
       0.21286215 0.23423101 0.06991504 -0.057091445
000160 e4 1c 59 bd d2 33 c0 bd 86 6d aa bd b7 eb 4f be
       -0.053006068 -0.09384884 -0.08321671 -0.20304762
000170 d3 1e 55 3e a4 03 67 bd ec c8 20 3d 45 bc 28 be
       0.2081254 -0.056399956 0.039254114 -0.16478069
000180 6e 46 ba bd 62 e4 c7 3d fd fb 39 3e 60 fc eb bb
       -0.09095465 0.097603574 0.18162532 -0.0072017163
000190 78 75 0f bd 32 fa c1 3d 58 03 c0 3c f0 02 0e 3c
       -0.035024136 0.09471549 0.023439094 0.008667693
0001a0 2e 2b 36 be e2 f0 c4 3d ba 10 2a be 2e 81 fe 3d
       -0.17789909 0.09616257 -0.16607943 0.12426983
0001b0 e0 b3 bc bc 4b ca 21 be 38 71 f3 3c d0 05 d6 bc
       -0.02303499 -0.15799825 0.029717073 -0.026125818
0001c0 0a 6d cd 3d 59 45 53 3e 2c d4 20 bd 29 d2 5f 3e
       0.10030563 0.20631923 -0.039264843 0.21857513
0001d0 40 db ca bd a1 1e 12 3e 2e ae 89 bd fa 06 f6 3d
       -0.099051 0.14269497 -0.06722675 0.120130494
0001e0 f0 31 04 be ef 1a 0e 3e 57 bf 6f 3e 0f 73 54 be
       -0.12909675 0.13877462 0.23412834 -0.20747016
0001f0 17 f8 5d be 5c 3a a5 bd a2 93 97 bd 42 cc 92 3d
       -0.2167667 -0.08067772 -0.074012056 0.07167865
000200 93 2a 4b 3e 34 de 31 3d a1 97 2d 3e a4 17 e4 bd
       0.1984046 0.0434248 0.16952373 -0.111373216
000210 0c 1b 2c 3d 7b 21 3a 3e 04 ef 18 be c7 49 4b be
       0.04201798 0.18176834 -0.14934927 -0.19852363
000220 16 9d af bd 6e cc af 3d ed 77 5e 3e b2 40 8a bd
       -0.08574884 0.08583914 0.21725436 -0.06750621
000230 22 6e ec bd 68 bf 9f bd f6 96 bd 3d ce ea c8 3d
       -0.11544444 -0.0780018 0.09257309 0.098104104
000240 d5 2e 2f 3e 58 12 36 be ea 95 90 bd a2 22 af 3d
       0.17107709 -0.17780435 -0.07059844 0.085515276
000250 f8 9e e0 bc 7e d4 aa 3d eb 67 3d be df 9f 6e 3e
       -0.027419552 0.08341311 -0.18496673 0.23303173
000260 d3 c5 63 3e aa c4 a9 3d 80 74 be 3a ea 04 ea bd
       0.22243433 0.08289464 0.0014530569 -0.114267185
000270 df be 70 3e 34 be 16 be 46 fc c8 bd 54 5c 70 3d
       0.23510312 -0.14720994 -0.09813742 0.0586818
000280 30 8a 83 bc 38 b7 28 be 78 f2 29 be d2 0e a7 3d
       -0.016057104 -0.16476142 -0.165964 0.081571236
000290 45 a2 60 3e 1f de 05 3e 4c 26 08 3d 14 e6 14 be
       0.21936901 0.13073014 0.033239648 -0.14540893
0002a0 58 85 8a bd 75 b3 3d 3e 9e d0 46 be 81 0f 1b 3e
       -0.067637146 0.18525489 -0.19415519 0.15142633
0002b0 43 e2 59 3e ec 44 70 be 9c db 19 3d 48 ed 93 bd
       0.21277718 -0.23463792 0.03756295 -0.07222992
0002c0 34 77 b5 bd 91 09 54 be ef 50 5e 3e c7 54 2c 3e
       -0.08860627 -0.20706774 0.21710561 0.16829215
0002d0 63 7e 44 3e 72 d9 ee 3d b6 1e e1 3d d3 cb 65 3e
       0.19188838 0.11662568 0.10992186 0.22441034
0002e0 b2 c0 ba 3d 04 bc 34 3d 3a c5 ef 3d f0 3c 7e bc
       0.09118785 0.04412462 0.1170754 -0.015517458
0002f0 18 68 b9 3c 26 e0 b5 3d 36 7b cc 3d a4 dd 6c 3d
       0.022632644 0.088806435 0.09984438 0.05782856
000300 47 af 04 3e 38 ff bf bc 3b ce 24 3e ef 56 54 3e
       0.12957488 -0.023437127 0.16094296 0.20736288
000310 93 06 31 3e 34 31 8b bd bc 97 51 bd eb 9d 39 3e
       0.17287664 -0.06796494 -0.051170096 0.18126647
000320 0b 9f 28 be 94 41 2d 3d 55 b9 34 3e 20 2e 24 bd
       -0.1646692 0.04229887 0.17648824 -0.04008305
000330 9a 0e 2e be 23 b2 1b 3e f2 10 1b be ca cf e6 3d
       -0.16997758 0.15204673 -0.15143183 0.11270101
000340 42 25 ff 3d 7e 96 ee 3d 68 41 b4 3c 7c 51 4d be
       0.12458278 0.11649798 0.022003844 -0.20050615
000350 d0 f7 54 bd 5c e2 17 be a8 95 9c bc c9 42 16 3e
       -0.051994145 -0.14832443 -0.01911433 0.14673914
000360 d7 19 fa bd ee 94 08 be 36 ca 46 be a7 91 2f 3e
       -0.1221196 -0.13338062 -0.19413075 0.17145406
000370 7c 1c 5d bd e4 b5 bc bd 82 94 3d be 86 7f 2a be
       -0.053982243 -0.092143804 -0.18513682 -0.16650209
000380 dc 4a 0f 3d 56 36 f1 3d e7 fb 64 3e 8e c4 1c be
       0.0349835 0.11777942 0.22361718 -0.15309355
000390 6c 39 07 bd 35 c2 5a 3e 4a 99 62 be 62 39 83 3d
       -0.033013746 0.21363147 -0.22128788 0.06407429
0003a0 10 32 5d 3c 77 f8 5a 3e ce ef 16 be cc 15 98 bd
       0.013500705 0.21383844 -0.14739916 -0.074260324
0003b0 21 7a 24 3e ea c2 4c be 49 5d 46 3e bd 7c 22 3e
       0.16062213 -0.19996229 0.19371523 0.15867896
0003c0 62 db d0 3d 7c e1 ef bd 3d b1 15 3e df da 0e be
       0.10198094 -0.117129296 0.14618392 -0.1395068
0003d0 fb 01 6f be 66 aa ad bd 7b f7 30 3e 26 c7 63 be
       -0.23340599 -0.084797665 0.17281906 -0.22243938
0003e0 40 3b 6a bd be 4b 2a be 48 63 dc bd 64 50 41 3d
       -0.05718541 -0.16630456 -0.10761124 0.047195807
0003f0 e4 ae 42 be 7a 99 38 be bf 22 31 3e 4d 63 5c 3e
       -0.19012028 -0.18027297 0.17298411 0.21522255

sequential/conv2d_2/Conv2D f4 [4, 3, 3, 4]
000000 98 48 7a 3e d8 7f 74 3e 40 5e 17 3c e8 e9 6f be
       0.24441755 0.23876894 0.00923878 -0.23429072
000010 db 2a 88 be df ef 64 be e9 7f 70 be f9 db 83 be
       -0.26595196 -0.22357129 -0.23486294 -0.25753763
000020 cc 8c 2d 3e ee 79 e5 bd 94 c1 5e 3e 80 7a 7c 3b
       0.16948241 -0.11204897 0.21753532 0.0038525164
000030 99 11 88 be c0 0e 49 3c 20 4c aa 3c 16 d2 35 3e
       -0.26575926 0.012271583 0.020788252 0.17755923
000040 be 8f 4f 3e 7c fb e2 3d e8 ec 0f 3d 5c b5 01 3e
       0.20269677 0.11083123 0.03513804 0.1266684
000050 04 09 11 3e 5a d7 2e 3e c0 52 7b bc 55 fa 85 be
       0.14163595 0.17074338 -0.015339553 -0.2616755
000060 50 40 24 3e 26 ed 81 bd 18 ec a5 bd 57 52 44 be
       0.16040158 -0.063440606 -0.08101672 -0.19172035
000070 da 9b 37 be a0 6a bf bc 8c ae b1 3d ac 65 6b be
       -0.17930546 -0.023366272 0.0867587 -0.22988003
000080 88 6d 79 be 50 58 fa 3c 22 78 85 bd 1a 66 82 3e
       -0.24358189 0.030559689 -0.06517054 0.25468522
000090 20 33 9e 3c 50 33 87 bc 86 a0 fb bd 88 f8 b4 bd
       0.019311488 -0.01650396 -0.12286477 -0.08836466
0000a0 16 ee 90 3e ac 7d 6d be 8e 26 46 be fc d5 9c bd
       0.28306645 -0.23192471 -0.19350645 -0.07658002
0000b0 90 8f 50 3e e8 bf 5c 3d c6 cf 31 be 40 d2 91 be
       0.20367265 0.053893954 -0.17364416 -0.2848072
0000c0 ae 99 d9 bd 08 52 66 3d 2c 68 b3 3d b2 4b 1e 3e
       -0.10625015 0.056230575 0.087601036 0.15458563
0000d0 44 c3 0e 3e 6d 5c 90 be 3a 57 dc bd 5e 04 1b be
       0.13941675 -0.28195515 -0.10758825 -0.15138385
0000e0 b0 50 e7 bd ee b0 21 be 00 ae 3f ba 98 a1 a2 bd
       -0.11294687 -0.1579015 -0.0007312 -0.07940978
0000f0 2e d6 04 3e 40 7c bb 3d b8 b4 7a 3d 2b 17 8c be
       0.12972328 0.09154558 0.061207503 -0.27361426
000100 90 df ea bc dc 93 68 be 63 78 70 be 44 f7 99 3d
       -0.028671056 -0.22712654 -0.23483424 0.07517865
000110 2e 50 80 be 0a 52 7d be f4 89 a0 3d c2 b8 20 be
       -0.25061172 -0.24738327 0.078388125 -0.1569548
000120 a4 0a c0 bd 9e 0d e2 bd 48 0f b0 bd 9d 19 42 be
       -0.093770295 -0.110377535 -0.08596665 -0.18955083
000130 fd 05 79 be c0 48 f1 3d ce bd e7 bd e4 17 fe bd
       -0.2431869 0.11781454 -0.11315499 -0.124069005
000140 8c 32 75 3e d2 22 dd bd 11 e8 89 be ac e4 56 3e
       0.23945063 -0.10797657 -0.26934865 0.20985669
000150 08 1c d9 bd fd bc 10 be 50 52 80 3e 60 e6 e8 3c
       -0.1060105 -0.14134593 0.250628 0.028430164
000160 58 15 33 3e 60 df 76 3e a2 54 12 be 5e 28 51 3e
       0.1748861 0.24108648 -0.14290097 0.20425555
000170 30 a8 70 bd 42 d1 83 3e 5e bb 4d 3e 2c c0 02 be
       -0.058754146 0.2574559 0.20091006 -0.1276862
000180 bc 9b 65 bd cc 9c 77 bd 68 1e 84 3e 3c c8 cc 3d
       -0.056056723 -0.060452268 0.25804448 0.09999129
000190 f0 e6 da 3c 26 71 53 be ca d8 2b 3e 88 7d 25 3d
       0.026721448 -0.20648631 0.16781917 0.04040292
0001a0 30 64 b3 bc f6 42 d7 bd e0 b9 48 3c 15 50 8e be
       -0.021898359 -0.10510819 0.012251347 -0.27795473
0001b0 87 e4 07 be a0 0d 66 bd 50 1b 79 be 48 ec 35 3e
       -0.1327077 -0.056165338 -0.24326825 0.17765915
0001c0 ed 07 69 be 1e d6 8d 3e 9d fe 19 be 93 7c 71 be
       -0.2275693 0.2770242 -0.15038534 -0.23582678
0001d0 3a 32 63 be 68 b7 4e 3d 30 25 6d 3e 6d 61 2f be
       -0.22187129 0.05046788 0.23158717 -0.17127009
0001e0 8c b3 a9 bd de 4b 1b 3e 58 b0 8c 3d 58 d3 08 3d
       -0.08286199 0.1516566 0.068695724 0.033404678
0001f0 b8 ae 74 3e 0f 42 20 be 70 a4 bc 3c 6e 4b 82 3e
       0.23894775 -0.156502 0.023027629 0.25448173
000200 c0 62 04 3d 7c bc ae 3d d4 cd 65 bd eb 30 92 be
       0.032320738 0.08532044 -0.056104496 -0.28552946
000210 20 b0 85 be cc d2 8d 3e 08 e8 89 be 18 68 53 3e
       -0.26110935 0.27699888 -0.26934838 0.20645177
000220 9c 06 0a 3e 3e 9c 5d be 16 81 0d be 10 c0 4b 3d
       0.13479084 -0.21641633 -0.13818774 0.049743712
000230 f0 b9 53 bd 20 68 9b 3d 3e d8 3e 3e dc 09 55 3e
       -0.051690996 0.0758822 0.18637177 0.20804542

sequential/conv2d_1/Conv2D f4 [4, 3, 3, 2]
000000 eb 0a 70 be c0 a8 b7 bb d6 af c3 bd a8 f3 95 be
       -0.23441665 -0.0056048334 -0.095550224 -0.29287457
000010 76 8f 13 3e 80 2c c8 3c c6 d2 5b 3e 31 41 9c 3e
       0.14410195 0.024435282 0.21467122 0.30518487
000020 74 ef ca 3d f6 fa 2e be d4 37 9b bd ce 59 aa be
       0.09908953 -0.17087922 -0.07579008 -0.3327164
000030 60 d2 20 bc 0a e2 0c 3e 76 91 b0 bd 40 15 c3 3b
       -0.009815782 0.13758102 -0.086214945 0.005953461
000040 fb a3 94 be ca cb 0f 3e a1 b8 85 3e 36 89 04 be
       -0.29031357 0.14042583 0.26117423 -0.12942967
000050 c0 fa 8b 3b 40 df b3 3d fa 85 5f 3e a0 93 14 bc
       0.004271835 0.08782816 0.21828452 -0.0090684
000060 b0 0f 4b be 94 11 9e bd 33 74 88 be 4b 92 5e be
       -0.19830203 -0.077181965 -0.26651153 -0.21735494
000070 ec b2 d2 3d b0 9c 7f be 7e 69 a0 be 5d c7 91 3e
       0.10288033 -0.24962115 -0.31330484 0.28472415
000080 66 d7 71 be 00 7b 9e 3d 00 cd bc bd 4d 24 9e 3e
       -0.23617324 0.07738304 -0.09218788 0.3088707
000090 28 93 42 3d d3 7c 82 3e b1 6b a3 3e 76 50 38 be
       0.04750362 0.25485858 0.319181 -0.17999443
0000a0 ac f2 f9 3d 8c e4 d4 3d 86 60 47 be 3b b5 7e be
       0.12204489 0.10395154 -0.19470415 -0.24873821
0000b0 f6 72 22 3e 40 9b a8 3d 0c 86 e9 bd 5b 5c 62 be
       0.15864167 0.082327366 -0.114025205 -0.22105543
0000c0 50 ee 1b be b2 cf 5e 3e 80 02 fc bd 7a 0e 52 3e
       -0.15227628 0.21758917 -0.12305164 0.20513335
0000d0 ca 2c 39 3e 80 e9 84 3c d0 83 b9 bc 74 43 a8 3d
       0.18083492 0.016224623 -0.02264586 0.08215991
0000e0 66 7e 2e be 30 06 e6 bc e3 6e a5 3e 40 52 04 3d
       -0.17040405 -0.028079122 0.32311162 0.032305002
0000f0 d0 2e 31 be 50 d6 b8 3c ac 33 c2 3d 12 97 2c 3e
       -0.17303014 0.02256313 0.09482512 0.16854504
000100 20 b5 b2 3d d0 e2 01 3e a3 56 a7 be cb 23 89 be
       0.08725953 0.12684178 -0.32683286 -0.2678512
000110 80 8c cb 3c f3 53 86 be e8 32 69 bd c2 6d 64 3e
       0.024847269 -0.26235923 -0.056933314 0.22307494

sequential/conv2d/Conv2D f4 [2, 3, 3, 1]
000000 4c 63 0f be 78 9a 14 bd 50 97 bf 3c fb 5d dc be
       -0.14002723 -0.036280125 0.023387581 -0.4304045
000010 65 1e a7 3e ee 37 54 3e 39 aa ed be 56 90 32 3e
       0.32640377 0.2072446 -0.46418932 0.17437872
000020 2f ca ec 3e dc de a6 bd 5f 96 e4 3e 7f 15 93 be
       0.46248004 -0.08147976 0.44645974 -0.28727338
000030 30 13 a3 be a1 3e aa be 01 3f cf be 72 38 4d be
       -0.31850576 -0.33250907 -0.40477756 -0.20041063
000040 c8 89 6c 3d 82 72 67 3e
       0.057748586 0.22602275

sequential/conv2d_1/BiasAdd/ReadVariableOp/resource f4 [4]
000000 00 00 00 00 00 00 00 00 00 00 00 00 00 00 00 00
       0.0 0.0 0.0 0.0

sequential/dense/MatMul f4 [64, 1152]
000000 00 c7 95 bc 9a a6 7b 3d 78 25 c8 bc d0 b7 9c bb
       -0.018283367 0.06143818 -0.024431929 -0.0047826543
000010 a6 de 59 3d f0 c1 0e 3c 42 6e 8c bd 8f 02 85 3d
       0.05319085 0.0087132305 -0.068569675 0.06494629
000020 ec 4f 6d bd 80 8c 66 ba 40 06 c0 3b 98 2f 3c 3c
       -0.057937548 -0.000879474 0.00586012 0.011485957
000030 02 c1 79 3d a0 1c f1 bb 6e 64 2f 3d d8 53 d3 3c
       0.060975082 -0.0073581487 0.042820387 0.025796816
000040 b5 4f 0c bd c0 a3 75 bb e8 e1 a7 3c a4 bf 07 bd
       -0.034255702 -0.0037481636 0.020493463 -0.033141747
000050 ec 93 4b bd 78 79 e8 bc bc 4e eb 3c f4 bd 5f bc
       -0.049701616 -0.028378233 0.028724067 -0.013656128
000060 28 31 2c bd 7d 95 01 bd 61 15 01 bd e0 77 41 3b
       -0.042039067 -0.031636704 -0.03151453 0.0029520914
000070 48 01 26 bd b7 92 62 bd c8 5c fd 3c e8 5a 86 3c
       -0.040528566 -0.0553157 0.03092803 0.01640077
000080 00 f0 bb 3a 64 7e 12 bd ea dc 60 3d 1c c4 65 bd
       0.0014338493 -0.035765067 0.05489818 -0.056095228
000090 3b 7e 8d 3d 68 e1 eb bc a5 3f 89 bd 07 44 84 3d
       0.06908842 -0.028794006 -0.06701592 0.06458288
0000a0 be 0d 0b 3d aa 42 11 3d ae 4b 59 bd 6f 4e 8a 3d
       0.033948652 0.035463966 -0.05305069 0.06753241
0000b0 e0 05 01 bd da 01 ea bc 5b ff 8c 3d eb 44 8a 3d
       -0.031499743 -0.028565336 0.06884643 0.06751426
0000c0 74 95 0a bd 2a 96 7a bd b4 3e 55 bc 84 96 e8 bc
       -0.033833936 -0.061178364 -0.013015438 -0.028392084
0000d0 d3 19 50 bd 04 e8 21 3d 5f 87 8f 3d d0 fd ac 3c
       -0.050805878 0.039527908 0.07008242 0.021117121
0000e0 17 40 82 3d 24 c6 41 3d 80 36 29 bd d6 c6 67 3d
       0.063598804 0.047308102 -0.04131174 0.05658611
0000f0 57 ae 02 bd 3a ed 29 3d d4 58 85 3c c0 6f 84 3a
       -0.031904545 0.041486003 0.016277708 0.0010104105
000100 44 7f a3 bc 88 fa a0 3c 67 c6 89 3d 26 af 0f bd
       -0.019958146 0.019650713 0.06727295 -0.035079144
000110 89 2b 8b 3d 2e de 63 3d 14 9f 0e 3d c0 cf e2 ba
       0.06795413 0.05563181 0.034819677 -0.0017304346
000120 e3 0c 80 bd 60 34 27 bb 06 ee 8c bc 93 67 7e bd
       -0.06252458 -0.0025513396 -0.017203342 -0.062110495
000130 c8 8b 7d bc da fb 8a bd c4 87 bd 3c ac 64 cc bc
       -0.015475221 -0.06786318 0.023136027 -0.024950348
000140 e0 1d 00 3c 78 ba 63 3c b0 20 f1 3c 3d b5 50 bd
       0.007819623 0.013899438 0.029434532 -0.050954092
000150 ee 62 82 bc c0 84 de bb 74 72 2b bc 78 6c 10 3c
       -0.015916314 -0.0067907274 -0.0104642995 0.008814923
000160 54 47 ea 3c 70 d5 a5 bb 1c eb 8b bd 88 10 e9 3c
       0.028598465 -0.005060844 -0.06831953 0.028450266
000170 e6 34 12 3d d2 3c 0d 3d c0 81 d3 ba 7b 2f 81 3d
       0.03569498 0.03448183 -0.0016136691 0.06307884
000180 f4 5c f2 bc 18 e6 bb 3c 3c c1 a3 3c 8e 2d 3d 3d
       -0.02958534 0.022936866 0.019989602 0.046186022
000190 22 5f 05 bd f2 60 b1 bc 8e a3 62 bd 9c 54 3f bc
       -0.03256143 -0.021652672 -0.05533176 -0.011677887
0001a0 1d b2 17 bd 6c e4 fc bc 12 f6 04 3d 84 3b 57 bd
       -0.037035096 -0.030870639 0.032461233 -0.052546993
0001b0 a6 ec 74 3d 7e ad 2d 3d a2 5f 26 3d 2e 66 36 bd
       0.059795998 0.042401783 0.040618546 -0.04453104
0001c0 da 02 a8 bc d0 35 fc bb 56 31 4f 3d 00 e2 8e 3b
       -0.020509172 -0.0076968446 0.05058416 0.0043604374
0001d0 22 7d 3b bd 20 f9 67 3b 04 23 ec bc 3f e5 42 bd
       -0.045773633 0.0035396293 -0.02882529 -0.047581907
0001e0 b7 12 67 bd a6 d8 07 bd e0 0e d9 bb 6c 68 8c 3c
       -0.056414332 -0.033165596 -0.0066240877 0.017139636
0001f0 13 7e 89 bd d3 bb 8c 3d a0 c6 23 3b e2 d5 7c 3d
       -0.067135 0.06871762 0.0024990216 0.061727412
000200 ce 8d 87 bc 1c 74 a7 3c 6c 8b be 3c 17 9f 88 3d
       -0.01654711 0.020441107 0.02325984 0.06670969
000210 4c 84 af 3c d7 c0 7f bd 08 27 1f 3c 70 94 27 3c
       0.021425389 -0.062439766 0.009713896 0.010228261
000220 12 9d 24 3d 00 f5 33 3a a6 25 4e 3d 18 f6 36 3c
       0.040188856 0.0006864816 0.050328873 0.011167072
000230 9e a1 22 3d 6e 61 86 bd b4 bb 02 3d de 11 89 bc
       0.03970491 -0.06561552 0.03191729 -0.016732153
000240 e4 01 fc 3c 0a 78 82 bc 20 de 76 3c 18 0a d6 3c
       0.03076262 -0.01592638 0.015067607 0.02612786
000250 e4 f9 d9 3c de 89 8d bd 80 24 55 ba 44 af d4 3c
       0.026608415 -0.06911062 -0.0008130744 0.02596248
000260 e8 2b cb bc 0a 60 0c bd f4 0c 8a bd 00 e6 38 3d
       -0.02480121 -0.034271277 -0.06740752 0.04514122
000270 8c 23 dd 3c 00 20 7e 3c 7a 39 57 3d 06 98 6c bd
       0.02699449 0.015510559 0.05254505 -0.05776217
000280 75 fd 85 bd e8 84 13 3c e0 3e 40 3b ac 8b 9b bc
       -0.06542484 0.009003855 0.0029334351 -0.0189875
000290 c8 0e 3b 3d e9 1d 8b 3d 24 8a d4 bc 6e 7c fc bc
       0.045668393 0.06792814 -0.025944777 -0.030821051
0002a0 64 61 a6 bc 7c 44 0a bc d8 46 06 3c 74 26 14 3d
       -0.020310111 -0.0084391795 0.008195601 0.036169484
0002b0 8d a9 68 bd 8b be 4b bd 00 4c ec b8 30 ee 2e bc
       -0.05680232 -0.049742263 -0.00011267513 -0.0106769055
0002c0 c0 55 23 bc 06 b4 e0 bc f8 5c 8a bd f0 1c 96 3c
       -0.009969175 -0.027429592 -0.06756014 0.018324345
0002d0 ea 3f 58 3d 91 6d 04 bd bf 2a 8d bd 78 74 8c 3c
       0.05279533 -0.032331053 -0.06892919 0.01714538
0002e0 8e 2d 8f bd fc 24 b9 3c 63 7a 69 bd bc 1d e9 3c
       -0.06991111 0.022600643 -0.057001483 0.028456561
0002f0 9b fe 16 bd e0 43 c6 bb 1a b9 81 bd c0 39 f0 ba
       -0.036863904 -0.006050572 -0.063341334 -0.0018327758
000300 78 01 8b bc ca 6d 5f 3d 0c 89 53 3d b7 d7 0b bd
       -0.016968474 0.054548062 0.05164437 -0.03414127
000310 c0 1f 6c bb f1 a5 73 bd 30 08 1d 3c 94 ff 19 3d
       -0.0036029667 -0.059484426 0.009584472 0.037597254
000320 dc a9 0a 3d 20 51 fc 3c 88 3e 2d 3c c0 22 03 3d
       0.033853397 0.030800402 0.010573991 0.032015562
000330 8f f5 80 bd 0e f0 61 3d 32 ce 24 3d e2 d9 53 bd
       -0.062968366 0.055160575 0.040235706 -0.05172146
000340 40 e9 4a 3d fe b3 01 bd 60 dc d1 bb ae a7 78 3d
       0.04953885 -0.031665795 -0.0064044446 0.060706787
000350 14 cb 23 3d 1f 62 77 bd b4 2f 36 bd ac 29 d5 3c
       0.039988592 -0.06039631 -0.044479087 0.026020847
000360 4b e6 8c bd c4 9a 8a bd 9a 8b 48 bd c0 9b cb ba
       -0.068798624 -0.067678005 -0.04896126 -0.0015534088
000370 4b 1c 84 bd 60 11 b6 bb 78 cc 7d bc 89 6d 89 3d
       -0.06450709 -0.0055562705 -0.015490644 0.06710345
000380 1c 66 b0 3c 10 39 4a 3c 40 90 20 bb 10 ce 86 bd
       0.021533065 0.012342706 -0.0024500042 -0.06582272
000390 46 ca 23 3d f6 f7 44 3d 7e d5 64 bd 30 56 66 3c
       0.039987825 0.048088036 -0.055867665 0.014058635
0003a0 c4 79 75 bd f4 cf 04 bc 40 b8 25 3b 90 79 f2 bb
       -0.059930578 -0.0081062205 0.0025286824 -0.0073997453
0003b0 f4 b7 ac bc 40 9e 81 bb cc 7a 99 3c 42 69 37 bd
       -0.02108381 -0.0039556324 0.018735312 -0.044778116
0003c0 cf 60 25 bd 40 04 18 bb 65 23 8a 3d 1c b4 32 bc
       -0.040375527 -0.0023195893 0.06745032 -0.010907199
0003d0 5c 15 ee bc e0 80 97 3c 60 86 27 bc 70 48 9c 3b
       -0.02906292 0.01849407 -0.010224909 0.0047693774
0003e0 92 5a 78 3d 90 dd 4d bc 56 7f 88 bd 70 22 fb 3c
       0.06063325 -0.012565032 -0.066649124 0.03065607
0003f0 94 8f eb 3c d2 f8 fa bc 78 c2 2d 3c a3 ab 83 3d
       0.028754987 -0.030636225 0.010605447 0.064292215
