models/0.tflite (tflite, 28152 bytes, 12 tensors)

model/conv2d_1/BiasAdd;model/conv2d_1/Conv2D;model/conv2d_1/BiasAdd/ReadVariableOp/resource f4 [12]
0.0020776303 0.0047802934 0.01769565 -0.00011913864 8.608194e-05 0.0017753405 -0.01260705 -0.015358127
-0.004548338 -0.0034032392 -0.0014702772 0.005664081
00000000: da28 083b 02a4 9c3b 78f6 903c 12da f9b8
00000010: e486 b438 8bb2 e83a cd8d 4ebc a7a0 7bbc
00000020: 390a 95bb e108 5fbb 51b6 c0ba c199 b93b

model/conv2d/BiasAdd;model/conv2d/Conv2D;model/conv2d/BiasAdd/ReadVariableOp/resource f4 [4]
-0.0021316786 0.006831905 -0.011350693 0.00036611772
00000000: a2b3 0bbb 2cde df3b 42f8 39bc 7df3 bf39

model/conv2d_1/Conv2D f4 [12, 1, 11, 4]
-0.041790567 -0.017081235 0.09152815 -0.18735741 0.0043877563 0.046351235 0.16384722 0.15946487
-0.014345004 0.024557179 0.10868258 0.022449322 0.09264353 -0.14042604 0.1708305 0.0069599063
0.09663011 -0.0022699642 0.11249876 0.038223304 -0.024168452 0.0060385587 -0.18339925 0.1143508
0.057334602 0.11691046 -0.18415004 -0.100093566 0.06993284 -0.12349375 -0.03636477 0.007369074
-0.062000673 0.0141954 0.0032519298 0.09004466 0.046034563 0.060276065 0.039781157 0.13469803
-0.00854927 -0.053695634 -0.038420174 -0.16229804 0.08410042 -0.08991088 0.015294536 -0.063911565
0.09001072 0.0760185 0.08481107 -0.1578858 -0.13534488 0.059460126 0.15350991 0.027712129
0.07857386 0.10610696 -0.014756043 -0.12604631 -0.00016358471 -0.08208654 -0.081213646 -0.14120841
-0.18174824 -0.016195217 -0.04467331 0.16289787 -0.060827423 -0.030840749 0.17879874 0.085182734
-0.08570593 0.16201262 0.054048594 -0.1656568 0.12591188 0.10988193 0.14572994 -0.0064808335
0.1626346 -0.035371795 0.040326837 -0.18464346 -0.13865821 -0.17166393 0.064526565 -0.08089705
-0.0436091 0.15840921 -0.116442665 -0.17441972 0.054313984 -0.002464483 -0.18075334 0.01841694
0.12609291 -0.10179114 -0.021178564 -0.013408216 0.07659754 0.12430594 0.088475786 0.009582076
-0.15287374 -0.030389313 -0.11172707 0.06796266 -0.044686493 0.051203933 0.1202438 -0.12062456
0.10789208 0.18719627 -0.1261952 -0.09708969 0.00656416 0.06321379 -0.1039267 -0.15844244
-0.1290041 0.19790344 0.040155586 -0.09154366 0.1854305 0.08548685 0.10762717 -0.0929176
-0.05264602 0.20189545 -0.18307415 0.032106925 -0.10392044 0.022220243 -0.08456125 0.103314474
-0.18647784 -0.15642592 -0.07886559 -0.17600925 0.06516938 0.17700636 0.12681268 -0.13531108
0.10666058 0.12720262 0.15913196 -0.12672487 0.109388866 -0.022402951 -0.03515791 0.08507415
-0.05833408 -0.0045313523 0.039999813 -0.009199867 -0.083037004 -0.018617215 -0.1707969 0.124848716
0.09373186 0.030529078 -0.034999095 0.0051737297 -0.115480535 -0.16677347 -0.15865964 -0.17040083
0.09492269 0.1407456 -0.16317458 0.16088343 0.005131524 0.039598074 0.048348844 -0.005424614
-0.006654631 -0.07797455 -0.08646683 0.030369563 0.08121848 0.083935626 0.11199584 -0.08993986
0.17971997 0.014731937 0.12542614 -0.18670781 0.14993548 0.15569726 0.10813708 -0.013389059
-0.08953676 0.05910094 -0.001700522 -0.18422589 0.13637358 -0.15743034 0.042349372 0.12037305
0.13205059 0.08438906 0.014963128 -0.08245667 -0.1623186 0.01626614 -0.109947324 -0.13513793
-0.0068864124 0.070982695 0.14409386 -0.14810082 0.060294595 0.10260039 -0.0105398595 -0.025638208
-0.081291184 -0.09304806 0.017674416 0.13924536 0.02094042 -0.16064496 0.06231834 0.118344486
-0.12982507 -0.012892859 -0.06308015 -0.014003005 -0.14384796 0.17318872 -0.022519113 0.009202617
0.10154126 0.010434734 0.013738414 0.11253632 -0.0056239576 0.041002084 -0.1441559 -0.15917037
-0.06332499 0.0027134712 -0.10765955 -0.14785768 -0.06647632 -0.013336964 -0.1528359 0.11462729
-0.043964144 0.13741282 -0.16320363 -0.058602516 0.06422655 0.13070583 -0.027452642 0.061482072
00000000: 962c 2bbd f2ed 8bbc 1c73 bb3d 9fda 3fbe
00000010: 2bc7 8f3b cbda 3d3d 91c7 273e c24a 233e
00000020: 4f07 6bbc 232c c93c f994 de3d a4e7 b73c
00000030: e4bb bd3d d8cb 0fbe 31ee 2e3e ed0f e43b
00000040: 02e6 c53d aec3 14bb c065 e63d 0a90 1c3d
00000050: ebfc c5bc 1adf c53b 03cd 3bbe c130 ea3d
00000060: b0d7 6a3d c06e ef3d d491 3cbe dbfd ccbd
00000070: f338 8f3d 4bea fcbd 3af3 14bd 4678 f13b
00000080: 6bf4 7dbd d393 683c 541e 553b 5669 b83d
00000090: bd8e 3c3d 09e4 763d 91f1 223d 48ee 093e
000000a0: 3d12 0cbc f4ef 5bbd 795e 1dbd 7531 26be
000000b0: d73c ac3d 3223 b8bd ef95 7a3c 11e4 82bd
000000c0: 8a57 b83d 96af 9b3d 6db1 ad3d d1ac 21be
000000d0: d997 0abe 768c 733d b431 1d3e 8c04 e33c
000000e0: 55eb a03d 9b4e d93d 55c3 71bc 4912 01be
000000f0: f087 2bb9 fd1c a8bd 5753 a6bd f098 10be
00000100: 361c 3abe d5ab 84bc 5cfb 36bd b3ce 263e
00000110: 2d26 79bd bda5 fcbc 0417 373e 4974 ae3d
00000120: 9786 afbd a3e6 253e 0f62 5d3d f0a1 29be
00000130: 0bef 003e c709 e13d 3b3a 153e 2c5d d4bb
00000140: af89 263e 04e2 10bd c12d 253d 2d13 3dbe
00000150: 6bfc 0dbe abc8 2fbe 8126 843d 5aad a5bd
00000160: 759f 32bd 0636 223e 7e79 eebd 159b 32be
00000170: 5778 5e3d 2a83 21bb 6717 39be 1fdf 963c
00000180: 801e 013e e077 d0bd ab7e adbc 22ae 5bbc
00000190: 2cdf 9c3d 1d94 fe3d cb32 b53d 24fe 1c3c
000001a0: ef8a 1cbe 02f3 f8bc 29d1 e4bd 0230 8b3d
000001b0: 2f09 37bd 37bb 513d 6242 f63d 020a f7bd
000001c0: 86f6 dc3d 61b0 3f3e 5139 01be f6d6 c6bd
000001d0: 2a18 d73b 3b76 813d 86d7 d4bd bc3e 22be
000001e0: a719 04be 33a7 4a3e 2f7a 243d 3e7b bbbd
000001f0: 7ee1 3d3e bb13 af3d a26b dc3d 954b bebd
00000200: 5aa3 57bd aebd 4e3e ca77 3bbe 8d82 033d
00000210: 3dd4 d4bd 3a07 b63c 732e adbd 8a96 d33d
00000220: 0cf4 3ebe 1e2e 20be 4884 a1bd c53b 34be
00000230: 8677 853d 2841 353e 2fdb 013e fd8e 0abe
00000240: dd70 da3d 6741 023e 7df3 223e 2ac4 01be
00000250: 4507 e03d 6586 b7bc be01 10bd 5b3b ae3d
00000260: b7ef 6ebd bd7b 94bb d8d6 233d 0abb 16bc
00000270: 4e0f aabd 2183 98bc 62e5 2ebe afb0 ff3d
00000280: 7df6 bf3d 1e18 fa3c 365b 0fbd 6488 a93b
00000290: 0f81 ecbd aac6 2abe ac77 22be 8e7d 2ebe
000002a0: d466 c23d 9d1f 103e 3d17 27be a0be 243e
000002b0: 5826 a83b 9731 223d 7009 463d f6c0 b1bb
000002c0: 170f dabb 1fb1 9fbd 8515 b1bd 97c9 f83c
000002d0: e055 a63d 71e6 ab3d 135e e53d 6432 b8bd
000002e0: 8308 383e 395e 713c b66f 003e 5530 3fbe
000002f0: b088 193e 1a6f 1f3e f976 dd3d c95d 5bbc
00000300: 0c5f b7bd d413 723d 0de4 deba b6a5 3cbe
00000310: 84a5 0b3e 6b35 21be 8976 2d3d 2586 f63d
00000320: 4538 073e 2cd4 ac3d e827 753c 0bdf a8bd
00000330: d936 26be 9140 853c 102c e1bd 9961 0abe
00000340: 6aa7 e1bb 605f 913d 578d 133e bea7 17be
00000350: 77f7 763d 2720 d23d 60af 2cbc 3807 d2bc
00000360: fe7b a6bd fb8f bebd f0c9 903c 5696 0e3e
00000370: 3e8b ab3c 1d80 24be 8441 7f3d 985e f23d
00000380: ddf0 04be 923c 53bc 2a30 81bd dc6c 65bc
00000390: e14c 13be 6258 313e 017a b8bc 93c6 163c
000003a0: ddf4 cf3d 72f6 2a3c 1617 613c 7179 e63d
000003b0: 2d49 b8bb cdf1 273d 9b9d 13be 8ffd 22be
000003c0: 88b0 81bd 7ed4 313b 9c7c dcbd 0168 17be
000003d0: bd24 88bd 4883 5abc 0481 1cbe b6c1 ea3d
000003e0: bf13 34bd f2b5 0c3e da1e 27be 3109 70bd
000003f0: 3689 833d c0d7 053e 5de4 e0bc a0d4 7b3d

model/conv2d/Conv2D f4 [4, 4, 38, 1]
-0.04099942 -0.033643764 0.08226606 0.072708055 0.044360142 -0.07940041 -0.046273302 -0.023492672
0.043921717 -0.0074133924 -0.005005657 0.052263185 -0.07280566 0.037538096 -0.042813595 -0.04620125
-0.03611106 0.025586493 0.06338631 -0.0002705727 -0.07591116 0.08280957 0.08273428 -0.06397332
-0.06049854 -0.061731063 -0.061732855 -0.04143155 0.05498782 -0.0015619511 -0.046719886 -0.036424447
-0.07458449 -0.064826444 0.023860829 0.006297705 -0.0636803 0.051654372 -0.045185685 0.014284066
-0.037127927 -0.07573062 0.038680125 -0.05062682 -0.0028155446 0.051916536 -0.019885885 0.028224947
0.026082484 -0.015483405 0.06706153 0.005221895 -0.006776643 -0.030807627 -0.017251544 0.043251477
0.026316069 0.042470008 -0.07217239 0.07819685 -0.024529127 -0.029645124 0.0138626285 0.014808079
-0.017054154 0.053342327 0.016603032 0.03169255 -0.069435716 0.039567687 0.00278291 0.010628441
0.049065765 -0.0029542726 -0.08774099 0.06765626 0.05091647 -0.027107969 -0.011229949 -0.03443298
-0.039474852 0.0087061 0.04290901 -0.06930717 -0.08980333 -0.080410644 -0.0014894077 -0.045174725
0.04258097 0.05111671 0.032106683 -0.07830241 -0.0063044527 0.046180718 0.037014306 -0.0778007
0.07551 -0.06614722 -0.021601941 -0.034315042 -0.06112179 -0.054050613 -0.013392984 0.058973107
-0.0014378997 0.04126652 -0.060081422 0.01846448 -0.017343925 0.0849808 0.085877694 0.060794707
0.030710073 0.038735177 -0.0484219 -0.00043247166 -0.026098548 -0.042336915 -0.015437245 0.081423074
0.0059588477 -0.089832924 -0.059719447 -0.014023768 0.02358803 0.018740138 0.039601974 -0.060430788
0.08538917 0.003912217 -0.014406744 -0.07750895 -0.033251483 0.03898044 -0.062129363 0.011355685
0.0005322769 0.028663257 0.03922827 0.008232732 0.07900315 0.086946584 -0.0024894404 0.050104868
0.048885986 -0.058438048 -0.05095161 0.020389318 -0.0305922 0.06308584 -0.00588769 -0.051034518
0.022137076 0.061197914 0.0022991505 -0.027323026 -0.07396212 -0.060569793 -0.07648351 -0.05821981
0.064786956 0.085650556 0.08743591 -0.009876115 0.042086273 0.03567744 0.012114527 0.085204594
0.0786943 0.02305794 -0.057063714 0.008363944 0.081804454 -0.004822656 -0.011523351 0.07370406
-0.017494198 0.00048751044 -0.079645045 -0.031216452 0.07055969 -0.043664902 0.012803501 -0.026310205
0.038815286 -0.0525795 0.028977698 0.0051451703 -0.07883193 0.0961591 0.06562575 -0.06820332
0.060466245 0.041867938 0.01702517 -0.051737353 0.046957366 -0.07597347 -0.070283115 9.95278e-05
0.025706425 0.048047587 0.075994894 0.025114354 0.09434901 0.0010327058 0.04114991 -0.039992232
0.06302809 0.053248238 0.04633665 0.034486573 0.037349086 0.09220419 -0.07325329 -0.0012516243
0.0015020625 0.031096067 -0.07423672 -0.012565451 0.07895561 0.013399018 0.07497128 0.036604322
-0.011864456 -0.07230437 -0.009379749 0.047835864 -0.039380167 -0.06714302 -0.07591226 0.027489344
-0.00909741 -0.020804854 0.08979353 0.06736573 -0.028343596 0.048242442 0.08459546 0.08253746
-0.06618062 0.0899193 -0.06439895 -0.06868223 -0.026628168 0.050658345 0.037718896 0.042155985
-0.0341483 0.0074958224 -0.0033023893 0.08943965 0.018455975 0.079919524 0.06691749 0.0908637
00000000: 02ef 27bd 0bce 09bd 1c7b a83d f6e7 943d
00000010: fbb2 353d af9c a2bd 1389 3dbd b473 c0bc
00000020: 42e7 333d 0bec f2bb 7f06 a4bb ec11 563d
00000030: 221b 95bd 8cc1 193d 4f5d 2fbd 863d 3dbd
00000040: 31e9 13bd c49a d13c afd0 813d a7db 8db9
00000050: 4f77 9bbd 1098 a93d 9770 a93d 7204 83bd
00000060: 51cd 77bd b6d9 7cbd 97db 7cbd 21b4 29bd
00000070: e93a 613d 62ba ccba 5a5d 3fbd cd31 15bd
00000080: c1bf 98bd bac3 84bd c977 c33c fb5c ce3b
00000090: d16a 82bd 8993 533d a014 39bd b707 6a3c
000000a0: 7413 18bd a818 9bbd 0d6f 1e3d 125e 4fbd
000000b0: 0085 38bb 6fa6 543d b9e7 a2bc 0138 e73c
000000c0: efaa d53c 1cae 7dbc 8e57 893d 6e1c ab3b
000000d0: 9a0e debb 4760 fcbc 1c53 8dbc 7628 313d
000000e0: cc94 d73c 08f5 2d3d 1ecf 93bd ac25 a03d
000000f0: 4ff1 c8bc 55da f2bc 1420 633c 969d 723c
00000100: 27b5 8bbc 7c7d 5a3d 1503 883c 0cd0 013d
00000110: 5034 8ebd ba11 223d 7b61 363b ea22 2e3c
00000120: 2ff9 483d 789c 41bb 8cb1 b3bd 5e8f 8a3d
00000130: ca8d 503d 8811 debc d2fd 37bc 9909 0dbd
00000140: 62b0 21bd 08a4 0e3c 5cc1 2f3d ebf0 8dbd
00000150: cfea b7bd 56ae a4bd 3b38 c3ba 2209 39bd
00000160: 6269 2e3d c15f 513d 4c82 033d 045d a0bd
00000170: 9595 cebb fe27 3d3d 509c 173d f955 9fbd
00000180: fda4 9a3d 3278 87bd 8ef6 b0bc ee8d 0cbd
00000190: d85a 7abd 2d64 5dbd 3f6e 5bbc c98d 713d
000001a0: e877 bcba 1507 293d f017 76bd d242 973c
000001b0: d914 8ebc 6a0a ae3d a5e0 af3d df03 793d
000001c0: b193 fb3c c7a8 1e3d 0b56 46bd 5dbd e2b9
000001d0: 9fcc d5bc 7969 2dbd 80ec 7cbc 24c1 a63d
000001e0: 7042 c33b 53fa b7bd 619c 74bd f2c3 65bc
000001f0: af3b c13c eb84 993c ae35 223d 4686 77bd
00000200: 84e0 ae3d 0e32 803b 440a 6cbc 03bd 9ebd
00000210: b532 08bd f4a9 1f3d 5c7b 7ebd 320d 3a3c
00000220: 8088 0b3a 35cf ea3c d3ad 203d 95e2 063c
00000230: 67cc a13d 0d11 b23d e125 23bb c33a 4d3d
00000240: ac3c 483d bc5c 6fbd a3b2 50bd 8007 a73c
00000250: 7e9c fabc 2633 813d 86ed c0bb 9209 51bd
00000260: d058 b53c aaaa 7a3d 58ad 163b 8ad4 dfbc
00000270: 7479 97bd 0818 78bd 63a3 9cbd e577 6ebd
00000280: 06af 843d 8f69 af3d 9911 b33d 6ecf 21bc
00000290: a862 2c3d 8222 123d 027c 463c bf7f ae3d
000002a0: 7a2a a13d 01e4 bc3c a4bb 69bd ec08 093c
000002b0: 1889 a73d 5f07 9ebb 70cc 3cbc 27f2 963d
000002c0: fe4f 8fbc 8b98 ff39 f11c a3bd a5b9 ffbc
000002d0: 9981 903d f8d9 32bd c7c5 513c 8088 d7bc
000002e0: c7fc 1e3d 9a5d 57bd a362 ed3c d198 a83b
000002f0: a372 a1bd 10ef c43d cb66 863d 2fae 8bbd
00000300: 74ab 773d b77d 2b3d 5f78 8b3c 8cea 53bd
00000310: 5e56 403d fb97 9bbd 98f0 8fbd 95b9 d038
00000320: 4896 d23c 8ccd 443d 36a3 9b3d 9ebc cd3c
00000330: 0e3a c13d db5b 873a cf8c 283d e5ce 23bd
00000340: df14 813d d31a 5a3d 80cb 3d3d cb41 0d3d
00000350: 5bfb 183d 8dd5 bc3d d205 96bd 8b0d a4ba
00000360: dbe0 c43a 2ebd fe3c 6c09 98bd 52df 4dbc
00000370: 7bb3 a13d 8e87 5b3c 8b8a 993d 6aee 153d
00000380: 2363 42bc 5014 94bd 85ad 19bc 8aef 433d
00000390: 194d 21bd 4882 89bd e377 9bbd 5531 e13c
000003a0: 4e0d 15bc f16e aabc ace5 b73d 0bf7 893d
000003b0: d430 e8bc de99 453d 6240 ad3d 6609 a93d
000003c0: b489 87bd 9c27 b83d 99e3 83bd 45a9 8cbd
000003d0: 5123 dabc 207f 4f3d 217f 1a3d c1ab 2c3d
000003e0: 16df 0bbd 849f f53b e66c 58bb 232c b73d
000003f0: fc30 973c d9ac a33d 090c 893d bf16 ba3d

model/dense/BiasAdd/ReadVariableOp/resource f4 [10]
-0.011966853 -0.008776617 -0.0048506977 0.02565347 -0.006385129 -0.005602148 -0.002854414 0.019476328
-0.0019879788 -0.0037221168
00000000: 9f10 44bc cdcb 0fbc 9af2 9ebb 3a27 d23c
00000010: 583a d1bb 3992 b7bb 1f11 3bbb d28c 9f3c
00000020: c048 02bb c2ee 73bb

model/layer_normalization/add/ReadVariableOp/resource f4 [4]
-0.00020338994 0.006973996 -0.0073767644 -0.003952315
00000000: 1245 55b9 1e86 e43b c9b8 f1bb 6c82 81bb

model/layer_normalization/mul_4/ReadVariableOp/resource f4 [4]
0.99242115 1.0062181 1.0063678 0.99875623
00000000: 500f 7e3f c1cb 803f a9d0 803f 7dae 7f3f

model/layer_normalization_1/add/ReadVariableOp/resource f4 [12]
0.001509426 0.034889717 0.013166706 0.0004326331 -0.00041079937 0.0012368063 -0.008271475 -0.0060235057
-0.010663885 -0.006361711 -0.0016405465 0.0049635
00000000: efd7 c53a 85e8 0e3d 2bb9 573c 08d3 e239
00000010: 8f60 d7b9 551c a23a 1585 07bc d460 c5bb
00000020: 93b7 2ebc e675 d0bb 9b07 d7ba dba4 a23b

model/layer_normalization_1/mul_4/ReadVariableOp/resource f4 [12]
0.9984585 0.96666753 1.0132642 1.0027493 1.00061 0.9959184 0.96338344 1.0048273
1.009703 1.0058203 0.9943927 1.002177
00000000: fa9a 7f3f 8677 773f a4b2 813f 175a 803f
00000010: fd13 803f 82f4 7e3f 4ca0 763f 2e9e 803f
00000020: f33d 813f b8be 803f 8590 7e3f 5647 803f

model/layer_normalization_2/mul_2/ReadVariableOp/resource f4 [10]
1.0082422 0.99618715 0.9849818 1.0136228 0.95441794 0.98301816 0.9779589 0.982838
0.9861315 0.98202413
00000000: 150e 813f 1f06 7f3f c427 7c3f 64be 813f
00000010: bc54 743f 14a7 7b3f 845b 7a3f 459b 7b3f
00000020: 1d73 7c3f ef65 7b3f

model/dense/MatMul f4 [10, 228]
0.04653774 0.046956554 0.10299221 0.10163745 -0.0049278014 -0.14346692 0.0031206408 -0.031150661
0.0898586 -0.061561957 -0.018242532 -0.06929262 -0.13231392 0.07596047 -0.050468374 -0.18057524
0.014859653 -0.12932508 -0.04046624 -0.016984852 0.07318624 -0.12497274 -0.0014174304 0.09930425
0.064403154 0.07702434 -0.07324015 -0.011798384 -0.09770317 -0.12914917 -0.10422749 0.039193545
-0.1152257 0.07648032 0.03886067 0.029442284 0.021551978 -0.002364628 0.110566005 -0.08007148
0.06791275 -0.15372163 0.04635431 0.012469977 -0.11524866 -0.044178136 -0.11573959 0.11560112
0.012030981 0.001165488 -0.09097614 0.07620188 0.079354584 -0.069541246 -0.16222568 0.053172596
-0.103277296 -0.08756775 -0.01856351 -0.05406516 0.066160105 0.13128956 -0.06665174 -0.08900293
0.0056689614 0.06750209 0.03718001 0.077425815 0.031302784 -0.053150363 -0.0113822045 0.050810374
-0.110986635 -0.14523754 0.09409374 -0.074811086 -0.1136091 -0.038354255 -0.08161415 -0.043873746
0.11185012 0.1379787 0.14807287 0.092048176 -0.05921589 -0.09729817 -0.016441267 -0.016533444
0.1591526 -0.029577387 0.09995488 0.047437724 -0.0739942 -0.12338456 -0.010063247 0.061376683
0.11377497 -0.13917589 -0.02457599 -0.0715811 0.016737668 -0.0044937357 0.02140437 0.015397833
-0.115366384 -0.034729842 0.11877512 -0.006310729 -0.049554102 0.10862483 -0.068146005 -0.117558844
-0.08197181 -0.116254225 0.020428147 -0.04930804 -0.12207678 0.16006337 -0.1363326 -0.09968945
0.05355286 -0.06869052 -0.106313586 0.034786504 0.054447982 0.0013520262 -0.12890625 -0.03967047
0.15161107 0.14074305 0.0983499 -0.15197209 0.06273806 -0.14594084 -0.15709488 -0.097215585
-0.14125884 -0.1538507 0.13855211 -0.0854728 0.041083667 -0.024711443 0.03078644 0.04232407
0.16164355 -0.11252819 -0.11149151 -0.058407377 -0.05667802 -0.07435572 0.14350684 0.09798204
0.038007855 0.14905769 0.12834665 -0.098471634 0.13448273 -0.055710915 -0.11181043 0.020962572
-0.04440539 0.048128154 0.15129264 0.17280357 0.03851363 -0.05314658 0.076150246 0.040367283
0.05364313 -0.053686295 0.034364842 0.09128117 -0.060295463 -0.15451787 0.04139884 -0.14586662
-0.099353515 0.12216914 -0.030179257 -0.056790516 -0.07759262 0.0924844 0.01019583 -0.045593753
0.006318019 0.0486476 -0.14004867 0.08824599 -0.024874976 0.123192854 -0.1425584 -0.086637795
-0.021818092 0.08699505 0.11129651 0.041583404 -0.06132556 -0.1630545 -0.115942314 0.051998127
0.06637342 0.13773109 0.0813194 0.069683954 0.051723085 -0.09177541 0.08337578 0.070782535
0.029982565 0.119507916 -0.09073393 0.15760176 0.060432035 0.023385996 0.044957545 -0.043196354
0.032504395 0.09618394 -0.14293554 -0.13778162 0.13466607 -0.17021716 -0.08580612 0.047614485
0.11108328 0.053382177 0.040329583 -0.060674094 -0.082691245 0.15066275 -0.12891987 0.1389465
-0.022658207 -0.0779467 -0.008527873 0.15329894 0.057149343 0.042103283 0.02104029 -0.1120072
0.03617655 0.09583359 0.071415745 0.096761174 0.12536705 -0.11784776 -0.16844992 0.11728618
-0.04536542 -0.057265863 0.04253882 0.06879058 -0.07373848 -0.11369186 -0.11040561 -0.051203445
00000000: 5b9e 3e3d 8455 403d 94ed d23d 4c27 d03d
00000010: 6579 a1bb fee8 12be aa83 4c3b ac2f ffbc
00000020: c907 b83d 6428 7cbd 5d71 95bc 4ae9 8dbd
00000030: 4d7d 07be 2a91 9b3d edb7 4ebd b7e8 38be
00000040: e775 733c cb6d 04be eebf 25bd d123 8bbc
00000050: abe2 953d b5f1 ffbd 12c9 b9ba 0760 cb3d
00000060: cde5 833d f0be 9d3d effe 95bd 024e 41bc
00000070: 9918 c8bd ae3f 04be 3975 d5bd 6989 203d
00000080: 74fb ebbd b7a1 9c3d 5e2c 1f3d f230 f13c
00000090: c68d b03c e0f7 1abb 6e70 e23d 84fc a3bd
000000a0: d715 8b3d 3469 1dbe 04de 3d3d e04e 4c3c
000000b0: 7d07 ecbd 22f4 34bd e108 edbd 48c0 ec3d
000000c0: 971d 453c 4ac3 983a b351 babd bb0f 9c3d
000000d0: a884 a23d a46b 8ebd 7d1e 26be 82cb 593d
000000e0: 0c83 d3bd b856 b3bd 8112 98bc 6e73 5dbd
000000f0: f37e 873d c570 063e b580 88bd 2b47 b6bd
00000100: b2c2 b93b 893e 8a3d 114a 183d 6d91 9e3d
00000110: 5937 003d 32b4 59bd 6d7c 3abc 8a1e 503d
00000120: f64c e3bd 26b9 14be 38b4 c03d 8e36 99bd
00000130: e3ab e8bd 5a19 1dbd 5225 a7bd f5b4 33bd
00000140: ad11 e53d 4a4a 0d3e 6aa0 173e c183 bc3d
00000150: 5c8c 72bd 4344 c7bd d6af 86bc 2571 87bc
00000160: e6f8 223e 474c f2bc 25b5 cc3d 0f4e 423d
00000170: 458a 97bd 0bb1 fcbd 51e0 24bc 1e66 7b3d
00000180: da02 e93d 2084 0ebe 9653 c9bc 1d99 92bd
00000190: 6f1d 893c 3040 93bb 3858 af3c 3147 7c3c
000001a0: 3645 ecbd e140 0ebd 5f40 f33d 3bca cebb
000001b0: 3ef9 4abd b276 de3d 2290 8bbd b1c2 f0bd
000001c0: d6e0 a7bd b216 eebd ee58 a73c 3af7 49bd
000001d0: 6403 fabd a7e7 233e c69a 0bbe fb29 ccbd
000001e0: 3e5a 5b3d 9ead 8cbd f0ba d9bd 4b7c 0e3d
000001f0: d904 5f3d 7936 b13a 0000 04be 817d 22bd
00000200: ef3f 1b3e f21e 103e ac6b c93d 929e 1bbe
00000210: d07c 803d 8471 15be 7bdd 20be f718 c7bd
00000220: 28a6 10be 0a8b 1dbe 9be0 0d3e 5d0c afbd
00000230: 5947 283d a76f cabc d833 fc3c 015c 2d3d
00000240: e385 253e 2e75 e6bd a955 e4bd 933c 6fbd
00000250: 3627 68bd d047 98bd 75f3 123e cfaa c83d
00000260: 20ae 1b3d 94a2 183e 4e6d 033e 7fab c9bd
00000270: d7b5 093e 2131 64bd defc e4bd b3b9 ab3c
00000280: 6de2 35bd 0722 453d 75ec 1a3e 6bf3 303e
00000290: 78c0 1d3d 3ab0 59bd a9f4 9b3d 2a58 253d
000002a0: e6b8 5b3d 29e6 5bbd 26c2 0c3d 9ff1 ba3d
000002b0: 60f8 76bd ef39 1ebe d491 293d 0f5e 15be
000002c0: db79 cbbd d033 fa3d 7d3a f7bc 2c9d 68bd
000002d0: e1e8 9ebd 7668 bd3d 690c 273c 84c0 3abd
000002e0: 6207 cf3b b542 473d eb68 0fbe 50ba b43d
000002f0: 9bc6 cbbc 894c fc3d d4fa 11be 286f b1bd
00000300: dbbb b2bc 762a b23d 6def e33d 5c53 2a3d
00000310: 8330 7bbd c2f7 26be 2a73 edbd fdfb 543d
00000320: caee 873d 6109 0d3e c98a a63d 76b6 8e3d
00000330: 96db 533d bff4 bbbd ecc0 aa3d 6ff6 903d
00000340: ff9d f53c 91c0 f43d b6d2 b9bd 5b62 213e
00000350: 9587 773d fd93 bf3c 6725 383d a9ee 30bd
00000360: 5423 053d 16fc c43d b25d 12be a016 0dbe
00000370: e7e5 093e 684d 2ebe 1ebb afbd 6807 433d
00000380: a17f e33d 45a7 5a3d a230 253d 6685 78bd
00000390: 075a a9bd 5647 1a3e 9203 04be fe47 0e3e
000003a0: b49d b9bc 85a2 9fbd 7eb8 0bbc 66fa 1c3e
000003b0: 6e15 6a3d 7e74 2c3d b05c ac3c 0864 e5bd
000003c0: dd2d 143d 6744 c43d 6b42 923d b92a c63d
000003d0: 3860 003e 2b5a f1bd 237e 2cbe bd33 f03d
000003e0: 17d1 39bd 9c8f 6abd 303d 2e3d 13e2 8c3d
000003f0: 3304 97bd 47d7 e8bd 561c e2bd b4ba 51bd

model/dense_1/MatMul f4 [1, 10]
-0.13081396 -0.5220219 -0.6583957 -0.05663904 -0.53841203 0.17093611 -0.40851197 -0.4343699
-0.6553158 0.32903942
00000000: 18f4 05be 3aa3 05bf 9f8c 28bf 57fe 67bd
00000010: 5fd5 09bf e009 2f3e 7b28 d1be bb65 debe
00000020: c7c2 27bf db77 a83e
