models/1.tflite (tflite, 28420 bytes, 12 tensors)

model_1/conv2d_3/BiasAdd;model_1/conv2d_3/Conv2D;model_1/conv2d_3/BiasAdd/ReadVariableOp/resource f4 [12]
000000 ff d6 86 bc f0 2a bd 3b 99 b7 61 bb a7 bd e0 b9
       -0.01645994 0.005772941 -0.0034441708 -0.0004286591
000010 01 24 ee bb c1 3a 09 bb 16 1f 02 3c 9e 2a e1 3b
       -0.0072674756 -0.002093956 0.007941982 0.0068715354
000020 2f 4c 4d 3c 4f 95 0c 3c 18 4f 15 bc 5f a5 f3 bb
       0.012530371 0.00858052 -0.009113096 -0.0074354853

model_1/conv2d_2/BiasAdd;model_1/conv2d_2/Conv2D;model_1/conv2d_2/BiasAdd/ReadVariableOp/resource f4 [4]
000000 00 aa af 3a 72 9a 4e bb 02 a5 1f ba 8c 10 fd 3b
       0.0013402104 -0.0031525162 -0.0006089957 0.00772292

model_1/conv2d_3/Conv2D f4 [12, 1, 11, 4]
000000 65 75 89 3d 3b e2 00 be 38 c8 ef 3d 8d 13 2a bb
       0.06711844 -0.125863 0.117081106 -0.0025951595
000010 53 d6 68 3d 3e e8 5f 3e da 17 01 3e 84 9a 4a bd
       0.05684502 0.21865937 0.12606755 -0.049463764
000020 f8 18 0f be 74 b5 15 3d fb a4 0c be 1d 17 36 be
       -0.13974369 0.03655 -0.1373481 -0.17782255
000030 a8 ea ff bd 9f c2 96 bd 27 85 27 be dc ba 34 3d
       -0.12495929 -0.0736134 -0.16359387 0.044123515
000040 81 23 7e 3d 81 d0 b4 bd 77 bf d2 bd c0 36 d8 bd
       0.062045578 -0.088288315 -0.10290425 -0.10557318
000050 00 b9 19 be 9b 47 65 3e 97 30 b9 3c ca 8f 5c 3d
       -0.15011978 0.22390597 0.022606177 0.053848065
000060 2e cb dc bd ac 4a fa 39 ac 35 6f 3c ef 43 ac 3d
       -0.10780941 0.0004773935 0.014600199 0.08411395
000070 e9 8b eb bd 03 f3 f2 bc 92 8b e6 3d eb 52 10 be
       -0.11501295 -0.029656893 0.1125709 -0.1409413
000080 21 6b a0 bd 1f f5 12 3e a9 12 21 3c bf 8d 45 bd
       -0.07832933 0.14351319 0.009831109 -0.048230883
000090 33 3b 9b bd 4f cd 4b 3d 26 6f b3 3c 2c 6b 28 be
       -0.07579651 0.049756344 0.021903586 -0.16447133
0000a0 2b 8c 45 bc dd c6 12 3e 89 90 18 3e 42 c1 14 be
       -0.012057344 0.14333673 0.14898886 -0.14526847
0000b0 be 04 db bd 9b 5d 05 3e 89 c5 33 be 46 9f 82 3c
       -0.10694264 0.13023989 -0.17555822 0.015945088
0000c0 db e6 1a 3d 7e 37 a1 bd c5 9c 3b bd 90 bd cf bd
       0.037817817 -0.078719124 -0.045803804 -0.10143578
0000d0 be b6 7a bd 5c b2 d5 bd b2 00 c4 3b b2 77 82 bd
       -0.061209433 -0.1043441 0.005981528 -0.06370486
0000e0 28 9c 28 be b9 29 eb bd 72 7d bd 3d 28 74 e3 3d
       -0.16465819 -0.11482567 0.092524424 0.111061394
0000f0 21 ca 1e be e1 3f 08 bd 95 dd 1d 3e bc 3a 1e 3e
       -0.15506794 -0.033264045 0.15416558 0.15452093
000100 8b 31 08 be 63 e5 0e 3e 34 c4 98 3d 14 3a 22 3e
       -0.13300149 0.13954692 0.07459298 0.15842468
000110 30 00 ce 3c 64 38 06 be b3 cc 27 be c2 42 9a bd
       0.025146574 -0.13107449 -0.1638668 -0.07532264
000120 62 0f 33 3e 66 3e f6 bd 4e 71 82 3c 6d 2d a6 bd
       0.17486337 -0.1202362 0.015923169 -0.08114133
000130 25 7b 1e bd f2 0c a9 bd a3 2c 6d 3d 84 9f 26 3e
       -0.03869166 -0.08254422 0.057903897 0.16271788
000140 34 8f e0 3c 78 a4 21 be bd 6f 1e bd e7 b4 f5 bd
       0.027412035 -0.15785396 -0.03868078 -0.11997395
000150 cc 9f d3 3d 9d cc ca bd 48 21 4f 3d 91 d5 22 be
       0.10333213 -0.09902308 0.05056885 -0.15901782
000160 7e 94 de 3d 9c 3f 8d ba 61 d1 c1 3d d6 fc a2 3d
       0.108681664 -0.0010776403 0.09463764 0.07958381
000170 9c 4d 25 3e 25 32 4d 3d af 69 e0 3d e8 b4 5b bd
       0.16142887 0.05009665 0.109576575 -0.053639323
000180 27 a3 1a 3e bc 5e e7 3c c0 c8 1e 3e 70 96 85 bd
       0.151013 0.028243415 0.15506268 -0.06522834
000190 db 81 ea bd 52 00 52 bd b8 87 02 3e 8e 42 a7 3c
       -0.11450549 -0.051269837 0.12747085 0.020417478
0001a0 1c 20 1f 3e e2 a0 64 bd 3e b6 3d 3e 13 17 2f be
       0.15539593 -0.055817492 0.18526551 -0.17098646
0001b0 02 4f d9 bc 0e 36 25 be b5 79 c7 bd e7 90 3b be
       -0.026526932 -0.16133901 -0.09740011 -0.18316995
0001c0 4b 89 a4 3a d9 ae f4 3d 7c ee 31 be 81 54 e1 bc
       0.0012553124 0.11947412 -0.17376131 -0.027506115
0001d0 99 4d de bd 0a e1 12 3e 1c 8f db 3d 90 52 62 bd
       -0.10854644 0.14343658 0.10720655 -0.05525452
0001e0 f9 3c c5 bd c3 9b ca bd 77 8f 33 3d 6b 8a 07 be
       -0.0963077 -0.098929904 0.04383799 -0.13236396
0001f0 3c d8 ac 3d 7b 4f 54 3c 64 73 01 be b9 ca d7 3d
       0.08439681 0.012958403 -0.12641674 0.10536713
000200 7b 4a e5 3d 0e 52 ee 3d 5c 4b 99 3d 1c 72 bb bd
       0.11195847 0.116367444 0.07485077 -0.09152624
000210 31 40 97 bd 4a 1f c3 3c f9 2c 86 bd 56 af bd bd
       -0.073852904 0.02381863 -0.065515466 -0.09261958
000220 3c 74 a7 bd d3 f0 f4 3d 2b d9 f2 bd 03 e8 be bc
       -0.08176467 0.11959996 -0.11857828 -0.023303991
000230 1a 3a 38 3e c5 ca 1f be 1f 76 dc 3d 9a 01 da 3d
       0.17990914 -0.15604694 0.10764717 0.10644837
000240 f7 0d 16 3d 19 c9 2b 3e 75 cf 5c bd 88 86 74 bd
       0.03663441 0.16775931 -0.053908784 -0.05969861
000250 77 8d 15 be 3f 42 a5 3d 64 b6 7d 3d 6f 9e b9 3c
       -0.14604746 0.08069276 0.06194152 0.022658555
000260 5d 6d 17 3e 61 76 f7 3d bc 09 1e 3e 68 d1 78 bb
       0.14787813 0.12083126 0.15433401 -0.0037966613
000270 b0 4c 07 bc 13 71 b1 3d b5 25 c9 3d f8 77 4d bd
       -0.00825803 0.08664145 0.09821645 -0.05016324
000280 32 70 c9 bd 9d db 1c be 18 ca ce bd b5 1c 42 3d
       -0.09835853 -0.15318151 -0.1009714 0.04739066
000290 3d 66 a7 bd 39 80 37 3b c9 b0 c9 3d dd c5 19 3d
       -0.08173797 0.002800001 0.09848172 0.037542213
0002a0 0e b7 d8 bd f5 92 07 3e 5c c6 d8 bd 45 3b d3 3c
       -0.1058179 0.13239653 -0.10584709 0.025785098
0002b0 dd aa ab 3d fb 9a 13 3e 66 c1 d1 3d cc a8 f7 bc
       0.08382199 0.14414589 0.10241966 -0.030231856
0002c0 2f e1 04 3e e8 ea a1 bd 6b 00 0c 3e fc 2e 9e 3d
       0.12976526 -0.07906133 0.13672034 0.07723805
0002d0 b7 00 0a be 92 9d 5b 3d b6 43 74 3d 7a 52 c4 bd
       -0.13476835 0.053617068 0.059634887 -0.09586044
0002e0 02 82 36 3d e5 64 0c be ff e8 f3 3c 2a 9e 6f bd
       0.04455758 -0.13710363 0.029774187 -0.058500446
0002f0 27 b4 fe bd e1 95 1a be 37 2e 98 bd b3 36 01 be
       -0.12436705 -0.15096237 -0.0743069 -0.12618522
000300 ca 33 ea bd 1b ab a0 bd d7 e9 bb bc ee 70 de 3d
       -0.11435659 -0.07845136 -0.022938652 0.108613834
000310 4a 68 07 3d cf 9e f5 3c ca 3e 4c 3b a1 78 14 be
       0.033058442 0.029982952 0.0031165355 -0.14499141
000320 34 c2 a1 bd 08 86 1a 3e 4f 0d e0 3d 4b 5e 03 3e
       -0.078983694 0.15090191 0.109400384 0.12828939
000330 9d 54 2b 3e 6e ad eb 3d 74 b6 eb 3c df c7 03 3e
       0.16731496 0.115076885 0.028773524 0.12869214
000340 0c f1 0f 3e ac 4b ec bd df 44 a8 bd f6 1a 23 3d
       0.14056796 -0.11537871 -0.08216261 0.039820634
000350 49 5d 12 3e b2 91 d4 3d 7e 23 2d bd 45 17 40 be
       0.14293398 0.10379352 -0.042270176 -0.18758877
000360 de 02 f2 bc f0 10 7b bd 89 7b c3 bd 5b 8a 0a 3e
       -0.029542383 -0.06129545 -0.09545047 0.13529341
000370 9c 2a 52 3d 6c ee 0c bc 16 c8 3c 3d b9 3b 1b bd
       0.051310167 -0.008601766 0.046089254 -0.037898753
000380 37 6d 32 3e e5 35 d0 3d d8 e9 e2 3d ea ba 7b bd
       0.17424475 0.101665296 0.110797584 -0.061457552
000390 ca 05 22 be 1e 34 25 bd 27 14 3a be 99 f3 c3 3d
       -0.15822521 -0.040332906 -0.1817175 0.09567947
0003a0 79 87 a7 3d d5 3f 10 bc 4f 7e a4 3d 5c 55 50 bd
       0.08180136 -0.008804281 0.08031904 -0.050862655
0003b0 e6 6f 9b 3d c1 c9 a1 3d fa 6b cd bd 27 f3 22 3e
       0.07589702 0.0789981 -0.100303605 0.15913068
0003c0 cd 8b b2 bd bb ef b8 3b 9d 03 f4 3c 16 58 db bd
       -0.08718071 0.0056438125 0.02978688 -0.107101604
0003d0 d8 c8 5e bd ad 3a 1b 3e 68 c5 1f be 78 fa 5c 3d
       -0.05439076 0.15159102 -0.15602648 0.053949803
0003e0 7d 54 10 3c d8 64 1e be 89 63 9c bd 9b 7b c9 3b
       0.008809206 -0.15468156 -0.07636172 0.006148768
0003f0 c4 7c 2e 3d bf a2 b1 3d 4a 1a a8 bc 91 40 02 3e
       0.042599455 0.086736195 -0.020520348 0.12719943

model_1/conv2d_2/Conv2D f4 [4, 4, 38, 1]
000000 35 c6 80 3d c4 90 5a bd 16 e2 81 3d 24 a7 1b bd
       0.06287805 -0.053360716 0.063419506 -0.038001195
000010 bd 6f 33 bd ca 63 a4 3c 79 44 06 3d 19 4e 01 3d
       -0.043807734 0.020067114 0.032780144 0.03156862
000020 ca ec ba 3d c6 b3 a9 3d ec eb 1e bd 31 ee 2c 3b
       0.09127195 0.08286242 -0.03879921 0.002638709
000030 8f 1e db 3d a0 23 22 3c 7e e4 83 bd 3d 7a 35 bd
       0.10699188 0.009896189 -0.06440066 -0.04430603
000040 fd 48 d4 bc 76 75 84 bd 73 32 a1 3c 5a 26 31 3d
       -0.02591371 -0.064677164 0.019677376 0.043249466
000050 bf 1a 49 3d 0a f2 97 bb 6b be 19 bc 33 bb 5a 3d
       0.049097773 -0.0046370076 -0.009383778 0.053401183
000060 24 99 8e bd 86 aa 45 bd 59 5e 9f bd 09 a2 21 3d
       -0.06962803 -0.048258327 -0.07781667 0.03946117
000070 0a 76 6d 3d 45 69 1d 3d bb 80 92 3d 26 6c 1d 3d
       0.0579739 0.03843047 0.0715346 0.038433217
000080 b3 64 6d bd 4f d7 90 bd b0 6e ce bc 96 5e b4 3d
       -0.057957362 -0.07072317 -0.025199264 0.08807103
000090 a4 11 c6 3a 76 db 44 bd 05 14 29 3d e8 55 12 bc
       0.0015111458 -0.048060857 0.041278858 -0.008931614
0000a0 ee 8f 8a 3d 63 06 b9 bc ea c3 72 bc 00 2e 8a bc
       0.06765734 -0.022586053 -0.014817217 -0.016867638
0000b0 45 af 05 3c cf ff 55 3c ef c2 5e 3d 43 7d 6f bc
       0.008159463 0.013061478 0.054385122 -0.014617267
0000c0 70 60 6a 3c 0c 15 96 3c ad a8 d0 bc f9 28 d5 3d
       0.014305219 0.018320583 -0.025471056 0.104082055
0000d0 60 9c 1a 3d d6 d2 2a 3d 7e 46 87 bb d9 70 7c bd
       0.037746787 0.041704975 -0.0041282764 -0.061631057
0000e0 b7 55 99 bd 6a 67 ab 3c 7e 72 42 3d 08 c1 18 bd
       -0.07487052 0.020923335 0.04747247 -0.037293464
0000f0 f1 74 97 bd 23 a1 c6 3d 59 26 73 3d c7 7e 70 3c
       -0.07395352 0.09698703 0.059362743 0.014678664
000100 09 66 9a bd f6 53 9d bc 6d 0b 95 3d e7 b2 2d bd
       -0.07538993 -0.019205075 0.0727757 -0.042406943
000110 e8 29 1c bd 2c 3b 7c bd 4a 22 5c bd c1 c4 0a 3c
       -0.038125902 -0.06157987 -0.053743638 0.008469761
000120 38 8b a1 3b e9 10 82 3d 56 71 5e bd c6 78 9a 3d
       0.0049299262 0.063508816 -0.054307304 0.07542567
000130 ca 5f 91 3d 76 bd 32 bc 43 76 fd bc 61 b2 a8 3d
       0.070983484 -0.010909429 -0.03094018 0.08237148
000140 6a ba 77 bd b9 a0 ee bc 92 be 0a 3c 32 79 34 bd
       -0.060480513 -0.029129373 0.008468287 -0.044060893
000150 b8 83 e6 bc 20 4c c0 bc 65 18 7a bd 27 e3 1b bd
       -0.02813898 -0.0234738 -0.06105842 -0.038058426
000160 45 4b b7 3d 21 90 3b 3d a9 ea a0 bc 66 df cc 3d
       0.089499034 0.04579175 -0.019643145 0.10003547
000170 2d 5b 3b 3d 3c 22 4e 3c 75 66 1a bc be 7e 9e 3d
       0.04574125 0.012581404 -0.009423842 0.07739018
000180 1f 90 40 3c cd 29 1f bd 6d 6d 3e bd 23 1e 4d 3c
       0.011753111 -0.038858224 -0.046491075 0.012519392
000190 eb 96 35 3d fd 13 80 3d a5 b7 29 bd 3f 56 67 bd
       0.04433338 0.062538125 -0.041434903 -0.056478735
0001a0 c4 0e 86 3d d6 c8 96 bd fc 4a 80 bc 87 de 26 3d
       0.06545785 -0.07362525 -0.015660755 0.040739562
0001b0 7a 1f 1e bd bb 1b 56 bd 22 88 64 3c 9c fa 9b 3d
       -0.038604237 -0.05227254 0.013948472 0.07616159
0001c0 c2 78 bf 3d fa c2 d6 bc 1c f0 0f bd 70 30 89 bd
       0.093492046 -0.026216019 -0.035141096 -0.06698692
0001d0 82 70 54 bd 73 75 8a 3d 55 83 73 3d 5c b7 6e 3d
       -0.05186511 0.06760683 0.05945142 0.058280334
0001e0 76 55 7d bd 1d af 07 3c 0c 12 a2 bd 42 fd 9a bd
       -0.06184908 0.008281496 -0.079135984 -0.07567836
0001f0 d9 1a 72 3d 3f d2 3b bd ed 98 db ba 50 7d 48 3c
       0.059107635 -0.045854803 -0.001675395 0.012236908
000200 a8 7d 6c 3d c0 69 0f bd 02 56 95 bd 4b fb 2e 3d
       0.057737023 -0.03501296 -0.07291795 0.04272012
000210 9e 20 9d 3d 8f 40 1e bd a5 64 23 bd 9f 74 2e bd
       0.07672237 -0.038635787 -0.039890904 -0.042591687
000220 17 15 98 bc 1a d9 b4 3d b9 3c c7 3d 43 4e 90 3d
       -0.018564744 0.08830471 0.09728379 0.07046177
000230 eb c7 8d 3d f4 a7 9e bc 6c 67 79 3c 88 ca ad 3d
       0.06922897 -0.019367196 0.015222412 0.084858954
000240 99 67 7e bc d2 53 77 3d 0c e6 48 3d 47 59 ac 3d
       -0.015527629 0.06038267 0.049047515 0.08415466
000250 eb 6a 4b bd f2 cc b5 3d 8f 73 aa bc 97 51 4b bc
       -0.04966251 0.08876981 -0.020807056 -0.012409589
000260 d4 80 a1 3b 7f b7 80 bd a4 f5 48 3d 7c 5a 11 3d
       0.0049286876 -0.06284999 0.049062386 0.035486683
000270 f4 a5 85 3d ac 1a 1b 3b 54 02 41 bd 63 69 a1 bd
       0.06525794 0.002366702 -0.04712136 -0.07881429
000280 bd c8 b1 bd 66 6c a1 3d d9 fe 42 3d 33 29 9e bd
       -0.08680866 0.078820035 0.047606323 -0.07722702
000290 2b b4 87 3d 1c 9a 9f bd b2 7a 99 3d 4f c1 ed ba
       0.06626161 -0.07793066 0.074941054 -0.0018139275
0002a0 13 84 be 3c 60 5a 32 bc 71 86 d5 3c 0e 2d aa bd
       0.023256337 -0.010885805 0.026065083 -0.08309375
0002b0 2a d9 94 3c 85 9f 29 3d 5e 81 21 3d 54 e6 ad 3c
       0.018169958 0.041411895 0.039430015 0.021227993
0002c0 cb e9 78 bc ad 17 5a bd 15 e3 47 bd e7 aa ba bc
       -0.015192459 -0.053245235 -0.048800547 -0.02278657
0002d0 e5 01 00 bd 14 eb 00 bc 85 a9 21 bc d2 7d 06 3d
       -0.031251807 -0.007868547 -0.009867077 0.032834835
0002e0 17 4c 98 3b ad f3 3d 3c 7f 42 78 bd 11 1d 88 bd
       0.0046477425 0.011593741 -0.06061029 -0.06646169
0002f0 6e 57 ca bc 0d 57 1a 3d 16 42 e7 ba 89 17 b0 bd
       -0.024699893 0.037680674 -0.0017643597 -0.08598239
000300 0a f6 69 bd 5c a3 98 bd 2d 74 ab bd 85 05 22 3b
       -0.057119407 -0.07453033 -0.08371768 0.0024722528
000310 97 4b 00 bd b9 df eb 3c 33 9e 3a 3d 49 b7 8c bd
       -0.031322088 0.028793203 0.045561027 -0.06870896
000320 fa f7 06 bc 19 b2 da bc fd cb 55 3d fa 53 0a bd
       -0.008237833 -0.026696252 0.05219649 -0.033771493
000330 7d 54 dc bc c6 39 21 bc a3 e6 73 3c 39 5d 89 3c
       -0.026895756 -0.009840434 0.014886531 0.016768085
000340 4d b0 2d 3d b4 b9 4a 3d f2 64 13 3d 17 db 9c 3d
       0.04240446 0.049493507 0.03598494 0.076589756
000350 2a 5a e5 ba 02 5b 2f bd a3 9a ac 3c f8 20 e0 3c
       -0.0017498184 -0.0428114 0.02106983 0.02735947
000360 a5 54 65 3c d2 9b 65 bd c7 c7 0c 3d 88 f3 8c bd
       0.013997232 -0.056056805 0.03437021 -0.068823874
000370 d1 1b 84 bd bb 71 b6 bd 6a 97 c7 bc 16 b3 59 bd
       -0.06450618 -0.08908411 -0.024364192 -0.053149305
000380 d0 9a 56 bd 44 6f 63 3d 8b 2a 30 ba 2b 91 08 3c
       -0.052393734 0.055526033 -0.00067202066 0.008335392
000390 09 86 9c 3d e3 95 b7 bd fb e0 8d bd 5c eb 95 bc
       0.07642753 -0.089641355 -0.06927677 -0.018300705
0003a0 1d 75 2d bd 09 46 a1 3d 87 9b 83 3d b4 8d 21 3c
       -0.042348016 0.07874686 0.06426149 0.009860445
0003b0 33 86 29 bd 23 54 d9 3b bf d6 57 3d 5e 29 8b 3d
       -0.041387748 0.0066323443 0.052695032 0.067949995
0003c0 c2 fe 20 bd 04 9f 9a 3d 6c 1c b7 3c 66 56 f1 bc
       -0.039305456 0.07549861 0.02235242 -0.029460143
0003d0 40 be 9f bd 84 61 f6 3c df a3 3d 3b 1f d8 95 3d
       -0.07799959 0.030075796 0.0028936786 0.073166125
0003e0 7d 62 57 3d ac 79 22 3c f0 6e 2f bc 5d 3c ec bc
       0.05258416 0.009916704 -0.010707602 -0.028837377
0003f0 0f ca 78 3c aa a0 b5 bd c9 cb b0 bd 42 0a 48 3c
       0.015184893 -0.08868535 -0.08632619 0.012209477

model_1/dense_2/BiasAdd/ReadVariableOp/resource f4 [10]
000000 2b 4e ab ba 83 b6 48 bb 17 f6 87 bc 6e e2 8d bc
       -0.001306956 -0.0030626364 -0.016596837 -0.017319884
000010 02 f9 85 bb 96 71 42 3d 79 cf 84 bb 6c 3d 9a bb
       -0.004088522 0.047471605 -0.004053053 -0.004707029
000020 64 29 8f bb 53 82 f2 3b
       -0.004368948 0.0074007898

model_1/layer_normalization_3/add/ReadVariableOp/resource f4 [4]
000000 02 08 2d 3c 1d 30 01 3c b4 14 6a 3b 21 34 33 3c
       0.010560991 0.007885006 0.0035717906 0.0109377215

model_1/layer_normalization_3/mul_4/ReadVariableOp/resource f4 [4]
000000 23 26 7c 3f 1c 94 7b 3f de 1a 7f 3f 83 67 81 3f
       0.9849569 0.9827287 0.9965037 1.0109714

model_1/layer_normalization_4/add/ReadVariableOp/resource f4 [12]
000000 5e 38 76 bc 5e ee ae 3b de 41 83 bb 48 d9 0d bc
       -0.015028087 0.005338474 -0.0040056547 -0.008657761
000010 db 5e fd bb 1f 10 8f ba 94 b7 a9 3b 1a ad 92 3a
       -0.007732255 -0.0010914839 0.005179355 0.0011190504
000020 5b 26 13 3b 3a a9 2e 3c 88 09 14 bc aa e5 08 bc
       0.0022453282 0.010660464 -0.009035476 -0.008355537

model_1/layer_normalization_4/mul_4/ReadVariableOp/resource f4 [12]
000000 bc 3a 85 3f a4 6b 80 3f f8 72 80 3f af bc 80 3f
       1.0408549 1.0032849 1.0035086 1.0057582
000010 f0 6e 7d 3f 2c e3 7e 3f 4e b8 80 3f 97 c3 7f 3f
       0.989974 0.99565387 1.0056245 0.9990782
000020 51 79 7c 3f c6 86 80 3f 2b 28 81 3f 53 b8 7d 3f
       0.98622614 1.004113 1.0090383 0.9910938

model_1/layer_normalization_5/mul_2/ReadVariableOp/resource f4 [10]
000000 88 53 7d 3f 30 e1 7f 3f d2 05 81 3f 6f 7a 80 3f
       0.98955584 0.99952984 1.0079901 1.0037364
000010 91 be 7c 3f 12 fb 7e 3f 85 0e 7e 3f af 41 77 3f
       0.9872828 0.9960185 0.99240905 0.965846
000020 6f a6 76 3f 25 32 79 3f
       0.9634771 0.9734214

model_1/dense_2/MatMul f4 [10, 228]
000000 81 2f 95 bd 95 dd 9b 3d 2c 08 86 bd 9d eb 7b 3c
       -0.07284451 0.07610623 -0.065445274 0.015375999
000010 14 3b ee bd 5c da de 3b 01 ef 6b 3c b7 2c f8 3c
       -0.11632362 0.006800933 0.014400245 0.03029476
000020 05 33 ac 3d 67 b3 d2 3d fd 41 0d 3e 62 81 96 bc
       0.08408169 0.102881245 0.13794704 -0.018372241
000030 f4 e4 07 bc 59 3a 23 be aa 35 d9 bd 50 fd 6e bc
       -0.008294333 -0.15940227 -0.10605939 -0.014586762
000040 3e 42 57 bd 98 92 0f be a2 39 17 3e 50 d0 0d 3e
       -0.052553408 -0.14020765 0.14768079 0.13848996
000050 ff 45 80 3d f8 aa fb bc 13 80 b7 bd cc fb 6c 3c
       0.06263351 -0.030721173 -0.08959975 0.01446433
000060 26 90 08 be c2 2c c3 3d 43 ca 5b 3d c3 93 1b 3e
       -0.13336238 0.09530021 0.05365969 0.15193085
000070 ad d8 1a 3d 6a 18 cd bd 24 bd 9a 3d 78 7c dc bd
       0.037804294 -0.10014422 0.07555607 -0.10765928
000080 de 62 9e 3b e8 f5 36 3d c0 c9 ef 3d 64 6e 2d bc
       0.004833563 0.04466811 0.11708403 -0.010585401
000090 0e 70 a3 3d c8 be e2 3d 0c b3 c2 bd cf 7b 18 bd
       0.07980357 0.11071545 -0.09506807 -0.037227448
0000a0 fd 6a a4 bd 21 77 b7 bd 61 33 9b 3d 3b ba f0 3d
       -0.08028219 -0.08958269 0.07578159 0.11754271
0000b0 46 43 17 be 32 e1 f8 3d a8 ac 8b bd 14 ea 19 be
       -0.14771757 0.121523276 -0.06820041 -0.150307
0000c0 0f 46 14 3e 75 a3 67 bd b8 6d 56 bd a9 99 08 3e
       0.1447985 -0.05655237 -0.05235073 0.13339867
0000d0 af 98 a2 3d e4 a0 5e bd 9c 98 dd 3c e9 5d 0c be
       0.07939278 -0.054352656 0.027050309 -0.13707699
0000e0 11 a7 cc bd f6 0c 03 3e 52 46 08 3e 70 25 ca bd
       -0.09992803 0.12797913 0.13308075 -0.09870422
0000f0 7f e1 8d bd ae 85 c3 3d 7b 6d cf 3b 66 2d b1 bb
       -0.069277756 0.09546982 0.0063301898 -0.0054070232
000100 4e 2f 93 bd 75 7d f4 bd 4f 2e a6 3d e2 21 37 bd
       -0.07186757 -0.119379915 0.081143014 -0.044710048
000110 72 1f e6 3d 91 fe 18 3e d4 d8 99 bd 2e 66 20 be
       0.112364665 0.1494086 -0.0751206 -0.15663978
000120 23 14 70 3c f7 b0 cf 3d f6 07 ff bd b8 46 00 be
       0.0146532385 0.10141175 -0.1245269 -0.12526977
000130 93 aa c2 3d 15 58 df 3d 1e 2e 09 3d d8 45 e9 bd
       0.09505191 0.10905472 0.033491246 -0.11390275
000140 1e 4f f9 bd bd 8f 0c be d1 33 16 bb b7 52 06 3e
       -0.121732935 -0.13726707 -0.0022919069 0.1311749
000150 9f b0 06 bd 7e 6f c7 3d da 89 97 bd e9 78 35 3d
       -0.032883283 0.09738062 -0.0739934 0.044304762
000160 64 13 57 bd aa f1 6e 3d 1e ff 1c bc 69 c1 0f 3e
       -0.052508727 0.058335938 -0.009582309 0.14038624
000170 26 14 de 3d 05 f2 77 bd c9 80 d3 bd 6a 66 34 bd
       0.10843687 -0.060533542 -0.10327298 -0.044042982
000180 11 11 a9 3d 75 a0 c9 bd 06 ae 4d bd 9b a5 b0 3c
       0.08255208 -0.09845058 -0.05021479 0.021563342
000190 60 99 71 bc 3f 16 db bd 63 fe 1b 3d b6 a0 bd bd
       -0.01474604 -0.106976025 0.0380844 -0.09259169
0001a0 96 72 9d 3d 87 4b 36 3e fd e7 d9 bd 22 47 ac bd
       0.07687871 0.17802249 -0.106399514 -0.08412005
0001b0 69 27 15 3d 10 d1 a7 bd 35 cf 11 3e 12 eb eb 3d
       0.036414538 -0.081941724 0.142392 0.115194455
0001c0 3d 33 18 bd 61 91 27 bc aa ce 0a be 74 c4 96 3d
       -0.03715824 -0.010227532 -0.13555399 0.07361689
0001d0 ba a0 ba 3b fe f5 ad bc 21 bd d3 3d 62 83 b4 3d
       0.0056954296 -0.021235462 0.10338808 0.08814122
0001e0 2e 82 e4 bd c3 bc 0a bd 48 98 fb bd 1e 21 a6 bd
       -0.11157642 -0.033871423 -0.12284905 -0.08111785
0001f0 3e 01 53 3d 51 04 b3 bc 1a c0 65 bd b9 71 3b bd
       0.051514857 -0.021852644 -0.056091405 -0.04576275
000200 01 ea 9b bd 95 70 6d 3d 8c 5e 18 3e 65 da 26 bd
       -0.07612992 0.057968695 0.14879817 -0.04073562
000210 a7 02 40 3d 34 94 f7 3d 8c 5f 5b 3d f2 31 38 3d
       0.04687753 0.120888144 0.053557917 0.044969507
000220 96 49 9e bd 8d d0 05 3c 7a 69 db bd 29 05 e8 3b
       -0.07728879 0.008167398 -0.107134774 0.0070806933
000230 54 30 e7 bd e7 76 8d 3d 28 75 cb 3d 4e 9e 96 3d
       -0.11288515 0.069074444 0.09934455 0.07354413
000240 0d 27 05 3e 26 e3 97 bd 81 48 a9 3d 0b 58 b4 bd
       0.13003178 -0.07416372 0.08265782 -0.08805855
000250 a3 e5 19 3c 55 3d dc bc 6a d1 22 be 54 86 13 3e
       0.009393129 -0.026884714 -0.15900198 0.14406711
000260 e1 3c 63 bd c0 c8 e9 bc 59 b8 02 3c 08 01 17 3e
       -0.05547798 -0.028538108 0.007978522 0.14746487
000270 67 d4 1e 3e a7 5f 67 3d e0 dd 34 3d b6 fc 05 3e
       0.15510713 0.056487706 0.04415691 0.13084683
000280 ef 25 a8 bc da c0 3f 3d 62 b2 a9 bd d2 3a 85 bd
       -0.0205259 0.046814777 -0.08285977 -0.0650536
000290 6a e0 75 bd a2 6b b7 bd 8d a5 97 3d be d1 0f bc
       -0.06002847 -0.08956076 0.07404623 -0.008778034
0002a0 44 c8 6d 3d 3e 6c b6 bd 60 7c d6 bc eb 4d fb bc
       0.058052316 -0.08907364 -0.026182353 -0.030676803
0002b0 65 39 ca bd 47 17 90 3d 02 1f 6b bd 51 3f da bd
       -0.098742284 0.0703569 -0.05740262 -0.10656608
0002c0 91 96 db 3d f3 c1 34 3d 36 bd c9 bd 2e 82 94 bd
       0.10722078 0.044130277 -0.09850542 -0.07251392
0002d0 e3 cd 85 3c cc 24 1d 3d 25 84 11 be 24 41 cb 3a
       0.016333526 0.03836517 -0.14210565 0.0015507084
0002e0 46 ae 12 bd d3 ce 99 bc 05 ea 0c 3e 66 62 b2 3d
       -0.03581073 -0.01877538 0.13761146 0.08710174
0002f0 fd 52 b0 bd c3 66 b9 bd 4a 70 27 bd a9 2d 43 bd
       -0.08609579 -0.09052803 -0.04087857 -0.047650967
000300 8a c5 1a 3e 2e 3c e2 bd 77 4e 1e bd b7 c7 a3 3d
       0.15114418 -0.110466346 -0.03864905 0.07997077
000310 94 9e 5a 3d aa 8a 89 3d a1 87 fe 3d 4b 35 0b be
       0.053373888 0.06715901 0.12428213 -0.13594548
000320 ce 63 11 be d6 86 cb 3c 95 e7 53 bd 31 98 00 be
       -0.14198229 0.024844568 -0.051734526 -0.12558056
000330 bc 53 75 3c 55 bd d3 bd 47 9e d2 3c be af 86 bd
       0.014973577 -0.103388466 0.025710238 -0.06576489
000340 5b 99 42 3d 31 67 92 bb ca 10 86 bd 5a f7 c3 bc
       0.047509532 -0.004467868 -0.06546171 -0.023921657
000350 9e 88 e9 ba c6 9e 86 bd 4b f8 fe bc 9d 08 97 bc
       -0.0017817204 -0.065732524 -0.031124255 -0.018436724
000360 a4 8f af 3c 2f 21 0f 3e 3b 79 1a 3e 93 d2 02 3e
       0.021430798 0.13977502 0.15085308 0.1277564
000370 b0 88 d5 bd 9e 15 cf bd c8 11 b7 3a 96 7e 52 3c
       -0.10426462 -0.10111545 0.0013967091 0.012847563
000380 55 7c 09 bd 61 90 a5 3d 7a ae c6 3d af b0 92 3d
       -0.033565838 0.08084179 0.097012475 0.07162606
000390 fb 60 13 bd e6 64 a3 39 de 92 0d 3e 36 2a 4f bd
       -0.03598116 0.00031164958 0.13825557 -0.050577365
0003a0 36 21 20 be 85 cf 0d 3e 03 16 01 be cf 23 e2 3d
       -0.15637669 0.13848694 -0.12606053 0.11041986
0003b0 35 77 07 3e b6 6a 03 3e cf 07 cf 3d b7 c7 1c be
       0.13229068 0.12833676 0.10108911 -0.1531056
0003c0 75 6f b6 3d e2 26 f2 3d 3a 63 0b bd 00 ac b4 3d
       0.089079775 0.118238226 -0.034030177 0.08821869
0003d0 2e ff 90 3d 5d 2e 0b be 8a 80 0e 3e eb 70 05 3e
       0.07079922 -0.13591905 0.13916221 0.13031356
0003e0 27 a8 31 3d 32 02 34 3e ef 0f ce bc 32 f8 d5 3b
       0.043373253 0.17578962 -0.025154082 0.0065298313
0003f0 f7 82 00 3e 5f bf 3b bb cb 4b 0b 3d 1e f2 86 3d
       0.12549959 -0.0028648002 0.03400783 0.06589149

model_1/dense_3/MatMul f4 [1, 10]
000000 78 fd 02 bf 8b 5e 5a be 0a a0 c3 bc c4 67 4e bd
       -0.5116801 -0.21325128 -0.023880024 -0.050391927
000010 30 88 14 3f 6d 9c cd 3d b9 7f cf be 94 c9 d5 3e
       0.58020306 0.100396015 -0.40527132 0.41755354
000020 c3 c4 95 3e 91 0b d2 be
       0.2925168 -0.4102445
