models/14.tflite (tflite, 28724 bytes, 12 tensors)

model_14/conv2d_29/BiasAdd;model_14/conv2d_29/Conv2D;model_14/conv2d_29/BiasAdd/ReadVariableOp/resource f4 [12]
-0.0061926297 0.002917991 -0.0052844305 0.0019679859 -0.006054716 -0.0034582156 0.012467832 0.0028528087
0.000532587 0.008969058 -0.012789819 0.02986374
00000000: 8beb cabb c43b 3f3b 0429 adbb 53f9 003b
00000010: a466 c6bb 3ba3 62bb e145 4c3c 30f6 3a3b
00000020: 4f9d 0b3a f5f2 123c 648c 51bc cda4 f43c

model_14/conv2d_28/BiasAdd;model_14/conv2d_28/Conv2D;model_14/conv2d_28/BiasAdd/ReadVariableOp/resource f4 [4]
-0.0006800361 -0.0034773413 0.0016637387 0.009649715
00000000: 7344 32ba 1be4 63bb cf11 da3a d719 1e3c

model_14/conv2d_29/Conv2D f4 [12, 1, 11, 4]
0.122311905 -0.062970005 -0.1082889 -0.13085745 0.13357635 0.116950326 0.015084317 -0.10010447
-0.035130568 -0.13150185 -0.17451891 0.0604239 -0.13151225 0.08961467 0.130543 0.15717709
0.084773324 -0.10446113 -0.09733365 -0.09605274 0.035912007 -0.14829373 -0.12970933 -0.19936502
0.14960024 0.097427174 -0.18558073 -0.03703601 -0.120676875 -0.0001443866 -0.11708357 0.09379211
-0.15175945 0.043415464 0.14872864 0.105315536 0.023150392 0.13087462 0.055188105 0.11174358
0.056818467 -0.110668026 0.18108287 -0.14505187 0.12409048 0.17914759 0.17840318 0.053080183
-0.058843683 0.12477643 0.16793971 0.1776092 0.023843732 -0.06544982 0.05722838 -0.1578466
-0.01890142 -0.15037291 0.01801973 -0.0875338 0.14502712 0.12179022 -0.0010131043 0.012371891
0.09045006 -0.14639895 -0.055953905 -0.104260966 -0.17893095 -0.1812461 0.10355512 -0.05520946
0.038779993 0.10811037 0.063063264 -0.090776786 0.14686391 0.12889715 0.12279088 0.18513912
0.0012152917 0.14499512 -0.18389374 -0.092679635 0.013960526 0.053142235 0.104364514 -0.07570389
0.055677027 0.06181043 -0.008540935 0.08845986 0.1805043 0.036496926 -0.09462779 0.0044173514
-0.07841693 -0.16222851 -0.10488533 -0.12109898 0.18360569 -0.16961734 -0.093161754 -0.020196943
-0.14743425 -0.1209315 -0.102646835 0.08650855 0.058095187 0.10569458 0.042837385 -0.06331397
-0.090410896 -0.17536616 0.17624432 -0.17630562 -0.09162589 0.0667387 0.10592711 -0.18125792
0.12832808 -0.124520324 -0.062382065 0.16652344 -0.14258586 -0.018053709 0.07165958 -0.15563676
-0.16811515 -0.005960112 0.062176604 -0.10096667 -0.115992 0.04406502 0.1032834 -0.12288846
-0.15439759 0.052191928 0.113689125 0.09886368 0.16747627 0.009496599 0.11829234 -0.10879382
0.0873704 -0.011591664 -0.1581652 0.095208585 -0.0074561345 0.098773286 -0.048760727 0.06921732
-0.010760802 -0.16637464 -0.1699135 0.1425827 -0.031560097 0.067789815 0.11815387 0.19458973
-0.14530873 0.036269378 -0.031767428 0.08459972 -0.12521867 0.160928 0.028968077 -0.063918255
0.04035877 -0.17845026 0.003150783 0.043769665 -0.009788507 -0.124188006 0.16639325 -0.06908183
-0.120422654 0.13820204 0.031175284 -0.0073216814 -0.057123847 0.07676415 -0.11300499 -0.013086566
0.11624182 0.14185321 0.1072244 -0.14149608 -0.06038025 -0.01902439 0.04027063 0.1259555
0.04754251 -0.028286094 -0.013506081 0.0075165182 0.10720623 0.042406093 -0.18533851 0.04693315
0.15429926 0.117872894 0.022596395 -0.07732314 -0.07596657 -0.05982584 0.093256295 0.011632141
0.07229142 -0.16799676 0.084917195 -0.020395068 -0.0352368 0.148022 0.022390187 -0.15431151
-0.017496416 -0.16126713 0.0068180985 -0.05081897 0.15387978 -0.22132444 0.18047166 0.17085768
0.10845648 -0.13988334 0.1412404 0.017862765 -0.18053442 0.024352748 -0.06284952 -0.13410555
0.025564034 0.08917299 0.18206292 -0.014677262 -0.054363538 0.1317941 0.037786495 0.050460596
0.13342217 -0.06511729 -0.14494957 -0.037330274 -0.05256323 0.18707204 0.11404364 -0.19213417
-0.12789308 -0.05177804 -0.1656554 0.06373952 0.12917572 0.009299962 -0.121036895 0.166719
00000000: aa7e fa3d 6bf6 80bd 92c6 ddbd 7fff 05be
00000010: 3dc8 083e a783 ef3d 3624 773c 9303 cdbd
00000020: 12e5 0fbd 6ca8 06be 16b5 32be 0d7f 773d
00000030: 26ab 06be e587 b73d 10ad 053e 08f3 203e
00000040: a39d ad3d b8ef d5bd dd56 c7bd 4db7 c4bd
00000050: 7818 133d 50da 17be 86d2 04be 5826 4cbe
00000060: ce30 193e e687 c73d e008 3ebe 12b3 17bd
00000070: 7025 f7bd 7c66 17b9 83c9 efbd 1416 c03d
00000080: d466 1bbe 6ad4 313d 524c 183e acaf d73d
00000090: e4a5 bd3c ff03 063e ec0c 623d d1d9 e43d
000000a0: 7bba 683d eba5 e2bd ca6d 393e 7a88 14be
000000b0: 2623 fe3d 7772 373e 53af 363e 9b6a 593d
000000c0: 1306 71bd c98a ff3d 63f8 2b3e 30df 353e
000000d0: ee53 c33c 8e0a 86bd 4e68 6a3d 8aa2 21be
000000e0: 27d7 9abc 5bfb 19be 1d9e 933c ec44 b3bd
000000f0: fd81 143e 276d f93d 24ca 84ba 79b3 4a3c
00000100: e23d b93d 9be9 15be ec2f 65bd c686 d5bd
00000110: ad39 37be 9498 39be b514 d43d 5123 62bd
00000120: c5d7 1e3d f868 dd3d 5027 813d 2ee9 b9bd
00000130: 7e63 163e 9dfd 033e c979 fb3d 1c95 3d3e
00000140: 6c4a 9f3a 9a79 143e a44e 3cbe d2ce bdbd
00000150: b1ba 643c acab 593d 10bd d53d a40a 9bbd
00000160: 980d 643d ef2c 7d3d 47ef 0bbc 712a b53d
00000170: 1fd6 383e cd7d 153d 37cc c1bd 6ebf 903b
00000180: 0e99 a0bd 3b1f 26be 1fce d6bd be02 f8bd
00000190: 2103 3c3e 2bb0 2dbe 97cb bebd 0f74 a5bc
000001a0: 01f9 16be efaa f7bd 8138 d2bd 652b b13d
000001b0: 38f5 6d3d 6676 d83d 4176 2f3d c1aa 81bd
000001c0: 5929 b9bd 3093 33be 6479 343e 7689 34be
000001d0: 5ba6 bbbd 4dae 883d 50f0 d83d ad9b 39be
000001e0: 7068 033e 8304 ffbd 5684 7fbd 1f85 2a3e
000001f0: 0702 12be 5fe5 93bc 42c2 923d 3e5f 1fbe
00000200: 6126 2cbe 0b4d c3bb e5ac 7e3d 9dc7 cebd
00000210: 378d edbd 867d 343d 3f86 d33d f2ac fbbd
00000220: 671a 1ebe 34c7 553d d8d5 e83d 0b79 ca3d
00000230: e67e 2b3e a097 1b3c 4143 f23d 4bcf debd
00000240: 41ef b23d f6ea 3dbc 0ff6 21be b8fc c23d
00000250: 9752 f4bb a649 ca3d 54b9 47bd cfc1 8d3d
00000260: 134e 30bc 1d5e 2abe cefd 2dbe 3301 123e
00000270: 2945 01bd 63d5 8a3d a8fa f13d 8842 473e
00000280: d0cb 14be 338f 143d 901e 02bd 9e42 ad3d
00000290: 5339 00be 4fca 243e 764e ed3c 93e7 82bd
000002a0: 3d4f 253d aabb 36be 5e7d 4e3b d247 333d
000002b0: f95f 20bc 4856 febd fe62 2a3e c67a 8dbd
000002c0: 27a0 f6bd d684 0d3e 4f63 ff3c b7ea efbb
000002d0: b2fa 69bd 8636 9d3d 296f e7bd 0969 56bc
000002e0: 3110 ee3d f841 113e 7798 db3d 59e4 10be
000002f0: 4851 77bd 0ad9 9bbc d1f2 243d 7bfa 003e
00000300: efbb 423d 3db8 e7bc 9c48 5dbc 204d f63b
00000310: f18e db3d 03b2 2d3d 61c9 3dbe fa3c 403d
00000320: a000 1e3e 5867 f13d 131c b93c 985b 9ebd
00000330: 5c94 9bbd f10b 75bd 28fd be3d bc94 3e3c
00000340: 860d 943d 5807 2cbe 11e9 ad3d 8f13 a7bc
00000350: 7654 10bd 1493 173e a06b b73c d603 1ebe
00000360: a554 8fbc 3623 25be 5b6a df3b 8d27 50bd
00000370: a992 1d3e e0a2 62be 90cd 383e 51f5 2e3e
00000380: 6e1e de3d 943d 0fbe 53a1 103e ef54 923c
00000390: 04de 38be 6a7f c73c 40b7 80bd f752 09be
000003a0: aa6b d13c 54a0 b63d b46e 3a3e e678 70bc
000003b0: 4dac 5ebd 08f5 063e 03c6 1a3d c5af 4e3d
000003c0: d29f 083e 375c 85bd a96d 14be a1e7 18bd
000003d0: 8b4c 57bd d08f 3f3e b68f e93d d2be 44be
000003e0: 67f6 02be 3615 54bd 92a1 29be de89 823d
000003f0: a446 043e de5e 183c 31e2 f7bd 63b8 2a3e

model_14/conv2d_28/Conv2D f4 [4, 4, 38, 1]
-0.07224088 -0.027913982 -0.09397388 -0.09103555 -0.000118614524 0.013066863 -0.0032831037 -0.059124593
-0.08428666 -0.080395974 0.08089581 0.08534589 0.093366705 -0.03130239 -0.067998 -0.05347959
0.039322905 -0.016484525 0.077373214 0.065042846 0.054836173 -0.0565029 -0.075327024 0.019435488
0.08920494 0.0811801 0.0705443 0.017410208 -0.08589603 0.068731986 -0.0553896 0.0747533
-0.04711016 -0.05866427 0.041957494 -0.04736756 0.022033684 -0.06980906 -0.006524994 -0.027890427
-0.017925797 -0.0792719 -0.066560835 -0.08664319 0.08018214 -0.059655696 -0.06803594 0.00864597
-0.0675832 0.015733674 0.016406523 -0.0040721125 0.078877024 -0.026555225 0.029300427 -0.060833126
-0.026842484 -0.013659041 0.024794193 -0.07243297 0.0429139 -0.07773583 -0.017064286 -0.045906004
0.028318113 0.0031580771 -0.04187585 0.04867931 0.03310464 0.027496768 -0.06739844 -0.07118503
-0.055805735 -0.06643401 0.03939663 -0.0484145 -0.07494051 -0.10038519 0.0366486 0.07347026
-0.02539273 0.025295692 0.021628628 0.003946256 -0.019937148 -0.014710903 0.023533028 0.030710945
-0.06583825 0.012744062 0.058517493 -0.013138501 -0.07202093 0.07709722 -0.030176716 -0.030643005
-0.07450831 0.019531071 -0.07924843 -0.013062751 -0.0021753297 -0.04415927 -0.012523521 -0.035551224
0.00890415 0.010709508 0.011807701 0.017912896 -0.058699124 0.036281735 0.034923654 -0.061322514
0.066970594 -0.007989414 -0.014211011 -0.078260385 -0.078838706 -0.09598394 -0.03748982 -0.009523947
-0.07843569 -0.024787355 -0.05398071 0.04933067 0.03224863 0.006042741 0.011053349 -0.057482738
-0.020386383 -0.054422192 0.050565775 -0.012524311 0.010204586 -0.0030941092 0.05553623 -0.07761097
0.055611316 -0.043908745 0.040745884 0.02080539 -0.006989173 -0.059540838 -0.064743854 -0.05951635
-0.0733668 -0.08007122 -0.07923954 0.08717903 0.06757208 -0.08428486 -0.041692127 0.058111567
0.015431311 0.10870062 0.1189669 -0.024073359 0.02208399 -0.028257044 0.04998189 0.062694065
-0.015182024 0.043799605 0.029073259 0.07862852 0.038855758 -0.033797592 -0.06809776 0.0014083716
-0.047803435 0.050029512 0.019065598 0.029410373 0.06599206 -0.048929915 0.07961086 -0.0923176
-0.060061693 -0.096263304 -0.0074206735 -0.06439782 0.052258097 0.0004360824 -0.008501046 0.070791334
-0.071460895 -0.04822706 -0.047224924 -0.015256553 0.037964065 -0.02962182 0.0514113 -0.041960947
-0.0019269449 0.09415802 0.044221275 0.050278287 0.03099269 -0.030707097 0.051353373 -0.06724769
0.054143507 -0.06097763 0.05487775 -0.003774353 -0.015547942 0.050157737 0.062085725 0.064286955
-0.010995513 0.05413526 -0.031840995 0.021452414 -0.07012775 0.043453604 0.033835262 -0.0037401773
-0.051503636 0.06723433 -0.069679506 -0.028862737 -0.03272072 -0.0022059428 -0.0180498 0.032716766
0.055003934 0.039433163 0.011897409 -0.058421236 0.035649657 0.02894371 0.035689633 0.0795307
0.051556397 0.089186475 -0.03677408 -0.05259767 0.053482413 0.040379718 -0.03279266 -0.062098186
-0.06689791 -0.02003214 -0.028966658 0.0012727396 -0.009518853 -0.035989475 -0.031028494 0.017270176
0.031752985 -0.0012705137 -0.0755498 -0.06250351 -0.011994191 -0.058030754 -0.07018801 -0.0029336528
00000000: 07f3 93bd ddab e4bc 6175 c0bd d970 babd
00000010: b0c0 f8b8 6516 563c 5729 57bb a12c 72bd
00000020: 7c9e acbd a5a6 a4bd b4ac a53d d3c9 ae3d
00000030: 0b37 bf3d ef36 00bd 8942 8bbd 6a0d 5bbd
00000040: 0e11 213d 8e0a 87bc d975 9e3d 2f35 853d
00000050: e59b 603d 966f 67bd 0e45 9abd 2c37 9f3c
00000060: 14b1 b63d c141 a63d 8879 903d da9f 8e3c
00000070: 42ea afbd 5bc3 8c3d 35e0 62bd 4218 993d
00000080: 95f6 40bd f249 70bd 9fdb 2b3d 7d04 42bd
00000090: fc7f b43c 0df8 8ebd 9ecf d5bb 777a e4bc
000000a0: 1fd9 92bc 4e59 a2bd 0c51 88bd fc71 b1bd
000000b0: 8936 a43d 8859 74bd 6d56 8bbd d4a7 0d3c
000000c0: 1069 8abd e8e3 803c f966 863c 5b6f 85bb
000000d0: 478a a13d 588a d9bc 7307 f03c 282c 79bd
000000e0: c5e4 dbbc 2cca 5fbc 311d cb3c bd57 94bd
000000f0: 7cc6 2f3d f633 9fbd 67ca 8bbc ef07 3cbd
00000100: 63fb e73c bef7 4e3b 0386 2bbd f563 473d
00000110: bb98 073d e740 e13c 3108 8abd 75c9 91bd
00000120: 8e94 64bd 8e0e 88bd 5c5e 213d 484e 46bd
00000130: 697a 99bd c096 cdbd d81c 163d 9377 963d
00000140: 6a04 d0bc e938 cf3c 852e b13c 984f 813b
00000150: 3b53 a3bc 0006 71bc 56c8 c03c 8595 fb3c
00000160: 34d6 86bd 78cc 503c 0ab0 6f3d de42 57bc
00000170: b67f 93bd 26e5 9d3d 2935 f7bc 0a07 fbbc
00000180: d097 98bd a0ff 9f3c 004d a2bd 2605 56bc
00000190: fa8f 0ebb 5ae0 34bd 742f 4dbc 299e 11bd
000001a0: b6e2 113c ef76 2f3c 1675 413c 11be 923c
000001b0: 7e6e 70bd 289c 143d 1b0c 0f3d 512d 7bbd
000001c0: e127 893d 08e6 02bc 4dd5 68bc fb46 a0bd
000001d0: 3076 a1bd 3a93 c4bd ed8e 19bd 540a 1cbc
000001e0: e4a2 a0bd da0e cbbc e11a 5dbd f50e 4a3d
000001f0: 2417 043d 2f02 c63b 1b19 353c 0573 6bbd
00000200: 5801 a7bc cee9 5ebd 0f1e 4f3d c532 4dbc
00000210: 2331 273c 8ac6 4abb f579 633d 80f2 9ebd
00000220: b1c8 633d a8d9 33bd 28e5 263d 1170 aa3c
00000230: 6f05 e5bb 18e1 73bd 6d98 84bd 6bc7 73bd
00000240: 5541 96bd 61fc a3bd 5748 a2bd eb8a b23d
00000250: 3b63 8a3d 8a9d acbd 5dc5 2abd 6506 6e3d
00000260: 9cd3 7c3c 6e9e de3d eba4 f33d 7e35 c5bc
00000270: 7ce9 b43c 517b e7bc cfb9 4c3d bf65 803d
00000280: 06be 78bc 3767 333d 0b2b ee3c fd07 a13d
00000290: 3727 1f3d 586f 0abd d776 8bbd 1c99 b83a
000002a0: 89cd 43bd bfeb 4c3d 752f 9c3c 06ee f03c
000002b0: d826 873d bc6a 48bd 050b a33d 0311 bdbd
000002c0: 4003 76bd b225 c5bd 1f29 f3bb 01e3 83bd
000002d0: 960c 563d fda1 e439 f947 0bbc 0cfb 903d
000002e0: 175a 92bd bd89 45bd ec6e 41bd 9ff6 79bc
000002f0: 3580 1b3d 76a9 f2bc a894 523d 3edf 2bbd
00000300: 8b91 fcba ecd5 c03d 5e21 353d 9bf0 4d3d
00000310: 62e4 fd3c 738d fbbc ea57 523d 28b9 89bd
00000320: 95c5 5d3d aec3 79bd 7ec7 603d 235b 77bb
00000330: ccbc 7ebc 3372 4d3d 9a4d 7e3d e1a8 833d
00000340: 8626 34bc efbc 5d3d b46b 02bd f9bc af3c
00000350: 239f 8fbd 68fc 313d d896 0a3d c31d 75bb
00000360: 7af5 52bd 27b2 893d 21b4 8ebd 8c71 ecbc
00000370: 2906 06bd 9491 10bb 2ddd 93bc 0402 063d
00000380: ce4b 613d ab84 213d 5aed 423c 1b4b 6fbd
00000390: 6005 123d 5c1b ed3c 4b2f 123d fee0 a23d
000003a0: cd2c 533d 66a7 b63d 6ba0 16bd a870 57bd
000003b0: 6010 5b3d 3465 253d 9951 06bd ab5a 7ebd
000003c0: c501 89bd 711a a4bc 7c4b edbc 0ed2 a63a
000003d0: f7f4 1bbc b369 13bd 782f febc 2f7a 8d3c
000003e0: 6b0f 023d 5e87 a6ba dbb9 9abd d701 80bd
000003f0: 4983 44bc a8b1 6dbd bbbe 8fbd 8742 40bb

model_14/dense_28/BiasAdd/ReadVariableOp/resource f4 [10]
0.0042952583 -0.010345489 -0.016872501 -0.0048121056 -0.0022282617 -0.011026747 -0.005064873 0.04721181
0.04420783 0.0044235294
00000000: 3dbf 8c3b 2080 29bc 3338 8abc deae 9dbb
00000010: 0708 12bb 87a9 34bc 3cf7 a5bb 2c61 413d
00000020: 4513 353d 41f3 903b

model_14/layer_normalization_42/add/ReadVariableOp/resource f4 [4]
0.0039293133 -0.01775805 -0.013801025 -0.0014082602
00000000: 78c1 803b 5479 91bc b21d 62bc 5f95 b8ba

model_14/layer_normalization_42/mul_4/ReadVariableOp/resource f4 [4]
1.0014524 1.0254724 0.9910492 1.0011567
00000000: 982f 803f ae42 833f 66b5 7d3f e725 803f

model_14/layer_normalization_43/add/ReadVariableOp/resource f4 [12]
-0.0026863194 0.019885842 0.0014673651 0.015195202 -0.0066008987 0.00064994965 0.011163679 0.0026433286
0.0015370754 0.008164815 -0.017091412 0.0043928386
00000000: f60c 30bb a2e7 a23c 9a54 c03a 4cf5 783c
00000010: 5a4c d8bb 6261 2a3a dde7 363c b23b 2d3b
00000020: b177 c93a b7c5 053c 4a03 8cbc cdf1 8f3b

model_14/layer_normalization_43/mul_4/ReadVariableOp/resource f4 [12]
1.0026336 0.9821979 1.0086852 1.0051138 1.0097926 1.0089747 0.99221575 1.0017619
1.0018575 1.0094051 1.0416418 0.9875597
00000000: 4c56 803f 5271 7b3f 991c 813f 92a7 803f
00000010: e240 813f 1526 813f da01 7e3f bc39 803f
00000020: de3c 803f 3034 813f 8554 853f b6d0 7c3f

model_14/layer_normalization_44/mul_2/ReadVariableOp/resource f4 [10]
0.94997984 0.9971014 1.005162 0.9908867 0.992557 1.0037129 0.99299514 0.98800343
0.98770356 0.9846984
00000000: e131 733f 0a42 7f3f 26a9 803f c0aa 7d3f
00000010: 3718 7e3f aa79 803f ee34 7e3f cbed 7c3f
00000020: 24da 7c3f 3215 7c3f

model_14/dense_28/MatMul f4 [10, 228]
-0.022830104 0.08249051 0.022310618 -0.04917618 -0.08205336 0.07015548 0.124059506 0.03788251
0.12633952 0.05123009 0.013126942 0.0010222524 0.034173172 -0.06600399 -0.029984325 -0.014260803
-0.0036372764 -0.09951764 0.08107453 0.13778307 -0.05365322 0.0627655 -0.087563865 -0.12664571
0.098687954 -0.061621565 0.12517531 0.15334003 0.100868 0.009023444 -0.12730752 0.044292096
0.05727139 0.07391168 0.050293416 -0.111710995 -0.11687283 0.13355443 -0.11661238 0.060553968
0.0924566 -0.05888889 -0.078429215 0.062161773 0.06360185 0.083669364 -0.12403774 0.008613806
0.04526738 -0.090344995 0.13028683 -0.04574248 0.10753923 0.00035868137 -0.014221211 0.082405135
0.115532145 0.09886244 -0.09494968 -0.10627332 -0.06266287 -0.005125109 0.030574212 -0.15148164
-0.04223147 0.15989311 0.14520292 0.05431531 0.009373913 0.035407238 -0.14907399 -0.004483321
0.042953644 0.0028176946 0.121536046 0.046952095 -0.051413406 0.048068974 0.031392407 0.10046286
0.13258778 0.038390752 0.01450608 -0.01537783 0.12129904 0.07748578 0.11800129 0.025468016
-0.14149536 -0.054854233 0.123324744 0.03572951 -0.04779912 -0.09204223 0.08800584 0.069368504
-0.018353458 -0.032607645 0.04556163 -0.07016851 0.100141026 0.10640256 -0.030359183 0.07206884
-0.12563427 0.11266141 -0.12113739 -0.13589455 -0.028365271 -0.13263264 -0.09216066 -0.037525315
-0.12867768 0.10683789 0.14526184 0.13321407 -0.067390874 0.008459684 0.048489925 0.07662548
-0.13253787 -0.010481468 0.09948167 -0.027750682 -0.0372174 0.089270785 -0.12511271 0.122932404
0.08499593 -0.13262774 -0.046170756 0.043911178 -0.034102943 -0.10707879 -0.105050296 0.08977359
-0.056367423 -0.08600719 -0.13672712 -0.0008797922 0.008718616 0.09689323 0.06565107 0.10992573
-0.08922882 0.04670063 -0.06534511 -0.07200616 -0.147087 0.08455912 0.006144856 -0.03980778
-0.13709496 -0.026952874 0.06483912 0.10861408 -0.07515274 0.11963459 0.0010721665 -0.05953976
0.034219373 0.16026358 0.079861976 -0.12260815 0.124829635 0.024306403 0.09994379 -0.063028656
0.14680243 -0.07986945 0.028112076 0.11161352 -0.14268611 -0.05281053 0.0615921 -0.08087123
-0.067243844 -0.12899122 -0.06752895 -0.07875262 0.1280799 -0.15118122 -0.040130816 0.060896337
-0.100909784 -0.046412732 -0.04361978 0.050597515 0.04536844 -0.093806826 -0.13085079 0.11728951
0.10194797 0.032994173 0.03323898 0.0025842371 -0.02290639 0.016196616 0.013330414 -0.09921902
-0.023120716 -0.0824746 0.013262131 0.098706014 0.04876986 0.15106837 -0.0062760087 0.038456015
-0.03904289 0.166411 -0.13205414 -0.05738099 0.050002817 0.01715541 0.11427077 -0.033498026
-0.019041475 0.05145818 0.029951096 0.14495032 -0.1572981 -0.057592995 -0.015155115 0.06976072
0.13899699 -0.043384396 -0.05502588 -0.019611545 0.09120358 0.018014278 -0.04270944 0.13549855
0.055271946 0.06405921 -0.093691684 -0.15534174 0.1250599 0.10493069 0.017163865 -0.014017966
0.06467233 -0.152288 0.04120614 0.115526415 -0.095133364 -0.10306249 0.013990603 -0.08485487
-0.158517 -0.010701369 -0.13432567 0.13546531 -0.0326925 -0.027640272 -0.109671235 0.12183308
00000000: 3306 bbbc c9f0 a83d c2c4 b63c f66c 49bd
00000010: 980b a8bd adad 8f3d e912 fe3d b12a 1b3d
00000020: 265f 013e a5d6 513d 6312 573c 19fd 853a
00000030: 2bf9 0b3d 1a2d 87bd b0a1 f5bc 25a6 69bc
00000040: 5f5f 6ebb e8cf cbbd 670a a63d 0117 0d3e
00000050: 7bc3 5bbd 338b 803d af54 b3bd 6aaf 01be
00000060: e91c ca3d e566 7cbd f52d 003e 2b05 1d3e
00000070: e293 ce3d 11d7 133c e75c 02be a16b 353d
00000080: 6895 6a3d 025f 973d 7800 4e3d bcc8 e4bd
00000090: 065b efbd 7ec2 083e 79d2 eebd 7007 783d
000000a0: e359 bd3d 7a35 71bd 7f9f a0bd 589d 7e3d
000000b0: b041 823d d85a ab3d 8007 febd ec20 0d3c
000000c0: 4a6a 393d cc06 b9bd e969 053e 775c 3bbd
000000d0: 873d dc3d 660d bc39 1500 69bc 06c4 a83d
000000e0: 1e9c ec3d 6478 ca3d fa74 c2bd d4a5 d9bd
000000f0: 6455 80bd 88f0 a7bb c576 fa3c 011e 1bbe
00000100: e8fa 2cbd 05bb 233e 13b0 143e bb79 5e3d
00000110: 0a95 193c 2e07 113d daa6 18be d3e8 92bb
00000120: 29f0 2f3d 12a9 383b e4e7 f83d d750 403d
00000130: dd96 52bd f9e3 443d 5395 003d 79bf cd3d
00000140: 17c5 073e 9f3f 1d3d e9aa 6d3c 4bf3 7bbc
00000150: a26b f83d ddb0 9e3d a9aa f13d 4da2 d03c
00000160: 29e4 10be d5ae 60bd af91 fc3d 1b59 123d
00000170: 03c9 43bd a380 bcbd 683c b43d 1311 8e3d
00000180: fe59 96bc 988f 05bd d59e 3a3d 82b4 8fbd
00000190: bd16 cd3d 96e9 d93d d2b3 f8bc d498 933d
000001a0: 45a6 00be 06bb e63d e116 f8bd f127 0bbe
000001b0: 495e e8bc dad0 07be babe bcbd 25b4 19bd
000001c0: 15c4 03be d3cd da3d 85bf 143e 4569 083e
000001d0: 3a04 8abd 7d9a 0a3c 5f9d 463d d2ed 9c3d
000001e0: 02b8 07be 77ba 2bbc 0cbd cb3d 6655 e3bc
000001f0: 4671 18bd 9ad3 b63d 8c1d 00be fcc3 fb3d
00000200: 5912 ae3d 91cf 07be 8c1d 3dbd 35dc 333d
00000210: 87af 0bbd 204c dbbd 9c24 d7bd 37db b73d
00000220: 87e1 66bd 8a24 b0bd 3202 0cbe dba1 66ba
00000230: 87d8 0e3c f56f c63d 1174 863d be20 e13d
00000240: 99bd b6bd 2949 3f3d a8d3 85bd f777 93bd
00000250: f99d 16be 552d ad3d ca5a c93b 7c0d 23bd
00000260: 9f62 0cbe 46cc dcbc 5fca 843d 0f71 de3d
00000270: aee9 99bd fb02 f53d f087 8c3a f7df 73bd
00000280: 9d29 0c3d 231c 243e ad8e a33d fb19 fbbd
00000290: aea6 ff3d 391e c73c 54af cc3d 2b15 81bd
000002a0: 6053 163e 9892 a3bd 4c4b e63c a195 e43d
000002b0: 4f1c 12be db4f 58bd ff47 7c3d d19f a5bd
000002c0: 24b7 89bd 4616 04be 9e4c 8abd 0e49 a1bd
000002d0: 6127 033e 40cf 1abe 3660 24bd 706e 793d
000002e0: caa9 cebd 471b 3ebd a8aa 32bd 573f 4f3d
000002f0: 42d4 393d cb1d c0bd c0fd 05be 7c35 f03d
00000300: 19ca d03d e624 073d 9925 083d 4e5c 293b
00000310: 2ea6 bbbc c4ae 843c cf67 5a3c 5733 cbbd
00000320: a867 bdbc 71e8 a8bd 6949 593c 6126 ca3d
00000330: e8c2 473d abb1 1a3e faa6 cdbb 0e84 1d3d
00000340: 70eb 1fbd a567 2a3e 3339 07be 5408 6bbd
00000350: c1cf 4c3d 8189 8c3c cb06 ea3d 3a35 09bd
00000360: defc 9bbc d0c5 523d 005c f53c db6d 143e
00000370: c112 21be a2e6 6bbd 294d 78bc b5de 8e3d
00000380: 3a55 0e3e d6b3 31bd d162 61bd 64a8 a0bc
00000390: f1c8 ba3d ae92 933c 18f0 2ebd 22c0 0a3e
000003a0: d664 623d 7a31 833d 6de1 bfbd e811 1fbe
000003b0: b40f 003e e7e5 d63d 3c9b 8c3c 9cab 65bc
000003c0: ed72 843d 63f1 1bbe c5c7 283d 1d99 ec3d
000003d0: 48d5 c2bd 6d12 d3bd d838 653c 64c8 adbd
000003e0: 4852 22be cb54 2fbc ab8c 09be 6bb7 0a3e
000003f0: 92e8 05bd da6d e2bc 509b e0bd 9f83 f93d

model_14/dense_29/MatMul f4 [1, 10]
0.64322907 -0.26952904 -0.15307517 -0.5199589 0.32168174 -0.2910051 0.12843561 -0.081393026
-0.07621059 -0.306207
00000000: a9aa 243f b6ff 89be bdbf 1cbe 071c 05bf
00000010: 78b3 a43e 9ffe 94be a084 033e 63b1 a6bd
00000020: 4c14 9cbd 2ac7 9cbe
