models/19.tflite (tflite, 28724 bytes, 12 tensors)

model_19/conv2d_39/BiasAdd;model_19/conv2d_39/Conv2D;model_19/conv2d_39/BiasAdd/ReadVariableOp/resource f4 [12]
-0.009084724 0.004178743 0.005106678 0.012764169 0.0088799 0.00024871188 -0.0065859063 -0.017309397
-0.010681659 0.0042933566 -0.011493646 -0.008021951
00000000: 18d8 14bc d6ed 883b ec55 a73b ce20 513c
00000010: 007d 113c 8b65 8239 96ce d7bb 70cc 8dbc
00000020: 2002 2fbc 49af 8c3b d84f 3cbc 806e 03bc

model_19/conv2d_38/BiasAdd;model_19/conv2d_38/Conv2D;model_19/conv2d_38/BiasAdd/ReadVariableOp/resource f4 [4]
0.011303876 -0.0034870286 -0.003103561 0.012599296
00000000: e433 393c a286 64bb 1d65 4bbb 476d 4e3c

model_19/conv2d_39/Conv2D f4 [12, 1, 11, 4]
0.06483214 0.13961765 0.16547248 0.112258 0.0022642477 0.16712862 0.039641634 -0.15549308
0.042333975 -0.07485029 -0.16631508 0.11966436 0.14058337 -0.16309732 0.013495873 -0.07932391
0.14217496 -0.117086895 -0.10412995 -0.14749718 0.18998522 0.17706513 0.059990987 -0.18943144
-0.16555502 0.011986666 -0.03842805 -0.16266191 0.05820622 -0.08074617 0.020093175 -0.106645964
0.04381358 0.036187585 0.094406344 0.1247019 -0.14985864 0.036958613 -0.037247185 0.15339229
-0.0076538674 -0.05115338 0.06980614 -0.13809232 -0.15783168 -0.11676756 -0.022394 -0.06968612
0.14783438 0.0130072525 -0.101402335 -0.036277175 -0.10034433 -0.056888916 0.048617687 -0.09281355
-0.084567614 -0.056740616 0.103645675 -0.08185202 -0.15409616 0.090993375 0.05279069 -0.007833784
0.14900972 0.13862446 -0.12047534 0.05754447 0.19756234 0.16309483 0.16905475 0.0900766
-0.037384354 0.02435392 0.007866767 -0.18123546 -0.10726176 0.049611256 0.04049656 -0.050230365
-0.11212505 -0.11134759 0.16748825 -0.09464442 0.09177972 -0.082245104 0.0076902015 -0.020611705
0.1588387 -0.14727809 -0.17381467 -0.14251897 -0.12823586 -0.10542773 0.060687814 0.13118404
-0.09675396 -0.16377634 0.15677641 0.048463084 -0.011654547 0.11354937 0.17093804 -0.16166428
0.16126233 0.15656877 0.07314764 0.17118731 0.1502366 -0.12939093 0.14559878 -0.030041847
0.057592176 -0.08589115 -0.063760325 0.13054425 0.06480643 0.088179365 0.14715111 -0.011953056
-0.026300907 -0.09638995 0.017780313 0.03353858 0.121738486 0.12982757 0.14237703 -0.17373957
0.14416574 0.12535791 -0.053459782 -0.070416935 -0.115849525 -0.041333888 -0.035737723 0.18702571
0.13506913 0.10757495 -0.092198215 0.16836299 0.05131161 0.13733138 -0.02293409 0.038058333
0.07827467 -0.022785498 -0.015126996 0.17579114 0.15125762 -0.06457808 -0.069941685 0.1269691
0.032691803 -0.12765153 -0.1070284 0.046316236 -0.08710834 -0.042518836 -0.08519986 -0.09508034
-0.07665882 -0.020184744 -0.16572116 0.01871389 0.08508865 -0.19590549 -0.15300794 -0.0062967865
-0.08781249 -0.012456754 0.05193618 -0.123502806 0.16223368 0.10454693 -0.10723387 -0.02998834
0.09669284 -0.12402481 -0.17482318 0.033585135 -0.112444684 -0.09680282 0.10030438 0.14350027
-0.14936055 -0.13748623 -0.119990304 -0.09827985 -0.1661466 -0.13213071 -0.17672296 0.18076319
-0.09408884 -0.18752807 0.102283105 0.15557396 0.011015797 -0.07451939 -0.043254074 -0.11114385
-0.12818135 0.032948066 0.10415709 0.15905221 -0.15269889 -0.13112016 0.121603385 -0.14614704
-0.13502459 0.02890637 -0.13613717 0.12423684 0.047612164 -0.013717745 -0.00044049192 0.1683009
0.04056001 0.066444375 -0.06684672 -0.11122307 -0.14945456 0.051167153 0.13402358 -0.02557609
-0.068689115 0.03984101 0.10710372 0.045040485 -0.055470865 -0.14761348 0.13809167 0.05778069
0.120799385 -0.17156135 -0.04930236 -0.16018899 0.08331897 -0.009446067 -0.06736525 0.16921718
0.17198251 -0.07853017 0.04149169 0.076426804 0.03512808 0.10718066 0.16229731 0.044377968
-0.004685411 -0.009323909 -0.028858822 0.12612285 -0.10784681 -0.16323628 0.01089578 0.18078479
00000000: b7c6 843d eef7 0e3e 9e71 293e 86e7 e53d
00000010: c663 143b c423 2b3e 445f 223d 9439 1fbe
00000020: 6466 2d3d 1c4b 99bd 804e 2abe 9712 f53d
00000030: 16f5 0f3e fc02 27be cb1d 5d3c 9374 a2bd
00000040: 5096 113e 41cb efbd 1542 d5bd 8009 17be
00000050: 7c8b 423e 9050 353e 1cb9 753d 51fa 41be
00000060: 4187 29be b963 443c bb66 1dbd d890 26be
00000070: a569 6e3d 3f5e a5bd 719a a43c 3369 dabd
00000080: de75 333d 6f39 143d 1d58 c13d b663 ff3d
00000090: 8b74 19be ea61 173d 8190 18bd de12 1d3e
000000a0: 4bcd fabb 3586 51bd 86f6 8e3d 1368 0dbe
000000b0: a19e 21be d523 efbd 9f73 b7bc 99b7 8ebd
000000c0: e561 173e 5f1c 553c 07ac cfbd 6097 14bd
000000d0: 5481 cdbd 5a04 69bd 5723 473d 0815 bebd
000000e0: c931 adbd d968 68bd 2f44 d43d 08a2 a7bd
000000f0: 62cb 1dbe bc5a ba3d 0d3b 583d 4659 00bc
00000100: 0196 183e 92f3 0d3e c6bb f6bd c0b3 6b3d
00000110: c84d 4a3e 5502 273e b01c 2d3e 157a b83d
00000120: 5620 19bd df81 c73c 9de3 003c ca95 39be
00000130: 0eac dbbd 2c35 4b3d b9df 253d 5bbe 4dbd
00000140: d1a1 e5bd 350a e4bd 0a82 2b3e efd4 c1bd
00000150: 01f7 bb3d 1f70 a8bd 16fe fb3b e1d9 a8bc
00000160: 9da6 223e 11d0 16be 79fc 31be 7ef0 11be
00000170: 4350 03be 7eea d7bd c993 783d 1c55 063e
00000180: f126 c6bd fcb4 27be ff89 203e 3a81 463d
00000190: b7f2 3ebc 928c e83d 620a 2f3e 528b 25be
000001a0: f421 253e 9053 203e 6ece 953d ba4b 2f3e
000001b0: a0d7 193e 0e7f 04be d917 153e 521a f6bc
000001c0: c6e5 6b3d b3e7 afbd c694 82bd 64ad 053e
000001d0: 3cb9 843d 6297 b43d c8ae 163e c0d6 43bc
000001e0: 0075 d7bc 1868 c5bd 05a8 913c c05f 093d
000001f0: 0752 f93d 85f1 043e 49cb 113e c9e8 31be
00000200: 2fa0 133e d35d 003e a5f8 5abd c136 90bd
00000210: 8442 edbd b94d 29bd b861 12bd ab83 3f3e
00000220: 904f 0a3e 4150 dc3d 6bd2 bcbd 5967 2c3e
00000230: 1f2c 523d 99a0 0c3e 46e0 bbbc 0ee3 1b3d
00000240: 784e a03d a7a8 babc 38d7 77bc 9802 343e
00000250: 47e3 1a3e 8341 84bd 963d 8fbd 3004 023e
00000260: d7e7 053d 15b7 02be b531 dbbd 18b6 3d3d
00000270: db65 b2bd 3b28 2ebd 447d aebd 7bb9 c2bd
00000280: 4dff 9cbd 7a5a a5bc cfb2 29be df4d 993c
00000290: f542 ae3d 739b 48be 1dae 1cbe 4655 cebb
000002a0: 09d7 b3bd 6a17 4cbc 08bb 543d 0aef fcbd
000002b0: 9620 263e b31c d63d 6e9d dbbd 1baa f5bc
000002c0: e506 c63d b800 febd d904 33be 9190 093d
000002d0: 6649 e6bd 8f40 c6bd 626c cd3d bcf1 123e
000002e0: f9f1 18be 31c9 0cbe 7abd f5bd f246 c9bd
000002f0: 5622 2abe 464d 07be ddf6 34be fc19 393e
00000300: a6b1 c0bd 5c07 40be ce79 d13d c84e 1f3e
00000310: 9a7b 343c 9f9d 98bd 2f2b 31bd 639f e3bd
00000320: f941 03be 8df4 063d 5050 d53d 95de 223e
00000330: 195d 1cbe 5d44 06be 320b f93d 92a7 15be
00000340: e343 0abe 0dcd ec3c 8b67 0bbe e26f fe3d
00000350: f904 433d 65c0 60bc d3f1 e6b9 1257 2c3e
00000360: 4122 263d fd13 883d efe6 88bd ecc8 e3bd
00000370: 9e0a 19be a694 513d 7a3d 093e f384 d1bc
00000380: e1ac 8cbd 5430 233d 3259 db3d 5f7c 383d
00000390: 6b35 63bd fd27 17be e767 0d3e 72ab 6c3d
000003a0: ab65 f73d c7ad 2fbe 45f1 49bd 9508 24be
000003b0: 23a3 aa3d adc3 1abc cbf6 89bd 4547 2d3e
000003c0: 2f1c 303e 6dd4 a0bd 31f3 293d a885 9c3d
000003d0: 76e2 0f3d 8981 db3d 4431 263e acc5 353d
000003e0: 1488 99bb 4fc3 18bc 5669 ecbc 5926 013e
000003f0: cade dcbd 6927 27be 3784 323c a61f 393e

model_19/conv2d_38/Conv2D f4 [4, 4, 38, 1]
0.009637445 0.044928495 0.06947279 0.065539636 0.080260634 0.0966139 -0.07239996 -0.019622916
-0.055577483 0.029097417 -0.045407027 -0.06859386 0.048130102 0.07556374 -0.036533464 0.08278244
-0.011423075 -0.03607739 -0.011357855 -0.05817077 0.03203685 0.021391097 0.02643871 0.034597415
0.026210964 -0.05154542 0.050622724 0.055703003 0.08107608 0.00560943 0.06550857 -0.041901592
0.031882364 -0.01939388 0.028488785 0.08909744 0.029905641 0.04197478 0.08909631 0.034051917
-0.0435182 -0.050822157 -0.038942277 0.0008401613 -0.027727626 0.019628072 0.033353303 -0.037710696
-0.038897954 0.04852753 -0.024992622 0.005606223 0.052502505 -0.073320866 0.0185779 0.08107568
-0.05951195 0.059844483 -0.04570307 0.06606892 -0.020982644 -0.060545847 -0.059564672 0.041840594
-0.021662466 -0.030975392 -0.06936467 -0.006265747 -0.011098176 0.03933716 0.04223186 -0.07248948
-0.07904371 -0.056032117 0.04189235 0.08137065 0.019525947 -0.07028047 -0.07511765 -0.020488113
0.060636315 0.02374827 -0.059149448 -0.04135282 -0.04267974 0.031045727 0.08968057 0.09739714
0.07476775 -0.059938535 0.013702244 0.047708467 -0.05638098 0.006885373 -0.04798059 0.005176963
-0.005593909 -0.06774119 -0.01155908 0.07037521 -0.0688838 -0.07200596 -0.011616934 0.0690164
0.039907236 0.07865295 -0.0723068 -0.018211557 0.018570183 -0.022427455 -0.07557112 0.075462736
-0.03417605 -0.07520025 0.031059727 0.07481786 -0.0059689544 0.04262356 -0.007478798 -0.019827347
-0.03770159 -0.024450792 -0.030486707 -0.06601913 0.031912442 -0.018788561 0.028600965 -0.06958378
0.034171984 0.015109262 -0.036282234 0.05659299 -0.042377003 -0.05609924 0.057805996 -0.03386102
0.09688214 -0.043544125 0.056512088 0.0011597668 -0.04457457 0.08962887 -0.058625624 0.08598549
0.025759615 0.096812725 0.060550828 -0.040659804 -0.020576684 -0.02999773 0.06774271 -0.06769929
-0.06413616 0.07586175 -0.036304966 0.0026343856 -0.07067778 -0.0559846 0.017978927 0.02615002
-0.039355718 0.009637311 0.006070406 0.01573032 -0.0072412794 -0.051927723 0.0077550104 0.053675406
-0.08329278 -0.016678533 -0.08790929 0.053025626 0.043798685 -0.019572929 0.019659428 -0.09050257
-0.042608853 -0.06359616 -0.027071523 -0.030572968 0.0046553332 -0.07455619 -0.03713271 -0.009435254
0.046381637 0.04686995 0.02351426 0.06231246 0.07530301 -0.047014214 0.08193725 0.059365258
-0.026473004 -0.023635803 0.03717837 -0.03230608 -0.019523218 0.036605656 0.018033706 -0.08738046
-0.026605088 0.05856585 0.0021726512 -0.087234534 0.026689047 -0.038998324 -0.08798307 -0.049700424
-0.00026883718 0.03771164 -0.0680274 0.030965224 -0.022916567 0.040346596 -0.023421632 -0.014360609
0.023644183 0.062192146 -0.05779174 0.009531252 -0.028304731 -0.036618784 -0.025181964 0.07753216
-0.07470289 0.06292234 -0.060852453 0.051296756 -0.0011030409 0.068887025 0.004951176 0.0010691562
0.076081425 -0.05196455 0.0112699615 -0.09205396 -0.048470832 0.0697567 0.039119758 0.058688913
-0.03202199 0.03412072 0.062098242 0.07437676 0.04061173 0.054872487 0.06760071 -0.053551305
-0.09058956 0.06549966 -0.022045752 0.057854958 0.031085525 0.022575311 -0.08694878 0.06697819
00000000: 60e6 1d3c f106 383d c047 8e3d a539 863d
00000010: b05f a43d 82dd c53d 6e46 94bd 3dc0 a0bc
00000020: 37a5 63bd b55d ee3c b8fc 39bd f07a 8cbd
00000030: 1224 453d 2ac1 9a3d 1da4 15bd d789 a93d
00000040: d927 3bbc e3c5 13bd 4c16 3abc 7944 6ebd
00000050: 1239 033d 623c af3c fe95 d83c 05b6 0d3d
00000060: 60b8 d63c 4a21 53bd c659 4f3d d528 643d
00000070: 370b a63d 4fcf b73b 5b29 863d 01a1 2bbd
00000080: 1597 023d eadf 9ebc 5061 e93c b878 b63d
00000090: adfc f43c bfed 2b3d 2078 b63d 067a 0b3d
000000a0: 2440 32bd e52a 50bd f081 1fbd 453e 5c3a
000000b0: 0c25 e3bc 0dcb a03c 799d 083d 8876 1abd
000000c0: 7653 1fbd cec4 463d 54bd ccbc 68b4 b73b
000000d0: de0c 573d 4029 96bd ae30 983c 020b a63d
000000e0: cdc2 73bd 7d1f 753d 2433 3bbd 244f 873d
000000f0: cbe3 abbc ecfe 77bd 16fa 73bd 0b61 2b3d
00000100: 7c75 b1bc 1bc0 fdbc 100f 8ebd e550 cdbb
00000110: 20d5 35bc 0020 213d 51fb 2c3d 5d75 94bd
00000120: abe1 a1bd ef81 65bd 5097 2b3d a8a5 a63d
00000130: e1f4 9f3c 35ef 8fbd 48d7 99bd b0d6 a7bc
00000140: c95d 783d bb8b c23c b146 72bd 9361 29bd
00000150: f3d0 2ebd 9c53 fe3c 72aa b73d 2778 c73d
00000160: d61f 993d 1c82 75bd 607f 603c f469 433d
00000170: beef 66bd b29e e13b 4c87 44bd 83a3 a93b
00000180: 1c4d b7bb e5bb 8abd 4c62 3dbc e120 903d
00000190: f312 8dbd dc77 93bd f454 3ebc 7858 8d3d
000001a0: c575 233d cc14 a13d 9615 94bd 6730 95bc
000001b0: 7f20 983c c8b9 b7bc 08c5 9abd 358c 9a3d
000001c0: 30fc 0bbd 9702 9abd f870 fe3c 1b3a 993d
000001d0: 3897 c3bb 0b96 2e3d b410 f5bb f66c a2bc
000001e0: fc6c 1abd 074d c8bc 42bf f9bc 0a35 87bd
000001f0: 9fb6 023d 78ea 99bc 924c ea3c f181 8ebd
00000200: ecf7 0b3d d78c 773c ae9c 14bd 0dce 673d
00000210: 8293 2dbd 51c8 65bd fbc5 6c3d dab1 0abd
00000220: 256a c63d 535b 32bd 3879 673d 5103 983a
00000230: d393 36bd 578f b73d 6c21 70bd 2919 b03d
00000240: d405 d33c c045 c63d 2504 783d e58a 26bd
00000250: 6f90 a8bc cdbd f5bc b1bc 8a3d eda5 8abd
00000260: d259 83bd 685d 9b3d 84b4 14bd a8a5 2c3b
00000270: 83bf 90bd 1c50 65bd 8b48 933c 9138 d63c
00000280: 7633 21bd d0e5 1d3c 42ea c63b dfdc 803c
00000290: 4148 edbb 2ab2 54bd be1d fe3b beda 5b3d
000002a0: 6895 aabd 6ba1 88bc c909 b4bd 6631 593d
000002b0: 4066 333d 6857 a0bc cf0c a13c 6959 b9bd
000002c0: 9f86 2ebd b43e 82bd 19c5 ddbc 2974 fabc
000002d0: c48b 983b eab0 98bd 7818 18bd 5396 1abc
000002e0: acfa 3d3d b4fa 3f3d faa0 c03c 5a3b 7f3d
000002f0: 7738 9a3d fa91 40bd b8ce a73d fc28 733d
00000300: eadd d8bc df9f c1bc 5948 183d 6153 04bd
00000310: 28ef 9fbc d0ef 153d 6cbb 933c 87f4 b2bd
00000320: eaf2 d9bc bfe2 6f3d 0a63 0e3b 05a8 b2bd
00000330: fda2 da3c b5bc 1fbd 7830 b4bd ac92 4bbd
00000340: b7f2 8cb9 8577 1a3d f351 8bbd c8aa fd3c
00000350: 86bb bbbc 7942 253d b9de bfbc c348 6bbc
00000360: 72b1 c13c 31bd 7e3d 08b7 6cbd f828 1c3c
00000370: 53df e7bc 94fd 15bd 684a cebc 2ec9 9e3d
00000380: d4fd 98bd 6edd 803d 6c40 79bd 8c1c 523d
00000390: e993 90ba a414 8d3d 793d a23b ee22 8c3a
000003a0: 94d0 9b3d c8d8 54bd a5a5 383c c986 bcbd
000003b0: 5a89 46bd 9adc 8e3d 0a3c 203d c963 703d
000003c0: 7d29 03bd 2bc2 0b3d ba5a 7e3d d852 983d
000003d0: 7c58 263d f9c1 603d 3e72 8a3d 9d58 5bbd
000003e0: 0587 b9bd b024 863d 4b99 b4bc 52f9 6c3d
000003f0: 12a7 fe3c dcef b83c 3412 b2bd dc2b 893d

model_19/dense_38/BiasAdd/ReadVariableOp/resource f4 [10]
0.0073653976 0.008602137 -0.008757303 -0.0027655212 -0.0050054095 -0.03570603 0.025678996 0.012044019
-0.01865807 -0.011453506
00000000: 6f59 f13b faef 0c3c ca7a 0fbc bf3d 35bb
00000010: 6b04 a4bb 7c40 12bd c25c d23c 4754 453c
00000020: cfd8 98bc 7ca7 3bbc

model_19/layer_normalization_57/add/ReadVariableOp/resource f4 [4]
0.0085930675 -0.004304056 -0.0055853636 0.0035985454
00000000: f0c9 0c3c 0a09 8dbb 6d05 b7bb 93d5 6b3b

model_19/layer_normalization_57/mul_4/ReadVariableOp/resource f4 [4]
0.9792592 0.9994915 1.0052491 1.0030836
00000000: bbb0 7a3f adde 7f3f 01ac 803f 0b65 803f

model_19/layer_normalization_58/add/ReadVariableOp/resource f4 [12]
-0.014162452 -0.0085167065 0.008762701 0.0109296385 -0.0067220666 -0.0041052653 -0.011067724 -0.020170383
-0.023086375 0.0032871843 -0.029852683 -0.009868174
00000000: a109 68bc a889 0bbc 6f91 0f3c 3a12 333c
00000010: c844 dcbb 7685 86bb 6655 35bc 5c3c a5bc
00000020: a31f bdbc cd6d 573b 9d8d f4bc 1fae 21bc

model_19/layer_normalization_58/mul_4/ReadVariableOp/resource f4 [12]
1.0102139 1.0081503 0.98962235 1.0137964 0.99087167 0.99385625 0.98938173 1.020047
0.9838012 0.99590975 1.0477009 1.008353
00000000: b04e 813f 120b 813f e457 7d3f 15c4 813f
00000010: c4a9 7d3f 5d6d 7e3f 1f48 7d3f e690 823f
00000020: 65da 7b3f f1f3 7e3f 101b 863f b611 813f

model_19/layer_normalization_59/mul_2/ReadVariableOp/resource f4 [10]
0.928038 0.9444258 0.97639596 0.9885119 0.9996127 0.99359936 0.976554 0.95657855
1.0016459 0.9709787
00000000: e693 6d3f e4c5 713f 16f5 793f 1e0f 7d3f
00000010: 9ee6 7f3f 875c 7e3f 71ff 793f 55e2 743f
00000020: ef35 803f 0f92 783f

model_19/dense_38/MatMul f4 [10, 228]
0.14419122 -0.021025756 0.03940617 0.1358157 -0.017393805 0.11407059 -0.14068325 0.034655925
-0.06022083 -0.07576098 -0.122206986 -0.13527276 0.037864354 0.11928246 0.008476328 -0.14009804
0.083669774 0.12474473 -0.12149323 -0.059562977 -0.10533108 -0.087169036 0.055214062 0.07116932
-0.021061813 0.06337371 0.14350024 -0.07459808 -0.049932703 -0.1318986 -0.012340729 -0.052622776
-0.048670676 0.13301763 0.10592907 -0.13072234 0.11549599 -0.14463767 -0.009831969 0.02094176
0.117614836 0.15172888 0.14553359 -0.12170161 0.09475799 0.13215822 -0.026108958 0.0016401563
0.11906939 0.14247654 0.045289032 -0.10178092 0.040015187 0.033254538 0.10674243 -0.010323542
-0.12932515 -0.119942226 -0.13946074 -0.111535095 -0.0022037476 0.037161916 -0.15733175 0.0052239364
0.14728737 0.11211995 -0.055523187 -0.13534342 -0.09897752 0.04173899 -0.01023544 -0.16195846
-0.018909534 -0.104678325 -0.073845625 0.026434377 -0.032342386 -0.03004211 -0.00920616 -0.107506044
0.09028648 0.044322647 -0.11096203 -0.028914064 -0.1012413 -0.060261846 0.024707874 -0.027909644
-0.07637845 0.072758995 0.021737223 -0.00540349 0.12096626 -0.01869198 -0.07202918 0.12495766
-0.10577605 0.07545969 -0.122833826 0.0011104749 -0.030269416 -0.0102215465 0.094661735 -0.15089303
0.0024082018 -0.12536487 -0.08373152 -0.13502806 -0.018036837 0.013520738 0.059850935 -0.13902523
0.14048335 0.0730819 -0.025488874 -0.020439312 -0.10307162 -0.12933339 -0.09465029 0.0050085275
0.065363325 -0.104455255 0.053492222 0.09095938 -0.017991643 0.023107238 0.08849031 0.092907205
-0.07667665 0.10358729 0.1103255 0.051947095 -0.037809324 -0.07292236 -0.015247568 0.077711426
-0.09141887 0.08561863 -0.15978202 -0.12792836 -0.081968844 -0.03856278 0.12702248 -0.14862588
-0.14355965 0.00095867185 0.06733417 0.1473913 -0.020294022 -0.037067294 0.07219286 0.060802408
-0.055566248 -0.016274087 -0.053073496 0.0753078 -0.074166425 -0.03149601 -0.1637409 0.09400827
0.053897984 -0.0101239765 -0.024792068 0.043760255 0.013281976 0.01580648 -0.06456786 0.029394474
-0.079896055 0.047029555 -0.11332981 -0.072073884 -0.0066905273 -0.06716691 -0.15561056 0.115725644
0.08374862 -0.0470217 -0.044044737 -0.020400332 -0.036457334 0.09881554 -0.040449142 -0.024949947
0.14021991 0.0004301003 0.025147745 0.05205881 -0.13422477 0.081793524 0.122751586 0.14351724
0.024274245 -0.10578351 -0.05065083 -0.053152386 -0.10808972 0.13189064 -0.101031594 -0.17074245
0.10018078 -0.020935321 0.04791727 -0.1099444 0.11334469 0.1450543 -0.108209684 -0.074067354
-0.02102025 0.15332519 -0.022290237 -0.11016168 0.11870128 -0.046447575 0.1507024 0.059253782
0.03406448 -0.04213611 0.105425276 0.03654199 -0.050333668 -0.11541587 0.13980582 -0.1234841
0.033823635 0.060680375 -0.08340804 0.07212843 -0.04637056 -0.041469857 0.058085766 0.10317619
0.10834288 0.061458178 0.0249532 -0.11151388 0.07708611 0.08523807 0.05081385 0.007772572
0.03033261 -0.019580588 0.08814381 -0.11125222 0.038614273 0.09089332 -0.07102391 0.11047889
0.14382763 -0.0027083175 -0.04847038 0.12606262 -0.15184917 0.009370037 0.112768985 -0.09024474
00000000: dda6 133e 353e acbc 5d68 213d 4513 0b3e
00000010: 747d 8ebc d79d e93d 450f 10be 5ff3 0d3d
00000020: 1eaa 76bd 9328 9bbd a847 fabd f184 0abe
00000030: a717 1b3d 5d4a f43d 4ce0 0a3c dc75 0fbe
00000040: 0f5b ab3d 2a7a ff3d 71d1 f8bd 4ff8 73bd
00000050: d2b7 d7bd ae85 b2bd 2428 623d 38c1 913d
00000060: d389 acbc 13ca 813d baf1 123e e1c6 98bd
00000070: 3c86 4cbd 6d10 07be c530 4abc fb8a 57bd
00000080: e75a 47bd c635 083e 57f1 d83d 14dc 05be
00000090: 2989 ec3d e61b 14be 4416 21bc 0e8e ab3c
000000a0: 0ce0 f03d d15e 1b3e c206 153e b23e f9bd
000000b0: 7a10 c23d 7c54 073e 74e2 d5bc 83fa d63a
000000c0: a7da f33d 5fe5 113e fe80 393d 8472 d0bd
000000d0: f7e6 233d e935 083d c69b da3d 1324 29bc
000000e0: d06d 04be 45a4 f5bd ccce 0ebe 836c e4bd
000000f0: c06c 10bb 1837 183d 931b 21be 8e2d ab3b
00000100: 80d2 163e 259f e53d 486c 63bd 7797 0abe
00000110: bab4 cabd 81f6 2a3d 8cb2 27bc 70d8 25be
00000120: 2be8 9abc 9761 d6bd 603c 97bd e88c d83c
00000130: 7379 04bd df1a f6bc 6fd5 16bc 212c dcbd
00000140: 1ee8 b83d aa8b 353d 1040 e3bd 30dd ecbc
00000150: 9957 cfbd 20d5 76bd 2b68 ca3c c4a2 e4bc
00000160: 4e6c 9cbd ab02 953d 4312 b23c c20f b1bb
00000170: 29bd f73d ec1f 99bc 0984 93bd cde9 ff3d
00000180: 1da1 d8bd 9c8a 9a3d 4d90 fbbd 5b8d 913a
00000190: 91f7 f7bc 4678 27bc 03de c13d b483 1abe
000001a0: ecd2 1d3b a65f 00be 6e7b abbd cc44 0abe
000001b0: fdc1 93bc 1686 5d3c 4126 753d a15c 0ebe
000001c0: deda 0f3e f7ab 953d 0bce d0bc 5870 a7bc
000001d0: 3717 d3bd f96f 04be 03d8 c1bd 931e a43b
000001e0: 35dd 853d a3ec d5bd a91a 5b3d e948 ba3d
000001f0: 3663 93bc 644b bd3c 683a b53d 2246 be3d
00000200: a608 9dbd 9325 d43d 56f2 e13d 7ac6 543d
00000210: f3dd 1abd 5158 95bd efd0 79bc 2b27 9f3d
00000220: d139 bbbd d258 af3d e69d 23be a7ff 02be
00000230: 48df a7bd 01f4 1dbd 2e12 023e 6231 18be
00000240: 4d01 13be 614f 7b3a 7fe6 893d bfed 163e
00000250: a63f a6bc e0d3 17bd dad9 933d f20b 793d
00000260: 6f99 63bd 3c51 85bc 9863 59bd fa3a 9a3d
00000270: 91e4 97bd f601 01bd b2ab 27be 6887 c03d
00000280: 22c4 5c3d 09df 25bc bc18 cbbc f43d 333d
00000290: a59c 593c 977c 813c 273c 84bd aecc f03c
000002a0: 8ba0 a3bd 10a2 403d 7619 e8bd 799b 93bd
000002b0: 363c dbbb ce8e 89bd 6058 1fbe 9101 ed3d
000002c0: 6584 ab3d d399 40bd 4168 34bd 991e a7bc
000002d0: 4954 15bd cd5f ca3d 00ae 25bd d563 ccbc
000002e0: cf95 0f3e 167f e139 a502 ce3c 9e3b 553d
000002f0: 3872 09be 5d83 a73d 2f65 fb3d 2ff6 123e
00000300: c8da c63c 06a5 d8bd 3f77 4fbd 51b6 59bd
00000310: 255e ddbd 570e 073e a7e9 cebd 1cd7 2ebe
00000320: 952b cd3d 8d80 abbc e644 443d 882a e1bd
00000330: 4321 e83d 1d89 143e 0a9d ddbd a0b0 97bd
00000340: a932 acbc 4701 1d3e 049a b6bc 729c e1bd
00000350: a819 f33d d03f 3ebd bb51 1a3e 18b4 723d
00000360: 3287 0b3d ea96 2cbd 35e9 d73d 0ead 153d
00000370: ad2a 4ebd 285f ecbd 4229 0f3e 3be5 fcbd
00000380: a78a 0a3d fc8b 783d d6d1 aabd 12b8 933d
00000390: 0eef 3dbd 4cdc 29bd 57eb 6d3d 0a4e d33d
000003a0: dfe2 dd3d 92bb 7b3d a76a cc3c 6461 e4bd
000003b0: 53df 9d3d 4c91 ae3d 2f22 503d 0fb1 fe3b
000003c0: 187c f83c 7867 a0bc be84 b43d 34d8 e3bd
000003d0: 002a 1e3d 4726 ba3d fc74 91bd c242 e23d
000003e0: 8d47 133e 077e 31bb e188 46bd 8f16 013e
000003f0: 597e 1bbe c984 193c 6df3 e63d 3cd2 b8bd

model_19/dense_39/MatMul f4 [1, 10]
0.34153926 0.2596256 -0.37936935 0.22266962 0.20675263 0.14075965 -0.21820319 0.37514517
-0.15442471 -0.32141978
00000000: 3cde ae3e a6ed 843e b33c c2be 8103 643e
00000010: f6b6 533e 4c23 103e a870 5fbe 0713 c03e
00000020: 8321 1ebe 2291 a4be
