models/2.tflite (tflite, 28424 bytes, 12 tensors)

model_2/conv2d_5/BiasAdd;model_2/conv2d_5/Conv2D;model_2/conv2d_5/BiasAdd/ReadVariableOp/resource f4 [12]
-0.010656486 -0.016696844 -0.010936417 0.011718847 -0.011315372 -0.010430102 0.010322354 0.011823979
-0.0160292 0.0010719853 0.0044221645 0.011219573
00000000: 8b98 2ebc d2c7 88bc a82e 33bc 6800 403c
00000010: 1c64 39bc 05e3 2abc 171f 293c 5db9 413c
00000020: ab4f 83bc dc81 8c3a cee7 903b 4dd2 373c

model_2/conv2d_4/BiasAdd;model_2/conv2d_4/Conv2D;model_2/conv2d_4/BiasAdd/ReadVariableOp/resource f4 [4]
-0.008790217 -0.00750763 0.010746023 -0.012352299
00000000: d804 10bc 9102 f6bb 1610 303c 4c61 4abc

model_2/conv2d_5/Conv2D f4 [12, 1, 11, 4]
0.11989486 -0.04524973 0.07553681 -0.080027446 0.026330248 0.020170704 -0.10920462 0.028383134
-0.110814 0.16377683 0.15920576 0.05708618 -0.029179607 0.17734906 0.075109154 0.069280416
-0.03447556 0.073907495 0.05206859 0.020849094 0.088143386 0.14883049 -0.09432653 -0.06285566
-0.062598355 -0.1138629 -0.05398299 0.0136341425 -0.19398911 0.10985006 -0.12637332 -0.051573336
0.0197147 -0.12144747 0.09273169 0.19555143 -0.11559098 -0.06944052 -0.085831836 -0.16739896
-0.19149733 0.18336424 -0.16213806 0.08997095 -0.10474809 0.19931947 -0.10507813 0.05134652
0.14982301 0.048378803 0.05865316 0.031212848 0.048283722 -0.01975248 0.024894105 0.19224504
0.029177714 0.054880522 0.17161265 0.06011939 0.0047483677 0.0058045373 0.019008884 -0.09684593
0.0021131092 -0.0840148 0.14744051 -0.051230974 -0.030879311 0.05708015 0.13327327 0.045688573
-0.14737967 0.033414725 -0.0012015342 -0.16331294 0.07594997 0.15835947 0.1299822 0.0022968997
-0.10270944 -0.12018195 0.16546497 0.13530655 0.05247778 -0.103901684 0.08645393 -0.06366531
-0.08109461 0.13702929 -0.095520474 -0.15715316 0.16033283 0.020991886 0.17223118 0.003970893
-0.0001733245 0.08162567 -0.1630919 0.11829411 0.17014553 -0.13495219 -0.0056669326 -0.11328523
0.10424481 -0.013919371 -0.023984402 0.1933937 0.012813861 0.133872 0.10174943 0.15380217
0.118544675 -0.021364173 0.17202544 -0.089356065 -0.07784364 0.022364786 -0.12656225 0.08721097
-0.15375188 -0.007206732 0.14710099 -0.16064318 -0.13557608 0.16735332 -0.07009985 0.15837738
-0.05227274 -0.069709755 0.074230105 -0.0060457145 0.0432515 -0.083935454 -0.062102944 0.088241614
-0.16779937 -0.14795877 0.047535397 -0.021686586 0.06784712 -0.17047733 0.07013839 0.054267976
0.18920171 0.11500226 0.09234127 -0.085887395 0.17390507 -0.05335394 0.14615747 0.11756504
-0.07891072 -0.16797791 0.15688372 -0.16672051 -0.066277675 0.123789266 -0.010381402 -0.05146364
-0.1437994 -0.014623005 -0.05144835 -0.086134546 -0.16098937 0.11494295 -0.070201464 -0.08504608
0.05429088 0.05950177 0.17492384 0.03528784 0.15518397 0.16388437 -0.1042547 0.014821867
-0.106752835 -0.03213579 0.045735825 0.03335612 0.08777901 0.16481099 -0.0035536017 0.027811617
0.14217488 0.042486567 0.027623858 -0.13961297 0.012212495 0.021091847 0.13435696 0.05233552
0.11406567 -0.1345981 0.1338113 0.01343227 0.15814456 0.12525372 0.12639637 -0.100032836
-0.063035294 -0.16182463 -0.06405158 0.15140647 0.004891851 -0.08401113 0.0829404 -0.08975138
0.057900988 0.113178946 0.035549175 -0.031795602 -0.15999687 -0.09241312 -0.08572594 0.1486704
-0.04032637 0.0701703 -0.054670658 -0.016828677 -0.16670185 -0.1009941 0.16732281 0.047975216
0.13209973 0.09142534 -0.11053441 0.07642436 -0.122245386 -0.14777346 -0.12442422 0.04750348
0.030794157 -0.013017623 -0.16298144 -0.027692607 -0.075053155 0.035291057 0.050566524 -0.08902965
0.0055347327 0.13890621 0.031398524 -0.09986172 -0.07542364 -0.15805979 0.10214294 -0.076243445
0.06716844 0.04572895 -0.130277 0.109907374 0.033577375 -0.07764846 -0.08073866 0.05709036
00000000: 708b f53d c857 39bd 0bb3 9a3d 6ee5 a3bd
00000010: 88b2 d73c 083d a53c aca6 dfbd bf83 e83c
00000020: 73f2 e2bd 1db5 273e d606 233e 33d3 693d
00000030: 120a efbc fe9a 353e d4d2 993d e4e2 8d3d
00000040: 3f36 0dbd d05c 973d e045 553d b8cb aa3c
00000050: 8584 b43d 0567 183e 452e c1bd 78ba 80bd
00000060: 9133 80bd f430 e9bd 451d 5dbd bd61 5f3c
00000070: 15a5 46be 11f9 e03d 0268 01be 903e 53bd
00000080: b980 a13c 73b9 f8bd 1dea bd3d a23e 483e
00000090: f7ba ecbd d536 8ebd 9ac8 afbd a26a 2bbe
000000a0: e017 44be d6c3 3b3e 8507 26be b042 b83d
000000b0: 2b86 d6bd 671a 4c3e 3433 d7bd bb50 523d
000000c0: 346b 193e da28 463d 4c3e 703d 16b2 ff3c
000000d0: 27c5 453d f4cf a1bc b9ee cb3c e2db 443e
000000e0: 1a06 ef3c 66ca 603d 3abb 2f3e c03f 763d
000000f0: 3298 9b3b fd33 be3b 85b8 9b3c 2957 c6bd
00000100: 177c 0a3b f40f acbd a5fa 163e 92d7 51bd
00000110: 9cf6 fcbc e0cc 693d ca78 083e f123 3b3d
00000120: b2ea 16be e1dd 083d cc7c 9dba 823b 27be
00000130: a88b 9b3d fc28 223e 0e1a 053e 9587 163b
00000140: 5459 d2bd f421 f6bd a66f 293e cd8d 0a3e
00000150: f1f2 563d 68ca d4bd c20e b13d f562 82bd
00000160: ee14 a6bd 6851 0c3e 3da0 c3bd c2ec 20be
00000170: 4a2e 243e 2df7 ab3c 5f5d 303e 441e 823b
00000180: 71be 35b9 5c2b a73d 9001 27be 2f44 f23d
00000190: a13a 2e3e e830 0abe adb1 b9bb 1602 e8bd
000001a0: 4e7e d53d 130e 64bc f07a c4bc 0009 463e
000001b0: 3af1 513c be15 093e 0162 d03d 517e 1d3e
000001c0: 8dc7 f23d eb03 afbc 7027 303e 5000 b7bd
000001d0: 7d6c 9fbd 5b36 b73c 8999 01be aa9b b23d
000001e0: 2271 1dbe 7326 ecbb a4a1 163e a57f 24be
000001f0: 75d4 0abe ab5e 2b3e 8390 8fbd ae2d 223e
00000200: f11b 56bd fdc3 8ebd f405 983d 211b c6bb
00000210: 7c28 313d 5ae6 abbd a85f 7ebd 05b8 b43d
00000220: 99d3 2bbe 8182 17be 7ab4 423d 11a8 b1bc
00000230: 6ef3 8a3d 9c91 2ebe b7a4 8f3d 1948 5e3d
00000240: 18be 413e 4e86 eb3d 6b1d bd3d bbe5 afbd
00000250: 2c14 323e a989 5abd 4eaa 153e f1c5 f03d
00000260: f29b a1bd 6702 2cbe 20a6 203e c8b8 2abe
00000270: 97bc 87bd 3a85 fd3d c216 2abc 8acb 52bd
00000280: 2640 13be 5495 6fbc 81bb 52bd 4f67 b0bd
00000290: 66da 24be 3667 eb3d c9c5 8fbd a42c aebd
000002a0: 1d60 5e3d 21b8 733d 3c1f 333e fb89 103d
000002b0: 8ce8 1e3e 4ed1 273e 7d83 d5bd 6bd7 723c
000002c0: 3ba1 dabd d1a0 03bd 7d55 3b3d 6da0 083d
000002d0: 7bc5 b33d 36c4 283e 8be3 68bb 30d5 e33c
000002e0: 4b96 113e 6506 2e3d 6e4b e23c b4f6 0ebe
000002f0: eb16 483c cfc8 ac3c df94 093e c55d 563d
00000300: 439b e93d 16d4 09be d405 093e 0613 5c3c
00000310: a6f0 213e 8342 003e 0d6e 013e 04de ccbd
00000320: a618 81bd 5bb5 25be 7a2d 83bd 4c0a 1b3e
00000330: d24b a03b 070e acbd a8dc a93d 92cf b7bd
00000340: 9629 6d3d 5dca e73d 039c 113d 1b3c 02bd
00000350: 38d6 23be 1743 bdbd 1591 afbd 0e3d 183e
00000360: 442d 25bd 72b5 8f3d 57ee 5fbd 4bdc 89bc
00000370: e4b3 2abe ffd5 cebd ac56 2b3e a981 443d
00000380: 2745 073e 353d bb3d dd5f e2bd 6084 9c3d
00000390: ca5b fabd ed51 17be 20d2 febd 0293 423d
000003a0: 0744 fc3c de47 55bc 9be4 26be 9bdb e2bc
000003b0: 78b5 99bd 5b8d 103d d81e 4f3d 2d55 b6bd
000003c0: b45c b53b 6e3d 0e3e bd9b 003d 4d84 ccbd
000003d0: b677 9abd 6dda 21be 5130 d13d 8625 9cbd
000003e0: 9b8f 893d 484e 3b3d 5567 05be 1e17 e13d
000003f0: 6e88 093d 2806 9fbd 505a a5bd 95d7 693d

model_2/conv2d_4/Conv2D f4 [4, 4, 38, 1]
0.0024888804 7.220844e-05 -0.03670736 -0.082732 0.026516316 0.07565478 -0.021115916 0.0050790724
0.011529433 -0.042105123 -0.058604307 0.051642485 -0.071611926 0.0798325 -0.008054437 -0.016876299
-0.0073094806 -0.034398306 0.06393954 -0.09193108 0.051677052 0.011529162 -0.0013993243 -0.0972447
-0.030655127 -0.04946464 0.010591523 -0.018546753 -0.028643135 0.05472507 -0.0129198 0.019318957
0.037266597 0.05312357 -0.05260394 -0.07454756 -0.008740911 -0.09023863 -0.025885383 -0.036213126
-0.06761624 0.02855382 -0.0007651112 0.05612395 0.06337299 0.034620475 0.057513773 -0.032112613
0.005196375 -0.0011776319 -0.07270462 0.054997023 0.070004806 0.07634129 -0.0690875 -0.09619388
-0.049082294 0.05266053 -0.046067435 -0.06334745 -0.0010981421 0.003782126 -0.02507976 0.065132454
0.029894412 0.061482232 -0.007973954 -0.050865218 -0.04196015 -0.0070311623 -0.016192878 -0.03969229
0.03167027 -0.04035065 0.050077148 -0.06239581 -0.017754156 -0.0948777 0.0029930847 0.059973277
0.020008402 -0.04082924 0.011501545 0.060698483 -0.06242027 0.053006414 0.022754334 -0.005217571
0.07263544 0.006422348 -0.022532266 0.016421417 -0.048751976 0.075028755 0.017885374 -0.031683553
0.024356537 0.07735589 0.05193975 0.009272905 0.036760487 0.0319879 -0.07253856 0.008197337
-0.0011567988 -0.0902133 0.077193424 0.063454844 0.06681927 0.0781603 -0.014528477 0.03710636
0.06531707 0.028829852 0.007012899 -0.061778605 0.011498957 -0.009039069 -0.002395934 0.045063194
0.04953775 -0.04310129 0.007854755 -0.04454892 -0.07173618 0.021914845 0.03898598 -0.051417224
0.05260404 -0.0045172134 -0.08138147 -0.011055181 0.070979536 -0.026480528 0.038050815 -0.018511405
0.029969092 0.04604258 0.0037365663 -0.07666462 -0.06727858 0.058051385 -0.037243962 -0.09245987
0.07630063 -0.049141835 0.041140873 -0.09302874 -0.043600593 -0.07518011 0.024237068 -0.07416477
0.04236328 0.030411443 -0.01561402 -0.043810315 0.0052142194 -0.07353283 -0.034364305 -0.06629177
0.0119898 0.02048202 0.058979377 -0.02666326 -0.06127773 0.069395654 0.077603 0.020926477
0.061313473 -0.0049308846 -0.07068906 0.028168749 -0.050104555 0.013296782 0.017513003 -0.07816911
-0.06425487 0.05190585 -0.045599446 -0.011763737 -0.016168514 -0.094919056 -0.014341496 0.04713365
-0.019334812 -0.019930186 -9.534757e-05 0.007422411 -0.058185294 -0.06667834 0.030217208 0.04674715
0.029355094 0.021806553 -0.031426266 -0.04018173 0.053040776 -0.06855573 0.017813113 0.07150971
-0.0423309 -0.030152107 0.05630965 -0.042962447 -0.029835077 0.06852702 -0.01111411 0.022496872
-0.030750964 -0.092757255 -0.0010030289 0.03454145 0.023631059 0.07579502 0.015264367 -0.073700264
0.065884575 -0.041941553 0.05737146 0.043414593 -0.06883683 -0.047377083 0.032346077 -0.056437735
-0.034186125 -0.059062723 0.031860888 -0.069258265 0.06263476 -0.020291029 0.052139603 -0.0031893938
-0.08670306 -0.012103303 -0.08788477 0.0012953389 -0.07050084 -0.032852203 -0.06775593 0.026146434
0.03384894 0.051620994 -0.050259743 -0.02607348 -0.07055656 0.037793737 -0.04054739 -0.028952157
0.0426967 -0.06218472 -0.041466895 -0.057282407 -0.09235705 -0.08375174 0.021915779 -0.039889824
00000000: 7c1c 233b 9c6e 9738 755a 16bd 656f a9bd
00000010: bf38 d93c e5f0 9a3d 49fb acbc 596e a63b
00000020: f2e5 3c3c 6c76 2cbd 120b 70bd 1287 533d
00000030: 46a9 92bd 397f a33d c2f6 03bc 2a40 8abc
00000040: 5e84 efbb 3de5 0cbd bcf2 823d 5d46 bcbd
00000050: 51ab 533d cfe4 3c3c 8869 b7ba 3b28 c7bd
00000060: 7620 fbbc 6f9b 4abd 1188 2d3c 5cef 97bc
00000070: 02a5 eabc 6527 603d 92ad 53bc ca42 9e3c
00000080: dca4 183d 1a98 593d 3b77 57bd 64ac 98bd
00000090: 0a36 0fbc 08cf b8bd 950d d4bc 3754 14bd
000000a0: 627a 8abd b3e9 e93c be91 48ba 3ae2 653d
000000b0: b3c9 813d 33ce 0d3d 9093 6b3d 8488 03bd
000000c0: 5a46 aa3b c55a 9aba 29e6 94bd 8f44 613d
000000d0: ae5e 8f3d d258 9c3d bf7d 8dbd 4c01 c5bd
000000e0: 840a 49bd 91b2 573d 35b1 3cbd 4fbc 81bd
000000f0: 89ef 8fba 8bdd 773b 1274 cdbc 2a64 853d
00000100: 20e5 f43c cbd4 7b3d 30a5 02bc 0c58 50bd
00000110: 68de 2bbd aa65 e6bb eda6 84bc 6294 22bd
00000120: afb8 013d b946 25bd b21d 4d3d c092 7fbd
00000130: 2a71 91bc 3d4f c2bd a127 443b 8aa6 753d
00000140: a9e8 a33c 903c 27bd fa70 3c3c f99e 783d
00000150: 66ac 7fbd 411d 593d 4c67 ba3c 28f8 aabb
00000160: e4c1 943d 8f72 d23b 9695 b8bc 3586 863c
00000170: 27b0 47bd ada8 993d 5984 923c 9dc6 01bd
00000180: 5c87 c73c c46c 9e3d c6be 543d 62ed 173c
00000190: 2a92 163d bf05 033d 198f 94bd 204e 063c
000001a0: ba9f 97ba c0c1 b8bd 9617 9e3d 9df4 813d
000001b0: 8bd8 883d 8212 a03d d908 6ebc d7fc 173d
000001c0: f5c4 853d 952c ec3c 76cc e53b 900b 7dbd
000001d0: 1f66 3c3c 9a18 14bc 1a05 1dbb 2f94 383d
000001e0: 19e8 4a3d fa8a 30bd 3bb1 003c ee78 36bd
000001f0: 6bea 92bd c386 b33c c3af 1f3d de9a 52bd
00000200: 5577 573d 2205 94bb 54ab a6bd ca20 35bc
00000210: b85d 913d b1ed d8bc 2cdb 1b3d 3ba5 97bc
00000220: be81 f53c 2597 3c3d 2ee1 743b 5702 9dbd
00000230: 5ac9 89bd 4ac7 6d3d 208d 18bd 9a5b bdbd
00000240: 8143 9c3d f348 49bd 5583 283d da85 bebd
00000250: 8996 32bd 08f8 99bd d18c c63c b3e3 97bd
00000260: 1e85 2d3d 6b21 f93c f2d1 7fbc 7272 33bd
00000270: 0bdc aa3b 6198 96bd 96c1 0cbd fbc3 87bd
00000280: de70 443c e9c9 a73c 5c94 713d e96c dabc
00000290: 5bfe 7abd 4f1f 8e3d 52ee 9e3d 016e ab3c
000002a0: d623 7b3d 4293 a1bb 6dc5 90bd 26c2 e63c
000002b0: 6f3a 4dbd bfda 593c 6e77 8f3c 2017 a0bd
000002c0: 0f98 83bd 3b9b 543d 7cc6 3abd b0bc 40bc
000002d0: d573 84bc ec64 c2bd 98f8 6abc 370f 413d
000002e0: 0a64 9ebc a144 a3bc 56f5 c7b8 b237 f33b
000002f0: b453 6ebd a78e 88bd 148a f73c f179 3f3d
00000300: 187a f03c a8a3 b23c d4b8 00bd 9995 24bd
00000310: 4941 593d f266 8cbd ceec 913c af73 923d
00000320: 2a63 2dbd 8d01 f7bc f3a4 663d 64f9 2fbd
00000330: b168 f4bc e557 8c3d f517 36bc 5c4b b83c
00000340: 72e9 fbbc 84f7 bdbd 1178 83ba 567b 0d3d
00000350: ec95 c13c 6b3a 9b3d 6517 7a3c 2af0 96bd
00000360: 7eee 863d e8ca 2bbd 56fe 6a3d 80d3 313d
00000370: 53fa 8cbd 790e 42bd 527d 043d 412b 67bd
00000380: c006 0cbd c1eb 71bd 9080 023d 47d7 8dbd
00000390: a746 803d 5f39 a6bc 5690 553d 2605 51bb
000003a0: 6091 b1bd ef4c 46bc eefc b3bd 5cc8 a93a
000003b0: bf62 90bd 0890 06bd 9fc3 8abd 0c31 d63c
000003c0: 30a5 0a3d 8970 533d 29dd 4dbd 0d98 d5bc
000003d0: f57f 90bd 9bcd 1a3d 0515 26bd 132d edbc
000003e0: bce2 2e3d 68b5 7ebd 31d9 29bd f5a0 6abd
000003f0: b125 bdbd 0886 abbd b888 b33c 8363 23bd

model_2/dense_4/BiasAdd/ReadVariableOp/resource f4 [10]
0.0032725711 -0.0108237695 -0.010258426 0.018680783 0.012188921 -0.014093599 -0.0070947874 -0.015313226
0.013525896 0.0051764823
00000000: a278 563b 2e56 31bc f512 28bc 7108 993c
00000010: 0ab4 473c d7e8 66bc 647b e8bb 53e4 7abc
00000020: b89b 5d3c 7b9f a93b

model_2/layer_normalization_6/add/ReadVariableOp/resource f4 [4]
0.010395887 -0.011539875 0.008692418 -0.014804904
00000000: 8353 2a3c be11 3dbc a56a 0e3c 4590 72bc

model_2/layer_normalization_6/mul_4/ReadVariableOp/resource f4 [4]
0.9927574 1.0092484 0.9860742 1.0160325
00000000: 5925 7e3f 0d2f 813f 5c6f 7c3f 5a0d 823f

model_2/layer_normalization_7/add/ReadVariableOp/resource f4 [12]
-0.010392886 -0.013891715 -0.012901771 0.011927188 0.0009687383 -0.004474951 0.011732071 0.014191644
0.0068602026 0.008955588 0.008759269 0.012668688
00000000: ec46 2abc 139a 63bc f361 53bc 416a 433c
00000010: edf2 7d3a 9ca2 92bb df37 403c 1284 683c
00000020: 8dcb e03b 75ba 123c 0983 0f3c 5490 4f3c

model_2/layer_normalization_7/mul_4/ReadVariableOp/resource f4 [12]
1.0104253 1.0042973 1.0152451 0.989917 0.9952991 0.98163766 0.9887534 1.0117825
0.9936065 1.0041915 0.9902577 1.0133392
00000000: 9e55 813f d08c 803f 8df3 813f 336b 7d3f
00000010: eccb 7e3f 9b4c 7b3f f11e 7d3f 1782 813f
00000020: ff5c 7e3f 5989 803f 8781 7d3f 19b5 813f

model_2/layer_normalization_8/mul_2/ReadVariableOp/resource f4 [10]
0.98821104 0.9944975 1.0089089 0.98686284 1.0011963 0.98783123 0.9927289 0.9892313
0.98105454 0.9884547
00000000: 66fb 7c3f 6397 7e3f ed23 813f 0ba3 7c3f
00000010: 3327 803f 82e2 7c3f 7b23 7e3f 433e 7d3f
00000020: 6426 7b3f 5e0b 7d3f

model_2/dense_4/MatMul f4 [10, 228]
-0.14073393 -0.0016799523 0.08513696 0.09157757 0.047555145 -0.11941912 0.021716855 -0.036972232
0.07641142 0.09678476 -0.06874155 0.15559055 0.13701913 0.030236246 0.10408551 -0.0039888583
0.077648304 -0.13449891 -0.027522707 -0.10722209 -0.085648306 0.099675976 -0.16786723 0.13643882
-0.010666834 -0.035393506 -0.054041166 0.11701738 0.122694105 0.10714195 -0.06163864 -0.14913365
-0.06377598 -0.120993026 -0.011734594 0.13219918 0.0653031 0.07489532 0.13256165 -0.083192356
-0.08259388 -0.100339085 0.058035783 -0.023663828 0.07418973 0.020863451 -0.08308796 0.029093772
-0.045635086 -0.091546215 -0.14783087 0.025220292 -0.017540839 -0.13772824 0.100117855 -0.10736839
-0.07286551 0.033000883 0.035838906 -0.09602501 -0.044052247 0.10298432 0.05287281 0.05529477
0.10112262 -0.05963571 -0.12769298 0.08835682 -0.08689805 0.15082787 0.116668366 -0.098903485
-0.010856961 -0.016662553 0.0386787 -0.022254981 -0.10355763 0.046763822 -0.15587047 -0.1401214
0.033383146 -0.11923606 -0.117063284 -0.05522167 -0.088145584 0.050138444 -0.1299048 -0.07609518
-0.13544266 0.057995975 -0.085556 -0.0240464 -0.017096257 0.05126045 -0.058708105 0.03469276
-0.03267232 0.10523233 -0.0043268055 0.07292138 0.094270416 0.07034437 -0.07875555 -0.047433093
-0.15877402 -0.08169841 0.09998429 0.019305993 0.008631535 -0.15616147 0.0072097178 0.041829616
-0.13977984 0.05379069 0.047648076 -0.14708841 0.13880248 0.057627514 0.106185034 -0.1369757
0.061895113 -0.07221848 0.06877668 0.018846983 0.00032008928 0.1224477 -0.046429083 0.08442988
0.116387255 0.11271856 -0.16512159 0.056185115 -0.074792504 -0.004098279 -0.07398592 -0.17187056
-0.011185661 0.06709125 -0.024729414 0.002750211 0.000445122 0.117466606 -0.07311955 -0.037086833
-0.12840983 0.05865996 0.04441245 0.10538255 0.16696961 -0.11562507 -0.10601365 -0.014988172
0.12469078 0.010760111 -0.15119992 -0.07067338 0.023038667 0.11118467 0.08857566 -0.1267952
-0.071307965 -0.10442211 -0.002813502 0.07875527 0.11548103 0.03638186 0.024972463 0.059493415
0.09329286 0.09883311 -0.15379246 0.0149400085 -0.05770964 0.10029071 -0.04871554 -0.09066309
0.09714185 0.14882204 0.11056413 0.033165444 0.0722376 0.09145657 0.08433102 -0.019376831
-0.09679463 0.013202226 -0.0049932944 0.12649733 0.1250649 0.09243194 -0.07298492 0.14120711
0.077965915 0.093382195 0.15711507 -0.12489576 -0.04979899 -0.07407324 0.061454818 -0.062230494
0.10737962 -0.05354112 -0.12407293 0.11541223 -0.13026 -0.10594175 -0.14026646 -0.041991293
-0.14439695 0.07236985 -0.051494505 -0.034033313 -0.023634426 0.008779916 -0.03534602 0.08164622
0.077297315 -0.100990236 -0.061652355 -0.043251146 0.05913604 -0.043313134 0.024760772 -0.12194962
0.08805577 0.030549156 -0.15027802 0.07101344 -0.04763892 0.08973216 -0.009687458 -0.038014073
0.05972092 0.069845736 0.15130657 -0.07248597 -0.06193902 0.10801142 -0.016273282 0.060889017
0.082947776 -0.09447235 -0.07411873 -0.13960402 -0.16514881 -0.04522703 -0.099362925 -0.1319487
-0.011694501 -0.02055972 -0.11664243 0.029202342 0.007280862 0.04842224 0.114752084 0.1331767
00000000: 8e1c 10be d831 dcba 495c ae3d 058d bb3d
00000010: 2fc9 423d 0392 f4bd 8ce7 b13c 3270 17bd
00000020: 977d 9c3d 1737 c63d 5fc8 8cbd 2153 1f3e
00000030: be4e 0c3e 01b2 f73c c92a d53d f8b4 82bb
00000040: 1306 9f3d 15ba 09be 4d77 e1bc 4197 dbbd
00000050: 6168 afbd eb22 cc3d 63e5 2bbe 9eb6 0b3e
00000060: f2c3 2ebc c8f8 10bd 455a 5dbd cfa6 ef3d
00000070: 0c47 fb3d 3d6d db3d cc78 7cbd 7eb6 18be
00000080: fb9c 82bd 31cb f7bd 7442 40bc 395f 073e
00000090: a2bd 853d b862 993d 3ebe 073e c160 aabd
000000a0: fb26 a9bd 947e cdbd eeb6 6d3d a5da c1bc
000000b0: c9f0 973d d4e9 aa3c 052a aabd 1056 ee3c
000000c0: dbeb 3abd 957c bbbd fa60 17be c99a ce3c
000000d0: ceb1 8fbc a208 0dbe 970a cd3d f5e3 dbbd
000000e0: 833a 95bd ef2b 073d d1cb 123d c3a8 c4bd
000000f0: 2170 34bd 71e9 d23d 2991 583d c57c 623d
00000100: 6019 cf3d 9344 74bd f3c1 02be 6cf4 b43d
00000110: 9bf7 b1bd 9f72 1a3e d3ef ee3d e98d cabd
00000120: 65e1 31bc e87f 88bc 8e6d 1e3d 1450 b6bc
00000130: 0616 d4bd 6c8b 3f3d 829c 1fbe fc7b 0fbe
00000140: c4bc 083d 0932 f4bd e0be efbd 1e30 62bd
00000150: ac85 b4bd f85d 4d3d c405 05be cad7 9bbd
00000160: 7bb1 0abe 308d 6d3d fc37 afbd f5fc c4bc
00000170: 730d 8cbc 7af6 513d e977 70bd ff19 0e3d
00000180: 69d3 05bd 0c84 d73d e0c7 8dbb ce57 953d
00000190: d910 c13d b610 903d 974a a1bd 3449 42bd
000001a0: a895 22be 7f51 a7bd 90c4 cc3d 9a27 9e3c
000001b0: 486b 0d3c cbe8 1fbe 7f3f ec3b 8855 2b3d
000001c0: 7222 0fbe a053 5c3d a12a 433d 589e 16be
000001d0: 3d22 0e3e d40a 6c3d 8a77 d93d 5c43 0cbe
000001e0: bb85 7d3d 48e7 93bd cada 8c3d fd64 9a3c
000001f0: a8d1 a739 dcc5 fa3d 6c2c 3ebd 93e9 ac3d
00000200: 715c ee3d fdd8 e63d a215 29be 5d22 663d
00000210: d02c 99bd db4a 86bb ee85 97bd d6fe 2fbe
00000220: 1044 37bc 2367 893d 5795 cabc e23c 343b
00000230: 435f e939 5592 f03d b4bf 95bd 5de8 17bd
00000240: de7d 03be 6d45 703d d4e9 353d ced2 d73d
00000250: 15fa 2a3e d6cc ecbd af1d d9bd f390 75bc
00000260: e15d ff3d 2d4b 303c 27d4 1abe 34bd 90bd
00000270: 96bb bc3c cab4 e33d 2867 b53d 9ad6 01be
00000280: e909 92bd 42db d5bd bb62 38bb 714a a13d
00000290: 5181 ec3d 2505 153d 0d93 cc3c 5eaf 733d
000002a0: 5410 bf3d 0369 ca3d c57b 1dbe f0c6 743c
000002b0: f260 6cbd 3765 cd3d f289 47bd 92ad b9bd
000002c0: 4ef2 c63d ce64 183e 726f e23d 7dd8 073d
000002d0: 4ff1 933d 954d bb3d beb5 ac3d 29bc 9ebc
000002e0: 433c c6bd 264e 583c ca9e a3bb 8488 013e
000002f0: 0311 003e f54c bd3d 1e79 95bd 9998 103e
00000300: 98ac 9f3d 2a3f bf3d c6e2 203e 59c9 ffbd
00000310: 07fa 4bbd b6b3 97bd 0cb8 7b3d 67e5 7ebd
00000320: d9e9 db3d ef4d 5bbd f319 febd 3f5d ec3d
00000330: e162 05be fdf7 d8bd 03a2 0fbe 10ff 2bbd
00000340: cbdc 13be a536 943d e7eb 52bd 8466 0bbd
00000350: fc9c c1bc a3d9 0f3c fdc6 10bd 2236 a73d
00000360: 0e4e 9e3d f8d3 cebd 2e87 7cbd 1d28 31bd
00000370: a238 723d 1d69 31bd 1ad7 ca3c b9c0 f9bd
00000380: 9556 b43d 3942 fa3c 7be2 19be 7f6f 913d
00000390: 0721 43bd 7fc5 b73d 25b8 1ebc a5b4 1bbd
000003a0: ec9d 743d 480b 8f3d 1cf0 1a3e 8673 94bd
000003b0: c5b3 7dbd 1735 dd3d 8c4f 85bc c366 793d
000003c0: 86e0 a93d b87a c1bd 90cb 97bd 5bf4 0ebe
000003d0: c51c 29be fa3f 39bd ca7e cbbd 8f1d 07be
000003e0: 4b9a 3fbc dc6c a8bc 3ae2 eebd c039 ef3c
000003f0: 4c94 ee3b 6656 463d 2403 eb3d 795f 083e

model_2/dense_5/MatMul f4 [1, 10]
-0.48789668 0.43189994 0.41905627 0.31886038 -0.51536953 0.48824692 0.08626959 -0.18004929
-0.6312024 -0.5826204
00000000: 98cd f9be fd21 dd3e 8b8e d63e ab41 a33e
00000010: 42ef 03bf 80fb f93e 1cae b03d d75e 38be
00000020: 7b96 21bf 9c26 15bf
