models/21.tflite (tflite, 28724 bytes, 12 tensors)

model_21/conv2d_43/BiasAdd;model_21/conv2d_43/Conv2D;model_21/conv2d_43/BiasAdd/ReadVariableOp/resource f4 [12]
00000000: c52f c03a e06a 52bc 21d8 753a 028c 8abb
00000010: 509e baba bb18 153a 327e 503c a87a 1c3b
00000020: 82df 283d ebab 41bb 140f d2bb 024d 9fbc
0.0014662674 -0.012842864 0.0009378214 -0.004228116 -0.0014237855 0.0005687584 0.0127254 0.002387682
0.04122878 -0.0029551934 -0.006410489 -0.0194459

model_21/conv2d_42/BiasAdd;model_21/conv2d_42/Conv2D;model_21/conv2d_42/BiasAdd/ReadVariableOp/resource f4 [4]
00000000: 3358 f9bb 0894 6a3b 6855 7939 b3be 36b9
-0.007609391 0.00357938 0.00023778307 -0.00017427914

model_21/conv2d_43/Conv2D f4 [12, 1, 11, 4]
00000000: 0b7c 5fbc 8a6a 323e 4133 03be af95 ee3d
00000010: b091 5a3c 0874 263e 1779 fc3d 55a2 f6bd
00000020: 3990 2ebe 340c 2ebe 0e12 373e 8dd7 223d
00000030: 5b5e 5a3c 308a 293e e9e0 223e 3980 2f3e
00000040: 8700 1a3e f0c0 0fbe 0745 363e 64cb 373e
00000050: bf4b b4bd 3fe1 053e 9417 9c3a fe9b 9a3c
00000060: 9974 e43d 0dd8 16be 198a 053e 0a47 6bbd
00000070: f65f 2cbe d15c ed3d f62b 043d bd6e a23d
00000080: 50dd 24be d35f 0ebd 87ad b0bd e979 f93d
00000090: 8e8d 65bd 8172 aabd 98d3 f9bc 2ed4 05bd
000000a0: d263 3bbc dd65 1b3d e599 093e 1546 b43d
000000b0: cdca 9d3d 0499 e63d bc5d a4bd affd 51bc
000000c0: fcdc 213e b34d 7fbd bbc9 a63b 2489 183e
000000d0: 8137 6dbd 0c6a 9cbd 3fa6 acbd 96a0 04be
000000e0: 3599 fabc 2621 d23d 4a9a 46ba 3aa7 2fbe
000000f0: 06d0 c9bd 175a a13d 4131 4cbe 00c0 b3bd
00000100: 9b7b 203c f6e2 d7bd cd1a 2abe ce93 89bd
00000110: d169 3d3e c891 ad3d c86a 9ebd b190 15be
00000120: 7dd7 dfbd ef3f 68bc c6fa 12bd 35c7 943d
00000130: 1d18 31be df2b 02be bb89 61bd e630 15be
00000140: 47ff 75bd 653a 963d 2d6a e33d 068f e83d
00000150: 61ed b43d c7b1 253e ceaf febd d819 71bc
00000160: 1870 fcbd 5051 87bd 9dca 9e3d c836 b93d
00000170: ed35 2f3e 7fdc 8bbc 71da ba3d 404c b3bd
00000180: 4054 8c3d f149 ccbd 8ffc 0b3e 0279 7b3d
00000190: 4c92 4bbd 3d2a 60bc e2b9 193e 5609 cdbd
000001a0: e096 bb3c 5c2e 733d 6e33 3cbe d91a 6ebd
000001b0: dd39 27be 635e 13be 9767 f93d c6e5 7cbd
000001c0: 5906 e03c 7bce eabd ba0d e33d 0a00 2fbe
000001d0: 0ef4 b43d 3ed1 e5bb b5d2 39be 5a0b 453d
000001e0: 8cf4 77bc 9815 a63d ad62 0fbe 0779 a1bb
000001f0: 6434 8dbd 079c b13d 59bb 7bbb b826 3c3e
00000200: 6d77 1e3e bc45 b0bd edad 9fbd 737b 133e
00000210: d9f8 033c 65ee 233e 18f9 b4bc e918 123d
00000220: 1f57 113e c8b3 1c3e 3136 033e a85e d33d
00000230: dbfb ccbd e4b5 893d 2381 07bc 9330 e93d
00000240: 357b ff3a 2396 82bd fd10 19be 3f94 473c
00000250: 9307 a2bd 38bb aabd 4579 b0bd 736a 6c3d
00000260: 9e19 df3d 0992 093e 0c18 46bb 98ef dbbd
00000270: ddcc 133d 178c af3d 69be 9bbd 0e25 603d
00000280: 3f09 2b3e f91c ae3b 740b 0fbe db32 d83d
00000290: 9e69 2abe 7cd7 e63c c063 bc3d 2dab 0c3e
000002a0: 57f8 b4bd e00f 26be 5f75 25be 45c8 50bd
000002b0: c17f 263e f205 363e c6ff 0e3e 568a a53d
000002c0: 7658 3a3d a451 a43d 5e1b e2bc 61bd f23d
000002d0: 0290 c2bb 2a0e cf3b 00ff dd3c c1a7 4f3d
000002e0: 4927 cf3d 3f8c 193d 5259 d7bc 1373 c4bd
000002f0: 6e62 11be aa5e 0e3e 9ab4 14be cf42 36be
00000300: ec16 b1bd c4e7 21be 09e4 493d 51b7 c4ba
00000310: 9900 22bd e8e4 653c 4c57 613d d4fc 4d3d
00000320: 2ff4 cabd fc58 1ebe 0755 273e 5297 36be
00000330: e36e 3c3e b6d1 203e 39f7 bd3d a1ae 42bc
00000340: 2c9e 1abe 8fc1 3ebe a860 353e a9b7 0b3e
00000350: ddc5 a6bc 1d39 193e 6092 ff3b 102f 67bd
00000360: 0d57 57bd aa86 36bd 1150 debd ccbd 21bd
00000370: 00a4 d3bd 8f76 2b3d b80f e1bd 63cf 4a3d
00000380: 9324 ebbc e22c b2bc afcd f53d 881d a3bd
00000390: d119 0c3e 62b4 babd 2784 fd3d 6a2b 78bd
000003a0: 1d7b b8bd 79f2 6a3d ac25 41be 1529 993d
000003b0: 86d6 1ebd 9c3a 2fbe 5ecf ebbd 11af 8bbd
000003c0: df5a 1ebc b593 d0bd a4f1 df3d c57e 31be
000003d0: b5f5 6bbd 4026 0ebe d52f f13d 9c73 4a3d
000003e0: e09c e93d b95f f1bc cd76 1d3e 73b7 3cbe
000003f0: 83fa 003d 238b 113d fca1 ff3d 04f5 7d3d
-0.013640414 0.17423454 -0.1281252 0.11649644 0.013340399 0.162552 0.123277836 -0.12042681
-0.17047204 -0.16996843 0.17877981 0.039756346 0.01332816 0.1655662 0.15906109 0.17138757
0.15039264 -0.14038444 0.1779977 0.17948681 -0.0880351 0.13074206 0.0011908882 0.018873211
0.11155052 -0.14730854 0.13040961 -0.057440795 -0.16833481 0.11589969 0.032268487 0.07931278
-0.16100049 -0.034759354 -0.08626848 0.12181456 -0.0560432 -0.08322621 -0.030496404 -0.032673053
-0.011437373 0.03793894 0.13437612 0.088024296 0.07704697 0.11259654 -0.08025691 -0.012816831
0.15806955 -0.06232996 0.005089966 0.14896065 -0.05791426 -0.07637414 -0.084301464 -0.12951884
-0.030590633 0.10260229 -0.00075760914 -0.17153636 -0.098541304 0.078785114 -0.19940664 -0.087768555
0.009795095 -0.10541336 -0.16611786 -0.06717645 0.18497397 0.08475071 -0.07735211 -0.14605977
-0.10929773 -0.014175399 -0.035883687 0.07264558 -0.17294355 -0.12712048 -0.05506299 -0.14569435
-0.060057905 0.073353566 0.11104236 0.113554046 0.08834339 0.16181098 -0.12435876 -0.014715634
-0.12326068 -0.06607306 0.07753489 0.09043652 0.17110415 -0.017072914 0.09123696 -0.08754778
0.06852007 -0.09975041 0.13670562 0.0613947 -0.049700066 -0.013681945 0.15012315 -0.10011546
0.022899091 0.059370384 -0.18378994 -0.058131073 -0.16330667 -0.14391474 0.12177961 -0.061742567
0.027346777 -0.11465164 0.110866025 -0.17089859 0.08835612 -0.007013469 -0.18146785 0.04810653
-0.015133988 0.081095874 -0.14002486 -0.0049277577 -0.06894758 0.08672338 -0.0038411228 0.18374145
0.15475245 -0.08607051 -0.077968456 0.14402561 0.008054935 0.16008909 -0.022091433 0.035668287
0.1419339 0.15302956 0.12813641 0.103207886 -0.10008975 0.06724146 -0.008270535 0.11386218
0.0019491675 -0.063762926 -0.14947887 0.012181341 -0.07911601 -0.083364904 -0.0861688 0.057718705
0.10893558 0.13434614 -0.0030226735 -0.10739058 0.036084045 0.08571642 -0.07604677 0.054722838
0.16702746 0.0053135124 -0.13969213 0.10556575 -0.16641852 0.028178923 0.09198713 0.13737173
-0.088364296 -0.16216993 -0.16158055 -0.050972242 0.16259672 0.17775705 0.13964757 0.08083026
0.04549452 0.08023384 -0.02760094 0.118525274 -0.005937577 0.006318827 0.027099133 0.050697092
0.10114915 0.037487265 -0.026287708 -0.09592261 -0.14197704 0.13903299 -0.14522019 -0.17798923
-0.0864695 -0.15811068 0.049289737 -0.0015008246 -0.03955135 0.014031626 0.055014893 0.050289944
-0.099098556 -0.15463632 0.16341029 -0.17831162 0.18401675 0.15704998 0.092756696 -0.011882455
-0.150994 -0.18628524 0.17712653 0.1364428 -0.02035802 0.14963193 0.0077994317 -0.056441367
-0.052573252 -0.04456202 -0.10855115 -0.039487645 -0.10334015 0.041861113 -0.10989326 0.049514186
-0.028703963 -0.021749917 0.12002122 -0.07964617 0.13681723 -0.091164365 0.12378722 -0.060588278
-0.09007857 0.057360146 -0.18862027 0.07478539 -0.038778804 -0.17112201 -0.115141615 -0.06820501
-0.00966522 -0.10184423 0.10934761 -0.17333515 -0.05760737 -0.13881779 0.11776701 0.04942666
0.11406875 -0.02946459 0.1537735 -0.18429355 0.031488907 0.03553308 0.12482068 0.062001243

model_21/conv2d_42/Conv2D f4 [4, 4, 38, 1]
00000000: 462d b7bc de15 2a3d 7e83 5fbd e3e5 963d
00000010: 41c8 023a 5106 b9bb f02a bdbc f9d5 9f3d
00000020: c8e5 4f3d 77e0 43bd d94b 773b 57ec 183d
00000030: de61 823d 7056 883c 2038 7c3d 5966 233d
00000040: fe25 9b3d 2884 44bd f79b 99bd 7968 863d
00000050: 0336 2dbc 655d 1c3d fb9d 6ebc 29af b8bd
00000060: 0dbd 1c3d 5649 85bd 212b 96bc d87b 873d
00000070: 89a8 05bd 42c0 f03c e944 88bd 36fc 593d
00000080: f5da e73c 244b a0bd 65e8 2fbd 98e5 9cbd
00000090: eb5a 99bd 61a1 0ebd e62f b5bd 6f3c 6e3d
000000a0: 5ceb 91bc 749b f1bc fa2d 863d e22b afbd
000000b0: a7c1 c0bd 15fd f9bc 9e53 5d3d 917b cbbc
000000c0: 1a90 913d 4aa7 fbbc 6484 153d 1c77 4dbd
000000d0: 6ebc 12bd 2ef6 f63c f4f2 d13c a152 afbd
000000e0: 5871 393d d3ad 203d 1737 9c3c d4e2 8abd
000000f0: c52c c1bc 5eea fcba 4378 a33d bc7b 0a3d
00000100: 8b78 83bd 1ce5 743d e5ec 4f3d 328d a1bd
00000110: 7795 993d df8d 223d a774 90bd 5c20 043d
00000120: 5a18 493d 758d ecbc 2f7e a5bc 2474 683d
00000130: 44a8 3d3c e48c f9bc 064a dfba a08e 06bd
00000140: c9ea 54bd dff8 0a3d 09a4 f13c f1a3 0abd
00000150: ca3d 3b3d 754b 093d 3593 9b3d 9e42 16bd
00000160: ed82 75bd 43c6 09bc 4744 993d 3241 adbd
00000170: 14cf 26bd c285 4e3d 8ee3 98bd 6d0d 113d
00000180: 23f6 90bd 5c5a db3a 1508 97bd 3a58 21bd
00000190: b161 97bd 260c 71bd 4e08 473c 845c 0a3d
000001a0: 4b94 8fbd 2176 acbd d56c 2f3d 6abf 4a3d
000001b0: c43a 5d3d 16cc 853d 3b54 45bc a0f3 a8bd
000001c0: 5f49 91bd dcc0 42bd 0545 9dbd a413 9c3c
000001d0: afc9 65bc 6e36 063d fcac 0f3c 1e1c 953a
000001e0: bfeb 793d f90b 42bd d775 943d ebbd 3ebc
000001f0: 6405 6abb 9650 823d 7aae 8cbb cd01 38bd
00000200: ba1e 633d 50e2 903b 2e1f 02bd 25f5 203c
00000210: 6813 053d 044d 22bc e388 53bc 5889 4d3d
00000220: 0d5d 883d 8d45 943d bf2c 8ebd 7817 83bd
00000230: 3ebe 8fbb 16ff 9bbd d936 313c 65fb 073c
00000240: 3e54 983d 6c78 2fbb 8857 6abc 55a8 17bc
00000250: 4b6f 5fbd 93c8 86bd d8b0 0d3d 41e7 46bc
00000260: e4af 0e3d eb2f 253d 8fa2 14bd ae59 f23c
00000270: d02b 903c c715 c83d c633 873d df04 0dbd
00000280: 31f0 e63b a3ce 9abd 48a9 903d 8350 493c
00000290: e8a3 f73c 3143 58bd 776b 983d 886b b23d
000002a0: ea9a a1bd f71b 463d 7dc7 a3bd 5177 c1bc
000002b0: 4115 c43d 19fb 40bd 0525 943d 901a a83c
000002c0: 586f 35bd 41df a1bd c41d 37bd 2099 663d
000002d0: 1f1f 553d a8b2 b13d b9c0 08bd e01f 953d
000002e0: dbbc 25bd 073f aa3c ce4f b43d ae09 dd3c
000002f0: 553b e7bc b752 823d ecd6 bb3c 9749 12bd
00000300: 05a2 27bd e03b e23b 5757 8dbc e058 febb
00000310: e25e a83c d03d 86bc 1345 803c baac 60bd
00000320: 4fe6 8d3d 9705 02bd 3ee1 8f3d be24 bf3d
00000330: 0a0b 4fbc e7ce 9c3d c4e6 a3bd 4ef3 60bd
00000340: 3458 1ebc 094c 643c 2a45 54bd fcc8 0ebd
00000350: 5ece 8b3c a315 443c 2c83 bb3d d25c be3d
00000360: c95a 483d f739 7dbd 936e fc3c 5efe e9bc
00000370: f0cc d1bc 4997 703c 2594 943d 2157 af3d
00000380: 8a68 5dbc 374b 493d 1710 8c3c 1f5b c6bc
00000390: a887 7d3d c61a 613d 0dd5 893c 3819 803d
000003a0: fdf6 103c 7f27 1abd aeee 97bc d4ca 933d
000003b0: af06 8a3d e448 a63d 865d 643d 4b7d 8c3d
000003c0: 161b b13c 970c 683d 5dce 87bd 4fea 673d
000003d0: 7396 87bc 6334 acbc a5e5 8d3d a686 ef3c
000003e0: 30a8 e4bc 8293 09bc 8bb2 053d ca5f f53c
000003f0: b37c 43bd f5f4 a6bc deee 50bd a48f 9abd
-0.022360455 0.04152476 -0.05456876 0.07368066 0.00049889466 -0.005646505 -0.023091763 0.07804484
0.050756246 -0.04782149 0.0037734418 0.037334766 0.06366323 0.01664278 0.061576962 0.03989253
0.07575606 -0.047977597 -0.07500451 0.06562895 -0.010571959 0.038175005 -0.014564033 -0.09017784
0.03826623 -0.06508128 -0.018331112 0.06615418 -0.03263143 0.02938855 -0.066537686 0.053219043
0.028302649 -0.07826832 -0.042946238 -0.07660979 -0.07488044 -0.03482187 -0.088470265 0.058163103
-0.017812423 -0.029493071 0.06551738 -0.08553292 -0.09411936 -0.030516187 0.05403482 -0.024839194
0.07107563 -0.030719418 0.03650321 -0.05016242 -0.03582423 0.030146684 0.025628544 -0.08560682
0.04527411 0.03922827 0.019069238 -0.06781545 -0.023580918 -0.0019295921 0.079819225 0.03380941
-0.06419476 0.05978881 0.05076303 -0.07888259 0.07499211 0.03968608 -0.070535 0.032257423
0.04909549 -0.028876046 -0.02020177 0.056751385 0.011575762 -0.03046269 -0.001703561 -0.03285086
-0.05198172 0.03392875 0.029497163 -0.033847753 0.045713224 0.033519227 0.07596437 -0.036684625
-0.059939314 -0.008409086 0.07483726 -0.08459701 -0.04072483 0.05042053 -0.074652776 0.035413194
-0.07078197 0.0016735303 -0.073745884 -0.03939078 -0.0739168 -0.058849476 0.012147976 0.033779636
-0.070107065 -0.08420969 0.0428284 0.049498953 0.05401112 0.06533067 -0.012044008 -0.08249593
-0.070940726 -0.047547206 -0.0767918 0.019052334 -0.014025136 0.032766752 0.00876927 0.0011376177
0.06101584 -0.0473747 0.07249039 -0.01164196 -0.003570878 0.06363027 -0.00429326 -0.044923592
0.055449225 0.00442151 -0.031768017 0.009824072 0.03248921 -0.009906057 -0.012911054 0.05017981
0.06658373 0.07239828 -0.069421284 -0.06400961 -0.0043866923 -0.07617013 0.010816299 0.008299683
0.07437943 -0.0026774658 -0.014303096 -0.009256442 -0.054549497 -0.06581225 0.03459248 -0.012140096
0.03483571 0.0403289 -0.03628784 0.029583778 0.017599016 0.09769779 0.06601672 -0.034428474
0.007047676 -0.07558944 0.07063538 0.012287262 0.030229524 -0.052798454 0.07442372 0.08711916
-0.07890876 0.048366513 -0.07997034 -0.023616465 0.09574366 -0.047114465 0.072336234 0.020520478
-0.04429564 -0.079039104 -0.04470612 0.056298375 0.052031633 0.08676654 -0.03338692 0.0728147
-0.04046331 0.020782007 0.08804284 0.026982155 -0.028226534 0.06363433 0.022929631 -0.035714712
-0.040926 0.0069041103 -0.017253561 -0.0077620596 0.020553056 -0.016386896 0.015657937 -0.054852225
0.069286935 -0.031743612 0.070253834 0.0933318 -0.012636909 0.07656651 -0.080029994 -0.054919533
-0.009664584 0.013934144 -0.051823772 -0.034859642 0.017066177 0.011968049 0.091558784 0.09295048
0.048914704 -0.061822858 0.030814445 -0.028563675 -0.025610417 0.014684507 0.07254819 0.085615404
-0.013513694 0.049143996 0.017097516 -0.024213372 0.06189695 0.054957174 0.016825223 0.0625481
0.008847949 -0.037635323 -0.018546429 0.07216421 0.06739556 0.081193715 0.055753253 0.06859835
0.02161936 0.05665263 -0.066311575 0.05661994 -0.016551232 -0.021021074 0.06928567 0.02923901
-0.02791223 -0.008396985 0.032640975 0.029952902 -0.047726344 -0.020380476 -0.05100905 -0.075469285

model_21/dense_42/BiasAdd/ReadVariableOp/resource f4 [10]
00000000: 4294 a6bb 0fbe 3a3c b589 ba3a 5e67 003d
00000010: ad87 7fbc 5953 f8bb 3571 40bc dc40 22bb
00000020: aed8 6dba 0103 71ba
-0.0050835917 0.011397853 0.0014231714 0.03134858 -0.0155963125 -0.007578295 -0.011745741 -0.0024757897
-0.00090731203 -0.0009193868

model_21/layer_normalization_63/add/ReadVariableOp/resource f4 [4]
00000000: 39cd ddb9 c5f9 063c 7e4f 653b 9e93 0e3b
-0.00042305308 0.008238261 0.0034990008 0.0021755467

model_21/layer_normalization_63/mul_4/ReadVariableOp/resource f4 [4]
00000000: 5e63 7e3f baa9 813f 7732 803f b438 7f3f
0.9937037 1.0129921 1.0015401 0.996959

model_21/layer_normalization_64/add/ReadVariableOp/resource f4 [12]
00000000: d52c 81bb f70e 2fbd 888b 1f3a 2ba4 163b
00000010: 2571 1cbb e21f 2bba 182f 113c 49ec e6ba
00000020: b73d 233d 7e23 61bb c1ca aabc d893 31bd
-0.003942112 -0.04273888 0.00060861604 0.0022986035 -0.002387115 -0.0006527883 0.008861326 -0.0017618026
0.039853778 -0.003435343 -0.020848634 -0.043353885

model_21/layer_normalization_64/mul_4/ReadVariableOp/resource f4 [12]
00000000: b8ca 7f3f 5a62 7a3f ceb0 7f3f e7ef 7e3f
00000010: a9b5 7e3f ca07 803f 6552 7e3f 26da 803f
00000020: 8fc8 873f 267d 803f 7de3 7a3f 6f3a 863f
0.999187 0.9780632 0.9987916 0.9958481 0.9949594 1.0002377 0.99344474 1.0066574
1.0608081 1.0038192 0.9800337 1.0486583

model_21/layer_normalization_65/mul_2/ReadVariableOp/resource f4 [10]
00000000: ec9e 7e3f dd90 7e3f 8dc6 793f e2b1 7e3f
00000010: fbb8 7e3f b01e 7f3f e376 7c3f b56c 6d3f
00000020: 8e2a 793f 2b38 7e3f
0.99461246 0.99439794 0.9756859 0.9949018 0.9950101 0.996562 0.98618907 0.92744
0.9733056 0.99304456

model_21/dense_42/MatMul f4 [10, 228]
00000000: 388e ffbd 9740 b7bd 155d c4bd 4e3f 763a
00000010: 9c18 23be 525b ac3c 092e f0bc 60e4 223e
00000020: 7d45 18be 3793 92bc a777 24be 53d6 743d
00000030: e0cd 8c3d 39f4 ad3d 531b 4bbd 6e4d e43d
00000040: 7850 903c df02 f7bd b871 413d 1390 903d
00000050: ab9b e83c 56bb 16be 9e75 4ebd 624f f1bd
00000060: 7ac9 85bc 7b06 713d f43f 9a3d f1f8 7d3d
00000070: 498d c1bb c7fa 363d cff5 573d 0614 9e3d
00000080: 5627 80bd be71 2bbd 7b11 07be 2eb5 183e
00000090: 7b2c a93d 6806 0b3e f688 923b 3086 153d
000000a0: 24f6 69bd dd81 863c 1434 bb3b 8cf9 a2bd
000000b0: 4a07 c73d cd24 33bd 2c4b cebd 158f bd3d
000000c0: fa22 01bd ae6c 0cbe ae32 df3d 8145 b63d
000000d0: cea2 f13d 32df 0dbe dca3 7e3d 2f98 e23d
000000e0: ae54 41bd 9eea 143d bf10 eb3d 02f7 d3bd
000000f0: bc03 313d 007f 67bd 83d9 bcbd 5dad 27be
00000100: 034e 15be 1892 b0bd 9835 f53d 18a2 8f3d
00000110: 7152 053e d4f2 e93d 539b 23be d80a ba3d
00000120: 4c69 b73d cbf1 d3bd c561 3c3d dd1f 203e
00000130: 540a 5b3d 51fc febc fcb5 32bd 2721 963d
00000140: 74de 15be 3781 ce3d 6c69 ac3d 91ce f43d
00000150: 1d97 57bd c0a6 9bbd 5bad 153e 9e07 963d
00000160: ab7b e9bd fe22 f9bd 85e9 763d f403 a13d
00000170: da54 553d e5bc 10be ceb6 8b3d e68c c6bd
00000180: 34a9 d3bd 630b c3bd ede4 d93d bf6d 573d
00000190: b36b 16bd 07b1 953d f885 d2bd 31bd 983d
000001a0: c420 833d a0be 1fbe 016d cb3d f432 9abd
000001b0: 096f 0d3e fa13 303d 916b 073d 2a78 aebd
000001c0: 4671 25be fb3d f8bc 61ee 833b 274e dabd
000001d0: 6e86 e4ba adfa 803c 7963 c23d e8c0 adbd
000001e0: 3762 8ebd 2b86 11be effd be3d a222 063d
000001f0: 06f2 0dbd a8d3 22bd 2a48 7c3d 1648 273d
00000200: 1037 cf3c 3043 31bc 6ed5 cd3d 507a aebd
00000210: 6b61 1fbe 6466 66bd 27f6 8e3d eb42 fdbd
00000220: 744a 03be 4673 d0bd a501 d0bb baba cf3d
00000230: aec4 e3bc ff33 a53d 62bb 97bc 1e40 a3bd
00000240: cd7e e6bd 6b9e c63d eb78 163e 1dd1 98bd
00000250: c109 bb3c c54b c8bd facb 853d 9b46 373c
00000260: 95e9 c8bd 3b3d 21bd f06b 50bd f8fe 0c3d
00000270: 5637 e83c 6df1 19be 9c34 073e 0a15 903d
00000280: 2d2e 223d 0696 c7bd e13e f13c 03aa f03d
00000290: 74cf 0ebe 874b 92bc 171b 5fbd cc37 bb3d
000002a0: a28f 11be decd 19be c422 11be 48b9 afbd
000002b0: 1f27 dbbd bc3d abbd c11c 1b3e ad57 60bd
000002c0: 2729 d2bd 97a5 8c3d c850 17bd 5d8d bdbc
000002d0: d05d f03d ced4 1ebe 9f55 263d ec26 c03d
000002e0: 886c 043e 5d37 263e 7ff1 83bd cb00 c1bd
000002f0: 1587 c13d 2dd2 123e 31e6 ad3d 1027 5cbd
00000300: ef24 1a3e 7b77 fdbc e3c2 30bc 39c2 19be
00000310: 554b 0bbe 36b6 85bc 2b68 d3bd ef8c 013e
00000320: 9d7e ef3d 3da0 babd a542 bdba 28fa acbd
00000330: 91ed 1cbe 78f7 6c3b b33e 193e e381 573d
00000340: 8552 173c 9809 ab3d 4dba 67bd 4003 eb3d
00000350: eea7 5d3d b41d 96bd fdd3 5dbd fe06 e4bd
00000360: 0966 fc3a 2edd 5c3d ac18 3d39 952e e5bd
00000370: 903b e43d bbd2 f33d 3e9b d83c e019 f93c
00000380: 8815 cf3d 3984 b4ba 50f8 d9bb a8d7 84bc
00000390: 2945 aebd b333 0cbe e719 94bd 91d7 a5bd
000003a0: 3305 d0bc 0bbb 063e 12e0 343d 6bf7 573d
000003b0: 166a 953c 8f6a b73d b605 293e 21d4 8b3d
000003c0: 378a e1bd fb10 073b 56a3 a7bd 3aea d2bd
000003d0: 1995 183e 8f5d 833c e056 88bd 7f8e 813d
000003e0: 2042 a53d b2c7 e1bd d731 fb3d 6fc1 91bd
000003f0: 7a7f 0d3e 7396 f93d 6154 473d 3d97 06be
-0.12478298 -0.089478664 -0.095880665 0.00093935884 -0.15927356 0.021039639 -0.029318826 0.1590743
-0.14870258 -0.017892463 -0.16061269 0.059774708 0.06875205 0.084938474 -0.049586605 0.11147581
0.017616495 -0.120610945 0.04722759 0.0705873 0.02839454 -0.147199 -0.050405137 -0.11782719
-0.016331423 0.05884407 0.07531729 0.062004987 -0.005906735 0.044672754 0.052724656 0.07718663
-0.06257503 -0.04185652 -0.13190262 0.14912865 0.08260437 0.13576663 0.0044718934 0.036504924
-0.057119504 0.016419346 0.0057129953 -0.079577535 0.09718187 -0.043736268 -0.10072932 0.09255806
-0.031527497 -0.13713333 0.10898338 0.088999756 0.11798631 -0.13854674 0.062167987 0.11064183
-0.047199897 0.03635656 0.114778034 -0.103498474 0.043216452 -0.0565176 -0.092211746 -0.16374727
-0.1458054 -0.08621615 0.11973113 0.07013339 0.1301973 0.11423269 -0.1597722 0.090840995
0.08955631 -0.10348853 0.045991678 0.15637155 0.053476647 -0.031126173 -0.043630585 0.07330542
-0.1463564 0.100832395 0.08418545 0.11953462 -0.052634347 -0.076001644 0.14616911 0.073256716
-0.11400541 -0.12164877 0.060281295 0.07862082 0.052082874 -0.14134558 0.068219766 -0.09694843
-0.10335007 -0.09523656 0.10639367 0.052594896 -0.036723804 0.07309156 -0.10279459 0.074579604
0.06402734 -0.15600061 0.099329 -0.0752925 0.13811888 0.0429878 0.033061568 -0.08519013
-0.16156492 -0.030302992 0.0040262197 -0.106594376 -0.0017435083 0.015744532 0.09491629 -0.084840596
-0.06952327 -0.14211337 0.09325778 0.032747872 -0.03465464 -0.039752632 0.06159226 0.04084023
0.02529481 -0.010819241 0.10050474 -0.08519423 -0.15564506 -0.05624999 0.069805436 -0.12366279
-0.1282137 -0.10178237 -0.0063478523 0.10143037 -0.027803745 0.08066558 -0.018521968 -0.07971214
-0.11254654 0.096981846 0.14694564 -0.0746176 0.0228318 -0.09780077 0.06533046 0.011186267
-0.09810177 -0.039365035 -0.050884187 0.034422845 0.028346699 -0.15033503 0.13203663 0.07035263
0.039594818 -0.097454116 0.029448928 0.11751177 -0.13946325 -0.01785828 -0.054469194 0.09141502
-0.14214948 -0.15019938 -0.14173418 -0.085802615 -0.10700821 -0.08361384 0.15147687 -0.054771114
-0.102617554 0.06867521 -0.036942273 -0.023138696 0.11736643 -0.15510866 0.040609 0.09382424
0.12932026 0.16232057 -0.06442546 -0.09423979 0.09449593 0.14337988 0.08491171 -0.05374819
0.15053152 -0.030940762 -0.010788652 -0.15015496 -0.13602956 -0.016322237 -0.10322603 0.12651418
0.116940714 -0.09112594 -0.0014439417 -0.08446151 -0.15325 0.0036158245 0.14965324 0.052614104
0.009235983 0.08351439 -0.056574155 0.11475229 0.05411523 -0.07329884 -0.054157246 -0.11134146
0.0019256483 0.05392187 0.00018033636 -0.111905254 0.11144173 0.11905428 0.026441213 0.030407846
0.10111529 -0.0013772316 -0.0066519156 -0.016216114 -0.08509285 -0.13691597 -0.07231503 -0.08097757
-0.025393104 0.13157289 0.044159003 0.05272619 0.018239062 0.08955871 0.16506085 0.0682757
-0.110126905 0.0020609486 -0.08185451 -0.102985814 0.14900626 0.016035823 -0.06657195 0.06326007
0.08069253 -0.11024417 0.122653656 -0.07116973 0.1381816 0.12186899 0.048664454 -0.1314363

model_21/dense_43/MatMul f4 [1, 10]
00000000: 5e1c 8cbe df27 89be 2558 c73e f0df 2dbe
00000010: 5805 b7bd ea42 c33e dfb0 babd e538 023f
00000020: 166f 7dbe e5ef febe
-0.27365392 -0.26788232 0.38934436 -0.16979957 -0.08936566 0.3813699 -0.09115767 0.50868064
-0.24749407 -0.497924
