models/22.tflite (tflite, 28724 bytes, 12 tensors)

model_22/conv2d_45/BiasAdd;model_22/conv2d_45/Conv2D;model_22/conv2d_45/BiasAdd/ReadVariableOp/resource f4 [12]
0.027011646 -0.0022526847 -0.009476718 -0.017331367 0.0058351858 -0.008666611 0.0072314334 0.0039189127
-0.0058224294 0.008254395 -0.017625585 0.0030235078
00000000: 8747 dd3c c7a1 13bb 3c44 1bbc 83fa 8dbc
00000010: 1635 bf3b 67fe 0dbc a9f5 ec3b 396a 803b
00000020: 14ca bebb 713d 073c 8863 90bc 0b26 463b

model_22/conv2d_44/BiasAdd;model_22/conv2d_44/Conv2D;model_22/conv2d_44/BiasAdd/ReadVariableOp/resource f4 [4]
-0.010091238 0.0014934647 0.0014584652 -0.003031465
00000000: b855 25bc 5cc0 c33a f929 bf3a 8bab 46bb

model_22/conv2d_45/Conv2D f4 [12, 1, 11, 4]
-0.09385208 -0.16639423 -0.123761274 -0.006846291 -0.20506278 0.07363499 -0.053146813 -0.0743469
-0.19302258 -0.12702644 0.09032831 -0.11344808 -0.05973575 -0.16472101 -0.008283472 -0.1005998
0.116405234 -0.059236534 0.03391445 -0.005149745 -0.09562121 -0.17393982 -0.114764936 -0.03599952
-0.21169573 -0.0125124315 0.10192245 -0.11777508 -0.09653043 -0.041268937 0.14787734 -0.074664004
0.08997205 0.13513358 -0.014299288 -0.15540823 -0.19901903 -0.06559761 0.069832206 -0.068736695
-0.0032816876 -0.087634556 0.023986753 -0.16936967 0.11177339 0.17876966 -0.112184055 0.17310838
-0.15801449 0.085004374 0.043942273 -0.12404496 0.06842279 0.047042247 0.16816668 0.11824756
0.14566919 -0.12187511 -0.11015474 -0.12018431 0.022635683 0.004811094 -0.069876745 0.045684807
-0.14456277 -0.15077467 0.17492081 -0.0840415 0.13103083 -0.13707063 0.024735471 0.12670015
0.0843253 0.11394536 0.1749063 -0.111686625 -0.08097949 0.13972013 0.11232775 0.06281172
-0.10618612 -0.019734137 0.004559536 -0.04523812 0.102790534 -0.04356319 -0.08776926 0.1486338
-0.15924698 -0.06928332 0.052614793 0.05032588 0.019282997 -0.039515957 -0.18398719 -0.026605006
-0.0006549054 -0.109864645 0.12918274 -0.14167973 -0.09286414 -0.06761767 -0.051413808 0.06308812
0.14583135 -0.14719349 0.13324966 0.0848189 -0.13582005 0.053330258 -0.14362586 -0.1283797
-0.07203574 -0.15289094 0.029813057 -0.028093992 -0.17288464 -0.15411127 -0.1578015 -0.017583655
0.17028491 -0.10771289 0.102959454 0.14601122 -0.107173935 0.15585728 0.027949193 0.15792532
0.18603222 0.1106992 -0.15597142 0.08628083 0.06639022 0.15871412 0.09756874 -0.05718061
0.09866306 0.16618188 0.03539348 0.13525753 -0.07311887 -0.08532618 0.15810388 0.027018115
-0.08812868 0.13943769 -0.10197764 0.026278337 0.06792363 -0.04126124 -0.12559678 -0.03257737
0.19349782 0.13012333 -0.08305367 -0.019589294 0.13188703 0.026329992 0.031188438 0.09140431
0.013536833 0.16111477 0.15153296 0.13101777 -0.16949414 -0.008073584 -0.10616092 -0.047549315
-0.14253931 -0.05376963 0.0420518 0.18892318 -0.1256533 0.18785402 0.11792077 0.1034527
0.14877151 -0.1155926 -0.0017643347 -0.07835043 -0.094320215 -0.08001874 0.06004933 0.118149534
0.039129443 0.1353472 0.0077600717 0.029174855 0.10885645 0.08643414 -0.016303448 0.07144704
0.089929104 -0.17606129 -0.16237096 -0.05236527 -0.07028161 -0.03919249 -0.1698463 -0.16411461
-0.04114227 -0.025988355 -0.16462208 -0.08378096 0.15978913 0.18028142 -0.06444993 0.18394299
-0.14725347 0.071355544 0.13237643 0.002925626 0.0001541647 0.09319088 0.023473104 -0.061120436
-0.09611933 -0.13509783 0.11643072 0.15034595 0.11819294 -0.1266389 0.047771666 -0.06481913
-0.14700522 -0.11563115 -0.06558879 -0.13005023 -0.09434874 0.04865217 -0.09839261 0.15697913
-0.06048446 -0.0035791986 -0.14728144 -0.102404 -0.037404288 -0.09333589 -0.12143029 -0.06937607
-0.09160646 0.055836737 -0.048795875 -0.08227514 -0.039020684 0.18091094 0.098306745 0.0048278766
-0.10843747 0.16292079 -0.15605557 0.1684175 0.01961243 -0.14083114 0.15943201 0.0965974
00000000: 8535 c0bd 4063 2abe 8d76 fdbd da56 e0bb
00000010: fafb 51be f1cd 963d 79b0 59bd 3043 98bd
00000020: b6a7 45be 3813 02be 0dfe b83d 7857 e8bd
00000030: 79ad 74bd a0ac 28be 66b7 07bc 4507 cebd
00000040: de65 ee3d 02a2 72bd e1e9 0a3d 31bf a8bb
00000050: 0ed5 c3bd 481d 32be e109 ebbd 3c74 13bd
00000060: c4c6 58be f100 4dbc b8bc d03d 1034 f1bd
00000070: bfb1 c5bd 9e09 29bd 286d 173e 71e9 98bd
00000080: 4443 b83d 7560 0a3e 9047 6abc 5623 1fbe
00000090: a5cb 4bbe 0a58 86bd 3004 8f3d d3c5 8cbd
000000a0: 9511 57bb bf79 b3bd de7f c43c 3e6f 2dbe
000000b0: 72e9 e43d 650f 373e c1c0 e5bd 5343 313e
000000c0: 8dce 21be c616 ae3d d0fc 333d 490b febd
000000d0: 3f21 8c3d 5faf 403d e333 2c3e c72b f23d
000000e0: 4e2a 153e a899 f9bd cf98 e1bd 3123 f6bd
000000f0: 786e b93c 62a6 9d3b 8a1b 8fbd fe1f 3b3d
00000100: 4308 14be ad64 1abe 711e 333e f31d acbd
00000110: f22c 063e 3e5c 0cbe 0ba2 ca3c afbd 013e
00000120: beb2 ac3d 2f5c e93d a31a 333e f5bb e4bd
00000130: 93d8 a5bd cb12 0f3e 170c e63d 6ea3 803d
00000140: 1c78 d9bd 7ca9 a1bc 2968 953b 9b4b 39bd
00000150: d883 d23d 516f 32bd 5fc0 b3bd 7533 183e
00000160: a411 23be 6ae4 8dbd 9c82 573d 8322 4e3d
00000170: 60f7 9d3c 7cdb 21bd 2367 3cbe bef2 d9bc
00000180: f5ad 2bba b700 e1bd 7b48 043e 7e14 11be
00000190: 8e2f bebd 227b 8abd 4997 52bd 5834 813d
000001a0: d054 153e e4b9 16be 9972 083e 88b5 ad3d
000001b0: 6914 0bbe d470 5a3d a812 13be f875 03be
000001c0: 7987 93bd 718f 1cbe 833a f43c 5f25 e6bc
000001d0: ac08 31be 58cf 1dbe b796 21be 990b 90bc
000001e0: 2b5f 2e3e 9398 dcbd 68dc d23d f783 153e
000001f0: 027e dbbd 0d99 1f3e b5f5 e43c 2db7 213e
00000200: 3b7f 3e3e 43b6 e23d f9b6 1fbe 01b4 b03d
00000210: 98f7 873d f485 223e 1fd2 c73d 3736 6abd
00000220: dc0f ca3d 952b 2a3e c1f8 103d f380 0a3e
00000230: 59bf 95bd 7ebf aebd fce5 213e 1855 dd3c
00000240: cf7c b4bd c1c8 0e3e a7d9 d0bd ab45 d73c
00000250: 8b1b 8b3d 8c01 29bd 719c 00be d96f 05bd
00000260: 4b24 463e 0d3f 053e 0b18 aabd ba79 a0bc
00000270: 650d 073e ffb1 d73c e57e ff3c 2f32 bb3d
00000280: 98c9 5d3c 45fb 243e 752b 1b3e 8629 063e
00000290: df8f 2dbe 1147 04bc e56a d9bd 12c3 42bd
000002a0: d3f5 11be 8b3d 5cbd 823e 2c3d 1475 413e
000002b0: 42ab 00be ce5c 403e 7280 f13d 02df d33d
000002c0: 8f57 183e d0bb ecbd 4041 e7ba 3176 a0bd
000002d0: f52a c1bd dde0 a3bd 49f6 753d 62f8 f13d
000002e0: 3246 203d 7598 0a3e 3348 fe3b 1b00 ef3c
000002f0: 21f0 de3d 6204 b13d cf8e 85bc d352 923d
00000300: c02c b83d 6949 34be 9344 26be f77c 56bd
00000310: ceef 8fbd 4e88 20bd 30ec 2dbe a90d 28be
00000320: cc84 28bd 88e5 d4bc b192 28be 5a95 abbd
00000330: c39f 233e b19b 383e 53fe 83bd 8d5b 3c3e
00000340: 9dc9 16be db22 923d b08d 073e dcbb 3f3b
00000350: 46a7 2139 dcda be3d ab4a c03c 6c59 7abd
00000360: 36da c4bd 1657 0abe 3b73 ee3d 4af4 193e
00000370: 240f f23d a1ad 01be 39ac 433d e4bf 84bd
00000380: 8988 16be 06d0 ecbd 6a53 86bd e32b 05be
00000390: ea39 c1bd 7f47 473d 1182 c9bd 23bf 203e
000003a0: 8ebe 77bd fd90 6abb f2d0 16be 30b9 d1bd
000003b0: 3d35 19bd e326 bfbd 72b0 f8bd 0a15 8ebd
000003c0: 2b9c bbbd 10b5 643d 2fde 47bd de7f a8bd
000003d0: 27d4 1fbd b840 393e 0c55 c93d 2a33 9e3b
000003e0: 7714 debd b5d4 263e 08cd 1fbe a375 2c3e
000003f0: 3faa a03c 0a36 10be 2542 233e dcd4 c53d

model_22/conv2d_44/Conv2D f4 [4, 4, 38, 1]
-0.029330857 0.082514465 -0.023708768 -0.104423724 -0.1527517 -0.05035318 0.029221127 -0.04895003
0.027217623 0.029356454 -0.083025046 -0.10100785 -0.02226183 0.01596999 0.0234617 -0.030486695
-0.06361531 0.034042157 0.056943245 -0.09666898 0.05672453 -0.05928201 -0.04732879 0.031658687
-0.01648532 0.011976927 -0.019715777 -0.047959365 0.018658062 0.06017019 -0.055808954 0.032684065
-0.08674167 -0.041474294 0.02254858 -0.01491339 0.072271034 -0.08020923 0.12646435 0.039090376
0.041047744 -0.04940167 -0.069257386 -0.097672574 -0.070743375 0.0805143 -0.030062204 -0.083437845
0.03745092 -0.059858404 -0.017194796 -0.008536436 0.036397412 0.07172278 -0.047140088 0.023306405
0.042310458 0.042188562 -0.028018745 -0.06501481 -0.034092564 -0.033031005 -0.027052483 0.040962905
-0.037521396 -0.07201162 -0.09251412 -0.005563072 -0.017218072 0.02095484 -0.0059166076 0.06788947
-0.04389142 -0.023299946 0.056246687 -0.062455 -0.0050481665 -0.03554965 0.056311913 -0.14060506
-0.02676081 -0.08920418 -0.018893722 0.022041164 0.0038513385 -0.013226256 -0.024974499 -0.07466442
0.06572106 -0.0598318 0.019445695 0.07872248 -0.09288736 -0.10089232 -0.040844936 0.05509227
0.046769407 0.05676534 0.0053465837 0.042768538 0.082427874 -0.06880824 -0.00023073654 -0.053824045
0.03277289 0.022922294 -0.086743504 0.059119903 0.07275922 0.0024742929 -0.04012665 -0.08448569
0.028814077 0.008178816 -0.015993997 0.046865523 0.006965379 0.023399197 -0.100019306 0.022869745
0.050153922 0.010710467 -0.03278335 0.052273877 0.013328303 -0.058603194 -0.077828564 0.03162053
-0.020375673 0.037387587 -0.07916336 -0.09378631 0.00283426 -0.01294178 0.045264337 0.055256445
0.077357076 -0.05709489 0.07589275 0.03176361 -0.04219588 0.020053688 -0.08853631 -0.0008504945
0.029233258 0.041724086 -0.007474316 0.06554786 -0.07888042 -0.060311746 -0.0026611749 0.0060746055
-0.08245992 -0.095202535 -0.048735358 0.091533564 0.091167666 -0.029277325 -0.04007329 0.05123754
-0.009749192 -0.04994959 -0.03667496 -0.0364864 0.020560255 -0.029508745 -0.018738918 -0.014071881
0.054464307 0.08016628 -0.073727295 -0.074656345 0.019976104 0.018519457 -0.047484286 -0.06763122
-0.025916476 0.03124675 0.03007947 0.06261426 0.08291039 0.08541326 0.08244656 0.062350437
0.08173768 -0.028959777 -0.033550587 0.06988757 0.033806164 -0.07353743 -0.050921857 -0.029683964
-0.060014687 -0.058187176 0.048341345 0.088716544 -0.06601558 0.06420435 -0.03875056 -0.09133434
-0.016629044 0.071171775 -0.08053073 0.039681904 -0.079140805 -0.01735152 0.08774385 -0.03026035
0.033677638 0.02281152 -0.054794382 -0.013891813 -0.045647345 -0.07934006 0.06269318 0.015485028
0.044266704 0.023995508 -0.08689528 -0.007154472 0.019570783 0.002692148 -0.063686416 0.04907222
0.036435343 -0.041613474 -0.020252524 -0.06908743 0.045729674 -0.050409537 -0.069269374 -0.031056594
-0.03457989 0.008723096 -0.011518746 0.08219835 -0.016165268 0.057677753 -0.013056382 0.057274234
-0.038199633 0.01065344 0.055598754 0.05547972 -0.084411025 -0.042497467 0.02544998 -0.0035530485
-0.07417693 -0.011712541 -0.032220524 -0.021044638 -0.039813705 -0.038000915 -0.05393165 0.07460505
00000000: 4447 f0bc 58fd a83d e438 c2bc 1bdc d5bd
00000010: f16a 1cbe 233f 4ebd 2561 ef3c d47f 48bd
00000020: 7ef7 de3c f27c f03c 0909 aabd 34dd cebd
00000030: 715e b6bc 7fd3 823c c032 c03c 3cbf f9bc
00000040: be48 82bd ca6f 0b3d 523d 693d 63fa c5bd
00000050: fb57 683d b1d1 72bd d5db 41bd 8aac 013d
00000060: 390c 87bc df3a 443c fb82 a1bc 0a71 44bd
00000070: cbd8 983c 0475 763d ee97 64bd badf 053d
00000080: 9ea5 b1bd f3e0 29bd cdb7 b83c 4b57 74bc
00000090: d602 943d bd44 a4bd df7f 013e 3b1d 203d
000000a0: ae21 283d 6859 4abd d1d6 8dbd 8f08 c8bd
000000b0: e7e1 90bd aee4 a43d 0345 f6bc 76e1 aabd
000000c0: 2366 193d 162e 75bd 1adc 8cbc 68dc 0bbc
000000d0: 7415 153d 65e3 923d f715 41bd 13ed be3c
000000e0: bb4d 2d3d eacd 2c3d 9187 e5bc 7c26 85bd
000000f0: a5a4 0bbd 854b 07bd 2b9d ddbc b8c8 273d
00000100: 09b0 19bd d47a 93bd 0b78 bdbd 6e4a b6bb
00000110: ea0c 8dbc 7ca9 ab3c 1ae0 c1bb a209 8b3d
00000120: 7dc7 33bd 87df bebc ed62 663d d0d0 7fbd
00000130: 176b a5bb 839c 11bd 52a7 663d c6fa 0fbe
00000140: 7c39 dbbc aeb0 b6bd 02c7 9abc ac8f b43c
00000150: bd66 7c3b f0b2 58bc 5297 ccbc a9e9 98bd
00000160: c398 863d 3112 75bd 944c 9f3c 4039 a13d
00000170: ba3b bebd a2a0 cebd 054d 27bd 6fa8 613d
00000180: 4791 3f3d c682 683d 6532 af3b 102e 2f3d
00000190: f2cf a83d 56eb 8cbd def1 71b9 9a76 5cbd
000001a0: de3c 063d 89c7 bb3c 94a6 b1bd b627 723d
000001b0: c902 953d bf27 223b d85b 24bd d506 adbd
000001c0: 800b ec3c 7100 063c d805 83bc 10f6 3f3d
000001d0: d63d e43b acaf bf3c ecd6 ccbd 5559 bb3c
000001e0: 336e 4d3d f47a 2f3c d647 06bd 221d 563d
000001f0: f45e 5a3c e709 70bd 9564 9fbd 8784 013d
00000200: e2ea a6bc ba23 193d 6620 a2bd 0913 c0bd
00000210: febe 393b c209 54bc 1967 393d 9554 623d
00000220: 636d 9e3d 55dc 69bd a86d 9b3d 8f1a 023d
00000230: 96d5 2cbd a247 a43c 8652 b5bd b8f3 5eba
00000240: 967a ef3c e0e6 2a3d 1beb f4bb f53d 863d
00000250: 0f8c a1bd 7309 77bd 1b67 2ebb 7c0d c73b
00000260: bfe0 a8bd 8cf9 c2bd ba9e 47bd f375 bb3d
00000270: 1db6 ba3d 00d7 efbc e423 24bd 74de 513d
00000280: 13bb 1fbc f197 4cbd 7c38 16bd c372 15bd
00000290: fb6d a83c 53bc f1bc 5c82 99bc bf8d 66bc
000002a0: f715 5f3d 382e a43d 56fe 96bd 6de5 98bd
000002b0: eda4 a33c 1eb6 973c e27e 42bd 3d82 8abd
000002c0: ca4e d4bc 2ff9 ff3c 3869 f63c e83b 803d
000002d0: eccc a93d 26ed ae3d bed9 a83d 2c63 7f3d
000002e0: 1666 a73d 0e3d edbc 576c 09bd 3721 8f3d
000002f0: 5578 0a3d cb9a 96bd 7093 50bd c92b f3bc
00000300: f6d1 75bd ad55 6ebd 9301 463d 05b1 b53d
00000310: 2d33 87bd 927d 833d e8b8 1ebd 800d bbbd
00000320: a239 88bc 82c2 913d 4ced a4bd 7e89 223d
00000330: 9314 a2bd c624 8ebc 0cb3 b33d 8ee4 f7bc
00000340: 90f1 093d 3adf ba3c 1370 60bd 7d9a 63bc
00000350: b6f8 3abd 0b7d a2bd 4865 803d eab4 7d3c
00000360: 0151 353d 3a92 c43c 27f6 b1bd 1070 eabb
00000370: e852 a03c c06e 303b 066e 82bd f4ff 483d
00000380: 3a3d 153d e472 2abd 9fe8 a5bc b67d 8dbd
00000390: 0a4f 3b3d 3b7a 4ebd 1add 8dbd 666a febc
000003a0: a5a3 0dbd 51eb 0e3c 1fb9 3cbc 9c57 a83d
000003b0: 066d 84bc 823f 6c3d 6fea 55bc 6398 6a3d
000003c0: 3877 1cbd c48b 2e3c 85bb 633d b43e 633d
000003d0: b0df acbd d311 2ebd 7a7c d03c 43da 68bb
000003e0: 13ea 97bd f5e5 3fbc abf9 03bd ce65 acbc
000003f0: b213 23bd d9a6 1bbd 6fe7 5cbd 88ca 983d

model_22/dense_44/BiasAdd/ReadVariableOp/resource f4 [10]
-0.0063043623 -0.010645361 0.04245308 -0.0044679437 0.008981052 -0.007576021 -0.0037759766 -0.009330808
-0.007995625 -0.0027076735
00000000: d394 cebb e169 2ebc 48e3 2d3d d467 92bb
00000010: 4325 133c 4540 f8bb 6076 77bb 3fe0 18bc
00000020: 1500 03bc 3973 31bb

model_22/layer_normalization_66/add/ReadVariableOp/resource f4 [4]
0.012722521 0.0073146746 0.0012107299 -0.005320843
00000000: 1f72 503c f0af ef3b 5bb1 9e3a 775a aebb

model_22/layer_normalization_66/mul_4/ReadVariableOp/resource f4 [4]
0.9939366 0.9969385 1.0003617 1.0186439
00000000: a172 7e3f 5d37 7f3f da0b 803f ec62 823f

model_22/layer_normalization_67/add/ReadVariableOp/resource f4 [12]
0.027388746 -0.0011844377 -0.007851234 0.012639562 0.010951942 -0.011684414 0.012681516 0.012304884
-0.0033269625 0.011974972 -0.00897382 0.0058561387
00000000: 5d5e e03c 223f 9bba 76a2 00bc 2a16 4f3c
00000010: c66f 333c fc6f 3fbc 22c6 4f3c 6d9a 493c
00000020: 2b09 5abb ac32 443c ee06 13bc dae4 bf3b

model_22/layer_normalization_67/mul_4/ReadVariableOp/resource f4 [12]
1.034992 1.0066155 0.99049777 0.9737316 0.9892529 1.0105191 1.0109376 0.98908603
0.9947182 0.98328507 1.0098349 0.99341017
00000000: 9e7a 843f c7d8 803f 4391 7d3f 7946 793f
00000010: ae3f 7d3f b158 813f 6766 813f be34 7d3f
00000020: daa5 7e3f 92b8 7b3f 4542 813f 2150 7e3f

model_22/layer_normalization_68/mul_2/ReadVariableOp/resource f4 [10]
0.97473294 0.9910289 0.9900535 0.960093 0.97483987 0.98777366 0.9840416 0.9918775
0.98790765 0.98811513
00000000: 1988 793f 12b4 7d3f 2574 7d3f a8c8 753f
00000010: 1b8f 793f bcde 7c3f 26ea 7b3f afeb 7d3f
00000020: 84e7 7c3f 1df5 7c3f

model_22/dense_44/MatMul f4 [10, 228]
-0.068593934 0.13335454 0.14778158 -0.11325987 0.1012 -0.062321294 -0.034204096 0.09509895
-0.080685124 -0.02433387 -0.13732947 0.03028324 0.044591755 -0.06682243 -0.12783572 -0.13091423
-0.10204766 0.07302526 0.09003549 0.12811807 0.13856201 0.009544663 0.052720085 -0.17000921
0.07146593 0.11493348 0.052808203 -0.03998089 0.0018772635 0.01334215 0.028019436 -0.14205256
0.033301394 -0.08968641 0.123166695 -0.09623081 0.03906898 -0.0771413 0.13442613 -0.007374738
-0.057847284 0.13262264 0.06856892 -0.071490474 -0.094971836 -0.05881621 -0.09020191 0.092427686
-0.032847192 -0.14559436 -0.08849875 0.10941587 0.04541256 -0.024512375 0.14459316 0.0029605401
0.14682633 0.103212774 0.043381184 0.0049723955 0.09269333 -0.109477125 -0.058619402 -0.0018707772
0.035854314 0.10120407 -0.03189251 -0.13123618 -0.037756708 0.118815914 -0.13189788 0.07900793
-0.1032269 0.005875356 0.1621076 0.10155617 -0.01741922 -0.09413138 -0.042029217 0.086285226
0.11021723 -0.10108838 0.096155174 -0.027950525 -0.022735458 -0.12481903 -0.12945037 0.015888462
0.08564865 -0.04707677 0.026569016 -0.1219349 -0.09318917 0.08303106 -0.06220858 0.018852158
-0.024061335 -0.1074596 0.114313215 0.12999803 0.10378662 0.006153901 0.14211543 -0.057802178
0.041104387 0.09818962 0.0019494892 0.119736075 0.0140348105 -0.03754817 0.083550625 -0.14852357
0.057703026 0.15908818 0.0895862 -0.10644655 -0.0057781492 -0.14285658 0.0213939 -0.17765231
0.07602623 0.07827763 0.06768366 -0.045005217 -0.13565193 -0.10640694 -0.1503736 -0.14654393
0.006213217 0.11278858 -0.008986889 0.053706907 -0.021019677 0.07824124 0.15030524 0.02990729
0.04438837 0.14713563 -0.11552367 -0.04782216 -0.11420824 -0.122059435 0.11646514 -0.14342086
0.105072744 0.015479421 -0.14823686 -0.05068739 0.1133562 -0.027541684 -0.037335217 -0.12723552
0.046278268 0.0079473285 -0.008505028 0.025829632 0.039292645 0.060721006 -0.01393871 -0.036284085
0.08274642 -0.10998161 -0.09335039 0.031512756 0.05261836 0.07369208 0.122212246 -0.0014998297
-0.06673466 -0.06326185 0.14301057 -0.12860654 0.138415 -0.05531968 -0.11436328 0.028783632
-0.031305045 0.07762792 0.0704727 0.04210561 0.14151193 -0.058142845 -0.073589 0.04455172
-0.062383246 0.009559152 -0.026727635 -0.006946859 0.14886634 -0.025739131 -0.047561597 0.047420196
-0.0635217 -0.11658668 0.09528124 0.0776969 -0.06727349 0.015228037 -0.058339864 0.007409455
0.08658221 -0.07217286 0.12612163 -0.027366633 -0.017323457 -0.122840784 0.09964675 0.020555127
-0.102813214 0.042463753 -0.08029213 0.009110858 0.0343152 0.042589057 0.024345767 0.027377453
-0.14080393 0.024269527 -0.10264666 0.078269176 0.080356054 0.0648418 -0.0103188325 0.041848175
-0.12396656 -0.10951613 -0.09764124 0.13427302 0.007097293 0.052449036 -0.016929664 0.14379866
-0.0635244 0.10238808 -0.09024386 0.125522 -0.085660234 0.055038147 0.15699656 -0.09113153
0.039362393 -0.007719516 0.14507915 0.05393659 -0.11532218 0.07101315 0.13857327 0.1433672
0.027222406 -0.06599916 -0.041317236 -0.07195851 0.0030903267 0.048158094 -0.06627427 0.10906318
00000000: fa7a 8cbd 188e 083e 0e54 173e caf4 e7bd
00000010: f241 cf3d 9d44 7fbd 9819 0cbd 3dc3 c23d
00000020: 3e3e a5bd d357 c7bc 19a0 0cbe 8f14 f83c
00000030: d8a5 363d 33da 88bd 5ee7 02be 610e 06be
00000040: 5dfe d0bd 448e 953d 8764 b83d 6231 033e
00000050: 33e3 0d3e 3861 1c3c 04f1 573d e516 2ebe
00000060: bb5c 923d 3f62 eb3d 6a4d 583d 00c3 23bd
00000070: 830e f63a 0899 5a3c 0489 e53c 3a76 11be
00000080: 0b67 083d 82ad b7bd d23e fc3d a914 c5bd
00000090: cb06 203d 42fc 9dbd 01a7 093e c9a7 f1bb
000000a0: 46f1 6cbd 3bce 073e dd6d 8c3d 9969 92bd
000000b0: 9880 c2bd 44e9 70bd c7bb b8bd ba4a bd3d
000000c0: c78a 06bd b016 15be d53e b5bd 6d15 e03d
000000d0: 8502 3a3d 2dce c8bc 3b10 143e 9f05 423b
000000e0: a459 163e 3861 d33d 78b0 313d 7aef a23b
000000f0: 00d6 bd3d 8b35 e0bd e61a 70bd de34 f5ba
00000100: f9db 123d 1444 cf3d b8a1 02bd c762 06be
00000110: c7a6 1abd c255 f33d 3d10 07be e9ce a13d
00000120: a068 d3bd 0f86 c03b 89ff 253e aefc cf3d
00000130: c1b2 8ebc f4c7 c0bd d426 2cbd 4fb6 b03d
00000140: 92b9 e13d 6d07 cfbd 01ed c43d 80f8 e4bc
00000150: b63f babc 1fa1 ffbd a38e 04be 8528 823c
00000160: 8f68 af3d 92d3 40bd 44a7 d93c 01b9 f9bd
00000170: f7d9 bebd 300c aa3d 6dce 7ebd d76f 9a3c
00000180: 471c c5bc c713 dcbd 0c1d ea3d 341e 053e
00000190: 148e d43d aaa6 c93b b586 113e fac1 6cbd
000001a0: 135d 283d a417 c93d 0186 ff3a 3038 f53d
000001b0: 43f2 653c 1ccc 19bd 971c ab3d 9016 18be
000001c0: 025a 6c3d 03e8 223e f878 b73d a600 dabd
000001d0: a156 bdbb ff48 12be 4342 af3c 7dea 35be
000001e0: a4b3 9b3d 0650 a03d bb9d 8a3d 6457 38bd
000001f0: 57e8 0abe e2eb d9bd 89fb 19be 9d0f 16be
00000200: 3e98 cb3b b3fd e63d bf3d 13bc c6fb 5b3d
00000210: 7531 acbc f13c a03d 9ee9 193e 2200 f53c
00000220: 94d0 353d b9aa 163e ad97 ecbd 2be1 43bd
00000230: 02e6 e9bd 4cfa f9bd 4685 ee3d ebdc 12be
00000240: 6130 d73d 669d 7d3c 67cb 17be 959d 4fbd
00000250: 4c27 e83d 199f e1bc d0ec 18bd 074a 02be
00000260: 488e 3d3d 8335 023c ac58 0bbc aa98 d33c
00000270: 53f1 203d 97b6 783d 305f 64bc 9f9e 14bd
00000280: f476 a93d 0a3e e1bd 7d2e bfbd 8513 013d
00000290: 5986 573d e0eb 963d 6a4a fa3d ef95 c4ba
000002a0: 2eac 88bd 6e8f 81bd 5d71 123e 6fb1 03be
000002b0: a9bc 0d3e e496 62bd 4c37 eabd a7cb eb3c
000002c0: b839 00bd 63fb 9e3d fe53 903d ef76 2c3d
000002d0: 81e8 103e 3127 6ebd d4b5 96bd dd7b 363d
000002e0: 9385 7fbd fd9d 1c3c eaf3 dabc 7aa2 e3bb
000002f0: 6b70 183e dfda d2bc f3cf 42bd ae3b 423d
00000300: aa17 82bd ffc4 eebd d022 c33d 8d1f 9f3d
00000310: afc6 89bd 047f 793c c8f5 6ebd 03cb f23b
00000320: 0452 b13d 5dcf 93bd 0726 013e fd2f e0bc
00000330: ece9 8dbc f393 fbbd 9813 cc3d 3a63 a83c
00000340: bc8f d2bd 79ee 2d3d 3370 a4bd b545 153c
00000350: 188e 0c3d dd71 2e3d c670 c73c ae46 e03c
00000360: e82e 10be e3d0 c63c 6938 d2bd 974b a03d
00000370: b791 a43d c7cb 843d 5210 29bc fe68 2b3d
00000380: 2ee2 fdbd fe49 e0bd 21f8 c7bd de7e 093e
00000390: 6990 e83b cdd4 563d 14b0 8abc f53f 133e
000003a0: 1519 82bd d7b0 d13d c6d1 b8bd d788 003e
000003b0: a26e afbd ae6f 613d b5c3 203e 2ba3 babd
000003c0: 763a 213d fef3 fcbb a18f 143e 9dec 5c3d
000003d0: 092e ecbd 586f 913d 27e6 0d3e dace 123e
000003e0: 8601 df3c 912a 87bd 433c 29bd fc5e 93bd
000003f0: 1487 4a3b 6c41 453d ceba 87bd 845c df3d

model_22/dense_45/MatMul f4 [1, 10]
-0.5958364 -0.20518187 -0.18023549 0.13547574 -0.016224548 -0.48271266 0.4973165 0.15829372
0.15899368 -0.6926015
00000000: bc88 18bf 321b 52be a78f 38be 27ba 0a3e
00000010: 58e9 84bc 1d26 f7be 45a0 fe3e c017 223e
00000020: 3dcf 223e 554e 31bf
