models/4.tflite (tflite, 28628 bytes, 12 tensors)

model_4/conv2d_9/BiasAdd;model_4/conv2d_9/Conv2D;model_4/conv2d_9/BiasAdd/ReadVariableOp/resource f4 [12]
-0.014838378 -0.006345759 -0.00610345 0.0065044137 0.0042734225 0.006863474 0.0032566788 0.016101133
-0.007879465 -0.009200561 -0.0049042664 0.013984855
00000000: ab1c 73bc 16f0 cfbb 73ff c7bb fa22 d53b
00000010: 1108 8c3b fee6 e03b 016e 553b 86e6 833c
00000020: df18 01bc f3bd 16bc f8b3 a0bb bc20 653c

model_4/conv2d_8/BiasAdd;model_4/conv2d_8/Conv2D;model_4/conv2d_8/BiasAdd/ReadVariableOp/resource f4 [4]
-0.0070004384 -0.0052793557 0.012671811 -0.0069358414
00000000: ef63 e5bb 72fe acbb 6d9d 4f3c 0e46 e3bb

model_4/conv2d_9/Conv2D f4 [12, 1, 11, 4]
0.19079435 0.038127217 0.06384914 0.08298931 -0.047597434 0.16419317 0.104700156 -0.16151772
-0.07668176 0.17328662 0.08610745 0.037648473 -0.090847544 0.07880067 0.087016255 0.11405112
0.100743584 -0.029208712 -0.06398883 0.052957952 -0.17001384 0.0739294 -0.059221137 -0.09880278
0.1748003 -0.040249575 -0.050511707 0.0590355 0.034668453 0.06405466 0.055104285 -0.079777576
-0.110219896 0.024724362 -0.0074321236 -0.16253787 0.15623744 -0.02509121 -0.08207835 0.04973776
-0.09968331 0.18621112 -0.19779047 -0.043307185 -0.1649326 -0.02803445 0.04701691 0.027481582
-0.102814436 -0.043888718 -0.19737004 -0.013829919 -0.13299419 -0.09075378 -0.16707942 -0.030966328
0.027923945 -0.166072 -0.03928799 -0.15119955 0.0039715995 0.15280642 -0.06219944 -0.025573969
0.08648571 -0.04987207 0.16412729 0.18911336 0.0074703502 0.08305505 -0.19496846 -0.11843598
0.13506615 0.10718216 0.13978507 0.17744462 0.056442965 0.03950439 0.05127172 -0.08162464
0.059990447 0.115545325 -0.06114601 -0.13158523 0.15452555 0.1551487 0.04326873 0.15489121
0.16083981 0.17984124 -0.053139094 -0.12445638 -0.00069938984 -0.13625668 -0.16683833 -0.08083356
0.060593396 0.012608115 -0.090667024 0.13788395 0.04905875 0.025518723 0.14674409 0.08944286
-0.09225585 0.08361135 0.0687859 -0.002470732 0.17840514 0.15969178 0.16744249 -0.11620938
0.072268166 -0.016307257 -0.059381 -0.17831872 -0.092765875 -0.1535983 -0.096495956 0.0670874
0.03508774 0.11051814 -0.18228215 -0.13597588 0.112444445 -0.08648633 0.011194157 -0.049013257
0.14610589 0.16338408 0.11418121 -0.08474817 -0.099538095 -0.18057716 -0.07202162 0.13830326
0.08166053 -0.15563683 0.0033358382 -0.032772955 -0.1146979 -0.122717515 -0.06579446 -0.083901696
-0.12970206 -0.028878821 0.094101116 0.050273612 0.057822343 0.12719768 -0.14726914 -0.17422254
0.15433852 -0.08875141 -0.10920574 0.15869538 -0.16910946 -0.1559343 -0.12556143 -0.10656522
0.026844313 -0.10366681 0.11081135 -0.033426326 0.17789415 -0.18691342 -0.08094766 0.10370791
-0.017828392 0.033790596 -0.12472926 -0.08982325 -0.1725779 -0.14132522 0.047087263 0.17729682
-0.14242682 0.12545198 0.025321368 -0.14680484 0.124098904 -0.0027620725 -0.16352116 -0.0645771
-0.1228691 -0.05857645 0.18131046 0.10922149 0.03763367 -0.0034272368 -0.03381297 -0.06409987
0.08590448 0.10179816 0.048772227 0.09234746 -0.18256386 0.00081884844 0.014014518 -0.12834227
0.16574013 -0.18589203 0.059894655 -0.16004777 0.13295814 -0.059234798 0.023578946 0.0010719191
-0.15363063 -0.113102704 -0.05936918 0.11510878 -0.05318251 -0.036124926 -0.027054705 -0.15461308
0.031486664 -0.04671046 0.09083356 -0.10236764 -0.15705167 -0.13429554 0.16894831 0.036089685
0.0037018012 -0.028478611 0.15949388 0.14022875 0.06993714 -0.15717211 -0.114560984 -0.07552254
-0.15453029 0.09370223 0.09957539 0.13125795 -0.031874433 -0.14526808 -0.09401584 0.1568222
-0.03359709 -0.11879178 -0.1584053 -0.057822518 0.1683245 0.091454774 0.06017191 0.13339436
0.101700634 -0.13103054 -0.07218142 0.059814446 -0.16042289 0.16401038 0.06520426 -0.09569381
00000000: 985f 433e 492b 1c3d 57c3 823d 4df6 a93d
00000010: 87f5 42bd 4122 283e 096d d63d e764 25be
00000020: 540b 9dbd 0c72 313e 1a59 b03d 4935 1a3d
00000030: 470e babd 3f62 a13d 9435 b23d a293 e93d
00000040: a752 ce3d 1c47 efbc 930c 83bd 70ea 583d
00000050: 1c18 2ebe 4c68 973d dd91 72bd 1d59 cabd
00000060: dafe 323e bddc 24bd 5de5 4ebd 35cf 713d
00000070: 8200 0e3d 172f 833d 08b5 613d 6d62 a3bd
00000080: f8ba e1bd bf8a ca3c 2c89 f3bb 5470 26be
00000090: b5fc 1f3e 158c cdbc b218 a8bd d2b9 4b3d
000000a0: c326 ccbd 21ae 3e3e 9689 4abe e062 31bd
000000b0: 17e4 28be 81a8 e5bc ce94 403d 0e21 e13c
000000c0: 6090 d2bd a8c4 33bd 5f1b 4abe e296 62bc
000000d0: a12f 08be 1edd b9bd de16 2bbe 19ad fdbc
000000e0: c2c0 e43c c70e 2abe 72ec 20bd 0ed4 1abe
000000f0: 3124 823b 4979 1c3e d7c4 7ebd 8080 d1bc
00000100: 6c1f b13d a846 4cbd fc10 283e efa6 413e
00000110: d7c9 f43b c418 aa3d d0a5 47be 908e f2bd
00000120: c84e 0a3e 5282 db3d d123 0f3e 0bb4 353e
00000130: bd30 673d 5bcf 213d 4c02 523d d22a a7bd
00000140: 8bb8 753d 07a3 ec3d 3d74 7abd 47be 06be
00000150: f23b 1e3e 4ddf 1e3e 8d3a 313d cd9b 1e3e
00000160: 31b3 243e 4d28 383e 61a8 59bd fde2 febd
00000170: 4257 37ba df86 0bbe abd7 2abe 118c a5bd
00000180: c830 783d 4492 4e3c a2af b9bd 7331 0d3e
00000190: d4f1 483d a40c d13c 1544 163e d12d b73d
000001a0: a3f0 bcbd 6d3c ab3d 9fdf 8c3d 01ec 21bb
000001b0: d6af 363e 3e86 233e 0b76 2b3e 2fff edbd
000001c0: 5501 943d cc96 85bc 7e39 73bd 2f99 36be
000001d0: 09fc bdbd df48 1dbe ac9f c5bd 1e65 893d
000001e0: 29b8 0f3d 5657 e23d 2ca8 3abe 433d 0bbe
000001f0: 4649 e63d bf1f b1bd b367 373c 20c2 48bd
00000200: c89c 153e 284e 273e d7d7 e93d 7390 adbd
00000210: a1da cbbd 38e9 38be 1280 93bd 5f9f 0d3e
00000220: a33d a73d 435f 1fbe 149e 5a3b ef3c 06bd
00000230: bce6 eabd 5253 fbbd 3fbf 86bd a7d4 abbd
00000240: 9ed0 04be 4793 ecbc 16b8 c03d b4eb 4d3d
00000250: 1fd7 6c3d 1c40 023e b9cd 16be 6567 32be
00000260: eb0a 1e3e 4dc3 b5bd 42a7 dfbd 0b81 223e
00000270: 082b 2dbe 3ead 1fbe 2d93 00be de3e dabd
00000280: 9be8 db3c 444f d4bd 10f1 e23d 0bea 08bd
00000290: e229 363e 3b66 3fbe e3c7 a5bd d064 d43d
000002a0: d90c 92bc 0268 0a3d 0e72 ffbd 41f5 b7bd
000002b0: 43b8 30be 8fb7 10be 93de 403d 4c8d 353e
000002c0: 56d8 11be 7c76 003e c26e cf3c 0254 16be
000002d0: 9127 fe3d e303 35bb 1772 27be 0041 84bd
000002e0: cba2 fbbd dced 6fbd 73a9 393e 84af df3d
000002f0: c325 1a3d 7e9b 60bb 787f 0abd cb46 83bd
00000300: b0ee af3d 8e7b d03d 63c5 473d aa20 bd3d
00000310: 05f2 3abe fda7 563a 269d 653c 286c 03be
00000320: c8b7 293e 7b5a 3ebe 1954 753d 90e3 23be
00000330: 2e26 083e 30a0 72bd a228 c13c a37f 8c3a
00000340: 5951 1dbe 64a2 e7bd 192d 73bd 27be eb3d
00000350: e7d5 59bd bbf7 13bd d4a1 ddbc e452 1ebe
00000360: 29f8 003d 7853 3fbd f206 ba3d 20a6 d1bd
00000370: 27d2 20be c584 09be c900 2d3e c7d2 133d
00000380: eb99 723b fa4b e9bc 5d52 233e 2098 0f3e
00000390: 343b 8f3d baf1 20be f39e eabd 90ab 9abd
000003a0: 303d 1ebe f4e6 bf3d 2fee cb3d 7c68 063e
000003b0: c48e 02bd 28c1 14be 608b c0bd 0096 203e
000003c0: 1a9d 09bd 1b49 f3bd 0035 22be 4ed7 6cbd
000003d0: 425d 2c3e a44c bb3d d276 763d 8898 083e
000003e0: 6c48 d03d df2c 06be dad3 93bd feff 743d
000003f0: e645 24be 56f2 273e d089 853d 1efb c3bd

model_4/conv2d_8/Conv2D f4 [4, 4, 38, 1]
0.044541184 -0.06618129 -0.039038304 0.03915961 0.07417633 0.0057772296 0.049849696 -0.057431974
0.059978258 -0.004449772 0.044870626 -0.07573575 -0.037567787 0.034556787 -0.022714242 0.07684042
0.080841534 0.072590865 -0.017680196 -0.009109455 -0.08298542 0.06445195 -0.04977058 -0.006832305
-0.07813372 0.07540152 -0.014577741 0.06085423 -0.032228474 -0.032882027 0.027977213 -0.0145588275
-0.07211949 0.0006944493 0.035285734 -0.027268507 0.008744624 0.028546954 -0.090754956 -0.07702579
-0.0065501514 0.037392236 -0.023385119 -0.019097276 0.05635761 -0.08746454 0.07177786 0.019378927
-0.054319695 -0.08278011 0.054293893 -0.034735966 0.04527731 0.06876655 -0.09239508 -0.06611473
-0.051802486 -0.055924773 -0.00041942575 -0.09454046 -0.009512851 -0.08811824 -0.02104288 0.07186628
-0.00013351036 0.017044032 -0.010652439 -0.01768712 0.05983977 -0.06913832 0.03991918 0.025440285
0.055452794 -0.01263402 0.025327746 -0.0012167125 -0.053828735 0.055044584 0.05848457 0.062340897
-0.039677236 0.028668622 0.07766201 -0.030290827 0.015938153 -0.057852004 -0.05182398 0.03236917
-0.059232056 -0.017317632 0.008415987 -0.020325596 -0.045083478 0.067633785 0.058208324 -0.08011572
0.01863641 -0.024548499 -0.00855564 -0.079734586 -0.07955533 -0.06051434 0.01501974 0.03296687
-0.030837629 -0.04723081 -0.09077453 -0.044624563 -0.08801752 -0.03840449 0.037129685 0.06460546
-0.014205644 -0.049395967 -0.040305503 -0.03566891 0.06378233 -0.08603941 -0.004679464 0.07651672
0.047430053 -0.061720528 0.04255746 -0.0803334 -0.013505921 -0.06213063 -0.0029705416 -0.008950584
0.012044681 -0.010996839 0.012693013 -0.048391357 0.050048426 -0.002658576 0.043472663 -0.06898784
-0.08796292 0.014038667 0.07833199 0.016874801 -0.06350032 0.06461583 -0.003532944 -0.052289497
0.07588606 -0.068265714 0.031821687 0.06283378 -0.038017154 -0.073930606 0.00750535 -0.030151652
-0.091372095 -0.051840387 0.028096698 -0.10103985 -0.077030465 -0.050169364 -0.051667552 -0.07850755
-0.10316726 -0.04670326 0.039014693 -0.06338531 -0.06827887 -0.008340964 -0.016501019 -0.08396344
0.01906447 0.034599062 -0.05058249 0.02872576 0.04790579 0.014516982 -0.024099074 -0.051569737
-0.014675645 -0.05995042 0.053267296 -0.0883636 0.07121144 -0.024677437 -0.08738105 0.06938258
-0.09458191 -0.026165606 -0.103911914 -0.09980231 -0.08509169 0.0018744816 -0.07195685 0.01660571
-0.03735098 0.0070336265 0.032544807 -0.05676862 -0.087058395 0.011649839 -0.082456544 -0.069606
-0.029098375 -0.017927246 -0.020237448 -0.04063329 0.01627242 0.013337616 0.067401275 0.037418786
-0.05325058 0.010577696 0.027109046 0.05925778 0.055821728 -0.012097507 0.0011865702 -0.100415625
-0.088646546 -0.10024834 0.023006028 -0.08873388 0.058919307 0.03186587 0.05332774 -0.10734499
-0.01553432 -0.018630385 -0.06813879 0.011585252 -0.040010165 0.02270541 -0.09539157 0.0038991177
0.035669178 -0.086457625 0.010878297 0.059944343 0.036211148 -0.02620869 -0.049356755 0.051515784
-0.053746965 -0.03944382 -0.0050048744 -0.0101662595 -0.057896063 0.018066628 -0.048067525 -0.040042587
0.048429377 -0.06416043 -0.015952045 0.009282366 -0.073507935 -0.024456058 -0.08757545 0.020453189
00000000: d170 363d 0e8a 87bd a1e6 1fbd d465 203d
00000010: c2e9 973d ea4e bd3b 322f 4c3d ca3d 6bbd
00000020: c3ab 753d 65cf 91bb 43ca 373d 581b 9bbd
00000030: aee0 19bd 6b8b 0d3d 3813 babc 835e 9d3d
00000040: 3f90 a53d 85aa 943d 0fd6 90bc d33f 15bc
00000050: 43f4 a9bd 62ff 833d 3cdc 4bbd 87e1 dfbb
00000060: 9204 a0bd 1d6c 9a3d 7ad7 6ebc 4942 793d
00000070: 0102 04bd 4eaf 06bd 7830 e53c 2688 6ebc
00000080: 62b3 93bd b40b 363a c687 103d 3462 dfbc
00000090: 9d45 0f3c 4ddb e93c bcdd b9bd b3bf 9dbd
000000a0: a7a2 d6bb 9a28 193d 2692 bfbc e471 9cbc
000000b0: 3dd7 663d 9c20 b3bd 4500 933d 8ec0 9e3c
000000c0: 547e 5ebd 9e88 a9bd 4663 5e3d 4d47 0ebd
000000d0: b374 393d 7ad5 8c3d a239 bdbd 2967 87bd
000000e0: d82e 54bd 6011 65bd 5fe6 dbb9 6e9e c1bd
000000f0: cadb 1bbc 5677 b4bd 1e62 acbc a12e 933d
00000100: eafe 0bb9 ed9f 8b3c 9187 2ebc 94e4 90bc
00000110: 8c1a 753d 6498 8dbd 4b82 233d 2568 d03c
00000120: 7822 633d ecfe 4ebc 227c cf3c 197a 9fba
00000130: 857b 5cbd 6e76 613d 848d 6f3d 2b59 7f3d
00000140: 9984 22bd 75da ea3c 430d 9f3d 7824 f8bc
00000150: bb90 823c 39f6 6cbd 6245 54bd 8995 043d
00000160: 509d 72bd b5dd 8dbc 35e3 093c dd81 a6bc
00000170: 74a9 38bd 9583 8a3d da6b 6e3d b613 a4bd
00000180: 62ab 983c ef19 c9bc f42c 0cbc e34b a3bd
00000190: e8ed a2bd e2dd 77bd 5b15 763c 4508 073d
000001a0: 329f fcbc 1875 41bd ffe7 b9bd 3fc8 36bd
000001b0: 8842 b4bd 074e 1dbd 4c15 183d de4f 843d
000001c0: cabe 68bc 6d53 4abd 6217 25bd 9019 12bd
000001d0: 4fa0 823d 6e35 b0bd 3056 99bb ccb4 9c3d
000001e0: 0446 423d aace 7cbd bb50 2e3d d685 a4bd
000001f0: f047 5dbc b07c 7ebd 6bad 42bb 78a5 12bc
00000200: 0e57 453c 162c 34bc 5bf6 4f3c 0436 46bd
00000210: 94ff 4c3d 813b 2ebb 6410 323d 7f49 8dbd
00000220: e725 b4bd 7002 663c 866c a03d 063d 8a3c
00000230: 750c 82bd 4e55 843d f788 67bb 832d 56bd
00000240: 276a 9b3d e5ce 8bbd 7557 023d ffae 803d
00000250: e0b7 1bbd ee68 97bd 70ef f53b 9900 f7bc
00000260: 4b21 bbbd 9656 54bd 0c2b e63c fbed cebd
00000270: 26c2 9dbd 647e 4dbd 5ba1 53bd 91c8 a0bd
00000280: 5b49 d3bd eb4b 3fbd dfcd 1f3d 28d0 81bd
00000290: cbd5 8bbd 8aa8 08bc 252d 87bc 06f5 abbd
000002a0: 172d 9c3c bfb7 0d3d 962f 4fbd 4952 eb3c
000002b0: dd38 443d a3d8 6d3c 6c6b c5bc ca3a 53bd
000002c0: 1e72 70bc 928e 75bd cf2e 5a3d faf7 b4bd
000002d0: 4ed7 913d 5628 cabc d6f4 b2bd 7418 8e3d
000002e0: 29b4 c1bd 4159 d6bc c5cf d4bd 2765 ccbd
000002f0: 8d44 aebd 2ab1 f53a 1d5e 93bd b308 883c
00000300: 57fd 18bd 567a e63b b44d 053d 3686 68bd
00000310: ac4b b2bd f7de 3e3c fade a8bd 978d 8ebd
00000320: b75f eebc 29dc 92bc 01c9 a5bc 186f 26bd
00000330: bd4d 853c 0486 5a3c ae09 8a3d 7144 193d
00000340: 481d 5abd 134e 2d3c ca13 de3c 49b8 723d
00000350: 53a5 643d 9f34 46bc b086 9b3a b5a6 cdbd
00000360: 528c b5bd 004f cdbd 2377 bc3c 1cba b5bd
00000370: 5f55 713d c985 023d 306e 5a3d b1d7 dbbd
00000380: a983 7ebc c09e 98bc 5a8c 8bbd 12d0 3d3c
00000390: b3e1 23bd b200 ba3c a85c c3bd 5788 7f3b
000003a0: d819 123d b210 b1bd e23a 323c 3388 753d
000003b0: 2452 143d 9bb3 d6bc 4f2a 4abd 3702 533d
000003c0: c725 5cbd d88f 21bd eeff a3bb 6290 26bc
000003d0: 6c24 6dbd 7700 943c 74e2 44bd b203 24bd
000003e0: e25d 463d 8b66 83bd ddad 82bc 1115 183c
000003f0: 548b 96bd 1258 c8bc c25a b3bd 728d a73c

model_4/dense_8/BiasAdd/ReadVariableOp/resource f4 [10]
-0.0045105913 0.0024569817 -0.01421158 -0.0042332876 -0.010187296 -9.840753e-05 -0.009714754 -0.012681546
0.056500457 0.012619572
00000000: 95cd 93bb 5005 213b b0d7 68bc 64b7 8abb
00000010: 9ee8 26bc 2460 ceb8 a22a 1fbc 42c6 4fbc
00000020: 066d 673d 52c2 4e3c

model_4/layer_normalization_12/add/ReadVariableOp/resource f4 [4]
-0.0025346247 -0.024380036 0.006958083 -0.0016936201
00000000: f21b 26bb a4b8 c7bc a100 e43b 76fc ddba

model_4/layer_normalization_12/mul_4/ReadVariableOp/resource f4 [4]
0.9930702 1.0204933 0.9992443 0.986853
00000000: d939 7e3f 869f 823f 79ce 7f3f 66a2 7c3f

model_4/layer_normalization_13/add/ReadVariableOp/resource f4 [12]
-0.011449314 0.0003946061 -0.00555406 0.007878526 0.008867117 0.008005018 0.004970781 0.015043452
-0.0036022784 -0.0032225228 -0.002649197 0.013838306
00000000: e795 3bbc 22e3 ce39 d5fe b5bb ef14 013c
00000010: 6247 113c 7b27 033c efe1 a23b d078 763c
00000020: 3414 6cbb f630 53bb 269e 2dbb 10ba 623c

model_4/layer_normalization_13/mul_4/ReadVariableOp/resource f4 [12]
1.0115112 1.001104 1.0050541 1.0049461 0.9885466 1.0032488 0.99481344 1.0167344
0.98877174 0.9734194 0.99731284 0.9897531
00000000: 3379 813f 2d24 803f 9da5 803f 13a2 803f
00000010: 6411 7d3f 756a 803f 18ac 7e3f 5a24 823f
00000020: 2520 7d3f 0432 793f e54f 7f3f 7660 7d3f

model_4/layer_normalization_14/mul_2/ReadVariableOp/resource f4 [10]
1.0167935 0.9765305 1.0145447 0.96373004 1.0075307 0.9796761 0.9960245 1.0042808
0.98035395 0.96235883
00000000: 4a26 823f e7fd 793f 9adc 813f 03b7 763f
00000010: c4f6 803f 0ecc 7a3f 76fb 7e3f 468c 803f
00000020: 7af8 7a3f 265d 763f

model_4/dense_8/MatMul f4 [10, 228]
0.09393207 -0.14394581 0.11059377 0.10989477 0.05146242 -0.08721949 0.042553563 -0.020603811
-0.11140589 0.12866272 -0.11032206 0.10195183 0.014177363 -0.01656249 -0.122616135 -0.11070657
-0.112812035 -0.056663953 0.049797695 0.060855795 -0.107334904 -0.038107328 -0.054710317 0.1299408
-0.11659058 0.13044707 -0.09321643 -0.11068915 0.09594444 0.07542723 -0.025229262 -0.1284477
-0.114288054 0.09845754 -0.114036895 0.02853318 0.124646716 -0.106555015 0.15263672 -0.054940525
-0.08698262 -0.030805416 -0.10955676 0.0065546674 0.034822047 0.12986985 -0.05233728 -0.07101652
0.06838041 0.03716829 -0.02151847 0.10235393 -0.1049733 -0.09653677 0.13355222 0.050616786
-0.031782564 -0.10214928 0.020224452 0.0815193 0.1204742 0.1344007 0.089948624 0.048448265
0.12606415 0.0290974 0.03862812 0.14149044 -0.11154817 -0.12000387 -0.116393305 0.046319976
0.14044869 0.1530869 0.11020613 -0.1347617 0.048832227 0.15059286 -0.13932805 -0.026512166
0.13556464 0.04415452 -0.08788278 -0.1217732 -0.050678775 -0.110613964 0.03815368 0.02738479
0.060347073 0.026435658 0.0040487694 -0.13552964 0.16129036 -0.12024538 0.12582818 -0.1447357
0.016956137 -0.0650977 -0.03500145 0.03515871 -0.09577912 -0.05023976 0.1233783 0.055743758
0.06975478 0.14478342 0.13373846 0.07761238 -0.11096862 -0.113044985 0.036376312 -0.0037338852
-0.14990671 0.08917426 -0.028445825 0.021053739 0.15979663 -0.090667404 -0.14015277 -0.0837243
-0.029743461 -0.05478376 -0.024343612 0.08521492 0.10673084 -0.030505216 0.10549534 -0.15326253
-0.10890005 0.121123016 0.09081057 -0.03709485 -0.025370877 0.1417146 0.02206339 -0.07809353
-0.06132269 0.15094963 0.120139256 0.02597379 -0.12435279 0.15450673 -0.05083217 -0.13959932
0.115248516 0.051034026 -0.11421108 0.036171474 0.05546454 0.06029202 0.15685308 -0.0059763645
0.14070015 -0.017482284 -0.08750167 0.13472585 -0.14388312 0.023180641 0.14826065 0.07068178
-0.121959366 0.059925865 -0.11496183 0.11625657 0.16265509 0.0008076417 0.10575701 0.020200178
-0.11109763 0.09468056 0.013138082 0.039652474 -0.0025415435 0.03651232 0.12022034 -0.068650045
0.051323704 0.044116355 0.1382794 0.014879587 -0.068914786 -0.13529836 0.06580034 0.06278842
0.14225574 -0.026292838 0.042003445 -0.113751486 -0.033155974 -0.007365571 0.066702016 -0.13404638
0.073531754 0.1341778 -0.11685111 0.08084761 0.14628084 -0.055431433 -0.067099534 0.14193387
-0.031929273 0.027382893 0.110383905 -0.10548449 0.034456447 -0.0097700795 0.06441141 -0.080814175
-0.14818934 -0.1444689 -0.09728902 0.080455035 -0.03962796 0.12409868 0.14220476 0.10672255
0.10936657 -0.10537611 0.092805736 -0.059872888 0.13547878 -0.12030066 0.051787183 0.05436295
-0.07728525 -0.02472306 -0.105921805 0.11693647 -0.09827535 -0.101153225 0.033803325 0.08086213
0.057187233 0.03232939 -0.044385303 -0.08042591 0.13235964 0.026402278 0.12380474 0.13597476
-0.13296044 -0.05075546 0.04157368 -0.073650226 -0.120523445 -0.1119425 -0.033350848 -0.13860188
-0.11904923 -0.033564676 -0.07608441 0.0929301 0.07414574 -0.0030606121 0.114464395 -0.07717679
00000000: 755f c03d 8866 13be fd7e e23d 8210 e13d
00000010: 42ca 523d 22a0 b2bd a54c 2e3d 53c9 a8bc
00000020: c528 e4bd 29c0 033e 88f0 e1bd 1fcc d03d
00000030: 2c48 683c 0fae 87bc 2b1e fbbd 20ba e2bd
00000040: ff09 e7bd 7618 68bd abf8 4b3d ed43 793d
00000050: 67d2 dbbd 6e16 1cbd ed17 60bd 330f 053e
00000060: 0bc7 eebd eb93 053e 41e8 bebd feb0 e2bd
00000070: 857e c43d 9779 9a3d 99ad cebc cb87 03be
00000080: db0f eabd 1ba4 c93d 2d8c e9bd 6abe e93c
00000090: c746 ff3d 8439 dabd cd4c 1c3e 5109 61bd
000000a0: f223 b2bd a45b fcbc 4b5f e0bd 89c8 d63b
000000b0: 90a1 0e3d 9afc 043e 9e5f 56bd 1c71 91bd
000000c0: 070b 8c3d c73d 183d 8147 b0bc f09e d13d
000000d0: 3efc d6bd 12b5 c5bd eac1 083e 8c53 4f3d
000000e0: 6f2e 02bd a433 d1bd c0ad a53c 97f3 a63d
000000f0: 2dbb f63d 56a0 093e fc36 b83d b071 463d
00000100: f616 013e ac5d ee3c 8538 1e3d dfe2 103e
00000110: 5e73 e4bd 97c4 f5bd 9d5f eebd 04ba 3d3d
00000120: c8d1 0f3e d0c2 1c3e c0b3 e13d f9fe 09be
00000130: 4d04 483d 0435 1a3e 03ac 0ebe 0b30 d9bc
00000140: 75d1 0a3e 5fdb 343d e3fb b3bd 3a64 f9bd
00000150: 8c94 4fbd 9389 e2bd 0847 1c3d 1156 e03c
00000160: 7e2e 773d 988f d83c 8aab 843b 48c8 0abe
00000170: 4d29 253e 3643 f6bd 1ad9 003e 9835 14be
00000180: 99e7 8a3c f151 85bd ae5d 0fbd 9402 103d
00000190: d827 c4bd 35c8 4dbd c3ad fc3d 9153 643d
000001a0: 98db 8e3d 1b42 143e bcf2 083e 3df3 9e3d
000001b0: 8443 e3bd 2184 e7bd 54ff 143d 33b4 74bb
000001c0: 2581 19be ffa0 b63d 3807 e9bc e478 ac3c
000001d0: baa1 233e d5af b9bd 3584 0fbe a577 abbd
000001e0: 8fa8 f3bc f064 60bd 416c c7bc 2985 ae3d
000001f0: b395 da3d 13e6 f9bc f10d d83d daf0 1cbe
00000200: fd06 dfbd 580f f83d e4fa b93d c5f0 17bd
00000210: 96d6 cfbc a21d 113e 48be b43c 80ef 9fbd
00000220: 802d 7bbd 8a92 1a3e 920b f63d fcc6 d43c
00000230: adac febd 0337 1e3e 6535 50bd 20f3 0ebe
00000240: 6a07 ec3d 0e09 513d 80e7 e9bd 8a28 143d
00000250: c92e 633d c4f4 763d 189e 203e 61d5 c3bb
00000260: b313 103e 0237 8fbc 1334 b3bd 93f5 093e
00000270: 1956 13be 54e5 bd3c a4d1 173e 9cc1 903d
00000280: d5c5 f9bd d374 753d 1c71 ebbd ed17 ee3d
00000290: 0e8f 263e ebb7 533a 2297 d83d d87a a53c
000002a0: 2787 e3bd e2e7 c13d 1c41 573c a26a 223d
000002b0: 0690 26bb f18d 153d 1536 f63d 6598 8cbd
000002c0: ce38 523d 5ab3 343d 1d99 0d3e 83c9 733c
000002d0: 3223 8dbd a78b 0abe 54c2 863d 3797 803d
000002e0: 7dab 113e 1464 d7bc ce0b 2c3d 8af6 e8bd
000002f0: 8fce 07bd e35a f1bb 119b 883d 7443 09be
00000300: d197 963d e865 093e a24f efbd 6f93 a53d
00000310: a5ca 153e 120c 63bd 7b6b 89bd 1d57 113e
00000320: 45c8 02bd 1752 e03c f510 e23d 4108 d8bd
00000330: 3422 0d3d af12 20bc 21ea 833d e781 a5bd
00000340: f2be 17be a8ef 13be 773f c7bd 9cc5 a43d
00000350: ee50 22bd 7327 fe3d 209e 113e 5a91 da3d
00000360: 95fb df3d 6ecf d7bd ef10 be3d 463d 75bd
00000370: f3ba 0a3e 3160 f6bd cc1e 543d afab 5e3d
00000380: bb47 9ebd 0488 cabc 88ed d8bd 637c ef3d
00000390: 9644 c9bd 6c29 cfbd 5b75 0a3d 0b9b a53d
000003a0: 293d 6a3d d36b 043d 5dcd 35bd 57b6 a4bd
000003b0: 4989 073e 9749 d83c 578d fd3d f83c 0b3e
000003c0: c826 08be f5e4 4fbd 2a49 2a3d eed5 96bd
000003d0: ffd4 f6bd 1c42 e5bd e69a 08bd a7ed 0dbe
000003e0: 15d0 f3bd 1d7b 09bd 25d2 9bbd 2352 be3d
000003f0: b9d9 973d 8d94 48bb 4f6c ea3d dd0e 9ebd

model_4/dense_9/MatMul f4 [1, 10]
-0.038110543 0.6843495 -0.23421553 -0.68893427 -0.41812733 0.30648953 -0.6053321 -0.3989677
-0.19302428 -0.0019207539
00000000: cd19 1cbd 8731 2f3f 32d6 6fbe ff5d 30bf
00000010: c914 d6be 32ec 9c3e 0bf7 1abf 7f45 ccbe
00000020: 28a8 45be cec1 fbba
