models/5.tflite (tflite, 28664 bytes, 12 tensors)

model_5/conv2d_11/BiasAdd;model_5/conv2d_11/Conv2D;model_5/conv2d_11/BiasAdd/ReadVariableOp/resource f4 [12]
00000000: 5a69 25bb a190 0dbc 1229 373c 32d2 79bb
00000010: a8d8 263c a114 15bc a986 d8bc 58f1 edba
00000020: 807c ac3a 20a8 803c 3928 bbbb f6e9 1fbc
-0.0025239796 -0.008640439 0.0111792255 -0.003811967 0.010183491 -0.009099157 -0.026431398 -0.0018153591
0.0013159662 0.015705168 -0.005711582 -0.0097603705

model_5/conv2d_10/BiasAdd;model_5/conv2d_10/Conv2D;model_5/conv2d_10/BiasAdd/ReadVariableOp/resource f4 [4]
00000000: cc49 80bc 76b0 27bb f76e f1bb a129 913c
-0.01566019 -0.0025587357 -0.0073679644 0.017720046

model_5/conv2d_11/Conv2D f4 [12, 1, 11, 4]
00000000: 5357 0abe 2b42 ed3d adc5 c03d d826 0fbd
00000010: 6f6e 15bd da43 1fbe 469a 6f3d a127 b53d
00000020: 9854 e23d 326e bbbd 6e18 12be 4d9e da3d
00000030: 2942 23be 0300 3fbc cd2d 0f3e 87e5 09be
00000040: f878 d3bd 3fb5 2b3e ec23 cf3d cb92 de3d
00000050: 69f4 ae3d 3b53 18be c3da f23d bfcf 5cbd
00000060: e2a6 09be 8d7e c03d 01cb 703c 5bb5 40bd
00000070: d70c 253b a84a aebc ff82 16be 05b5 20bd
00000080: d20f b33d d7be 2c3e eb91 233e 0241 09bd
00000090: 4ad0 a7bd 03f2 9bbc e9a8 03bc d81f 79bd
000000a0: b2e4 c6bc fa5d 14bd a420 473d 4cdb 753d
000000b0: 3b5f 743d 357b 15be 7da7 a03d 54e7 e83d
000000c0: b662 a6bd dafb babd 0053 873d d63a 80bd
000000d0: 7e72 263e ddcf 87bd 4523 31be 35d7 233e
000000e0: 286a 703d 6459 393e 4fc9 433e 44c9 963d
000000f0: 2463 03be 5748 1c3e 7a2f cbbd 21e7 34be
00000100: 2b62 eb3d 8546 a43d 08e9 b53b 0f44 0b3c
00000110: b6a1 293e 7dc8 2c3e 01ab 02be e4cf be3c
00000120: c9c6 74bb 93b4 1c3e f9d6 f8bd 2b13 1bbe
00000130: 63e8 e53c a82d c2bd ea69 28bd cb35 3dbe
00000140: 1fe9 973d d414 a7bc 677d 933b 4acf 2ebc
00000150: d334 0fbd b675 1c3e 4201 aa3d 484a 12be
00000160: 1758 1d3d 2970 2c3e 61c4 febd a788 0d3d
00000170: 0252 dc3d 90d1 c13c a339 2a3e 0084 5ebc
00000180: 0841 913d 639b 9d3d dd01 f0ba 61bc bc3d
00000190: 1ea8 2b3e 1906 c7bc 4126 dc3d c44b 4b3e
000001a0: dc95 533b 65e3 9b3c 165f 28be 14db 15be
000001b0: 6fe8 973a 5076 bcbd 40e9 f93d 77c8 27bc
000001c0: 2b65 6fbd 698a d03d f429 6fbd 431c 41be
000001d0: a73c 00be 09a9 603c 19d3 6ebc db9f 1e3e
000001e0: e27e c1bd a88a 0dbd 7b17 d03d c026 14bb
000001f0: 7d9c cbbd 1891 2abd bbdd da3d c94a 83bc
00000200: 96ef 4cbc 1ad3 383e 5833 abbd e6c8 2c3e
00000210: 3414 a43d 4c49 0bbe f75b da3c 93da 18bd
00000220: 57f5 d63d ed74 383e 4ff0 01be e758 26be
00000230: ba38 2bbe 59eb 803d 0d67 d8bd 621f 12bd
00000240: d967 f6bd 7106 fe3d 7273 bdbc deac 74bd
00000250: ee65 943d 844b 1fbe 0bb8 93bd 2bc9 25bd
00000260: 409e fc3d 8522 0b3e cb00 243e e821 253e
00000270: 807c 813d 6198 373e 4ba0 2c3c f1c8 323e
00000280: 6541 213d d488 a03d e7f7 e33d f44f 09be
00000290: 4588 98bd 221f 963d 43a4 62bd 1dbf 87bd
000002a0: 4559 9a3d e8b6 aabc 3894 2e3e 5e2e 0fbe
000002b0: fe3c ee3d 954e d53d 8e51 4fbd 460a 1d3e
000002c0: 727a 66bd 9941 973d eb4c 25be 6cfe 12be
000002d0: 1f65 90bd fc55 02bc 7bc9 d43c 5783 c33d
000002e0: 3557 b4bb bfca cabd e7e0 30be d7ff 353e
000002f0: 4bb8 38be c820 023e e725 ad3d e931 3e3d
00000300: 5157 2e3e bbe3 10be f5d4 f8bd 37d2 2a3e
00000310: 3d78 0fbe 8e30 803d 3be5 203e 4533 083c
00000320: d400 d03d 95f1 e73d f9a2 e23d 18e4 3d3e
00000330: 598a a1bd ce3d 163d 24ed 9ebd f6a0 343e
00000340: 9ac4 3dbe 2705 21be eb73 583d 0c25 3dbe
00000350: 375d 29be ea7d 943d bd1e dd3c 7751 63bc
00000360: 18e9 0ebe 5f09 1cbe ab90 6fbd dcd4 2c3d
00000370: cf21 273d 0d22 a7bd 154b ca3d 1a94 f4bd
00000380: 8c71 153e 34a0 0bbd bd46 43bd 0ae5 0cbe
00000390: b56f 2a3d 81fb 1cbe b02d 75bd b046 87bd
000003a0: d386 d3bd 4bf1 a5bc bf7d 4fbd e91e 0bbe
000003b0: e1be 233e cf80 133e 8a45 4dbd bfe1 033d
000003c0: ba37 ef3d e0fb 2cbd 4394 14be da1c 223d
000003d0: b23a c03c e393 e13c c4f6 8c3d bbc6 fbbc
000003e0: f8e8 623d 7c83 e7bd 1747 033e 2edf 0e3e
000003f0: c9d0 cabc a7ae 81bd 22e0 963d 814e 77bd
-0.13509874 0.11584886 0.09412704 -0.034949154 -0.03648227 -0.15553227 0.058496736 0.08845449
0.11051291 -0.091518775 -0.14267132 0.10674725 -0.15943207 -0.011657718 0.13982315 -0.13466464
-0.10325807 0.16768359 0.101142734 0.10867842 0.08542711 -0.148755 0.11858132 -0.05390906
-0.13442567 0.09399138 0.014696837 -0.047047954 0.0025184655 -0.021275833 -0.14698409 -0.039235134
0.08743252 0.16869675 0.15973632 -0.033509262 -0.08194025 -0.019036299 -0.008035877 -0.060821384
-0.024278972 -0.036222436 0.048615113 0.06002359 0.05966113 -0.14597781 0.07844446 0.11372247
-0.08124296 -0.09130068 0.06607628 -0.06261222 0.16254613 -0.06631444 -0.1729861 0.16000064
0.05869499 0.18100506 0.19119762 0.07362607 -0.12830788 0.1526197 -0.09921165 -0.17666294
0.114933334 0.08021263 0.005551461 0.008500113 0.16565594 0.16873355 -0.12760545 0.02329249
-0.003734993 0.15303259 -0.12150378 -0.15144031 0.028064912 -0.094813645 -0.041116633 -0.18477552
0.07417511 -0.020395674 0.004501033 -0.010669539 -0.034962486 0.15279278 0.08301021 -0.14286149
0.038414087 0.1683966 -0.124398 0.03455415 0.10757829 0.023659497 0.16623549 -0.013581276
0.07092482 0.07695653 -0.0018311102 0.09215618 0.1676335 -0.0242949 0.10749484 0.19853121
0.0032285368 0.019029329 -0.16442522 -0.14634353 0.0011589656 -0.09202254 0.12202692 -0.010240666
-0.05844609 0.1018265 -0.05838962 -0.18858437 -0.12523137 0.013712176 -0.014576697 0.15490668
-0.09448029 -0.03455606 0.101607285 -0.0022606105 -0.09941957 -0.04164228 0.10686823 -0.016026871
-0.012508294 0.18049279 -0.083594024 0.16873512 0.08011666 -0.1360218 0.02665518 -0.037317824
0.104960136 0.18013354 -0.12689327 -0.16244851 -0.16720858 0.06294889 -0.105665304 -0.03567446
-0.12031526 0.12403572 -0.023126338 -0.05973517 0.07246004 -0.1555615 -0.07212838 -0.04047505
0.12334871 0.13587387 0.16015927 0.16126215 0.063225746 0.17929222 0.010536264 0.17459466
0.039369006 0.07838598 0.11131268 -0.13409406 -0.07447866 0.07330157 -0.055332433 -0.06628249
0.07536558 -0.02083917 0.17048728 -0.13982531 0.11632727 0.10415379 -0.050614886 0.1533595
-0.056269117 0.07385559 -0.16142623 -0.14354867 -0.07050537 -0.007955071 0.02597498 0.095465355
-0.00550356 -0.09901952 -0.17273293 0.17773376 -0.18039052 0.12707818 0.08454495 0.046434317
0.17025496 -0.14149372 -0.12149993 0.16681753 -0.14010711 0.06259261 0.15712444 0.008313005
0.10156408 0.11325375 0.11066241 0.18544042 -0.07887716 0.036680035 -0.07760075 0.17639527
-0.18532029 -0.15724622 0.052844923 -0.18471164 -0.16539465 0.07250579 0.026992196 -0.013874403
-0.13956106 -0.1523795 -0.058487576 0.042195186 0.040803727 -0.081607915 0.09877602 -0.11942311
0.14594096 -0.03408833 -0.047674883 -0.13759246 0.04161044 -0.15330316 -0.059858024 -0.066052794
-0.1032845 -0.020256659 -0.05065703 -0.1358601 0.15990783 0.14404605 -0.050115146 0.03219771
0.11680551 -0.042232394 -0.14509682 0.039578296 0.023465488 0.027536338 0.06883004 -0.03073441
0.055397958 -0.113043755 0.12820087 0.13952324 -0.02475776 -0.063321404 0.07366969 -0.0603776

model_5/conv2d_10/Conv2D f4 [4, 4, 38, 1]
00000000: 64c5 6fba 47f1 e9bc 35a3 863d a683 a23d
00000010: 100c 953d 7da6 c8bd 33cd 873d 55e0 103d
00000020: d83a 04bc 0b14 5bbd 2fbf ebbc 23a5 083c
00000030: d61f 91bd 39bb 2ebd d8f1 73bc 2dee 953d
00000040: 68b3 9f3d 6407 9ebc 3ff4 6ebd 6386 d5bc
00000050: ae93 91bd 773b 93bd 1fc2 16bd f2d7 273d
00000060: 0fcc 873d 819f 013d 0096 51bd d6a5 453c
00000070: f407 03bd d62f 98bd eb44 1dbd ee72 cabc
00000080: fea8 f13c c240 a7bd 808b adbc 6764 5dbd
00000090: afa9 96bc aba7 713d 6ba1 b9ba 4e65 3a3d
000000a0: 8830 a5bc cbfc adbb af82 0c3c 5ed4 a4bd
000000b0: 2776 893b 5152 dfbd 1331 d23c 501d 9fbd
000000c0: 6ac2 44bd 89b4 7dbd 2ede 4cbd c159 eebc
000000d0: 242f 8bbd 5d4f 863d 41b5 803d 3e53 c9bd
000000e0: f724 8bbd 4f52 a6bd 10e9 afbd 0324 bd3b
000000f0: 572f 27bb 823b cebc fa8a 523d 4fff 60bd
00000100: caab 93bd 0379 20bd 271d 793b ae50 893d
00000110: f613 6dbc cfc7 59bd 3c60 acbd a3b8 4bbd
00000120: 825f d53c 41fd a8bd 6ae7 c8bd 64fb b2bd
00000130: f4dc 87ba 0e72 373d d918 bfbd 9bd3 aabd
00000140: 45ab d23c 9cbf 17bd cc10 663d 38d7 343d
00000150: 640b 5d3d ec05 c7bd c2af 5e3c 8abf 093d
00000160: b21b 103d 7b27 a8bb 2f6d 733d 5bdc 8fbd
00000170: 8426 ac3c 441a a1bd 4858 dcbd 6eae 37bd
00000180: 1fb8 3c3c d14e aebd 3459 9dbd a914 13bd
00000190: 7f36 2dbc c5b5 37bc fe87 6dbd 8618 433d
000001a0: 76ec 30bd cf54 d4bd d852 073d 3e85 94bb
000001b0: 41a8 9cbd 63ca 163d fd0b 00bd 52a3 313d
000001c0: aec1 04bd c283 c93c de74 95bc 5b99 83bc
000001d0: 7587 953d 99c6 cbbd ff9c 8a3d 590b 90bd
000001e0: 73c6 723d 87cb 1c3d 6045 b3bc 9d2b a8bd
000001f0: 89ab 5bbd f7eb 663d cbb2 7ebd da53 7d3d
00000200: a0b4 65bd 614b 6e3c f180 a5bd c8db ccbd
00000210: e8cb 433d 11c8 5b3c ac61 32bd c123 97bc
00000220: ca6e 293d 17c0 b5bd 2b3c 84bd ab87 80bc
00000230: 203c 4cbd d08d 01bd 3253 36bd db24 bbbd
00000240: c9be c2bd 11d2 9c3c d72b b83c b2be 96bd
00000250: fea1 543d f886 42bc 72ae 7abc ad4c 92bd
00000260: 92f0 4ebc 6b2b 85bb 84fc aabc bac2 1d3c
00000270: b2ee 873d bdc7 1c3d b34d 34bd 5dc2 adbb
00000280: 7ef2 04bd c2e9 70bb f061 5fbd 4766 c93c
00000290: 3791 13bd 8d31 d23c cc48 a2bd 8110 963d
000002a0: de5a e63c 8346 ffbb bd42 f0bc c26e 60bd
000002b0: 2c82 993c 6499 51bd d97f 963d 9967 b2bd
000002c0: 389b 8bbc 7f22 94ba 3471 1b3d 9d1a 373b
000002d0: 8561 e93c c6b1 a23d b013 a03a b9d4 8e3c
000002e0: 35a8 a1bd 1b02 84bd 99c7 38bd fd88 ca3c
000002f0: de39 c33b 709b e4ba 8bcc 463c 6326 d3bc
00000300: 32aa b93d 84bf dbbc da38 8abd 9ec3 84bd
00000310: d41d e63c fe09 623d c84a c6bd dc59 323d
00000320: 3817 1c3d 4423 0ebd ad5e ac3d 4c51 52bd
00000330: 360a 523d dbb9 60bd d763 593c ef17 16bd
00000340: 215a 32bc 656f 7a3d 0d9e 37bb 7251 b93c
00000350: cd51 44bd 08c8 2e3d 2728 fabc 39cc a63d
00000360: 3a6c 0dbc 55f2 9cbc 3bc3 8bbc a6ee 91bc
00000370: 2b07 d5bc f7f0 7ebd 6747 853d 4700 b03c
00000380: f213 723d 373c c13c 0866 563d 886e bc3c
00000390: d35f cd3d 63d4 b9bc 5493 7f3d be12 973d
000003a0: 5d5a 2ebd 5071 8dbc 0c0b 1cbd c763 98bd
000003b0: 66e8 68bd fe2d 2a3d a0fb 2f3d d394 b0bc
000003c0: 7aea 19bd 8a12 303d 3b65 5b3d 36ef 793d
000003d0: e236 5d3d d146 a4b9 042e 80bd 8564 3f3d
000003e0: ab49 9bbd 4002 43bc acce 3cbc 4435 9b3d
000003f0: 950c b9bc 140e a13b 2acf 3a3d e652 cf3d
-0.000914654 -0.028557433 0.06574098 0.07935266 0.07277691 -0.0979738 0.066309355 0.03537019
-0.00807067 -0.05348591 -0.028777687 0.008340153 -0.0708615 -0.04265902 -0.014889203 0.07320819
0.07797891 -0.019290633 -0.0583384 -0.026065057 -0.07108246 -0.071890764 -0.036806222 0.040977426
0.06630718 0.031646255 -0.05116844 0.012063464 -0.031990007 -0.07430999 -0.038395803 -0.024713006
0.029499527 -0.081666484 -0.021184683 -0.05405083 -0.018391458 0.05899779 -0.0014162486 0.045506768
-0.020164743 -0.0053096763 0.008576079 -0.08048318 0.004194993 -0.109043725 0.025658166 -0.07769263
-0.04803697 -0.06193975 -0.050016575 -0.029095532 -0.06796101 0.06558106 0.062845714 -0.0983033
-0.0679416 -0.08121168 -0.08589375 0.005772115 -0.0025510394 -0.02517486 0.05140207 -0.05493098
-0.072105005 -0.039177906 0.003801176 0.067048416 -0.014470091 -0.053169068 -0.08416793 -0.04973663
0.026046518 -0.08251429 -0.09809764 -0.08739355 -0.0010365532 0.044786505 -0.09330911 -0.08341142
0.025716433 -0.037047967 0.056168362 0.04415056 0.05396594 -0.097179264 0.013591709 0.03362993
0.035182662 -0.0051316596 0.059430297 -0.07024451 0.02101446 -0.07866338 -0.10759026 -0.044844083
0.011518507 -0.08511127 -0.0768303 -0.035908375 -0.010572075 -0.011212771 -0.05799102 0.04763081
-0.043194257 -0.103677385 0.03303799 -0.0045324853 -0.076492794 0.036814105 -0.031261433 0.043368645
-0.03241127 0.02459896 -0.018244203 -0.016064337 0.07301227 -0.09949989 0.06768226 -0.070334144
0.059271287 0.038280036 -0.021883667 -0.082114436 -0.053630386 0.056377377 -0.06218223 0.061847545
-0.05608046 0.014544339 -0.08081234 -0.100028574 0.047801882 0.013414399 -0.04355018 -0.018449666
0.041365422 -0.08874529 -0.06456789 -0.015689692 -0.049862027 -0.031629384 -0.044512935 -0.09137889
-0.09509046 0.019143136 0.022481842 -0.07360591 0.0519123 -0.011872999 -0.01530038 -0.07143531
-0.012630599 -0.0040640137 -0.020872362 0.009628946 0.066373244 0.038276423 -0.044019412 -0.005302711
-0.03245782 -0.0036760424 -0.05453676 0.024584902 -0.03602716 0.025658393 -0.07924041 0.073273666
0.0281195 -0.007790388 -0.029328698 -0.054793127 0.018738829 -0.051171675 0.07348604 -0.08711166
-0.017041788 -0.0011301785 0.037949756 0.0027939447 0.028488884 0.07944064 0.0012212899 0.017435418
-0.07893411 -0.06445714 -0.045112226 0.024723524 0.005957826 -0.0017441344 0.012133728 -0.02577514
0.09065665 -0.02682472 -0.06749125 -0.064826235 0.028090395 0.05518531 -0.09682232 0.043542728
0.03810808 -0.0347016 0.084164955 -0.051347062 0.05127927 -0.054864746 0.013268433 -0.03664392
-0.010885746 0.06114139 -0.002801779 0.022621844 -0.047929574 0.042671233 -0.030536724 0.08144421
-0.00863176 -0.019158522 -0.017060867 -0.017813992 -0.026004395 -0.06224152 0.065077595 0.021484507
0.059101053 0.023588283 0.0523434 0.023001924 0.10028043 -0.022684282 0.062396362 0.07376622
-0.042566646 -0.017265946 -0.038096473 -0.07440906 -0.056862257 0.041547768 0.042964578 -0.02155534
-0.03757713 0.04298643 0.053563338 0.061019145 0.05400742 -0.0003133328 -0.06258777 0.046726722
-0.075824104 -0.011902392 -0.011523884 0.07578519 -0.022589007 0.0049150083 0.045607723 0.101232335

model_5/dense_10/BiasAdd/ReadVariableOp/resource f4 [10]
00000000: 075d 503c c0ce 3fbc 1980 51bb eac5 bdbb
00000010: e1d3 41bc 3431 21ba 9855 26bc d4a0 adbc
00000020: c819 5e3d a97c d5bc
0.012717492 -0.011707008 -0.0031967221 -0.0057914155 -0.011830301 -0.00061489944 -0.010152243 -0.021194853
0.054223806 -0.02606042

model_5/layer_normalization_15/add/ReadVariableOp/resource f4 [4]
00000000: 4aa1 b8bb bcd5 903b 7856 c33c 477d 533c
-0.0056344615 0.0044200104 0.023844942 0.012908286

model_5/layer_normalization_15/mul_4/ReadVariableOp/resource f4 [4]
00000000: f12c 7c3f 152c 7f3f 7c23 7b3f c55a 893f
0.98506075 0.9967664 0.9810102 1.0730826

model_5/layer_normalization_16/add/ReadVariableOp/resource f4 [12]
00000000: 92b0 1c39 0081 363b ad5d 2b3c bd07 ad3a
00000010: 0c22 d83b 4e9e 3f3b 47dc bfbc 54aa 03bc
00000020: 27a7 0b3b 77b9 703c 9723 213c cc70 c8ba
0.00014943097 0.0027847886 0.010459346 0.0013201159 0.0065958556 0.0029238644 -0.023420466 -0.008036215
0.0021309347 0.014692656 0.009835145 -0.0015292405

model_5/layer_normalization_16/mul_4/ReadVariableOp/resource f4 [12]
00000000: 1291 7b3f 1730 7f3f 699a 7f3f 8d55 7c3f
00000010: a848 803f 9b7c 7d3f b013 843f 4731 823f
00000020: 221e 7f3f b7e5 813f 670b 7e3f e50e 7d3f
0.98268235 0.99682754 0.99844986 0.9856804 1.0022173 0.9901826 1.0318508 1.0171288
0.99655354 1.0148228 0.9923615 0.9885085

model_5/layer_normalization_17/mul_2/ReadVariableOp/resource f4 [10]
00000000: 0254 7c3f 2f70 7e3f b130 7b3f fb42 703f
00000010: c435 803f bc6d 7b3f c033 7e3f 5e70 7d3f
00000020: ddc6 7f3f 0ccd 7f3f
0.98565686 0.9938993 0.9812117 0.93852204 1.0016408 0.98214316 0.99297714 0.98999584
0.99912816 0.9992225

model_5/dense_10/MatMul f4 [10, 228]
00000000: df96 2e3e 6b0a 803d 1079 9d3d d6d7 03be
00000010: c54b 883d c64e 08be 53b2 2ebd 2d52 0ebe
00000020: 8569 2bbe 752c c93a fe0b 1bbe 26ae 2bbd
00000030: 33c2 2c3e a450 b83d 9c50 e3bd 1223 cfbd
00000040: 52ab d0bd 424d 92bd b74e 4a3d 516b 1ebd
00000050: f16a b2bd 9c75 08be d6f5 97bd 3050 43bd
00000060: d5be a73d 442d 30be f00e 33bd 3b13 383d
00000070: 335e 0b3e 830e c3bd 4bdf a9bd 6efa f7bc
00000080: 93d5 d73d 3caa 66bc 5e57 bb3d 05a4 08be
00000090: db08 763c d4b2 97bd 27e0 d83b 2be9 ee3d
000000a0: 2b90 143e 9c8a c93d 1b0f d0bd 8d69 e53d
000000b0: f43f 42bb c2a4 903d 2b66 983d 212d 2cbd
000000c0: c9ef 1a3e ba43 ae3d 56f6 133c d5fb 80bd
000000d0: cac5 133e 975c 17be a999 04be ae5c 5b3c
000000e0: c2e0 09be 2666 2bbd 25a0 15be 0498 023e
000000f0: e5a0 7d3d 8e16 123d cd41 33bc bb53 883d
00000100: f096 c4bd c274 d0bd 9d83 d4bd a545 2dbe
00000110: 58c6 a9bd 05ef 383c 721e c23d 0cf6 22be
00000120: c7fa 0c3d 7be8 da3c 0246 153e bc38 b93d
00000130: 9b3e cdbc 33f2 68bd fbf6 1ebe cb18 16bd
00000140: adf5 85bd 7ef0 573c 3e7d 82bd d27a 4a3c
00000150: 4dfa 243e 24f2 1338 b9b2 e7bd 85a0 f0bd
00000160: 3069 e43d 5fe0 bc3b 810e 16be d126 b0bc
00000170: 36c4 b23c 800a cc3d 71cd f7bd a68c babd
00000180: a836 763d 2e73 e33c 59ad 573d 85b1 b5bd
00000190: 6a32 643d 66d5 3b3c 832d 803c 828b d13c
000001a0: 214f c9bd a26d f23d 27b1 1e3e faef 60bd
000001b0: bcb7 98bd 0044 aabd 6d70 b43d 8a8a cf3c
000001c0: 2fb2 633d 3fb2 263c fae1 e0bd afbc 87bd
000001d0: 326e 69bd 7803 4f3d 418e 9f3d 695c a73d
000001e0: cdc2 a4bd 7730 0a3e f0a7 b2bd 1b2e 2b3d
000001f0: 141e d7bc aa9e 10be 285b 873b 9c69 333c
00000200: 8d3e 26bc d892 2e3d 7613 823d 6704 003c
00000210: 4b7b 1c3e c7e4 efbd e578 22bd 2cef 723d
00000220: fecf a63d 5b81 273d 1575 cd3d 47ed e8bd
00000230: 38d0 1ebe 4326 0bbe e808 883b f6d5 913c
00000240: 28df c8bd 920a a33c 8b11 7cbd 38c6 e43d
00000250: 271b fa3d 3f76 c8bd 9fa9 bfbd b4f2 2abe
00000260: 5598 35bd 305d 0fbe b0fc 43bc cbe8 15bd
00000270: 1fc6 193e 75f3 f3bd 79bf ac3d 7adb efbc
00000280: a8bb c93b c4b6 bebd d182 17bd 6019 2f3d
00000290: 750f 283c 0bcf 153e e326 bb3d bdc7 4d3d
000002a0: 0e67 e9bd e305 033e fd10 f5bc 7d15 80bc
000002b0: c85d b8bd 5654 98bd 0fb1 27be e7c6 d9bd
000002c0: 6d88 b7bd 3c51 f5bd 1001 fcbd 21bc 813c
000002d0: 9aa8 eebc ae55 c53d 3bae bd3d 2d5d ff3d
000002e0: 50fb ad3d 63d3 26be 6b61 63bb aeaa 2dbe
000002f0: 2925 e73d 98b6 b13d dc7c 4cbc 209b 363d
00000300: 5216 fabd 7d11 1dbe 2fd2 59bd 43ef cdbc
00000310: 78f6 6a3d b1bb c8bd 2315 2d3d f341 17be
00000320: 07c0 d7bd 6ee7 54bc f8de b2bd 36fa 33be
00000330: 2e2d e8bc d2e2 75bb 1ac0 e7bd f941 d93d
00000340: 6a0a e7bd 9c54 24be e15f 0c3e 16fb 933d
00000350: 2d8e 0abd fbe6 ea3c 0eb8 96bd 0a69 1b3d
00000360: ab28 99bc 7b6d 1ebe 0e70 c6bd 5ad1 9cbd
00000370: b358 563c 66d7 ff3d 177a 8fbc 1aeb 9b3d
00000380: 97a8 9e3c 05ef e23d cff8 463c 5eac 543c
00000390: 75f2 a2bd 1807 6a3d 6530 093e 9f65 30bd
000003a0: 276a 04be 1e72 c2bd ce50 d13d 069b 843d
000003b0: a50a 55bc b2cc 04be 6462 ed3c 325d cbbd
000003c0: de13 7c3d 5e9e 793d dcc4 1cbd d060 8bbd
000003d0: e10e 833c a4c4 95bd 27a5 033d 6d63 563d
000003e0: 7957 cbbd 42b3 ecbd 15bf f0bd ea29 00bd
000003f0: d4b3 ef3c 85fa 1a3d c2cf 01bb 67af 283e
0.1704974 0.06251987 0.076891065 -0.12875304 0.06655077 -0.133113 -0.042650532 -0.13898535
-0.16739471 0.0015348332 -0.15141293 -0.041914128 0.16870956 0.08999756 -0.110993594 -0.10114111
-0.10188927 -0.07143642 0.049391475 -0.038676564 -0.08711804 -0.13326114 -0.07419936 -0.047683895
0.08190695 -0.17204767 -0.043715417 0.044940215 0.13610153 -0.09524252 -0.08294543 -0.030270781
0.10538783 -0.014078673 0.09147523 -0.13343818 0.01501676 -0.07407156 0.006618518 0.11665567
0.1450812 0.09840891 -0.10159131 0.11201773 -0.002964017 0.07062675 0.07441362 -0.042035226
0.15130533 0.085090116 0.009030899 -0.06298033 0.1443092 -0.14781414 -0.12949242 0.013388796
-0.13464645 -0.041845463 -0.14611872 0.12753302 0.06192102 0.03566604 -0.010940981 0.06656595
-0.095991015 -0.1017852 -0.10376666 -0.16921099 -0.08289784 0.011287455 0.09478463 -0.15914172
0.034418847 0.026722183 0.14577487 0.09044024 -0.025054267 -0.056871604 -0.15523903 -0.03664474
-0.065409996 0.013179896 -0.06371544 0.012358384 0.16111107 3.5273042e-05 -0.113133855 -0.11749367
0.111528754 0.005764052 -0.1465397 -0.021502884 0.021822076 0.0996294 -0.12099732 -0.09108858
0.060110718 0.027764883 0.05265555 -0.0887175 0.05571214 0.011464452 0.015646702 0.025579218
-0.09829546 0.11837317 0.15497266 -0.05491636 -0.074569196 -0.08313751 0.08810506 0.025334615
0.05558985 0.010174333 -0.109806016 -0.066277854 -0.056989856 0.050540417 0.07790805 0.08171923
-0.08044968 0.1349505 -0.08723438 0.041792016 -0.02625946 -0.14123026 0.0041307397 0.010950472
-0.010146749 0.04262051 0.06351368 0.00781355 0.15281408 -0.11713558 -0.039666075 0.059310123
0.0814514 0.040894847 0.10032097 -0.11373382 -0.15509117 -0.13588814 0.0041514523 0.01780222
-0.09808189 0.019902501 -0.061540168 0.1117062 0.1221221 -0.09788179 -0.093585245 -0.16694146
-0.04433473 -0.14000392 -0.011962101 -0.03659896 0.15016983 -0.1191167 0.08434958 -0.02927946
0.0061564036 -0.093122035 -0.03698999 0.04274881 0.0102575915 0.14629762 0.091382764 0.050239313
-0.11396609 0.12795214 -0.029915327 -0.015635246 -0.09002262 -0.07437961 -0.16376136 -0.10633641
-0.08961568 -0.11978385 -0.1230489 0.015836777 -0.02913313 0.09635483 0.092617474 0.12468944
0.084952 -0.16291575 -0.0034695517 -0.1695964 0.112863846 0.08677405 -0.012480941 0.044581532
-0.122112885 -0.15338702 -0.053178962 -0.025138503 0.057363957 -0.09801424 0.042256486 -0.14771251
-0.10534673 -0.01299463 -0.08733934 -0.17575917 -0.028341856 -0.0037519229 -0.11315937 0.106082864
-0.11281283 -0.16047901 0.1370845 0.07225625 -0.033826996 0.028674593 -0.073593244 0.03794197
-0.01869615 -0.15471451 -0.096893415 -0.07657118 0.013082671 0.12492256 -0.017514272 0.076132014
0.0193675 0.110807456 0.0121442815 0.012980549 -0.07956401 0.05713567 0.13397367 -0.043065663
-0.12931119 -0.094944224 0.102204904 0.06474881 -0.013003026 -0.1296871 0.02897758 -0.09929885
0.061542384 0.060942046 -0.038273677 -0.06805575 0.015998306 -0.07312897 0.032139923 0.052340914
-0.099287935 -0.11557628 -0.11755196 -0.031289972 0.029260553 0.03783657 -0.0019807671 0.1647316

model_5/dense_11/MatMul f4 [1, 10]
00000000: 2f5d 1a3d 10f5 e93d d4df 8ebe 1261 24bf
00000010: 2de9 efbd 7b1a 8fbe ddb6 273e c9a1 cc3c
00000020: 4da9 11be 5866 bbbd
0.037686523 0.11423695 -0.27905142 -0.6421062 -0.117143966 -0.2794989 0.1637835 0.024979489
-0.1422474 -0.0915038
